baselines/generative/DCEVAE/result/a_r_1_a_d_1_a_y_1_a_h_0.4_a_f_0.0_u_0.8_ur_3_ud_4_run_1/model.pth (torch, 212722 bytes, 40 tensors)

weight f4 [100, 4]
0	0x3ed33d2e	0.41257614
1	0xbe828f43	-0.25499925
2	0xbe0447f6	-0.12918076
3	0x3cfbd1e3	0.03073973
4	0x3e405bb8	0.18784988
5	0xbd5942c6	-0.053042196
6	0x3d3ea07f	0.04653978
7	0xbe2edc32	-0.17076185
8	0xbe67ee08	-0.22649395
9	0x3dcf6bc7	0.10127979
10	0x3d1250de	0.035721652
11	0xbdad00a9	-0.084473915
12	0xbd2c93d9	-0.042133186
13	0xbea795a9	-0.3273137
14	0x3d3fc433	0.04681797
15	0x3e76668c	0.24062556
16	0x3aa3e9e8	0.0012505623
17	0xbe5077df	-0.20358227
18	0xbdaf504b	-0.085602365
19	0x3de32541	0.1109109
20	0x3d6a042f	0.057132896
21	0xbd02f993	-0.031976294
22	0x39be421b	0.00036288876
23	0x3e4f3690	0.20235658
24	0xbd9cb993	-0.07652583
25	0xbe225c45	-0.1585551
26	0xbe681d7d	-0.22667499
27	0x3e9bd495	0.30435625
28	0xbe84b684	-0.25920498
29	0x3e063efa	0.13109961
30	0xbda73efb	-0.081663094
31	0xba981d91	-0.0011605491
32	0xbded9b0d	-0.11601839
33	0xbe464268	-0.1936127
34	0xbd5a1690	-0.053244174
35	0x3dd7a408	0.10529333
36	0xbe3aa4bf	-0.18226908
37	0xbe3b5bad	-0.1829669
38	0x3b782757	0.0037865245
39	0xbc408f15	-0.011752863
40	0x3ce2c72f	0.027682869
41	0x3d2f1420	0.042743802
42	0xbe0e5b2a	-0.13901964
43	0xbda7b87f	-0.08189487
44	0xbd1e2b88	-0.038615733
45	0xbe068568	-0.13136828
46	0x3d9a18ad	0.07524238
47	0x3df172f6	0.11789505
48	0x3dad014d	0.08447514
49	0x3e1e8db9	0.1548375
50	0x3e241a64	0.16025692
51	0xbe80a0e1	-0.2512274
52	0xbe8c31c8	-0.2738173
53	0xbd25548d	-0.040363837
54	0xbd3373c4	-0.043811575
55	0xbe0380b9	-0.12842073
56	0xbd94c3f2	-0.07263936
57	0xbd5bfc0c	-0.053707168
58	0x3e258a36	0.16166005
59	0xbe5696c1	-0.20955946
60	0x3d8f671e	0.0700209
61	0xbe67b0d2	-0.22626045
62	0x3df37968	0.11888391
63	0x3ddd55e0	0.10807395
64	0x3d3f0138	0.04663202
65	0x3d786b46	0.06064918
66	0x3d87d957	0.06633251
67	0x3e8175ee	0.25285286
68	0xbd72fb75	-0.05932184
69	0x3e201d9c	0.15636295
70	0x3c57d1e0	0.013172597
71	0x3e24cf7d	0.16094775
72	0xbe48c70d	-0.19607182
73	0x3e17cce8	0.1482426
74	0x3dc6641c	0.09687063
75	0xbe564f90	-0.20928788
76	0x3db6c785	0.08924774
77	0x3e6dd658	0.23226297
78	0xbea782cb	-0.32716975
79	0xbd867e3a	-0.065670446
80	0xbe02800a	-0.12744156
81	0x3d66dd82	0.05636359
82	0xbe31955c	-0.17342132
83	0x3ccbec88	0.02489306
84	0x3ab86036	0.0014066759
85	0x3de31dad	0.110896446
86	0xbcd9f872	-0.026607726
87	0xbe336f0a	-0.17522827
88	0xbd41403a	-0.04718039
89	0x3d2afdf4	0.041746095
90	0x3e7ca2f6	0.2467154
91	0x3c748fbf	0.01492685
92	0xbd945227	-0.07242232
93	0xbe7002c6	-0.23438558
94	0xbce0feed	-0.027465308
95	0x3da04a89	0.078267165
96	0xbde2bd9f	-0.110713236
97	0xbd29a3e6	-0.04141607
98	0x3d44bb11	0.048029963
99	0x3d323be5	0.04351415
100	0x3d30d524	0.043172017
101	0x3d588c99	0.05286846
102	0xbe975848	-0.2955954
103	0x3e916563	0.28397664
104	0x3d663265	0.056200404
105	0x3e0230c2	0.12713912
106	0x3d89377c	0.06700036
107	0x3de80ad7	0.113301925
108	0xbd975310	-0.0738889
109	0x3c8d9aba	0.017285693
110	0x3e35e08f	0.17761444
111	0xbba7d6d8	-0.005122047
112	0xbd11b151	-0.035569493
113	0xbd284dab	-0.041089695
114	0xbd8de255	-0.06927935
115	0x3dad12d5	0.084508575
116	0xbc08e2ed	-0.008354885
117	0x3e8b78ca	0.27240592
118	0xbded83fa	-0.11597438
119	0xbe76b415	-0.24092133
120	0x3dc23115	0.09482018
121	0xbc48c2a8	-0.012253441
122	0x3ebed3b6	0.37270898
123	0x3dfcea41	0.12349368
124	0xbd03c687	-0.032171752
125	0xbe56b8eb	-0.20968978
126	0x3dec7801	0.115463264
127	0xbd018818	-0.03162393
128	0xbe04e219	-0.12976874
129	0x3de657a1	0.11247183
130	0x3efd26bf	0.49443623
131	0x3cadf17d	0.021233315
132	0x3d9b0c1a	0.075706676
133	0xbd3fe5a8	-0.046849877
134	0x3d75e813	0.060035776
135	0xbe41345e	-0.18867633
136	0xbe440068	-0.1914078
137	0x3dad51c7	0.084628634
138	0x3d8d69d0	0.06904948
139	0x3dc94df0	0.098293185
140	0x3e99c021	0.30029395
141	0x3c647c12	0.013945596
142	0x3db8c326	0.090215966
143	0xbb6f1291	-0.0036479572
144	0x3e0501c4	0.12988955
145	0xbdc9f694	-0.09861484
146	0x3d4cdb30	0.05001372
147	0x3ea3d5d8	0.31999087
148	0xbdb5a201	-0.088687904
149	0xbd0c12c6	-0.03419759
150	0xbd7f4b10	-0.062327445
151	0x3d91545c	0.070961684
152	0x3cd82a28	0.02638729
153	0x3dcafde1	0.09911705
154	0x39511811	0.00019940759
155	0xbdf05160	-0.11734271
156	0xbe1ffa83	-0.15622906
157	0x3c32b614	0.010907669
158	0xbe663466	-0.22480926
159	0xbd093d8c	-0.03350596
160	0x3b751e1c	0.003740198
161	0xbd638dae	-0.05555504
162	0x3dfcc4b9	0.12342209
163	0x3d71ec71	0.05906338
164	0xbe858b9e	-0.26083082
165	0x3e224cc5	0.15849598
166	0xbde5955c	-0.11210129
167	0xbe043376	-0.12910256
168	0x3c227eed	0.009917957
169	0xbd55a42a	-0.052158512
170	0x3d3c0ced	0.045910764
171	0xbdf80928	-0.121111214
172	0xbe04a34b	-0.12952916
173	0x3dfc7c68	0.12328416
174	0x3d7caf9d	0.061690915
175	0xbcfb17ee	-0.030651059
176	0x3d7084a3	0.058720242
177	0xbca9a2ad	-0.020707453
178	0xbcc137b1	-0.023586126
179	0xbc8aafa5	-0.016929457
180	0xbe22e85b	-0.15908949
181	0x3e6917a1	0.2276292
182	0xbe2ebe81	-0.17064859
183	0x3e571810	0.21005273
184	0x3d55b3b5	0.052173335
185	0xbc859fed	-0.01631161
186	0xbc116a9b	-0.008875514
187	0xbd6cd732	-0.057822414
188	0x3dd39b9e	0.10332416
189	0xbbbb87ba	-0.005722967
190	0x3e463a4e	0.19358179
191	0x3e43cfdc	0.19122261
192	0xbe71c1a5	-0.23609026
193	0x3dc718a6	0.09721498
194	0x3e2192da	0.15778676
195	0xbe965ef2	-0.29369313
196	0x3e6d23cd	0.23158188
197	0x3e814793	0.2524992
198	0xbe5b259f	-0.2140107
199	0x3979a39c	0.0002380744
200	0xbe977f50	-0.2958932
201	0xbce398b5	-0.027782777
202	0x3d6d6f7a	0.05796764
203	0xbea50edf	-0.32237908
204	0xbe275978	-0.16342723
205	0xbdc395f5	-0.095500864
206	0xbdf79a29	-0.120899506
207	0xbe6f917b	-0.2339534
208	0x3cc44e74	0.02396319
209	0xbdc752f7	-0.09732621
210	0x3dd3d981	0.1034422
211	0x3da79bb1	0.08183993
212	0x3d9d9de4	0.07696131
213	0x3e6bf658	0.23043191
214	0x3d861240	0.0654645
215	0xbd411f10	-0.047148764
216	0x3e0e30a7	0.13885747
217	0x3e84ab24	0.2591182
218	0x3c94a91f	0.01814705
219	0xbe8b0747	-0.2715399
220	0x3d4475fe	0.04796409
221	0x3e163e0a	0.14672104
222	0xbdb01a8b	-0.08598813
223	0x3e69ce54	0.22832614
224	0xbe44a752	-0.19204453
225	0xbe7de5a8	-0.24794638
226	0xbe156b34	-0.14591676
227	0x3dc1a6b4	0.09455624
228	0xbe65f6b6	-0.22457394
229	0x3dfe2c60	0.124108076
230	0x3ea66eb6	0.3250634
231	0xbe2c2b13	-0.16813307
232	0x3e1d420b	0.15357225
233	0xbd30f9f9	-0.043207143
234	0xbe0b48e7	-0.13602029
235	0xbdc1ae9d	-0.09457133
236	0xbdb4e595	-0.08832852
237	0x3dd0d549	0.10196931
238	0x3da57163	0.080782674
239	0x3ea0f4f2	0.31436878
240	0xbcf8a629	-0.030352669
241	0x3d5ab4ba	0.05339501
242	0x3d85ae04	0.065273315
243	0xbe249b79	-0.16074933
244	0x3db731b7	0.08945029
245	0x3e20f4da	0.15718403
246	0x3d231ad4	0.039820507
247	0xbe106607	-0.1410142
248	0x3e113155	0.14178975
249	0x3ea52ba2	0.32259852
250	0xbcb0f098	-0.021599099
251	0xbd4d681e	-0.050148122
252	0xbd9fff52	-0.0781237
253	0x3cf836c7	0.030299557
254	0x3db563ad	0.08856902
255	0xbe46167f	-0.19344519

bias f4 [100]
0	0xbe86e63d	-0.26347533
1	0x3eb7a734	0.35869753
2	0xbc9f86bf	-0.019473432
3	0xbecaa2f0	-0.39577436
4	0xbdf57790	-0.11985695
5	0xbee901da	-0.45509225
6	0xbe323cf9	-0.17406072
7	0xbe9b7e9e	-0.3037004
8	0x3ecb3ef8	0.3969648
9	0xbd973415	-0.07382981
10	0xbdd828bd	-0.10554645
11	0x3e8af40b	0.27139315
12	0x3e63a175	0.2222956
13	0xbea5352f	-0.32267138
14	0x3e5997b5	0.21249278
15	0x3e7cd061	0.24688865
16	0xbecc4085	-0.39892974
17	0x3ee28d46	0.44248408
18	0xbe65d772	-0.22445467
19	0xbe2e3460	-0.17012167
20	0xbee3c470	-0.44485807
21	0x3ee7d2b0	0.4527793
22	0x3dae2f5d	0.085051276
23	0x3ed9c7e4	0.42535317
24	0x3d688677	0.05676886
25	0x3e8ae270	0.27125883
26	0xbe001206	-0.12506875
27	0xbed3e83a	-0.41388112
28	0x3dda89e7	0.10670834
29	0xbbc4103d	-0.005983381
30	0xbcc27a85	-0.023740062
31	0xbe804354	-0.25051367
32	0x3c1c5f4c	0.009544205
33	0x3e3bb5db	0.18331091
34	0x3e25bae0	0.16184568
35	0xbec20ab7	-0.378988
36	0x3e63fa46	0.2226344
37	0x3d97408e	0.0738536
38	0x3eaeb38c	0.34121358
39	0x3eae6114	0.3405844
40	0xbecb512d	-0.3971037
41	0x3efdb2f8	0.49550605
42	0xbf0268f0	-0.5094137
43	0x3e9984dc	0.29984176
44	0x3d90a925	0.07063512
45	0x3e64eb9b	0.22355501
46	0xbe8708bf	-0.2637386
47	0x3e98262c	0.29716623
48	0xbe620849	-0.22073473
49	0xbed8a914	-0.42316496
50	0x3e27e85d	0.16397233
51	0x3e938d6d	0.28818837
52	0x3f04f00e	0.51928794
53	0xbd26314e	-0.040574364
54	0x3eea0356	0.4570567
55	0x3e8e5552	0.2779947
56	0xbe564916	-0.20926318
57	0xbeb1d334	-0.34731448
58	0x3e88eb08	0.26741815
59	0xbe6e054e	-0.23244211
60	0x3e63954e	0.22224924
61	0xbedc3272	-0.43007237
62	0x3eb38cb9	0.350683
63	0x3e2cf31c	0.16889614
64	0xbd744a26	-0.059641026
65	0x3e825f48	0.2546332
66	0xbe979ae0	-0.29610348
67	0xbdc20351	-0.09473289
68	0x3d5eeff9	0.054428075
69	0xbea09e3d	-0.31370726
70	0xbdc566dc	-0.096387595
71	0xbe70410c	-0.23462313
72	0x3efd5dde	0.49485677
73	0x3ee528ec	0.44757783
74	0x3eeb76a8	0.45988965
75	0x3ed0a457	0.4075038
76	0xbee7e147	-0.4528906
77	0x3e4bdbe7	0.19908105
78	0x3e4a0c42	0.19731238
79	0xbec9b83d	-0.39398375
80	0x3e651060	0.22369528
81	0xbe77d8ce	-0.24203798
82	0x3d999ecc	0.07500991
83	0x3e3ea191	0.1861632
84	0x3ee36026	0.44409293
85	0xbe8175a0	-0.25285053
86	0xbecd2df4	-0.40074122
87	0x3ee057e3	0.43817052
88	0x3e43ad63	0.1910911
89	0x3e642528	0.22279799
90	0x3e3fb1e1	0.18720199
91	0xbda13cc8	-0.07872921
92	0x3e99f4af	0.3006949
93	0xbeb27f62	-0.3486281
94	0x3d8c306f	0.068451755
95	0x3e8ad561	0.2711592
96	0x3eb95e9c	0.36204994
97	0xbe7d40cb	-0.24731748
98	0xbe9fd7e2	-0.31219393
99	0x3e35049a	0.17677537

weight f4 [100, 100]
0	0x3d5f3716	0.054495893
1	0x3e41014b	0.1884815
2	0x3dcdcd0e	0.10048877
3	0xbe37c29b	-0.1794533
4	0xbe33da12	-0.17563656
5	0xbd2a5512	-0.041585036
6	0xbe002b43	-0.12516503
7	0x3cc09a06	0.023510944
8	0xbd059540	-0.03261304
9	0xbe058818	-0.13040197
10	0xbdc80285	-0.097661056
11	0xbe07c9bd	-0.13260551
12	0x3d0b99c2	0.03408218
13	0xbd3bdb65	-0.045863528
14	0x3e386d59	0.18010463
15	0x3d904423	0.07044246
16	0xbdf16212	-0.117862836
17	0x3c28d50b	0.0103047
18	0x3ddd8313	0.10816016
19	0x3da64fc4	0.08120683
20	0x3d574811	0.052558962
21	0x3c31f3b8	0.01086133
22	0xbe1cd74f	-0.15316509
23	0x3dbd9fcb	0.09258994
24	0xbd909768	-0.070601285
25	0xbd459ae5	-0.048243422
26	0x3e3a0c67	0.18168794
27	0x3de40a99	0.11134834
28	0xbe2163bc	-0.15760702
29	0xba457d64	-0.0007533638
30	0x3c05411c	0.008133199
31	0x3d6e7d0e	0.05822473
32	0x3d8f59e1	0.06999565
33	0x3dc05ab9	0.09392304
34	0x3e2a5770	0.16634917
35	0xbe13d689	-0.14437307
36	0x3d048ea6	0.032362603
37	0xbde82a70	-0.11336219
38	0x3d8cbba1	0.06871725
39	0xbe433a79	-0.19065274
40	0xbb0b6065	-0.0021267172
41	0x3da69a16	0.08134858
42	0x3ceca76b	0.028888425
43	0x3d3b0ba5	0.045665402
44	0x3e18c836	0.14920124
45	0x3e206989	0.15665258
46	0xbcdae08b	-0.026718399
47	0xbe0d2fa5	-0.13787706
48	0xbd57f071	-0.052719537
49	0xbddfba5c	-0.10924217
50	0xbda8dfee	-0.08245836
51	0xbd5e18ee	-0.054222994
52	0x3d826994	0.06367794
53	0x3db92fae	0.09042297
54	0x3e10804c	0.14111441
55	0xbd898127	-0.06714087
56	0x3d80f333	0.062963866
57	0x3c0f5d64	0.008750293
58	0x3d3b2843	0.045692693
59	0x3d2b3b72	0.04180474
60	0x3d8abc21	0.06774164
61	0x3e4399ef	0.1910169
62	0xbdb5da41	-0.08879519
63	0x3e9354f9	0.28775766
64	0xbdc8e790	-0.09809792
65	0xbda63366	-0.08115272
66	0x3e106e8e	0.14104673
67	0x3c2ed55d	0.010670987
68	0x3e0d4a1d	0.13797803
69	0xbdb6457a	-0.0889997
70	0xbdf1adf8	-0.1180076
71	0xbce00032	-0.027343843
72	0x3c871684	0.016490228
73	0xbca13750	-0.019679695
74	0x3d8d4ca2	0.06899382
75	0xbd38a900	-0.045083046
76	0xbd1f61cf	-0.038911637
77	0xbcd7f3c8	-0.026361361
78	0x3dea41f4	0.11438361
79	0x3d9d317f	0.07675456
80	0x3c7c523c	0.015400466
81	0x3d964279	0.073368974
82	0xbd07b4dc	-0.033131465
83	0x3d2da08a	0.04238943
84	0xbdd4835a	-0.10376616
85	0xbd08da5d	-0.033411372
86	0xbdb56424	-0.08856991
87	0xbdf28036	-0.118408605
88	0xbdc0ac92	-0.09407915
89	0x3df740d4	0.12072912
90	0x3d97b86a	0.07408221
91	0xbe1936fd	-0.14962383
92	0x3d34894b	0.044076245
93	0x3c164a58	0.009172998
94	0xbc0a0dec	-0.008426171
95	0xbd5ba83e	-0.053627245
96	0x3c8edc6b	0.017439088
97	0x3e03945a	0.1284956
98	0x3d37a3f8	0.044834107
99	0xbdf0d6b1	-0.11759699
100	0x3e110722	0.14162877
101	0x3c3767ee	0.011194212
102	0x3d05cdbd	0.03266691
103	0xbe031617	-0.12801395
104	0xbd2234ce	-0.03960114
105	0xbdb8474f	-0.08997976
106	0xbdc755be	-0.09733151
107	0x3dec3302	0.115331665
108	0xbcc41a88	-0.023938432
109	0xbe4c8d97	-0.19975887
110	0xbd7b4ded	-0.061353613
111	0x3d0c7817	0.034294214
112	0x3e446212	0.19178036
113	0xbe5d9338	-0.21638191
114	0x3cf47805	0.029842386
115	0x3d68d9ec	0.05684845
116	0xbd9ae3bd	-0.07562969
117	0x3df2465e	0.11829828
118	0x3dd9d5ab	0.10636457
119	0xbdcf4a5d	-0.101216055
120	0xbdb0f0c3	-0.08639672
121	0x3cff91cf	0.031197457
122	0xbcb980a3	-0.022644347
123	0xbe31f3ae	-0.17378113
124	0xbe37f067	-0.179628
125	0xbd27e66e	-0.04099124
126	0x3ebaa935	0.3645722
127	0xbe00d972	-0.12582949
128	0xbdb50a75	-0.08839885
129	0x3e09a839	0.13443078
130	0x3d62c38a	0.05536226
131	0x3d0b7c1c	0.034053907
132	0xbb2cae75	-0.0026349102
133	0x3d84e2dd	0.06488583
134	0xbde1c9b5	-0.11024801
135	0x3e2d0593	0.16896658
136	0xbd8c9c09	-0.06865699
137	0xbcbf64b7	-0.023363454
138	0xbd1965e2	-0.03745068
139	0xbde41fb4	-0.111388594
140	0xbe230977	-0.1592158
141	0x3e15741c	0.14595073
142	0xbc7e403e	-0.015518246
143	0x3e4d3010	0.20037866
144	0xbc5d0233	-0.013489294
145	0x3ddca034	0.10772744
146	0xbc664eb7	-0.014056853
147	0xbd8cc2b9	-0.06873078
148	0x3d988d82	0.074488655
149	0x3d9fb3fd	0.07798002
150	0x3d18b8d9	0.03728566
151	0x3c6461f7	0.013939372
152	0xbc43c796	-0.01194944
153	0x3de78c36	0.1130604
154	0xbc30bd2a	-0.010787288
155	0x3d6ae478	0.05734679
156	0xbd2f2a57	-0.042764988
157	0xbdbd32c5	-0.09238199
158	0x3dcb0509	0.0991307
159	0x3e104314	0.14088088
160	0x3d8ebf20	0.06970048
161	0xbdb18277	-0.08667462
162	0x3df3a9ce	0.11897622
163	0xbcfcb4ce	-0.030847933
164	0xbdd30f1f	-0.103056185
165	0x3d625028	0.055252224
166	0xbe67b5d9	-0.22627963
167	0x3c1dd37b	0.00963294
168	0xbc20a87f	-0.009805798
169	0xbd83b369	-0.06430704
170	0x3db77a78	0.08958906
171	0xbe072095	-0.13196023
172	0x3dca5a23	0.098804735
173	0x3e170d85	0.14751251
174	0xbdb0ad9a	-0.08626862
175	0xbce585d6	-0.02801792
176	0xbe0b14d7	-0.13582169
177	0xbdb8b59e	-0.09019016
178	0xbe19b643	-0.15010934
179	0x3d8f158a	0.0698653
180	0x3d03f0fe	0.03221225
181	0x3c9fee0a	0.019522686
182	0xbe26d678	-0.16292751
183	0x3e5c66f2	0.21523646
184	0xbc94c401	-0.018159868
185	0x3d33cd3b	0.043896895
186	0x3b2ba8c1	0.0026193114
187	0xbda08415	-0.07837693
188	0x3e175d0b	0.14781587
189	0x3dc46bda	0.095908836
190	0x3e136ff2	0.14398172
191	0x3ca6b8c9	0.020351784
192	0x3e19cdc1	0.15019895
193	0xbd964292	-0.07336916
194	0x3e21b408	0.15791333
195	0xbd8f5b58	-0.06999844
196	0xbdbe5d60	-0.092951536
197	0xbcf20c70	-0.029546946
198	0x3de258c9	0.11052091
199	0x3d1d32c1	0.03837848
200	0x3dd5aa42	0.10432865
201	0x3d353c5f	0.044247027
202	0xbd0412eb	-0.032244604
203	0x3d4bc992	0.04975278
204	0xbd584880	-0.052803516
205	0x3d184003	0.03717042
206	0x3d9efac5	0.07762674
207	0xbc86d3a9	-0.01645835
208	0x3caac10b	0.020844003
209	0xbcb6c112	-0.02230886
210	0x3e5f593d	0.21811385
211	0xbc90c809	-0.01767351
212	0x3d926d25	0.07149724
213	0xbdef631b	-0.11688825
214	0xbd9ca86e	-0.07649313
215	0xbda53b8f	-0.080680005
216	0xbe007073	-0.12542896
217	0xbb77a9b9	-0.0037790372
218	0xbdd4a471	-0.10382927
219	0x3dd56465	0.10419539
220	0xbbdc687d	-0.006726323
221	0xbc50ecc0	-0.012751758
222	0xbd806079	-0.06268401
223	0x3d3cb1dd	0.04606806
224	0x3e335d21	0.17515995
225	0xbd0241b9	-0.03180096
226	0xbd3810e0	-0.04493797
227	0xbc1d48e4	-0.009599898
228	0x3d97b124	0.07406834
229	0xbd918dd1	-0.071071275
230	0x3dab9cbf	0.08379506
231	0xbe15d053	-0.1463025
232	0xbdb8d0b4	-0.09024182
233	0x3caa6a13	0.020802533
234	0xbd5ad4d4	-0.053425625
235	0xbe2b35f9	-0.16719808
236	0xbe1a4167	-0.15064012
237	0xbc265ab8	-0.010153465
238	0x3d2675da	0.040639736
239	0x3dbd7ff4	0.09252921
240	0xbc8317be	-0.016002532
241	0xbe0ca8a6	-0.1373621
242	0x3e15c350	0.14625287
243	0xbd975001	-0.073883064
244	0x3c665851	0.014059142
245	0x3ca9f8fe	0.020748612
246	0x3d259d4a	0.040433206
247	0x3b45e0a8	0.003019372
248	0x3c918fb3	0.017768716
249	0xbe2d5aef	-0.1692922
250	0x3cb4c872	0.022068236
251	0x3ccb6474	0.024828173
252	0x3e7e250f	0.24818824
253	0xbdf6b26d	-0.12045751
254	0xbd564669	-0.052313242
255	0xbd6f0e96	-0.05836352

bias f4 [100]
0	0x38576408	5.1353156e-05
1	0x3d01bfd2	0.031677075
2	0xbdb56f61	-0.088591345
3	0xbd492c21	-0.04911435
4	0x3cdc6b77	0.026906712
5	0x3d6d61ea	0.057954706
6	0x3d853d16	0.06505792
7	0x3d9c1900	0.07621956
8	0x3d96b540	0.073587894
9	0xbdb6fa63	-0.08934476
10	0x3d2bd072	0.041946836
11	0x3cda1dfd	0.026625628
12	0xbd40dcd2	-0.04708559
13	0xbd84214b	-0.06451663
14	0x3d77faf0	0.060542047
15	0xbcd4735f	-0.02593392
16	0xbdc21c46	-0.09478049
17	0xbd8d8cda	-0.06911631
18	0x3c6ed5f4	0.014577378
19	0x3d38b366	0.045092963
20	0x3d073864	0.033012763
21	0x3b9cb12b	0.0047818623
22	0xbb905555	-0.0044047036
23	0xbc1b0d11	-0.0094635645
24	0x3c75664f	0.014978006
25	0x3d9df5a5	0.077128686
26	0x3d10a6b3	0.035315227
27	0xbd11f1a1	-0.035630826
28	0x3d099c69	0.03359643
29	0xbd666355	-0.056247074
30	0xbd97f5f3	-0.07419958
31	0xbcb601f8	-0.022217736
32	0x3dea2588	0.1143294
33	0x3da77c92	0.08178057
34	0xbd9ec4b1	-0.0775236
35	0x3d924be6	0.07143383
36	0xbd824c0c	-0.06362161
37	0x3d8ea3d9	0.06964845
38	0x3aa35404	0.0012460952
39	0xbd2c1f4d	-0.04202204
40	0x3c9435f8	0.01809214
41	0xbd4df3bf	-0.050281283
42	0x3de28e40	0.11062288
43	0xbd44d6ac	-0.04805629
44	0xbd1f197c	-0.038842663
45	0xbd40a304	-0.047030464
46	0x3d93a09a	0.07208367
47	0x3dc486ba	0.095960096
48	0x3ccd3d23	0.025053566
49	0xbb858d85	-0.0040757083
50	0x3d296d70	0.041364133
51	0xbcc15ee0	-0.02360481
52	0x3da3b2e4	0.07993105
53	0x3ca0971d	0.019603306
54	0x3d4309e0	0.04761684
55	0x3da8bc78	0.082390726
56	0xbc26fbe0	-0.010191888
57	0x3db94f07	0.090482764
58	0x3d828721	0.0637343
59	0x3bf6e5a0	0.0075346977
60	0xbd89a36c	-0.067206234
61	0x3d68a7c4	0.05680062
62	0x3ca6ef96	0.020377915
63	0x3d20ecd0	0.039288342
64	0xbc560e47	-0.013064927
65	0xbdcb7cff	-0.099359505
66	0xbda0fad2	-0.0786034
67	0x3c1f8c7d	0.009738085
68	0xbdea355b	-0.11435958
69	0xbdd29b5c	-0.10283539
70	0xbcf86816	-0.03032307
71	0xbbee1da8	-0.007266719
72	0x3d9dc3cb	0.0770336
73	0xbd51ed39	-0.051251624
74	0xbda92a8f	-0.082600705
75	0xbc91d27c	-0.017800562
76	0xbd99d94f	-0.075121514
77	0xbcad2a5d	-0.021138364
78	0x3d874953	0.06605782
79	0xbd720e35	-0.05909558
80	0x3cd0b9ca	0.025479216
81	0xbc838fcc	-0.016059779
82	0x3dcaf169	0.099093266
83	0x3cf4b76e	0.029872622
84	0xbc26686d	-0.010156733
85	0x3af4da32	0.001868075
86	0xbd522e91	-0.05131394
87	0x3d93dd54	0.07219949
88	0xbcba880d	-0.022769952
89	0x3dcae30f	0.09906589
90	0x3d7ac1ed	0.0612201
91	0xbd940341	-0.07227183
92	0x3dd53fe8	0.1041258
93	0xbd030c52	-0.03199417
94	0x3d009562	0.031392463
95	0xbce9c259	-0.028535055
96	0x3c021b18	0.00794103
97	0x3c28ae37	0.010295442
98	0x3c00d89a	0.007864142
99	0xbca7fbda	-0.020505834

weight f4 [3, 100]
0	0x3e95c666	0.29252928
1	0xbdaab19f	-0.0833466
2	0x3e0c84b6	0.137225
3	0x3dc002e0	0.09375548
4	0xbe03f8fd	-0.1288795
5	0xbe2c37eb	-0.16818206
6	0x3e5eb234	0.21747667
7	0x3dc5e477	0.09662717
8	0x3daa013b	0.08301016
9	0xbe44c7ed	-0.1921689
10	0x3d8e1f4b	0.069395624
11	0x3daedfca	0.08538778
12	0xbda92297	-0.082585506
13	0xbdae3960	-0.08507037
14	0xbe246760	-0.1605506
15	0xbdf7e056	-0.121033356
16	0xbd4134c3	-0.047169458
17	0xbec645a7	-0.38725016
18	0x3eac6f34	0.3367859
19	0x3da56ed6	0.08077781
20	0x3d9afa6f	0.07567298
21	0x3e4ffd19	0.20311393
22	0x3e510efd	0.20415874
23	0x3e8632d2	0.26210648
24	0x3e4b619e	0.19861457
25	0x3cc873d0	0.024469286
26	0xbe52fa0c	-0.20603198
27	0xbd20fdee	-0.039304666
28	0x3d52626e	0.0513634
29	0xbdeff8b2	-0.11717357
30	0xbd656a9e	-0.05600988
31	0xbdbbd35c	-0.09171173
32	0xbd274d81	-0.040845398
33	0xbd216f48	-0.039412767
34	0x3e009d45	0.12559994
35	0xbd2c67c8	-0.04209116
36	0xbde10d57	-0.109888725
37	0x3e965f13	0.2936941
38	0x3e20dab3	0.15708427
39	0xbe633178	-0.2218684
40	0x3ddf2df1	0.108974345
41	0x3de2653f	0.110544674
42	0x3e25d9c0	0.16196346
43	0x3e13489b	0.14383166
44	0xba871c11	-0.0010308047
45	0xbe1c80cb	-0.15283506
46	0x3e6468c7	0.22305594
47	0xbd7202c7	-0.05908468
48	0xbe4d0b34	-0.20023805
49	0x3e166ff0	0.14691138
50	0x3e145cb0	0.14488482
51	0xbcc890cb	-0.024483105
52	0xbdb4132b	-0.087927185
53	0x3da816ba	0.0820746
54	0x3dcee531	0.101023085
55	0xbdd5dece	-0.10442887
56	0xbd0ff08f	-0.035141524
57	0xbe3b3d14	-0.18285018
58	0xbe4d22f6	-0.20032868
59	0xbe90e976	-0.28303117
60	0x3d146ace	0.03623467
61	0xbe598b4b	-0.21244542
62	0x3e882884	0.2659341
63	0x3e7a5064	0.24444729
64	0x3e2883c6	0.16456518
65	0xbe6190f3	-0.2202795
66	0x3cef6974	0.029225089
67	0x3d80d71c	0.06291029
68	0x3e8633d9	0.26211432
69	0xbc94c544	-0.01816047
70	0xbe4b60d4	-0.19861156
71	0xbd95e7c2	-0.07319595
72	0x3dd92179	0.106020875
73	0x3db0965b	0.08622428
74	0xbdd618b6	-0.10453932
75	0xbea25918	-0.31708598
76	0xbddeca72	-0.10878457
77	0xbd46c703	-0.048529636
78	0x3d988c81	0.07448674
79	0x3e64cc7d	0.22343631
80	0x3b997338	0.0046829246
81	0x3e64610c	0.22302645
82	0x3c44749e	0.011990694
83	0x3e08a4d1	0.13344122
84	0xbde84eb9	-0.1134314
85	0x3efab01f	0.48962495
86	0xbcdde20d	-0.027085328
87	0xbe2c22a0	-0.16810083
88	0x3d0d7078	0.034531087
89	0xbd594d0e	-0.053052
90	0xbe773892	-0.24142674
91	0xbd7d8c71	-0.061901513
92	0x3e14d754	0.14535266
93	0xbd66a9e7	-0.056314375
94	0xbd00920b	-0.031389277
95	0xbe059c9b	-0.13048021
96	0x3b014a41	0.0019728097
97	0x3d0d413a	0.034486033
98	0xbab881a6	-0.0014076724
99	0xbcae24bd	-0.021257753
100	0x3c9dd50f	0.019266633
101	0xbe7bd10f	-0.24591468
102	0xbd975a3c	-0.07390258
103	0x3ddfc481	0.10926152
104	0x3d96b4c3	0.07358696
105	0xbde8fa1e	-0.11375831
106	0x3db56800	0.08857727
107	0x3ca5e0ae	0.020248737
108	0x3bc85595	0.006113718
109	0xbd1aad4d	-0.03776293
110	0x39f84bb8	0.0004735866
111	0xbd3bf224	-0.04588522
112	0xbd787a79	-0.060663674
113	0xbdbd2564	-0.09235647
114	0x3dbec7f7	0.09315484
115	0xbe0436c1	-0.12911512
116	0xbe38bd0b	-0.18040864
117	0xbd806634	-0.06269494
118	0x3e1341c8	0.14380562
119	0x3d1050eb	0.03523342
120	0xbc8385f7	-0.01605509
121	0x3e6b2200	0.22962189
122	0x3e057b25	0.13035257
123	0x3de8224a	0.11334665
124	0xbe073d3b	-0.13206951
125	0xbb256dc6	-0.0025242432
126	0x3d1afecf	0.03784066
127	0xbd91630a	-0.07098968
128	0x3de66fb4	0.112517744
129	0x3c9919e5	0.018689105
130	0x3e5895a3	0.21150832
131	0xbd219a69	-0.039453898
132	0xbdb29eed	-0.08721719
133	0xbd2b76a6	-0.0418612
134	0xbe2335ea	-0.15938535
135	0x3e3e2b73	0.18571262
136	0x3db7e5f2	0.089794055
137	0x3cac8872	0.021061156
138	0x3e1837ea	0.1486508
139	0x3bfb4a73	0.007668787
140	0x3c1a0550	0.009400681
141	0xbc3d2b2b	-0.011545937
142	0xbe17af5f	-0.14812993
143	0x3e1ee132	0.15515593
144	0xbd8b08e9	-0.06788809
145	0x3dc083cc	0.09400138
146	0x3d64bf49	0.055846486
147	0xbc256e21	-0.010097058
148	0xbe2ba330	-0.1676147
149	0xbdf3fc7a	-0.119133905
150	0x3e5859c1	0.21127988
151	0x3d2c57d5	0.04207595
152	0x3e538ab0	0.20658374
153	0xbd20240f	-0.03909689
154	0x3d816a4f	0.06319105
155	0x3d8f8cb9	0.070092626
156	0x3d07eaa9	0.033182774
157	0x3bd5e3df	0.0065274085
158	0xbded99c9	-0.11601598
159	0x3e1a61a8	0.15076315
160	0x3e092316	0.1339229
161	0x3d46fc4d	0.048580457
162	0xbd16ec70	-0.036846578
163	0x3e173c61	0.14769126
164	0xbe71b43e	-0.23603913
165	0x3d437345	0.04771735
166	0x3db2f956	0.08738963
167	0x3dd2f892	0.10301317
168	0xbb7772cf	-0.003775764
169	0x3e170208	0.14746869
170	0x3e5601a2	0.2089906
171	0x3d85f86a	0.06541522
172	0x3cdd5b72	0.027021144
173	0xbd405a2a	-0.046960987
174	0xbe4b7c76	-0.19871697
175	0xbda8f382	-0.082495704
176	0xbd737cca	-0.05944518
177	0x3e23413a	0.1594285
178	0xbe107a11	-0.14109065
179	0x3c9d58fe	0.019207474
180	0xbd41b6cd	-0.047293473
181	0x3dfbb986	0.12291245
182	0xbe8b2a20	-0.27180576
183	0xbe052e7e	-0.13006017
184	0xbd18fd33	-0.037350845
185	0x3e432763	0.19057994
186	0xbd78f364	-0.06077899
187	0xbda28857	-0.07936161
188	0x3d4ba929	0.04972187
189	0x3dbc23b1	0.09186495
190	0x3e02a51a	0.12758294
191	0x3d548aa5	0.051890034
192	0x3d3f03d1	0.0466345
193	0xbdffc6ec	-0.12489113
194	0xbc71de6f	-0.014762505
195	0x3d9a5932	0.07536544
196	0x3e04bfab	0.1296374
197	0xbbe3985e	-0.006945654
198	0x3e2c8fa3	0.16851668
199	0x3df3972c	0.11894068
200	0xbe2e5cce	-0.1702759
201	0xbe7caa20	-0.24674273
202	0x3e9e2ed8	0.30895114
203	0xbe0c2ff4	-0.13690168
204	0x3d1a3ab1	0.03765363
205	0x3e109658	0.14119852
206	0x3dbbfb33	0.09178772
207	0x3e86dc8e	0.26340145
208	0xbd389618	-0.045065016
209	0x3e81d20c	0.25355566
210	0x3e3fc5cb	0.18727796
211	0x3d95b44f	0.07309782
212	0x3dc214c2	0.094766155
213	0x3da4be78	0.080441415
214	0xbd948d1a	-0.072534755
215	0x3e8ac566	0.27103728
216	0xbe0f726b	-0.1400849
217	0x3e818e8f	0.25304076
218	0xbd3eb6d1	-0.046561066
219	0xbd05d422	-0.03267301
220	0xbcdea928	-0.02718027
221	0xbe6b2e4f	-0.22966884
222	0x3e48d931	0.19614102
223	0x3dc7f36f	0.09763228
224	0xbc9fc633	-0.019503688
225	0xbcd81a9a	-0.026379872
226	0xbce204e2	-0.027590219
227	0x3dbd2dc0	0.09237242
228	0x3e3573c6	0.17719945
229	0xbdf7d3cf	-0.12100946
230	0x3d205cbf	0.03915095
231	0x3c1183ec	0.00888155
232	0x3da828f4	0.08210936
233	0x3e235b55	0.15952809
234	0x3dd825bc	0.10554072
235	0xbdb267f5	-0.087112345
236	0xbe5b6397	-0.2142471
237	0x3d830965	0.06398276
238	0xbdfa6065	-0.12225417
239	0x3e0659be	0.13120171
240	0x3e632415	0.22181733
241	0x3d99aedb	0.07504054
242	0x3d994a5d	0.07484887
243	0x3d3e1807	0.046409633
244	0x3c012bc4	0.00788397
245	0x3e4066a0	0.18789148
246	0xbe2cacb7	-0.1686276
247	0xbdc5fb4d	-0.096670724
248	0x3cfcade2	0.030844633
249	0x3d3753e9	0.044757757
250	0xbdc769d1	-0.0973698
251	0x3e9cad51	0.3060098
252	0x3d45ea3b	0.048319083
253	0x3e903107	0.28162405
254	0xbdcab0cd	-0.09897003
255	0xbeaff257	-0.34364578

bias f4 [3]
0	0x3db66e25	0.08907727
1	0x3d264834	0.040596202
2	0x3cd3b3a8	0.025842503

weight f4 [3, 100]
0	0xbc1d1edf	-0.00958988
1	0xbe72a03e	-0.2369394
2	0x3e00e67c	0.12587923
3	0x3e0775d0	0.13228536
4	0xbe786866	-0.24258575
5	0xbdd9beae	-0.106320724
6	0x3dae9861	0.08525158
7	0xbe34ea32	-0.17667463
8	0x3e3bd29e	0.18342063
9	0x3d86ed32	0.0658821
10	0x3d8f4f79	0.0699758
11	0x3cb11a86	0.021619093
12	0x3e19d61a	0.1502308
13	0xbe6db893	-0.2321494
14	0x3e8532ff	0.2601547
15	0x3c854fdb	0.01627343
16	0xbe2a58b5	-0.16635402
17	0x3e5fc389	0.21851934
18	0x3b9cb220	0.0047819763
19	0x3e9438a9	0.28949478
20	0xbe1f62fc	-0.15565103
21	0x3df7cc0a	0.12099464
22	0xbe0ff5c7	-0.140586
23	0x3e0607f9	0.13088979
24	0xbee498de	-0.44647878
25	0x3c3c5a5e	0.011496155
26	0xbe18ac5a	-0.14909497
27	0x3e2fd269	0.17170109
28	0x3dcd97b7	0.10038703
29	0xbd1c4d73	-0.0381598
30	0xbdc37626	-0.095440194
31	0xbe35089a	-0.17679062
32	0xbdc1ebcf	-0.09468805
33	0xbe4422c0	-0.19153881
34	0x3da9ea6a	0.08296664
35	0x3aa90106	0.0012893982
36	0xbc83ffbf	-0.01611316
37	0xbbe78644	-0.0070655663
38	0x3e04d54e	0.12971994
39	0x3e2b4b0c	0.16727847
40	0x3d06b3c1	0.03288627
41	0xbbead0e2	-0.007166014
42	0xbe6c5a58	-0.23081338
43	0x3e475729	0.19466843
44	0xbcc25528	-0.023722246
45	0xbc8eb81a	-0.01742177
46	0x3e38f34b	0.18061559
47	0x3e218a8f	0.15775512
48	0x3c99fe16	0.018797915
49	0xbdba1d1e	-0.09087585
50	0xbe359dd9	-0.17735995
51	0x3dcbfbaa	0.099601105
52	0xbdb126ce	-0.086499795
53	0xbe9b42ef	-0.30324504
54	0x3d6555a1	0.055989865
55	0x3dbbee93	0.09176364
56	0xbaf7e06e	-0.001891149
57	0xbdbcb319	-0.09213848
58	0xbd9468c6	-0.072465464
59	0xbc0434dc	-0.008069243
60	0x3e58e38a	0.2118055
61	0x3e263ed1	0.162349
62	0x3e2d20b5	0.16907008
63	0xbe6238f0	-0.22092032
64	0x3cb2e23a	0.021836389
65	0x3d942056	0.0723273
66	0xbdbaa665	-0.091137685
67	0xbd922037	-0.07135051
68	0x3ebfcdf4	0.37461817
69	0xbe997f85	-0.29980102
70	0xbc81b864	-0.015834995
71	0xbc74cfc8	-0.014942117
72	0xbdc24560	-0.094858885
73	0xbe8fc54f	-0.28080222
74	0xbd0ab1e3	-0.033861052
75	0x3e17a1b7	0.14807783
76	0xbdb5d728	-0.088789284
77	0x3ce42386	0.02784897
78	0x3e2f20c8	0.17102349
79	0xbc2527aa	-0.010080257
80	0x3da71276	0.08157818
81	0x3e653eb4	0.223872
82	0x3e484f9b	0.19561617
83	0xbe8020a0	-0.2502489
84	0xbac6b884	-0.0015161191
85	0x3e67417a	0.22583571
86	0xbe0bee20	-0.13665056
87	0xbd80ea8b	-0.062947355
88	0xbd922bb3	-0.07137241
89	0xbc1ef2a8	-0.009701408
90	0xbc8c6f55	-0.017142931
91	0x3e2501a8	0.16113913
92	0xbd659cee	-0.056057863
93	0x3e4bbd70	0.19896483
94	0x3c88150f	0.016611604
95	0x3e4a9f3f	0.1978731
96	0x3e472ffb	0.19451897
97	0xbce99a2d	-0.0285159
98	0xbe020390	-0.12696671
99	0xbe056c43	-0.1302958
100	0xbe116112	-0.14197186
101	0xbda55671	-0.08073128
102	0x3dd0ed15	0.1020147
103	0x3d29f39e	0.041492097
104	0xbd88d737	-0.06681674
105	0x3d6b778c	0.057487056
106	0x3d4bcd5c	0.049756393
107	0xbdf6b352	-0.120459214
108	0x3d93cc22	0.072166696
109	0x3e2bd726	0.16781291
110	0xbcfffe7e	-0.031249281
111	0x3e7fcd43	0.24980645
112	0x3e4791a8	0.19489157
113	0x3d9df3b7	0.077125005
114	0xbdef401f	-0.11682152
115	0xbd35b381	-0.04436064
116	0xbe85b4b3	-0.26114425
117	0x3d2c6986	0.042092822
118	0xbd6bf670	-0.057608068
119	0x3d50ced0	0.05097848
120	0x3e95785c	0.2919339
121	0x3e0c9e54	0.13732272
122	0x3bc019b2	0.005862438
123	0xbc3563ec	-0.0110711865
124	0xbd9944c5	-0.0748382
125	0xbce1b8e3	-0.027553981
126	0xbe2ba7c8	-0.16763222
127	0xbd770f72	-0.060317464
128	0xbd7a6a15	-0.061136324
129	0xbd7f7ba3	-0.06237377
130	0xbe4beb74	-0.19914037
131	0xbd93b20f	-0.07211696
132	0x3d216b57	0.039409008
133	0xbe684a0e	-0.226845
134	0x3cd07d70	0.025450438
135	0x3e298708	0.16555417
136	0xbcaaee1a	-0.020865489
137	0xbd359ef0	-0.044341028
138	0xbe5fba1f	-0.21848343
139	0xbd8732e1	-0.06601501
140	0x3cca5b1b	0.024701646
141	0x3cf9b081	0.030479671
142	0xbde2eb8f	-0.110800855
143	0x3deb68d7	0.11494606
144	0x3d8ea616	0.06965272
145	0x3d26c2bb	0.040713053
146	0x3e2c91ba	0.16852465
147	0x3da0e8fa	0.07856937
148	0xbdad318d	-0.08456717
149	0xbe0bd456	-0.13655218
150	0x3e0120cd	0.12610169
151	0x3d023878	0.031792134
152	0x3daff910	0.08592427
153	0xbd1b31ff	-0.037889477
154	0xbdd9b7e5	-0.10630778
155	0x3cd0104f	0.025398402
156	0x3ea23559	0.31681326
157	0xbd8047a0	-0.062636614
158	0xbb7f428d	-0.003894958
159	0xbd9bcca5	-0.07607392
160	0xbd2638ca	-0.040581502
161	0x3bce5817	0.006297122
162	0x3df17506	0.117898986
163	0x3ca6613d	0.020310039
164	0x3da1dc27	0.07903319
165	0xbe079cb2	-0.13243368
166	0xbe0f5439	-0.13996972
167	0x3baf7196	0.0053541167
168	0x3d79241b	0.06082545
169	0x3e054c9e	0.13017508
170	0xbc424f01	-0.011859656
171	0x3e304708	0.17214596
172	0x3e038d3a	0.12846842
173	0xbdf18377	-0.11792653
174	0x3e058d7f	0.13042258
175	0xbd85d050	-0.06533873
176	0xbd4af7d5	-0.049552757
177	0xbd882f8d	-0.066496946
178	0xbdc3f91d	-0.09568999
179	0x3dd77d03	0.10521891
180	0xbd6ff4a4	-0.058582917
181	0xbd0592d4	-0.03261073
182	0x3d662241	0.05618501
183	0x3b076030	0.0020656697
184	0xbe009b06	-0.12559137
185	0xbb9394f9	-0.004503843
186	0x3bcf2bbc	0.006322352
187	0xbc9d68e9	-0.019215064
188	0x3cb4fc41	0.02209294
189	0x3e2c17c8	0.16805947
190	0xbe44395b	-0.19162504
191	0xbd177c1f	-0.036983605
192	0x3d60a2f1	0.054842893
193	0xbe272151	-0.16321303
194	0xbd6b2922	-0.057412274
195	0x3d6b2b5f	0.05741441
196	0x3e1a17fa	0.15048209
197	0x3e41e010	0.1893313
198	0xbe8bc073	-0.27295265
199	0x3d81312a	0.063082054
200	0x3da238af	0.07920968
201	0xbd06b70d	-0.032889415
202	0xbe244cd9	-0.1604494
203	0x3d55766d	0.052114893
204	0xbd377198	-0.044786066
205	0x3cb55971	0.022137376
206	0xbeb921b7	-0.36158535
207	0xbe928637	-0.28618023
208	0x3c8b1bb4	0.016980983
209	0xbca143b4	-0.019685604
210	0xbda015fd	-0.07816694
211	0x3e234982	0.1594601
212	0xbb7f451e	-0.003895111
213	0xbe10a135	-0.14123996
214	0xbd584f7d	-0.05281018
215	0xbe39f162	-0.18158486
216	0xbe03c765	-0.12869032
217	0x3c2f13be	0.010685859
218	0x3da38062	0.079834715
219	0x3e936e25	0.2879497
220	0x3cba03de	0.022706922
221	0x3daa25b3	0.08307972
222	0x3bdafcdf	0.0066829766
223	0xbc79d64f	-0.015248849
224	0xbc3a1c8e	-0.011359347
225	0xbe113756	-0.14181265
226	0x3de3dacd	0.11125717
227	0x3baf345a	0.005346817
228	0xbcd820b1	-0.026382776
229	0x3ccbf2e8	0.0248961
230	0xb9d6aa72	-0.00040944252
231	0x3d967757	0.07346981
232	0xbc7b2ad9	-0.01533004
233	0xbe33bf1a	-0.17553368
234	0x3dd6af3b	0.10482641
235	0x3d0aa664	0.03385009
236	0x3d2b10ba	0.041764
237	0xbdd715ed	-0.10502229
238	0x3e1d004b	0.15332143
239	0x3e374f16	0.17901263
240	0xbe24cc36	-0.16093525
241	0xbd6a0f29	-0.057143364
242	0xbe36a3cb	-0.1783592
243	0x3c4fb399	0.012677097
244	0xbe729e43	-0.23693185
245	0xbdaf24d1	-0.08551944
246	0x3e0e2b08	0.13883603
247	0x3e274e69	0.16338505
248	0x3d6ccce9	0.057812605
249	0xbd76cd48	-0.060254365
250	0xbe61bb93	-0.2204421
251	0xbe21a3f7	-0.15785204
252	0xbe1ef52a	-0.1552321
253	0x3d823b41	0.06358958
254	0x3e4beed9	0.19915332
255	0x3d26c919	0.040719125

bias f4 [3]
0	0xbcb04067	-0.021515084
1	0xbd9f306e	-0.07772909
2	0xbd0f6b76	-0.035014592

weight f4 [100, 5]
0	0xbe0ef4a0	-0.13960505
1	0x3dbd80b0	0.09253061
2	0x3ed3693d	0.41291228
3	0x3c54412b	0.01295499
4	0x3c890eda	0.016730715
5	0x3e47dd92	0.19518116
6	0x3dfda6e6	0.12385349
7	0x3e4fb8f9	0.20285405
8	0x3e1b82cc	0.15186614
9	0x3d8223c4	0.06354478
10	0x3d94b29e	0.07260631
11	0xbe5b804d	-0.21435662
12	0x3e0c017f	0.13672446
13	0xbc9d1ecb	-0.019179722
14	0x3d18bd21	0.037289742
15	0x3cb55d81	0.022139313
16	0x3d63b72f	0.05559462
17	0x3dba25bb	0.09089228
18	0xbd8e9165	-0.069613256
19	0xbcd51ac6	-0.026013743
20	0xbcc37f92	-0.023864541
21	0xbe119ccc	-0.1421997
22	0x3d8a29fa	0.06746288
23	0xbcc542ad	-0.024079645
24	0x3db1c572	0.08680238
25	0xbd847070	-0.06466758
26	0xbe2b253c	-0.16713423
27	0x3e326ef4	0.17425138
28	0x3e26adc1	0.1627722
29	0xbd0296b3	-0.031882
30	0xbddf7261	-0.10910488
31	0x3e488b1f	0.1958432
32	0x3e198da6	0.14995441
33	0xbc79b9ed	-0.015242082
34	0x3aedacc5	0.0018133154
35	0x3dbd0ca0	0.09230924
36	0xbe278c33	-0.16362076
37	0x3d958abf	0.07301854
38	0xbb9c7998	-0.0047752373
39	0x3e140cf1	0.14458062
40	0x3e634567	0.22194444
41	0xbe0bd756	-0.13656363
42	0x3e8523fe	0.26004022
43	0x3e077068	0.13226473
44	0xbdbfb366	-0.093603894
45	0xbd3921a0	-0.045198083
46	0xbe012370	-0.12611175
47	0x3d68613e	0.056733362
48	0x3c7290cb	0.014805029
49	0xbd8c00ee	-0.06836115
50	0xbe2666be	-0.1625013
51	0xbbd1cc1b	-0.006402505
52	0xbce89a83	-0.02839399
53	0xbd035fbd	-0.032073725
54	0x3dca973d	0.09892128
55	0xbd4cb4b6	-0.049977027
56	0xbd13c869	-0.036079798
57	0x3cfd8eb7	0.03095184
58	0xbe298e35	-0.16558154
59	0xbd48c65d	-0.0490173
60	0x3b980c7a	0.004640159
61	0x3ea07c79	0.31344965
62	0xbe1db1b4	-0.1539982
63	0xbe18e05c	-0.14929336
64	0x3e2c8195	0.16846307
65	0x3df5967e	0.11991595
66	0x3d274fc0	0.04084754
67	0xbe25dcbc	-0.16197485
68	0x3e03dbd7	0.12876831
69	0x3d9611a2	0.07327582
70	0xbe849401	-0.25894168
71	0x3cbfbb36	0.023404699
72	0x3de85a21	0.11345316
73	0xbe1d8041	-0.15380956
74	0x3ea52083	0.32251367
75	0x3e3b0c34	0.18266374
76	0xbae83643	-0.0017716367
77	0xbd501a2d	-0.050806213
78	0x3da9851a	0.0827734
79	0xbd9a8b6a	-0.07546122
80	0xbe3e76cd	-0.18600006
81	0xbd6891fa	-0.05677984
82	0x3d5c62e2	0.05380524
83	0xbe30b384	-0.1725598
84	0xbc209f4f	-0.009803607
85	0xbdce3843	-0.10069325
86	0x3aa341d0	0.0012455527
87	0x3e70e4bb	0.23524754
88	0xbe591b40	-0.21201801
89	0xbce12e27	-0.027487827
90	0x3db587a0	0.08863759
91	0xbdec6434	-0.1154255
92	0x3ccba3ac	0.024858318
93	0xbc8e2e83	-0.017356163
94	0xbe2c647a	-0.16835204
95	0x3bf5553b	0.007486967
96	0xbcb92b98	-0.022603795
97	0x3e11ce88	0.14238942
98	0x3c7443c0	0.014908731
99	0x3d46d36f	0.048541483
100	0xbda5f555	-0.08103434
101	0xbe5afb11	-0.21384837
102	0x3dcdaed0	0.100431085
103	0x3c9602c5	0.018311867
104	0x3d3854d9	0.045002792
105	0xbb37b963	-0.0028034083
106	0x3bbf71e9	0.0058424366
107	0x3d8512eb	0.06497749
108	0x3d5de4ac	0.054173157
109	0x3e53896d	0.20657893
110	0x3e4c29bf	0.199378
111	0x3e35f21d	0.1776814
112	0x3e885a61	0.26631454
113	0xbdb7bb0d	-0.08971224
114	0x3e024607	0.12722026
115	0x3e61867e	0.22023961
116	0x3e055fa7	0.1302477
117	0xbd8ca314	-0.06867042
118	0x3e920ff5	0.285278
119	0xbe52c33b	-0.20582287
120	0x3dc52c2b	0.09627565
121	0xbdcc072c	-0.099623054
122	0xbe295cee	-0.16539356
123	0x3cc6c2d2	0.02426282
124	0xbcd98e32	-0.026557062
125	0xbc76ab5d	-0.015055505
126	0xbca9b0c8	-0.020714179
127	0x3e26e8b7	0.16299711
128	0xbccdd859	-0.025127577
129	0xbd837c75	-0.06420223
130	0x3e7f41fa	0.24927512
131	0x3cb0ffa0	0.021606266
132	0x3d00fc95	0.03149088
133	0xbe0b6f18	-0.13616598
134	0xbe9eef11	-0.31041768
135	0x3e629227	0.22126065
136	0xbe5adc7c	-0.2137317
137	0x3c1aa9d7	0.009439907
138	0x3e016363	0.1263557
139	0xbdf78e42	-0.120876804
140	0xbe4b6b1a	-0.19865075
141	0x3c8d112f	0.017220108
142	0x3da12768	0.07868844
143	0x3e4e9828	0.2017523
144	0x3d6d5049	0.057937894
145	0xbd361d4f	-0.044461545
146	0xbd98c53e	-0.07459496
147	0x3da78af2	0.081807986
148	0x3e4a6156	0.19763693
149	0xbd92bff9	-0.07165522
150	0xbe6b17f6	-0.22958359
151	0x3e4911e6	0.19635734
152	0xbe090519	-0.13380851
153	0xbe10fb43	-0.14158349
154	0xbc20e1c1	-0.009819449
155	0x3e1e4d09	0.15459074
156	0x3e6836d0	0.2267716
157	0x3d835383	0.06412413
158	0xbe6f8f4b	-0.23394506
159	0xbc4933a8	-0.012280382
160	0xbdac59d2	-0.08415569
161	0x3db6a25e	0.08917688
162	0x3d74d554	0.059773758
163	0xbe1aff49	-0.15136446
164	0xbce50715	-0.027957479
165	0x3dc534d5	0.096292175
166	0xbc411e6a	-0.011787036
167	0xbd5aecdc	-0.053448543
168	0x3e96b34b	0.29433665
169	0xbcdf6a4a	-0.027272362
170	0x3dabe7ab	0.083937965
171	0xbbd64c9e	-0.006539895
172	0x3db97ef2	0.09057416
173	0xbe338327	-0.175305
174	0x3c8badf5	0.017050723
175	0x3daf7c31	0.085686095
176	0x3e06e3e7	0.13172875
177	0xbc67fe43	-0.014159742
178	0xbdb4f398	-0.08835524
179	0x3ea12a7e	0.3147773
180	0xbd7571fe	-0.059923165
181	0x3af575e7	0.0018727154
182	0x3e320176	0.1738337
183	0xbdeb8ee7	-0.11501866
184	0x3c94e1e1	0.018174114
185	0xbe063e5a	-0.13109723
186	0xbdae9cf5	-0.08526031
187	0x3e094987	0.13406955
188	0xbba1d792	-0.004939028
189	0x3bf8e083	0.0075951233
190	0xbd4a801e	-0.04943859
191	0xbc34aa25	-0.011026894
192	0x3da362d7	0.079778366
193	0xbd9cd1f8	-0.07657236
194	0xbcd29249	-0.02570452
195	0xbe337e4d	-0.17528649
196	0x3e69b905	0.22824486
197	0xbe324532	-0.17409208
198	0xbe4f7cc5	-0.2026244
199	0xbdf95c6f	-0.121758334
200	0xbe19d9c7	-0.15024482
201	0x3dd2e9e0	0.10298514
202	0xbd7e7e2a	-0.06213204
203	0x3c36c8eb	0.011156301
204	0x3e8e6f12	0.27819115
205	0x3e744e5b	0.23858015
206	0x3db7c1d1	0.089725144
207	0xbcddf529	-0.02709444
208	0x3d72de60	0.059294105
209	0x3de68980	0.11256695
210	0x3b6123c0	0.0034353584
211	0xbe2654a4	-0.16243225
212	0xbdd31489	-0.10306651
213	0x3d3a0f28	0.04542461
214	0xbdee6412	-0.11640181
215	0x3e32b751	0.17452742
216	0x3ba983d1	0.0051731844
217	0x3e309718	0.17245138
218	0xbc7bdce7	-0.015372491
219	0x3c283818	0.01026728
220	0x3cda3229	0.026635246
221	0xbbe35aff	-0.006938338
222	0x3e1e643e	0.15467927
223	0x3ecf08ca	0.40436393
224	0xbe79f44d	-0.244096
225	0xbd201cac	-0.039089844
226	0xbc5d9336	-0.013523867
227	0x3d69f1fa	0.057115532
228	0x3dc3c301	0.095586784
229	0x3d1c3276	0.03813406
230	0x3d6b7a9b	0.057489973
231	0x3e08cd3d	0.13359542
232	0x3e3afe03	0.1826096
233	0xbe2c8a1b	-0.16849558
234	0xbc1e464c	-0.009660315
235	0x3e7494fa	0.23884955
236	0x3d65ed51	0.056134526
237	0x3e4132af	0.1886699
238	0x3eae892e	0.34089035
239	0x3cc24ede	0.023719247
240	0xbd85cac8	-0.06532818
241	0xbe229340	-0.15876484
242	0x3ba3accf	0.0049949656
243	0xbd4e6859	-0.050392482
244	0xbdf62362	-0.120184675
245	0x3de11946	0.10991149
246	0x3e1a62da	0.15076771
247	0xbe638d29	-0.22221817
248	0xbe2f07ff	-0.17092894
249	0xbe6c6720	-0.23086214
250	0x3d67e6c0	0.056616545
251	0x3d287625	0.041128296
252	0x3d58b719	0.05290899
253	0xbd1516b0	-0.03639859
254	0x3d88e953	0.06685128
255	0x3df6d173	0.12051668

bias f4 [100]
0	0xbea9dbd6	-0.33175534
1	0x3e6c9006	0.23101816
2	0x3d6c9234	0.057756618
3	0xbecd61a2	-0.4011355
4	0xbe3d05c0	-0.18459225
5	0xbea4d66a	-0.32194835
6	0x3e20a4a1	0.15687801
7	0x3da7bc1f	0.08190178
8	0x3eae8ed2	0.34093338
9	0x3eb5aedc	0.3548497
10	0xbd0797ce	-0.033103757
11	0x3d24c854	0.04023011
12	0xbe9f42e8	-0.31105733
13	0xbec7787e	-0.38959116
14	0xbd5f4775	-0.054511506
15	0xbdcb1209	-0.09915549
16	0x3e378d11	0.17924906
17	0x3dd8e5f0	0.10590732
18	0xbe8983ee	-0.26858467
19	0x3cccdc5c	0.02500742
20	0xbe9111a8	-0.28333783
21	0xbc5add95	-0.013358493
22	0x3ee4b3f8	0.44668555
23	0xbdbf7365	-0.09348182
24	0xbec7bc19	-0.39010695
25	0xbdcafd14	-0.09911552
26	0xbe85f19e	-0.26160902
27	0x3ea2dddb	0.31809887
28	0x3e600e03	0.21880345
29	0xbecdf35f	-0.4022474
30	0xbcfd394f	-0.030911116
31	0xbd219e9a	-0.039457895
32	0x3e7c388b	0.24630944
33	0x3e16d942	0.14731315
34	0x3e7956fb	0.24349587
35	0x3e5e408c	0.2170431
36	0xbe603a73	-0.21897297
37	0x3d016ef0	0.03159994
38	0xbd988349	-0.07446916
39	0xbe24b9c4	-0.16086489
40	0xbeee2aee	-0.46517128
41	0x3d910d5d	0.07082627
42	0x3e5ea1fa	0.21741477
43	0xbdb41a05	-0.08794025
44	0xbc03865a	-0.008027637
45	0x3ea94330	0.33059072
46	0xbe992a85	-0.29915252
47	0xbe9f4eea	-0.31114894
48	0xbe5357ba	-0.20638934
49	0x3eb0e6bf	0.34551045
50	0xbdbe33e8	-0.09287244
51	0x3e9a59df	0.3014669
52	0x3cee9745	0.029124865
53	0xbe982729	-0.29717377
54	0xbec84b96	-0.39120167
55	0x3e61f6dc	0.22066826
56	0xbcfbfce7	-0.030760242
57	0x3e0a6164	0.13513714
58	0x3e8833cb	0.26602015
59	0xbc97a2c9	-0.01851024
60	0x3e9b356e	0.303142
61	0x3eba5378	0.36391807
62	0xbd09bc75	-0.033626992
63	0x3eab832d	0.33498517
64	0x3ea10f3d	0.31456938
65	0x3d6b8544	0.05750014
66	0xbe547e38	-0.20751274
67	0xbe205659	-0.15657939
68	0x3e2628f9	0.16226567
69	0x3eb22674	0.34794962
70	0xbe37e1c4	-0.17957217
71	0xbebb8aa6	-0.36629218
72	0xbecc1051	-0.39856198
73	0xbcfb44ba	-0.03067242
74	0xbd4a4307	-0.04938033
75	0x3dea7f0f	0.11450016
76	0x3e0ecbb0	0.13944888
77	0x3e508dd4	0.20366603
78	0x3da0f880	0.078598976
79	0x3defc03e	0.11706589
80	0xbe433dda	-0.19066563
81	0xbebf301c	-0.37341392
82	0xbe3dc3f6	-0.18531784
83	0xbeb1e9ad	-0.34748593
84	0x3d585f56	0.052825294
85	0x3cc3f4c0	0.023920417
86	0x3eb5c725	0.35503498
87	0x3ed7b90e	0.42133373
88	0x3d562c80	0.052288532
89	0x3eaace8c	0.33360708
90	0x3dc39c05	0.09551243
91	0x3e2f644d	0.17128105
92	0x3e6ff671	0.23433854
93	0x3e9261c4	0.28590214
94	0xbe8dc390	-0.27688265
95	0xbe80cee7	-0.25157854
96	0x3ed5308b	0.41638598
97	0x3e99f1de	0.30067343
98	0x3d5334ca	0.051564015
99	0xbe4dabb8	-0.20085037

weight f4 [100, 100]
0	0x3e18927d	0.14899631
1	0x3cee04c4	0.029055007
2	0xbe578895	-0.21048196
3	0xbe169471	-0.14705063
4	0xbdfb8a17	-0.12282198
5	0xbe2d2808	-0.16909802
6	0xbdb0a6d7	-0.08625572
7	0xbd7a247f	-0.06106996
8	0xbdf98f11	-0.12185491
9	0xbd078ac2	-0.033091314
10	0x3c40c4b9	0.011765652
11	0x3d128a1c	0.035776243
12	0xbb30ae77	-0.0026959458
13	0xbde9893a	-0.11403127
14	0x3d47203e	0.048614733
15	0x3ddadc84	0.10686591
16	0x3c29a8c1	0.0103551755
17	0xbaea2b72	-0.0017865731
18	0xbd51c294	-0.051210955
19	0x3d259567	0.040425684
20	0x3d0b7938	0.03405115
21	0xbe1430a5	-0.14471681
22	0x3cbb7650	0.022883564
23	0x3df2dbb4	0.11858311
24	0xbe86755d	-0.26261416
25	0xbc9cb958	-0.019131348
26	0x3e0848c5	0.1330901
27	0x3e18b28e	0.14911863
28	0x3be3b9ac	0.006949624
29	0xbc299ea1	-0.0103527615
30	0xbe39f2f6	-0.18159088
31	0xbe150f22	-0.14556554
32	0x3becc0cb	0.007225131
33	0xbca45f66	-0.02006502
34	0x3cb4293c	0.021992318
35	0xbbca3cb9	-0.0061717895
36	0x3d8aae2f	0.06771504
37	0x3dfbbb08	0.12291533
38	0xbd09fcd4	-0.03368838
39	0xbe068a65	-0.13138731
40	0xbbdb1e13	-0.0066869347
41	0x3d53b030	0.051681697
42	0xbd8dabba	-0.0691752
43	0xbde38196	-0.11108701
44	0x3e05bace	0.13059542
45	0x3d74a542	0.059727915
46	0x3da70a8b	0.08156308
47	0x3bc80202	0.006103755
48	0x3e54ba29	0.2077414
49	0x3cb2d9e4	0.021832414
50	0xbcaec807	-0.021335615
51	0xbe2d550a	-0.16926971
52	0x3cb46410	0.02202037
53	0xbbea80b3	-0.0071564554
54	0x3e284a06	0.16434488
55	0x3d131566	0.03590908
56	0xbd451a0d	-0.048120547
57	0xbd97d2d6	-0.07413261
58	0x3c64de45	0.013969009
59	0x3deb618c	0.11493215
60	0x3dc424b3	0.09577312
61	0x3d2c04de	0.04199683
62	0x3d91b3b7	0.07114356
63	0x3dbbca0e	0.09169398
64	0xbdb47c56	-0.08812778
65	0x3b87a66a	0.004139711
66	0xbb863498	-0.004095625
67	0x3cda3943	0.026638633
68	0xbdc419b5	-0.09575216
69	0xbd0deeeb	-0.034651678
70	0xbea3db25	-0.32003132
71	0x3bc21fc0	0.005924195
72	0xbde81196	-0.11331479
73	0x3d26910f	0.040665682
74	0x3e253b0e	0.16135809
75	0xbcddf38e	-0.027093675
76	0x3e29a284	0.16565901
77	0x3d8edf1d	0.06976149
78	0xbdb5c8af	-0.08876168
79	0x3d7e9a91	0.062159125
80	0xbd830b2f	-0.063986175
81	0xbdd7d0df	-0.10537886
82	0xbe47c0cf	-0.19507144
83	0xbc07b0d0	-0.0082819015
84	0x3b4484c6	0.0029986366
85	0xbc7a9693	-0.015294689
86	0x3d913669	0.07090456
87	0x3db5fa9e	0.08885692
88	0x3cad9641	0.02118981
89	0xbd100bb0	-0.035167396
90	0x3d054d0a	0.032544173
91	0x3c5bdf80	0.013419986
92	0x3cb5ed7d	0.02220797
93	0xbd83296e	-0.064043865
94	0x3dee26ef	0.1162852
95	0xbe043545	-0.12910946
96	0xbb7565c4	-0.003744469
97	0xbb8cf95c	-0.004302187
98	0xbe2beaf8	-0.16788852
99	0x3d632baa	0.055461563
100	0x3d868908	0.065691054
101	0xbe52136d	-0.20515223
102	0x3db9e04d	0.09075985
103	0xbd02cd24	-0.03193392
104	0x3dae1cb5	0.08501569
105	0xbe042b3b	-0.12907116
106	0xbd960627	-0.07325392
107	0x3d7b52f3	0.061358403
108	0xbd65e47d	-0.056126107
109	0xbddb9b3a	-0.107229665
110	0x3e091f1e	0.13390777
111	0x3cf57412	0.029962573
112	0xbdc74e2d	-0.09731708
113	0xbdcb1a51	-0.09917129
114	0x3d70cb2f	0.05878752
115	0x3de5a51c	0.11213133
116	0x3c98d65d	0.018656904
117	0xbc3398b2	-0.010961698
118	0x3e11a50b	0.14223115
119	0x3d60289c	0.054726228
120	0x3c01ccc6	0.007922357
121	0x3dd537b0	0.10411012
122	0xbd51b84a	-0.051201142
123	0x3ca0be58	0.019622013
124	0x3e0ac2cf	0.13550876
125	0xbb7968f6	-0.0038056946
126	0xbd9fcd41	-0.07802821
127	0xbcd09990	-0.02546385
128	0xbda85517	-0.082193546
129	0xbe23e324	-0.16004616
130	0x3e02cad0	0.1277268
131	0xbc53a192	-0.012916939
132	0x3deb91fc	0.11502454
133	0x3d177ed1	0.036986176
134	0x3ccb30fa	0.024803627
135	0x3de4c55c	0.11170456
136	0xbdd9103e	-0.10598801
137	0x3e04f550	0.12984204
138	0xbd7acea4	-0.061232224
139	0xbe0efb64	-0.13963085
140	0x3d872482	0.0659876
141	0x3d914059	0.070923515
142	0x3e4b8354	0.19874316
143	0x3c041d78	0.0080636665
144	0xbd573c37	-0.05254766
145	0xbe2560ab	-0.16150157
146	0x3de0011f	0.10937714
147	0x3e034152	0.12817886
148	0x3dc0b611	0.094097264
149	0xbe03e79e	-0.12881324
150	0x3bd55fa5	0.006511646
151	0xbdae6473	-0.08515253
152	0x3dba193c	0.09086844
153	0x3d25a37e	0.04043912
154	0xbd006c26	-0.03135314
155	0x3e018016	0.12646517
156	0x3d7961bd	0.060884226
157	0xbe62d2b9	-0.22150697
158	0xbc3284c6	-0.0108959135
159	0xbc6bb920	-0.014387399
160	0xbcc2183e	-0.0236932
161	0xbe2b0312	-0.1670039
162	0x3c2bbebe	0.010482488
163	0xbe29d5d2	-0.16585472
164	0xbdd54cd0	-0.104150414
165	0xbe0465d9	-0.12929477
166	0x3e40fd4c	0.18846625
167	0xbd4502aa	-0.048098244
168	0xbc504ac0	-0.012713134
169	0xbe766a03	-0.24063878
170	0xbc7bbde4	-0.015365098
171	0xbd4851ff	-0.048906323
172	0xbcec6039	-0.028854476
173	0x3c88d19b	0.01670151
174	0xbd4d2ccd	-0.050091553
175	0xbdbb6e0a	-0.09151848
176	0x3c9481c0	0.018128276
177	0x3dc4a57c	0.09601876
178	0xbccea43c	-0.025224797
179	0xbe1318c0	-0.1436491
180	0x3e6cc9b9	0.23123826
181	0xbe2b92e2	-0.1675525
182	0xbdf66852	-0.12031616
183	0x3dc43b5a	0.09581633
184	0xbdb694b6	-0.08915083
185	0xbe0393a6	-0.12849292
186	0xbd330b06	-0.043711685
187	0x3ca6901a	0.020332385
188	0xbd997bcf	-0.07494318
189	0xbdd8f3d4	-0.105933815
190	0xbc0dad1a	-0.008647228
191	0x3d2fcff3	0.042922925
192	0x3e02dec8	0.12780297
193	0xbe11beea	-0.14232984
194	0x3d913e31	0.0709194
195	0xbd168322	-0.03674615
196	0xbbd3b918	-0.006461274
197	0x3e056f74	0.13030797
198	0xbe108224	-0.14112145
199	0x3ded5331	0.11588133
200	0xbd017f16	-0.03161534
201	0x3da3509f	0.07974362
202	0x3c24dadf	0.010061949
203	0xbdf147a8	-0.117812455
204	0xbd043c10	-0.032283843
205	0x3cfd781f	0.030941067
206	0x3dde1c93	0.10845294
207	0x3e5c426e	0.21509716
208	0x3ea9a021	0.3312998
209	0xbd6bfceb	-0.05761425
210	0x3db8e431	0.09027899
211	0x3e4a880b	0.19778459
212	0xbe8f3a69	-0.2797425
213	0xbe341e12	-0.17589596
214	0x3d58fda3	0.05297626
215	0xbe189b30	-0.1490295
216	0x3e0546be	0.13015267
217	0x3da6b034	0.08139077
218	0xbd8c5aac	-0.06853232
219	0xbdf4981e	-0.119430766
220	0x3d739485	0.05946781
221	0x3d6a0972	0.057137914
222	0x3d9e8d0c	0.07741746
223	0xbcde1c53	-0.027113115
224	0xbd3b244b	-0.04568891
225	0xbde2e7ac	-0.11079344
226	0x3dd8cc23	0.10585811
227	0x3d706e36	0.058698855
228	0x3d772ad9	0.060343597
229	0xbe23b8fa	-0.15988532
230	0x3d8c9aa7	0.06865435
231	0xbd6dee2a	-0.05808846
232	0x3bf8d038	0.007593181
233	0xbdb90900	-0.0903492
234	0x3c894a1a	0.016758967
235	0x3d9e1e6e	0.07720648
236	0x3c386a39	0.011255794
237	0xbd7ffe3a	-0.06249831
238	0x3d70dcd1	0.058804337
239	0xbd781da2	-0.060575135
240	0x3e0082dd	0.1254992
241	0xbd11d974	-0.03560777
242	0xbd0d9cdf	-0.034573432
243	0x3a424e07	0.00074121397
244	0xbcd8ebc7	-0.026479615
245	0xbe038e75	-0.12847312
246	0x3dc50665	0.0962036
247	0x3d4ecba4	0.050487176
248	0xbd88b9d8	-0.06676072
249	0x3c48ad2e	0.0122483205
250	0x3d612bca	0.0549734
251	0xbda760f1	-0.08172787
252	0x3e066a25	0.13126428
253	0xbd708b7f	-0.058726784
254	0x3d64a73d	0.055823553
255	0x3d9d356c	0.07676205
