baselines/generative/CEVAE/result/a_r_1_a_d_1_a_y_1_a_f_0_u_7_run_1/model.pth (torch, 77194 bytes, 43 tensors)

weight f4 [100, 5]
000000 9b 89 02 bd 9b 8b a5 bb 5f 53 1b bc ff 08 92 3e
       -0.031869512 -0.0050520427 -0.009480326 0.28522488
000010 9d c9 d6 3c e8 c0 15 be 3f e6 c6 bd d9 35 f4 3c
       0.026219184 -0.14624369 -0.09711885 0.029810833
000020 9c 8a 8e 3e 2e 4b de 3d 28 a1 cc 3d 74 18 19 3d
       0.27840126 0.10854183 0.099916756 0.037376836
000030 b8 87 48 bd 2c 8b bc 3e fd ca 9e 3d 48 cb c4 bc
       -0.048957556 0.3682493 0.07753561 -0.024022713
000040 d9 15 52 be 74 82 6f bd 8d 49 25 be f8 bc 08 bd
       -0.20516147 -0.05847402 -0.16141339 -0.03338334
000050 9d fc d5 bc 6c 8e 65 bc 8a a1 69 3d f9 6d f6 be
       -0.026121432 -0.014011007 0.05703882 -0.48130777
000060 59 81 54 3d 73 7d 27 be c5 be ac 3d 84 01 61 bd
       0.051881168 -0.16356449 0.08434824 -0.054933086
000070 84 a2 0e 3e 6d 8a 1a 3e 56 ba 84 bc 19 68 b2 bc
       0.13929182 0.15091868 -0.016202133 -0.021778153
000080 93 bf 97 3c aa 7c f4 3e 5f 82 a7 3e 06 ed 8d bd
       0.018523967 0.4775136 0.32716653 -0.06929974
000090 73 5c 99 3b 38 02 c5 3d a3 92 74 be a4 80 fd 3d
       0.0046802103 0.09619564 -0.23884062 0.12378052
0000a0 0e 3b 9c 3b 0c d2 02 3e 55 27 0b be f4 79 55 bd
       0.004767782 0.12775439 -0.13589223 -0.052118257
0000b0 28 c2 a0 bd 55 34 65 3d dc 1d ac 3d f5 63 34 bd
       -0.07849532 0.05595811 0.08404133 -0.04404064
0000c0 96 08 ca 3e 9f 73 77 be 57 06 80 3c 2d e0 a1 3d
       0.39459676 -0.241652 0.015628023 0.07904086
0000d0 07 8d 0d bd 16 f3 c2 be 3f b9 69 3d eb 56 a4 bd
       -0.034558322 -0.38076085 0.05706143 -0.08024391
0000e0 50 2e 9f 3d 81 70 ca 3d 8c 64 69 3e 0b e8 fd bc
       0.07772505 0.0988474 0.22792262 -0.030994436
0000f0 ec ac 9a 3d ca 4e 0c 3e d8 78 58 be d2 8b 8d 3e
       0.075525135 0.1370193 -0.21139848 0.27645737
000100 4c 6d a5 3c 7a 3d 7f bc 4d 4b 4d 3c 56 d1 27 3c
       0.020193718 -0.015578622 0.01253016 0.010242781
000110 96 bb c1 be 6a 55 08 bb 15 ea 69 3e 77 78 57 3d
       -0.3783843 -0.0020802864 0.22843201 0.05260512
000120 99 2a 97 bb 66 44 94 3c 7c 8d 87 bd bf c3 b5 bc
       -0.0046132323 0.018099021 -0.06618783 -0.022188066
000130 f3 ad 89 3d 3d 3d 00 bd 42 8a ae 3e fe cb 48 be
       0.06722631 -0.0313084 0.34089857 -0.19609067
000140 11 b0 12 be 01 52 4f be 0b 65 41 3e 71 94 88 be
       -0.14324977 -0.20246126 0.18886201 -0.26675752
000150 1d cf 96 bd 10 b2 3f 3e 03 f6 09 3d a7 f4 3d be
       -0.073637225 0.18720269 0.03368188 -0.18550359
000160 9e 75 e8 be f0 b8 6e be 70 0b e3 bc d3 d9 ea 3d
       -0.45402235 -0.23312736 -0.027715415 0.11467328
000170 67 67 30 3d 31 dd c2 be c9 ed 8a bd 66 a4 72 3e
       0.043067362 -0.3805938 -0.06783635 0.23695526
000180 da b8 3a 3d e1 85 ab 3d 12 c3 a0 3d d8 dd 5a 3e
       0.045586444 0.08375145 0.07849707 0.21373689
000190 c5 a8 59 bd 25 cb 35 3e c8 9e c4 3d ba b9 a0 3e
       -0.053139467 0.17753275 0.096005976 0.31391698
0001a0 f0 0a 1f 3e 89 35 93 3c 5b 90 a0 be de 19 ec bc
       0.15531516 0.017969863 -0.31360134 -0.028820928
0001b0 37 77 49 be 22 f6 55 3e 14 58 d2 3d ac e0 e6 bd
       -0.19674383 0.20894673 0.10270706 -0.112733215
0001c0 c3 44 51 3a 93 30 89 3e c3 59 59 be 6b 7e 80 bd
       0.00079829636 0.26794872 -0.21225648 -0.06274112
0001d0 ce 0b d6 bd 4f 65 23 3e da 0b ae 3e a9 df 31 be
       -0.1045147 0.15956615 0.33993417 -0.17370476
0001e0 a9 02 a5 bd e1 59 75 be 15 c1 30 be 03 13 ae 3e
       -0.08057148 -0.23960067 -0.17261155 0.3399888
0001f0 69 35 14 3d ce 43 bf bd b6 c6 8a bd 1e 4b 0e 3e
       0.03618375 -0.093391046 -0.06776182 0.13895842
000200 24 8a dc 3e b5 2e 2e 3d 52 ab fa bd 5a 3f be 3d
       0.43074143 0.042525012 -0.12239708 0.09289427
000210 2e cf 8a 3c 9d 87 3f 3e 77 3a 10 be 7a 0f ba 3c
       0.016944494 0.18704076 -0.14084803 0.022712458
000220 49 c7 44 bd cc 30 db bc e5 f2 02 bf f2 99 97 3c
       -0.048041616 -0.026756667 -0.5115188 0.018506024
000230 6f 6f 24 be 71 a6 aa 3d 64 32 6d 3e f6 40 1f 3e
       -0.16058134 0.083325274 0.23163754 0.15552124
000240 d3 84 b2 bd 46 0b 6a 3e 7d f2 80 bd 85 84 c3 be
       -0.087167405 0.22855863 -0.06296251 -0.38187042
000250 46 7b 51 be de 56 c5 bd af 08 50 3e ad 0e 47 be
       -0.20457181 -0.09635709 0.20315813 -0.19439192
000260 eb 0e 67 be d5 85 84 3e e0 33 3d be 27 25 fa bc
       -0.22564285 0.25883356 -0.1847682 -0.030535294
000270 35 86 d4 bd eb 3d c7 bd 9c fd 8d be 00 af 74 bd
       -0.103771605 -0.09728607 -0.2773255 -0.059737206
000280 18 cd 12 3e 97 fb 49 bd a6 d3 64 be b1 8e 99 3e
       0.1433605 -0.0493122 -0.22346362 0.29991677
000290 e2 92 76 3e ea c8 d5 3d 72 33 4d 3e 07 b3 ab 3c
       0.24079469 0.10438712 0.20039156 0.02095939
0002a0 22 b7 ab be 77 39 22 3e 0c bc 5c be d8 9b c7 3d
       -0.33538157 0.15842234 -0.21556109 0.09746522
0002b0 fb 7a 69 bd c1 88 a6 3d 31 05 cc 3d 0a 12 42 3c
       -0.05700205 0.081315525 0.09961928 0.011845121
0002c0 e3 84 01 3e b8 6e 6b 3d 7f de 64 be 24 13 45 bd
       0.12648349 0.057478637 -0.223505 -0.048113957
0002d0 01 de 89 bb c2 14 28 bd 8c d1 d7 3b 40 da f5 3e
       -0.004207373 -0.04103542 0.006586259 0.48018074
0002e0 21 72 65 bc 4c 31 d3 bd 5e e4 80 bd d4 9f 3a be
       -0.014004261 -0.10312137 -0.062935576 -0.18225032
0002f0 5c e3 73 3e a2 3e fe bd 04 7c a5 bd 8f f4 89 3d
       0.238172 -0.1241429 -0.08080295 0.06736099
000300 86 04 2f 3d 05 23 9a be 5c fc 24 3d 1d dd 48 bd
       0.042728923 -0.30104843 0.04027973 -0.049038995
000310 1f 57 36 be f0 f4 4f bd 5a 36 09 be 6b 50 b1 bd
       -0.17806672 -0.0507707 -0.1339964 -0.08657917
000320 f5 27 34 be 6b f5 56 3c aa 14 46 3d 09 37 b2 be
       -0.17593367 0.013120036 0.04835955 -0.34807613
000330 c8 81 62 bd 5d 88 29 be e0 35 b3 bd c3 77 e4 bd
       -0.05529955 -0.16555925 -0.0875051 -0.11155655
000340 73 68 28 bd a5 e6 05 3e c0 7e 16 3e 1f 94 26 3e
       -0.041115236 0.13076265 0.14696789 0.16267441
000350 75 d3 e8 bd 8f 08 92 be 2f a0 8a 3c 21 8f af 3e
       -0.11368457 -0.28522155 0.016922085 0.34288886
000360 2f a5 90 3d 25 3e 96 3e cc 71 11 be df be 4a bd
       0.07062756 0.29344288 -0.14203566 -0.049498435
000370 9c 92 6d 3d 95 74 4c 3d fa a1 93 bd 45 a8 41 3e
       0.058001146 0.04991587 -0.07208629 0.18911846
000380 4e 72 7b 3d 33 b0 9e 3c 99 ef e6 bd 4f eb 13 bd
       0.061388306 0.019371128 -0.112761684 -0.03611308
000390 5b 70 c0 be 44 17 1b 3d 9b f0 97 3d 98 80 32 3d
       -0.3758572 0.037863985 0.07418939 0.043579668
0003a0 76 9c 83 be 1b c1 e1 bd 37 04 5c 3e 30 94 c4 3d
       -0.25705308 -0.1102316 0.21485983 0.09598577
0003b0 17 ac 85 be 76 47 f8 bd 1f 06 c9 be af f6 4e 3d
       -0.26107857 -0.12123005 -0.39262483 0.050528225
0003c0 3c 2b ef bb 4b 39 23 3e 48 6d e9 3d a8 52 48 3e
       -0.007298855 0.15939824 0.11397797 0.19562781
0003d0 48 7b 02 3b d9 e8 93 3e 33 bf 31 bb a8 bc 5d 3e
       0.0019909907 0.28888586 -0.002712202 0.21653998
0003e0 b6 5d 15 3d fa 83 ad bc 9d 9c ff ba 44 a9 c5 bb
       0.036466323 -0.021181095 -0.001950163 -0.006032141
0003f0 bf b4 ff 3b 39 e5 a6 3e 44 c5 63 3d 07 de 2e 3e
       0.007803529 0.32596758 0.05560805 0.17076884

bias f4 [100]
000000 31 2d 82 be 0d 6d 87 be fa d7 7f be 9c 0e 5d be
       -0.25425103 -0.26450387 -0.24984732 -0.21587604
000010 f6 c1 00 bd 00 d8 87 be 44 bb 91 bd c6 a4 ad be
       -0.031434976 -0.26531982 -0.07115796 -0.33914775
000020 b2 fb a0 3e db a7 95 bd 87 ad 3e be db 90 c5 3d
       0.31442028 -0.073074065 -0.18620883 0.096467696
000030 d5 55 8a be dc f5 3b 3e 53 05 a5 3e e8 21 9e be
       -0.2701861 0.18355507 0.32230625 -0.30885243
000040 fc 27 a0 be a3 43 20 be fd 15 33 be 75 1d 86 3d
       -0.31280506 -0.15650801 -0.17488857 0.06548587
000050 ff 1f ad be 92 63 93 be 80 0c 3b 3e a5 5e 78 bd
       -0.33813474 -0.28786904 0.18266487 -0.060637135
000060 13 7b 9e bd f4 17 43 be 90 0f 34 3e aa fc fa 3c
       -0.07738318 -0.19052106 0.17584062 0.030638058
000070 3e a9 34 be 60 68 78 be eb 14 e2 3d c0 49 db 3d
       -0.17642686 -0.24258566 0.11039146 0.10707426
000080 22 b7 1e 3e c5 d2 69 3d 4a 73 8a bd c4 f1 a0 be
       0.15499547 0.05708577 -0.06760271 -0.31434453
000090 ca c3 15 3e 1b 39 17 bb 14 ad 80 be c8 10 c9 3e
       0.14625469 -0.002307481 -0.25132048 0.39270616
0000a0 3c e6 17 3e a9 2d cc be b3 ba 48 be 34 73 1a be
       0.14833921 -0.39878586 -0.1960247 -0.15083009
0000b0 f1 9c 86 be fd 25 13 3e b4 ed af be f9 d0 9a 3e
       -0.26291612 0.1436996 -0.3436104 0.30237558
0000c0 15 2e 35 be 07 ed a4 3e 1e cb 81 3c 32 32 45 be
       -0.1769336 0.32212088 0.015843924 -0.19257429
0000d0 9e 1e 7d 3e 14 db 87 be 7b c2 74 be 74 be cd 3c
       0.24718711 -0.2653433 -0.23902313 0.02511523
0000e0 63 e2 4d 3e 89 76 33 be ca 90 80 be 79 19 9a be
       0.20105891 -0.17525686 -0.25110465 -0.3009756
0000f0 f7 ce 26 be 4d bf c4 bd 88 55 34 bd 85 1b a6 be
       -0.16289888 -0.096068 -0.04402688 -0.3244287
000100 7d 6f 0e 3e 18 12 77 3c e5 fa 37 be a6 c2 6e be
       0.13909717 0.0150799975 -0.17966802 -0.2331644
000110 a6 e3 b2 3d 2d 10 81 bc 26 c3 70 3e f7 36 0e bd
       0.08734827 -0.015754784 0.23511943 -0.034720387
000120 f2 83 68 be 1d 02 bc be 7a 7d 9f bd c7 1d fe bd
       -0.22706583 -0.36720362 -0.07787605 -0.12408023
000130 89 a0 a5 3d 29 26 a8 bd 0b 8a f9 3d dc 28 a9 bd
       0.0808726 -0.082104035 0.12184533 -0.082597464
000140 e6 9c b4 3e 05 81 51 3d 6a 5e ef bb c5 6e 98 3e
       0.35275954 0.051148433 -0.007304956 0.2977201
000150 d1 c7 ed 3c 5e ca 5e be 76 d5 3a be ae 61 2f 3e
       0.029025944 -0.21756884 -0.18245491 0.17127106
000160 02 95 77 3e fb 19 72 3e a9 1f 75 bd b6 63 8b 3e
       0.24177936 0.23642723 -0.059844647 0.2722451
000170 dc 69 38 3e 2e b6 1d 3d 9b d4 9d bd f8 5c b7 3e
       0.18009132 0.03850382 -0.07706567 0.35813117
000180 db 51 ba 3d 41 f6 b3 bd 55 e8 24 3c ee df ab 3e
       0.09097644 -0.087872036 0.010065158 0.33569282

weight f4 [1, 100]
000000 43 2a e9 3e 57 f6 9b 3e 95 0c 5f 3e 78 d5 40 be
       0.45540056 0.3046138 0.21782143 -0.18831432
000010 3e 24 b9 be 35 fb 5e 3d 26 eb 86 3e 5b 0e 5f be
       -0.36160463 0.05443879 0.2635128 -0.2178282
000020 41 25 2b bd 4a 0c 76 3e f5 2c 8e be 12 04 97 3e
       -0.041783575 0.24028125 -0.27768674 0.29495293
000030 86 37 dd 3e 97 01 9d be 1f 38 e4 3d 7c 4f c1 3e
       0.43206424 -0.30665275 0.11143517 0.37755954
000040 62 32 cd bd 90 3c 75 be 46 18 12 bf e0 b0 38 3e
       -0.100193754 -0.23948884 -0.5706829 0.18036222
000050 1e 76 d5 3e 6c d9 94 be 82 4c 84 3e 4a ed fc 3e
       0.4169168 -0.2907213 0.2583962 0.49399787
000060 af 86 93 3e 5c cf 5f 3e 74 95 17 3e ef 10 8a be
       0.28813693 0.21856445 0.14803106 -0.26966044
000070 d0 ec 91 3d 48 9b 9d be 67 6d 07 3f af 04 96 be
       0.071252465 -0.30782533 0.5290131 -0.29300448
000080 53 62 83 3e 5e bb 3d be b6 3e 90 3d 01 48 af be
       0.25660953 -0.18528506 0.07043211 -0.34234622
000090 a4 51 76 3e e1 e4 b2 3d a5 88 3f be ad d0 fe bd
       0.24054581 0.087350614 -0.1870447 -0.124421455
0000a0 31 e5 62 be 6e 08 fb bc cf 76 ce be 97 5a bb bc
       -0.22157742 -0.030643668 -0.4032502 -0.022870345
0000b0 3a 40 92 3d 15 15 98 be cc 87 1b be ef b3 70 be
       0.071411565 -0.29703584 -0.15188521 -0.23506139
0000c0 5c a5 b4 3e 01 a1 96 bd 37 13 c4 3e a9 89 7c be
       0.3528241 -0.07354928 0.3829591 -0.24661888
0000d0 88 26 91 be 21 48 7c 3e ed 48 85 3e 5b 68 95 3e
       -0.2834971 0.2463689 0.260322 0.2918118
0000e0 5b 5c 5e be d7 74 d9 3e 85 5f 78 3e 9e 1f 3c 3e
       -0.21714918 0.42471954 0.24255188 0.18371436
0000f0 be 2a c3 3e 1e b6 92 3e 7b 1a cf be 58 17 14 bc
       0.38118547 0.2865457 -0.4044989 -0.009038769
000100 b5 cd e4 3e b9 ff a3 3e c4 5b a3 3e e5 b0 d2 3e
       0.44688192 0.32031038 0.3190595 0.41150585
000110 ee 4e ad be 10 6a bb 3e 13 f1 e2 3e 51 fc e9 3e
       -0.3384928 0.36604357 0.4432455 0.45700315
000120 fc 79 96 be dc 18 07 be 23 8f 99 3e 44 f3 4e bc
       -0.29389942 -0.13193077 0.29992017 -0.012631241
000130 27 5b 02 3f 32 1a 02 bf 43 73 62 be 67 8a a0 be
       0.5092034 -0.5082122 -0.22114281 -0.31355593
000140 c9 8e 5e 3e a5 a9 c0 be db 6e 8d 3e a7 c8 c9 3e
       0.21734156 -0.37629429 0.2762364 0.39410898
000150 01 46 81 3e 1a d8 84 3e 8e 8d c2 be f1 78 77 be
       0.2524872 0.25946122 -0.37998623 -0.24167229
000160 92 9b a6 3e 3c f3 47 3e 44 7d b1 be bf dc c8 3e
       0.32540566 0.1952638 -0.34665883 0.39230916
000170 f7 39 34 be 34 dd 78 be 0f a7 a0 3e a2 a6 83 3e
       -0.17600237 -0.24303132 0.31377456 0.25713068
000180 ae ee 91 be 18 c2 8e be 46 79 ad 3d f9 89 80 3e
       -0.2850241 -0.27882457 0.08470397 0.25105265

weight f4 [100, 5]
000000 f4 87 d5 3e b7 a7 aa bd 0b 89 bd 3e bc fc c0 3d
       0.41705287 -0.0833277 0.37018618 0.09423205
000010 1f b5 28 bd 97 4b 5e bd 85 6a 5c be c7 80 1f be
       -0.041188356 -0.054271307 -0.21525009 -0.15576468
000020 3e fc 90 bd 0c d5 04 be 93 42 9f 3e 4c 78 6e be
       -0.070793614 -0.12971896 0.3110548 -0.23288077
000030 42 ca ba 3e d2 3c dd bd e7 cc 70 be fe 08 ad bd
       0.36482435 -0.10802616 -0.23515664 -0.08448981
000040 77 6d f7 bd 23 2e 76 be 00 df 7a bd ba 2a 4d 3d
       -0.12081426 -0.24041037 -0.061247826 0.050089575
000050 1e 55 9e be 26 07 f1 3c 40 18 f1 be a0 20 e3 bd
       -0.30924314 0.029422354 -0.47088814 -0.11090207
000060 dd b8 be 3a 57 b1 ad 3e ba 51 1c 3d ae 2b cb 3e
       0.0014550943 0.33924362 0.038163878 0.39681762
000070 0a 02 03 be 7e 35 00 3e 04 45 b4 be 1e a6 b4 bc
       -0.12793747 0.12520406 -0.35208905 -0.022051867
000080 8e 94 91 be 8f 35 05 be 94 42 3b be 21 7a d6 be
       -0.2843365 -0.13008712 -0.18287116 -0.41890052
000090 dd 39 85 bd 4f e7 40 be 0f e0 94 be cd 9d 8d be
       -0.06505177 -0.18838237 -0.29077193 -0.27659455
0000a0 32 0f 91 3d 00 0d 1e be 40 a6 c1 be 23 f8 f4 bc
       0.070829764 -0.15434647 -0.3782215 -0.029903477
0000b0 ad 7f 94 be 91 25 af be 40 37 03 be 82 ce 10 bf
       -0.2900366 -0.34208348 -0.12814045 -0.56565106
0000c0 40 db 08 bd 67 06 60 bd bb dc aa 3e ff d5 00 3b
       -0.033412218 -0.054693606 0.3337153 0.0019658802
0000d0 47 da ad 3e b1 9f 1c 3e fa 28 95 3d 0a e5 9d be
       0.33955595 0.15295292 0.07283206 -0.30838805
0000e0 4d 95 30 3e 7b 1d 9d be 88 97 81 be d4 4a 27 3e
       0.17244454 -0.30686554 -0.25310922 0.16337138
0000f0 e0 87 70 3e 59 a1 2a 3e c7 72 b4 3e b3 5c 47 bb
       0.23489332 0.16663112 0.35243818 -0.0030420243
000100 b8 6e b6 be c1 30 ad bc 47 4b 2e be 9f 24 6a 3d
       -0.35631347 -0.021141412 -0.17020904 0.05716383
000110 cf cd 6d 3d 74 1c 60 bd 28 19 b5 3e 36 7a 8c 3c
       0.058057602 -0.054714635 0.35370755 0.017148118
000120 5d 87 bc 3e a1 42 32 3e 96 2f 1e 3e 85 88 75 be
       0.36822024 0.1740823 0.1544784 -0.2397786
000130 b7 91 46 3d bf 17 45 be 54 f6 2f bd 2d 30 4d 3e
       0.04847881 -0.1924734 -0.042959526 0.20037909
000140 34 06 a1 3e 44 36 fc 3d 2d d0 c6 3e 41 7a 27 3e
       0.31450045 0.12315038 0.388307 0.1635523
000150 01 81 28 3e a7 e0 97 3e aa 82 0f be d8 60 62 3e
       0.16455461 0.29663584 -0.14014688 0.22107255
000160 04 2d ab bd a3 08 81 3d ee 80 b8 be c3 70 4c 3d
       -0.083581954 0.063004754 -0.36035866 0.049912225
000170 64 71 f1 bd 4d 99 e5 bd 4e 0b 72 3e cf 78 fc be
       -0.11789206 -0.112108804 0.23637125 -0.4931092
000180 2e 98 09 be 88 9c 47 be 7e f9 02 be aa 63 8f 3c
       -0.13436958 -0.19493306 -0.12790486 0.017503578
000190 be 79 a2 be 42 06 56 3d ff 68 e5 be 3d ea 40 be
       -0.31733507 0.05225206 -0.44806668 -0.18839355
0001a0 dc 5c 46 be b9 d2 62 3e 77 a6 84 3d 6f 53 f7 3e
       -0.1937136 0.22150697 0.06477063 0.48305842
0001b0 b1 aa 49 3e 2b b6 13 3e b7 c0 93 3e 52 53 09 be
       0.1969402 0.1442496 0.28857967 -0.1341069
0001c0 80 51 c3 3e 4b 40 17 be 76 e1 22 3e 7d 9d e0 3e
       0.38148117 -0.1477062 0.15906319 0.43870154
0001d0 56 8d a1 3d c6 2d 1b 3e 4b d3 2c bd 49 c3 3e 3e
       0.07888286 0.1515418 -0.042193692 0.18629183
0001e0 df bb c4 3e 9a 81 69 bc ed 6a 82 3e 75 f0 54 3e
       0.38424584 -0.014252091 0.25472203 0.20794852
0001f0 d0 e9 e5 3d ef 6c 6f be fa 7f 1e 3e c8 01 a8 be
       0.11226237 -0.23381399 0.15478507 -0.3281386
000200 cf 05 f2 bd d3 58 16 bd 48 cf 2f 3e bc ac 2d bd
       -0.11817514 -0.036705803 0.17168915 -0.04240106
000210 ae 93 d9 3e d6 71 a6 bd ae 42 5a bd f6 64 79 be
       0.42495483 -0.08127181 -0.053286247 -0.2435492
000220 b2 17 a4 bc 0f bb d4 be f4 46 40 bd 61 9c 08 3d
       -0.02003083 -0.41548964 -0.046942666 0.03335226
000230 ba 77 e2 be 2d c6 f2 3d b8 a7 ad be bb 7b 90 be
       -0.4423197 0.11854205 -0.33917022 -0.282194
000240 02 4c 2a ba 67 55 d2 3e de a7 d5 3b 12 9f 6c 3e
       -0.00064963114 0.41080782 0.0065202555 0.23107556
000250 ff 33 c1 bc d6 44 c4 3b c0 b1 b3 be 0b fe f9 bd
       -0.023584364 0.005989651 -0.3509655 -0.12206658
000260 e7 1b 7a be 10 bf aa bd aa 46 81 3d e9 1c 87 be
       -0.24424706 -0.083372235 0.06312306 -0.26389244
000270 f3 f5 0d be 22 5d dc be 3b 78 b9 3d e2 95 06 be
       -0.13863353 -0.43039805 0.09056135 -0.13143113
000280 31 ca 7a be 25 e5 83 3b 3f b8 9a be 00 8c 80 3d
       -0.24491192 0.004025119 -0.30218694 0.06276703
000290 d5 ec d3 bd f8 7a 1f 3e 73 bd 42 3e 15 c8 66 3e
       -0.103479065 0.15574253 0.19017582 0.22537263
0002a0 0d 57 bd 3b f9 12 0d bd 4f 42 20 3e 11 c8 30 3e
       0.0057781995 -0.03444192 0.15650295 0.1726382
0002b0 9d 33 ae 3e b3 c4 90 be b4 50 02 3d 8d 13 20 3f
       0.34023753 -0.2827507 0.031815246 0.6252983
0002c0 c9 09 8e 3d b3 8d fd 3e d4 c2 12 be f8 6b 82 bd
       0.0693546 0.4952217 -0.14332134 -0.0636825
0002d0 a3 bc a1 3e 8a 15 87 3d 6b b5 a2 3e 9a 1f 19 3e
       0.3158923 0.06595905 0.31779036 0.14953461
0002e0 25 58 99 bc d7 e2 05 be 89 4f 58 3d 61 60 c0 be
       -0.018718788 -0.13074814 0.052810226 -0.3757353
0002f0 86 81 c4 3c d2 2b 77 3d 01 de fb 3d bb 55 1c 3e
       0.023987543 0.060344525 0.12298203 0.15267079
000300 b0 16 bd 3e 3f f8 1b 3e 3c 4c dd 3c 63 fc 12 3f
       0.36931372 0.15231417 0.02701389 0.5741636
000310 14 3e ef 3d 28 3b 31 3e c7 90 30 3c 7b 3a 84 be
       0.11681762 0.17307723 0.010776705 -0.25825867
000320 c8 a3 b7 be da a9 c2 bd 44 b2 b4 bd e1 80 bd be
       -0.35867143 -0.09505053 -0.08823064 -0.3701239
000330 ca e5 47 3d 16 cc 8f be c6 ae 03 3c e4 58 db be
       0.04880313 -0.28085393 0.008037275 -0.42841256
000340 f9 52 be 3d 16 31 83 3d 19 54 90 3e 62 86 41 3e
       0.092931695 0.06405847 0.2818916 0.18898919
000350 41 e4 ba 3e de 10 ba bd a1 d7 c1 3d c7 e2 95 3e
       0.3650227 -0.090852484 0.09464956 0.2927458
000360 3f 91 20 3c 9e 37 a7 3e f8 00 70 bd f0 fb d0 3d
       0.009800254 0.3265962 -0.058594674 0.10204303
000370 60 7c 61 be 91 62 22 bd 57 43 b2 be 02 f5 a3 bc
       -0.22020102 -0.03964478 -0.34817 -0.02001429
000380 77 9d e2 bd 55 48 02 3f e6 9c a1 be 05 3a d1 3e
       -0.1106519 0.5089162 -0.31565017 0.40864578
000390 12 2e 01 3d 89 b9 8b 3e fc eb b4 be 75 87 51 be
       0.031538077 0.2728999 -0.35336292 -0.20461829
0003a0 64 ba b2 be 3a 17 80 ba fa 33 da 3c 35 e6 38 bc
       -0.3490783 -0.0009772547 0.026636112 -0.011285354
0003b0 1e 0b e5 bd 3c e5 8b 3d 8d 2c dc bd 06 bd f5 bd
       -0.11183761 0.06830832 -0.10750685 -0.11998944
0003c0 7f 27 f7 3e 50 dd 6d 3e c5 a7 d1 3e 5d 54 16 3d
       0.4827232 0.23228955 0.4094831 0.03670155
0003d0 b0 75 8d 3e 3e 0d 9a 3e cc 72 18 be 13 f4 f1 3e
       0.2762885 0.30088228 -0.14887542 0.47256526
0003e0 96 a5 d0 3d 6c b6 b0 3d 4c 7e 0e bd c7 9a 2c 3e
       0.10187833 0.08628544 -0.034788415 0.16855918
0003f0 cd 8b 4a 3e 31 7e 8a bb c1 57 93 3d c6 89 ac be
       0.19779892 -0.004226469 0.07194472 -0.33698863

bias f4 [100]
000000 a3 f9 d3 3e 4f 0d 15 3e e3 3e 58 3e 51 c9 90 3c
       0.41401395 0.14555858 0.2111774 0.01767412
000010 39 c0 cd be 8b d9 20 bd dd 94 b9 bd 1f f2 bf be
       -0.40185717 -0.039269965 -0.090615965 -0.3748941
000020 d8 dd fd be b6 1d ca 3d b1 e1 76 3e 5d 17 e5 be
       -0.49583316 0.09868948 0.24109532 -0.44744387
000030 c7 30 b6 3d 5f 4a c4 3e 3d ad 9e 3e 66 f9 8e 3e
       0.08896022 0.3833799 0.30991545 0.2792465
000040 e9 71 4b 3b 36 75 88 3e 7b 4a d8 be 8a c1 10 be
       0.0031043238 0.26651925 -0.42244324 -0.1413633
000050 b0 69 b3 be 03 f4 67 3d 6f 2f 8f 3e c4 84 83 3e
       -0.3504157 0.056629192 0.27965876 0.2568723
000060 44 d4 20 bd 04 d9 66 be e8 97 98 3c 7c ac 66 be
       -0.039264932 -0.22543722 0.018627122 -0.22526735
000070 90 4e c6 be 6a af a8 3e 4d 63 19 3e 5b 8c 5d 3e
       -0.38731813 0.3294633 0.14979286 0.21635573
000080 46 00 92 be a6 96 d4 3e 93 4f 71 bd d6 95 af 3c
       -0.28515834 0.41521186 -0.05891378 0.021433752
000090 9c 58 ef 3c 4d b8 e7 bd 1c 41 9c bd 49 15 f4 3d
       0.029217057 -0.113144495 -0.07629606 0.11918122
0000a0 71 db bf be da 36 20 3d c9 c1 70 be 80 56 1d bd
       -0.37472108 0.03911481 -0.23511423 -0.03841257
0000b0 a5 10 b5 be 82 57 d3 3e 0c dd 22 3e ab a3 b5 be
       -0.3536426 0.412777 0.15904635 -0.3547643
0000c0 04 b4 91 bd 1e 33 d7 3e 2e d2 78 3e 04 8e 0c 3e
       -0.071144134 0.42031187 0.24298927 0.1372605
0000d0 18 0f a1 be 79 a7 5a 3e 4d 77 be 3e 53 0d 83 3a
       -0.31456828 0.21352948 0.37200394 0.0009998478
0000e0 9f b8 92 bd 5a ca c6 3e c4 51 e8 bc 8b 45 70 3e
       -0.0716412 0.38826257 -0.028359301 0.23464029
0000f0 05 16 06 3e 9e 77 99 be 6b 31 86 bd 26 87 68 3e
       0.13094337 -0.29974073 -0.065523945 0.22707805
000100 28 0c 7e 3d ba bf b8 3e 03 30 dd 3e 5d 15 a9 bd
       0.06202331 0.36083776 0.43200693 -0.08256028
000110 72 db c6 bd 01 2e 77 bc 68 cb f5 bd 8d 0f e6 3d
       -0.097098246 -0.015086652 -0.12001687 0.11233435
000120 7d 42 9f 3e fd 05 b5 be 5f 21 67 be 17 70 a4 be
       0.31105414 -0.3535613 -0.22571324 -0.32116768
000130 d5 a2 97 be 5b 6f c0 3e 34 17 77 be e5 50 d9 bd
       -0.29616418 0.37584957 -0.24129945 -0.106111325
000140 e4 6a b4 bd d4 f4 a5 b8 8c 5c e6 bd 62 99 fa 3d
       -0.0880945 -7.913416e-05 -0.11248121 0.12236287
000150 d4 66 0b be d4 82 ad 3e 93 6e 14 bd e3 ca a8 3d
       -0.13613445 0.33888876 -0.036238264 0.082418226
000160 27 64 05 3e 3d ea 9b 3e c9 63 1b 3e ea 68 96 3e
       0.13026486 0.30452147 0.15174784 0.29376918
000170 07 47 93 3d d8 3c ff 3d 44 27 00 3f ea 51 9b be
       0.07191282 0.12462777 0.50059915 -0.30335933
000180 17 89 d9 3d 49 66 d8 3e 98 f5 aa bd a8 e7 19 be
       0.10621851 0.42265537 -0.083476245 -0.15029776

weight f4 [1, 100]
000000 82 16 d9 3e b7 02 6c bd 69 7e 6f 3e 22 26 6a be
       0.42399985 -0.057619777 0.23388065 -0.22866109
000010 69 8a b5 be 9d 84 9b 3e 51 0e a8 be c0 b1 b5 be
       -0.3545716 0.30374613 -0.32823423 -0.35487175
000020 c0 23 65 be 45 a2 66 be fb d5 d9 3e 50 fb c7 be
       -0.22376919 -0.22522838 0.42546067 -0.39058924
000030 22 e2 e2 3e 7a b9 07 3e 37 74 c2 3e 1d a5 e8 bd
       0.4431315 0.13254347 0.3797929 -0.11359618
000040 18 97 83 3e fa 82 e8 3e 44 16 fa be 87 ce af be
       0.25701213 0.45412427 -0.48845112 -0.34337255
000050 b2 66 fa be 24 c5 4d 3e 4a d5 c4 3e 84 24 ad 3e
       -0.48906475 0.20094734 0.38443977 0.33816922
000060 63 92 ae 3e 4a 2c f4 be fc 73 0b 3f b6 0b c8 be
       0.3409606 -0.4769004 0.54473853 -0.39071435
000070 32 2e a8 be 1d 4c e3 3e 53 05 6c be 0d 3b 9e be
       -0.32847744 0.44394007 -0.23048906 -0.30904427
000080 c8 7c 16 bf f7 bb 4d 3e 2f fb 5f 3e ba ad af 3e
       -0.5878415 0.20091234 0.21873163 0.3431223
000090 c6 15 d7 3e 18 27 d5 be f0 55 d7 3e 2f 9d a9 3e
       0.420088 -0.4163139 0.42057753 0.33127734
0000a0 be b2 8f be 63 d4 97 be 86 eb 77 3e a6 a9 9b 3e
       -0.28066057 -0.29654226 0.24210939 0.3040287
0000b0 f9 f5 93 be e2 d9 b5 3e bf af ee be ce 14 36 3d
       -0.288986 0.35517794 -0.4661846 0.044453435
0000c0 6b 5f 90 3e 1f 33 b6 3e a1 9a 85 3d 3c ca 84 be
       0.28197798 0.35585877 0.06523634 -0.25935543
0000d0 a1 5a 00 bf df f0 e5 3e db 2f b5 3e 7c 5c a8 3e
       -0.5013829 0.44910333 0.35388073 0.3288306
0000e0 fb 22 0d be e4 cb a4 3e 31 62 87 be 74 71 a5 3c
       -0.13782875 0.32186806 -0.26442102 0.0201957
0000f0 a2 35 bc 3e d3 1c c7 be 3d 95 7d 3e 7f 25 75 be
       0.3675967 -0.3888918 0.24763961 -0.23940085
000100 a3 68 06 3e 83 ab 70 bd 7f 81 34 3e 1d 86 90 3e
       0.13125853 -0.058757316 0.17627524 0.2822732
000110 a5 ef 1a bf cc 70 dc 3e 48 b6 e0 be 82 54 c5 be
       -0.6052192 0.43054807 -0.4388907 -0.38541037
000120 47 c3 9c 3e dd a5 90 be a8 53 b6 be 92 81 b3 be
       0.30617735 -0.28251544 -0.356107 -0.35059792
000130 59 e7 fd 3c d1 0b 42 3e 6d 90 aa be 55 d7 a8 be
       0.030994104 0.1894982 -0.33313313 -0.32976785
000140 7d 77 97 be c6 f7 aa be 3b a7 f1 be e0 8c 06 be
       -0.2958335 -0.3339216 -0.471979 -0.13139677
000150 a8 94 8c be 9f fe b8 3e 19 8a a1 be eb 89 9f 3e
       -0.27457166 0.3613176 -0.31550673 0.3115991
000160 58 12 b6 3e 14 ed 90 3e 97 96 0c 3f cf 4e 2f bd
       0.3556087 0.28305876 0.5491728 -0.042799767
000170 69 6c d1 3e bf 7d a4 3e b4 d5 36 3e b4 53 92 3e
       0.40903023 0.32127187 0.17854959 0.28579485
000180 b7 a6 e9 3e 6c 9a a0 3e 42 5c 91 3e bf 27 de be
       0.45635006 0.31367815 0.283907 -0.433897

weight f4 [100, 5]
000000 b8 fe d7 3e 97 6a 02 bd d2 80 53 3e b4 90 05 3e
       0.42186522 -0.031839933 0.2065461 0.13043481
000010 1c fd 5c bd 64 86 71 be 98 0a 9e bd 68 87 8d be
       -0.05395232 -0.23586422 -0.07716864 -0.2764237
000020 c3 be a9 3d 0f 3d 6c be 3e 05 4e 3e 7d e1 f7 3b
       0.08288338 -0.23070167 0.20119187 0.007564722
000030 88 4f f8 3e d5 d5 51 3e 64 1e 07 3e 52 ba 4a be
       0.48498178 0.20491727 0.13195187 -0.19797638
000040 4a d2 53 bc 22 3d dd be b4 36 d7 bd d6 3d 55 be
       -0.012928555 -0.43210703 -0.10508481 -0.2082437
000050 4f 21 1d 3e 9c c5 09 3e fd 48 ef 3e fb dc cf 3d
       0.15344737 0.13454288 0.46735373 0.101495706
000060 46 fd c1 bd 89 a3 a9 3e 4d 7a 5e 3e 07 b5 a9 3e
       -0.09472136 0.3313258 0.21726342 0.33145925
000070 77 94 c0 3d 31 50 6b be 9e ec 45 3e a3 52 22 3d
       0.094033174 -0.2297981 0.19328544 0.03962959
000080 b0 ac a9 3e a4 c4 43 3e 29 52 7a 3e 95 e0 bc be
       0.33139563 0.19117981 0.24445404 -0.36890092
000090 dd 5f 5e be 4a 26 f1 be 57 fb b8 bd a1 a8 99 3d
       -0.21716256 -0.47099525 -0.09032314 0.075028665
0000a0 17 6c b4 be a8 59 44 3e d7 70 52 be 9a da db bc
       -0.35238716 0.19174826 -0.20550857 -0.026837636
0000b0 87 15 95 3d 00 b9 6c 3e de 6e 11 bc 32 7f e9 3e
       0.07279497 0.23117447 -0.00887653 0.45604855
0000c0 44 08 c7 bc 9e 6e 69 be ae 8b 7a bd e7 04 55 3d
       -0.024295934 -0.22796103 -0.061168365 0.05200663
0000d0 9e 4c d2 bd c9 28 34 3e 0a 29 2c 3c ce bb 0a 3e
       -0.1026852 0.17593683 0.010507831 0.13548204
0000e0 e8 3d 6b be 80 67 30 3e 1f d7 a8 3c 84 fb bc 3c
       -0.22972834 0.17226982 0.02061039 0.02306915
0000f0 e3 b1 25 be 61 56 b8 3d 18 d1 b9 be e2 4c 72 bd
       -0.1618114 0.090008505 -0.36292338 -0.059155352
000100 47 af 83 bd 82 d6 80 be 3f 13 c0 bb 87 05 85 be
       -0.06429916 -0.25163656 -0.0058616693 -0.2598078
000110 68 e1 85 bd 4f 7f 23 3d 98 da 29 bd 09 4f ca bd
       -0.065371335 0.039916333 -0.041468233 -0.09878356
000120 dc 2c c7 bd ed 6e 1b 3e 18 36 71 be 20 43 2e 3e
       -0.09725353 0.15179034 -0.23555791 0.17017794
000130 16 94 b3 3d 39 cf 59 3c 1e db 8d 3e 8e 61 a6 3d
       0.087684795 0.013294035 0.27706236 0.08124076
000140 7b 8b 85 3e bc e0 06 3e 38 b6 ed 3e 0e f2 1f be
       0.26082978 0.13171667 0.46428084 -0.1561968
000150 54 2a 28 bd c6 ba 8a 3e 5e 37 8b 3d 0f 84 79 3e
       -0.041055992 0.27095622 0.0679767 0.24366783
000160 33 a1 a8 bd 46 7e 58 bd b1 52 d9 be 27 15 85 3d
       -0.08233871 -0.0528548 -0.424459 0.06498175
000170 cd c7 ae be 15 6a 23 be 14 86 08 3d fa b4 a2 3d
       -0.3413681 -0.15958436 0.033330992 0.07944675
000180 ca 3e 1e 3e 63 37 63 3e 96 a5 ca 3d 76 51 a3 be
       0.1545364 0.22189097 0.09894864 -0.31898087
000190 50 8b 0d bf e4 44 5e be ef 19 a1 be 78 57 b5 3d
       -0.552907 -0.21705967 -0.31465098 0.08854574
0001a0 d4 50 28 be 15 45 9a 3d a8 f7 b9 bd 8d 84 36 be
       -0.16437083 0.075327076 -0.0908044 -0.17824002
0001b0 fb 11 43 bd 54 37 0c bd 26 8e 98 be 45 20 23 3e
       -0.04762457 -0.034232453 -0.2979595 0.15930279
0001c0 66 d2 db be ae 8a 1a be 32 f7 e2 bc ec 77 be 3e
       -0.4293396 -0.15091965 -0.027705763 0.37200868
0001d0 18 ef 0f 3e 99 5a dd 3e cb f3 26 3c 52 fb cc bd
       0.14056051 0.43233183 0.010189961 -0.10008873
0001e0 88 40 d3 be 50 57 93 bc 68 b3 8d be 97 62 fe bd
       -0.4126017 -0.01798597 -0.2767594 -0.12421148
0001f0 16 e3 b8 3c 13 a2 3b 3e 69 db f5 bd 72 7f b9 3e
       0.02256922 0.18323545 -0.1200474 0.36230046
000200 d2 bd d5 3d 60 75 4c 3c d1 2f 99 3e 02 b7 16 bd
       0.10436596 0.012479156 0.29919294 -0.036795624
000210 f5 22 5c 3e b5 9a 39 3e 10 a5 e2 bd 5f 1b 10 3d
       0.2149771 0.18125422 -0.110666394 0.035182353
000220 cf 34 d0 bd 7c 4a bb be 9a 74 7c 3c 7d 06 00 3e
       -0.101663224 -0.36580265 0.015408659 0.12502475
000230 8d 67 87 be c0 07 89 bd e8 d7 fa bd 86 d1 e0 3c
       -0.2644619 -0.06690931 -0.12248212 0.027443659
000240 7e 4b af 3e 41 ee f0 be 5a df 92 3d 71 2b d2 be
       0.34237283 -0.47056773 0.07171507 -0.41048768
000250 2b 77 33 bd b6 23 98 be c9 0b cf 3e 58 cf 3c 3c
       -0.04381482 -0.29714745 0.4043868 0.011524044
000260 74 28 01 3e 54 99 0b 3e 12 13 51 3d da 10 c8 bd
       0.12613088 0.13632709 0.051043577 -0.09768839
000270 e0 65 29 be 18 72 e2 be df 3d 98 3d 06 bc 06 be
       -0.16542768 -0.44227672 0.07433676 -0.13157663
000280 a6 95 8b 3e 22 74 91 bc e0 03 4b 3e f6 0e 12 3d
       0.2726261 -0.017755572 0.19825697 0.0356588
000290 e0 25 9e 3e 4a 7e ac be ff 88 29 3b da 5d be bd
       0.3088827 -0.336901 0.002586901 -0.092952445
0002a0 a7 ed aa bd df 9e 3d 3c 88 77 ca 3d 12 7b e8 3d
       -0.0834611 0.011573522 0.0988608 0.11351599
0002b0 07 cd 0c 3e ae 20 4d be 0e 61 0b bd 2b 9d 84 3e
       0.13750087 -0.20031998 -0.034028105 0.2590116
0002c0 10 86 14 3e 7f b5 86 3e a3 76 33 be c4 47 ea bd
       0.14504266 0.26310346 -0.17525725 -0.114394695
0002d0 16 83 ba 3e 34 07 b4 3d ee bc 13 3f ed ae 7d 3b
       0.36428136 0.087904364 0.5771016 0.0038709
0002e0 8c 66 4d 3e 4e 1f 11 3c 26 07 e5 bd f8 f0 ad 3e
       0.2005865 0.008857561 -0.11183004 0.33972907
0002f0 d1 4f 01 3e 2c b2 8b 3d 71 50 ac 3e 34 ed 0f bd
       0.12628104 0.06821093 0.33655122 -0.035138324
000300 49 00 e2 3d dd 37 ae 3b 33 3a 2c 3e 8f 22 04 bf
       0.11035211 0.005316718 0.16819076 -0.5161523
000310 3c 75 2c 3d ad 8f 5a be eb cb 3e b7 0d cb 83 be
       0.04210399 -0.2134387 -1.1372361e-05 -0.25740853
000320 81 2e a1 be 88 2d 61 3c e6 67 82 be 38 2c 31 3b
       -0.31480792 0.013743766 -0.25469893 0.0027034413
000330 42 34 44 bc d0 97 4d be ff 62 df 3d eb 47 de be
       -0.01197535 -0.20077443 0.10907554 -0.43414244
000340 9a 80 84 be ae c1 bc bc 5c 8f 8e be 70 ad 4f bc
       -0.25879365 -0.023041572 -0.2784375 -0.012675628
000350 d7 06 90 be 91 66 21 bc 45 67 37 3d 9e 63 71 be
       -0.28130218 -0.009851114 0.04477622 -0.23573157
000360 11 6e 04 be 37 e1 96 be 10 12 24 be 6a 74 97 3e
       -0.12932612 -0.294687 -0.16022515 0.29581004
000370 a5 d9 3b be 4f 1f 6c be 0b c8 f4 be 5d 85 96 bd
       -0.18344744 -0.23058818 -0.4780887 -0.07349656
000380 12 50 05 bd ad af 9b be fe 23 2a 3e 2b 1c 96 be
       -0.032547064 -0.30407467 0.16615292 -0.29318365
000390 cc ab 9d 3d 03 34 b6 bd d9 4d 22 3f 42 bd 05 be
       0.07698783 -0.08896639 0.63400036 -0.13060477
0003a0 e7 cb 57 3e f4 0c 58 bd e5 92 e4 bd 4e 3d a6 3c
       0.21073876 -0.052746728 -0.111608304 0.020292904
0003b0 37 16 bd bc c0 74 09 3d e7 67 ab bd ce 7a 22 3d
       -0.023081882 0.033558607 -0.08369427 0.039667897
0003c0 ba 0b d2 3e 2e 7e 1b 3d 53 e6 d8 3e 4c 89 47 3e
       0.41024572 0.03796213 0.42363223 0.19485968
0003d0 18 72 83 be 01 fe cf 3e 1d 67 9a bc e9 89 e8 3e
       -0.25672984 0.40623477 -0.018847996 0.45417717
0003e0 13 4c ff 3d 94 33 01 3e ae 85 c2 3e 31 4b 81 3d
       0.12465682 0.12617332 0.37992615 0.0631317
0003f0 3e d8 f7 3e ec b0 aa 3e 95 24 cf 3c c4 bb d7 be
       0.48407167 0.33338106 0.025285998 -0.4213544

bias f4 [100]
000000 e2 e8 af 3e 86 31 aa 3e c6 82 0c be 5d 41 22 3d
       0.34357363 0.33240908 -0.13721761 0.039613117
000010 92 a2 53 be 76 2d 5a 3e 8d 2b b8 bd 1f dc 42 bb
       -0.20667484 0.21306404 -0.08992682 -0.0029733253
000020 76 38 d4 be dd 7d ac 3e f5 32 82 3e 30 d3 b6 3e
       -0.41449326 0.33689776 0.25429502 0.35707998
000030 8c cb d7 be fa e3 f4 3d fa 8a cf be 30 5f 9d be
       -0.4214748 0.119575456 -0.40535718 -0.30736685
000040 41 d7 c7 3e 6f 32 50 3e 08 67 7f be 9b cd 8c be
       0.39031413 0.20331739 -0.24941647 -0.27500615
000050 07 be 96 bd d3 ff a6 be f6 82 d1 be 6d 47 d6 3d
       -0.073604636 -0.32617053 -0.40920228 0.10462842
000060 4d 88 d2 be 0e f1 a5 3e a2 91 10 be 18 80 87 be
       -0.41119614 0.32410473 -0.14118055 -0.26464915
000070 9b cc 0a bf 65 b0 7a be 97 dd ac bb 5e ec 05 3e
       -0.54218453 -0.24481352 -0.005275439 0.13078448
000080 fd a6 1d 3d 13 46 20 3e 85 19 d0 3e c3 7f 69 3e
       0.03848933 0.15651731 0.4064447 0.22802643
000090 e6 ba 63 3d 3d e8 6c be 26 04 21 be 9c 11 91 be
       0.055598162 -0.23135467 -0.15724239 -0.28333747
0000a0 0b d8 a9 be ee a1 90 3d e9 65 81 be 09 23 02 be
       -0.3317264 0.07062136 -0.25273064 -0.12708677
0000b0 44 dd e1 bd 73 9e f9 be c1 c1 f3 3e 86 d5 9a bd
       -0.11028531 -0.487537 0.4760876 -0.075602576
0000c0 f2 b2 1e be 7b e4 21 3e 76 49 59 be 4d aa a9 bd
       -0.1549795 0.15809815 -0.2121943 -0.082844354
0000d0 9b 47 1f be de e2 86 be c0 9b 68 be 6f 8d 53 3e
       -0.15554659 -0.2634496 -0.22715664 0.20659421
0000e0 70 a4 e1 3e 91 da 98 3e cf 92 2f 3e ce 04 ae 3e
       0.44070768 0.29854253 0.17145847 0.3398804
0000f0 30 e0 d9 be bf aa c4 be 3d 63 a8 3e 34 20 02 bd
       -0.42553854 -0.3841152 0.32888213 -0.031768993
000100 2b 28 52 3e a6 35 52 3d 64 de c5 3e 5b ab 9f 3e
       0.20523135 0.051320694 0.38646233 0.3118542
000110 46 42 88 be 66 9f 1f bd 47 3d b0 bd e1 3f b8 3e
       -0.26613063 -0.038970374 -0.08605438 0.35986236
000120 75 0d 1a be 9e bd 46 be 00 a0 c7 3e 3f 2e 2a 3e
       -0.15044196 -0.1940827 0.38989258 0.16619204
000130 14 a9 f6 bd f6 73 c0 3c 0b a8 8b be 1d f7 d3 bd
       -0.12043968 0.023492794 -0.27276644 -0.103498675
000140 b9 22 8d 3e ab 68 d1 be d5 17 86 be 51 b2 81 be
       0.27565554 -0.40900168 -0.26190057 -0.25331357
000150 cc f8 5c 3e 2a 97 7b 3e 7e 8e 03 3f 21 cf f4 3e
       0.21579283 0.24569383 0.513893 0.47814277
000160 74 45 27 be 71 5b b8 3e f3 6e aa 3d 5a 38 30 be
       -0.16335088 0.36007264 0.08321943 -0.17208996
000170 c9 5f c0 be f4 02 5f 3e 13 23 01 3e 74 14 97 3e
       -0.37573078 0.2177847 0.12611036 0.29507792
000180 69 6e 9a be 8c e5 63 bd 78 ff 82 3d 33 e6 66 3d
       -0.3016236 -0.055638835 0.06396383 0.05637188

weight f4 [1, 100]
000000 ef 60 9a 3e fe 05 92 bc bb a3 05 3f 31 4f 41 be
       0.3015208 -0.017825123 0.5220296 -0.18877865
000010 74 04 7a 3e 68 68 5b 3e 29 50 c1 3e 0f c5 9c be
       0.24415761 0.21426547 0.3775647 -0.30619094
000020 53 d3 91 be ad 1b e1 3e b8 db b3 3b ce 09 82 3e
       -0.2848154 0.43966427 0.005488839 0.25398105
000030 3d 1e 51 be 5c 57 99 be 2a 36 29 be e7 53 00 3e
       -0.20421691 -0.29949462 -0.16524568 0.12532006
000040 d5 75 9d 3e c6 4a 00 3f 86 5d 04 bf 06 3f b1 3d
       0.3075396 0.50114095 -0.51705205 0.08654599
000050 46 2b 83 be a2 62 4e be 5f 4b d6 be c8 8c b3 3e
       -0.25618953 -0.20154813 -0.4185438 0.35068345
000060 d5 14 d2 be b0 21 c5 3e b7 50 8c 3e c8 66 85 be
       -0.4103152 0.38502264 0.2740533 -0.26054978
000070 51 70 a9 be 9e 70 9a be 3b f9 88 3e b0 b0 f2 bd
       -0.33093503 -0.30164045 0.26752648 -0.11850107
000080 98 ba c1 3e 1a 18 4b be ef 3f 9f 3d f2 c5 b2 3e
       0.37837672 -0.19833413 0.07775866 0.34916645
000090 cd 77 bc 3e d2 d2 aa 3d 28 52 a8 3d e4 df c3 be
       0.3681015 0.08340992 0.08218795 -0.38256752
0000a0 8d cd 6e be 7a e1 b4 be 0a 27 13 bf 52 ba ad be
       -0.23320599 -0.35328275 -0.57481444 -0.33931214
0000b0 48 80 97 be 16 72 c9 be 66 8b b4 3e 7f 42 ab 3c
       -0.29590058 -0.39344853 0.35262603 0.020905731
0000c0 92 79 ad 3e 3d 19 ae 3e 58 ad e8 3e 1a 29 d5 be
       0.33881813 0.3400363 0.4544475 -0.4163292
0000d0 5d 9b a0 3e 09 24 b5 be 41 20 25 be b4 b2 d4 be
       0.31368533 -0.35379055 -0.16125585 -0.4154259
0000e0 88 12 98 3e 47 e3 01 be fd 9b f0 3e b3 bd cb 3e
       0.29701638 -0.12684356 0.4699401 0.39793167
0000f0 e5 d2 f7 be e9 fc c9 be ec 43 a4 3e cb 4d 0c be
       -0.48403087 -0.39450768 0.3208307 -0.1370155
000100 34 19 96 3e 4f f5 96 be 3e b9 de 3e 06 4d 19 3f
       0.29316103 -0.2948403 0.43500704 0.59883153
000110 6e 1f 0a bf 22 7d 7b 3e 29 e4 9c be e9 ea ec 3d
       -0.5395421 0.24559453 -0.30642822 0.11568243
000120 be 63 02 bf e5 a2 b2 bd 9f 37 ba 3e 4b 57 6b be
       -0.50933444 -0.08722476 0.3637056 -0.22982518
000130 b4 ab 0f bf ea 1e b0 3e ca 4c 83 3e c4 98 b0 be
       -0.56121373 0.34398586 0.25644523 -0.3449155
000140 8f e8 9d 3e 7f 9f ba be 56 60 ac 3c 38 92 da 3e
       0.3084149 -0.3644981 0.02104203 0.4268968
000150 d1 68 70 bd d2 41 d5 be 20 ae 73 3e a3 d4 aa 3e
       -0.05869371 -0.4165178 0.23796892 0.33365354
000160 5a 3f 75 be 11 2c ff 3e 3b 9b d6 be 73 62 25 be
       -0.23949948 0.49838307 -0.41915306 -0.16150837
000170 cc aa e2 bd 75 37 28 be 35 ee d5 3e 65 e9 1a 3f
       -0.11067733 -0.16427405 0.417833 0.6051238
000180 c9 ff 8e be 82 bd a2 3e 18 11 e7 3e 79 de cc 3d
       -0.27929524 0.31785208 0.4513023 0.10003371

weight f4 [100, 6]
000000 2a 81 ee bc 64 44 6e 3e b0 a1 02 be 86 51 33 bd
       -0.029114325 0.23268276 -0.12756991 -0.04377892
000010 c8 69 20 bd 62 7c aa 3d 92 39 0c be 21 ce 2a 3d
       -0.03916338 0.083245054 -0.13693836 0.041700486
000020 f5 e0 8c bd ac c5 97 3d c3 cb 54 be b8 a6 ce 3e
       -0.06878845 0.0741075 -0.20780854 0.4036157
000030 05 17 f4 bc 11 5a 57 be 26 3b df 3d 6f 3a bf bd
       -0.029796133 -0.21030451 0.108999535 -0.09337317
000040 43 0e 2d be 9e fd 5d 3e d7 ec 1b 3e 01 29 97 3d
       -0.16899972 0.21678779 0.15227066 0.07380868
000050 fb f0 dd 3d 01 2a 26 be 4f d1 af 3d 4e 4c 00 3d
       0.10836979 -0.1622696 0.08584844 0.03132277
000060 33 70 1c bd 97 f3 99 3e d5 51 06 3e 37 dd 82 be
       -0.03819294 0.30068657 0.13117154 -0.255594
000070 09 49 c6 3c 88 01 b8 3c 52 f3 8b bd 6a e8 94 3d
       0.024204748 0.022461668 -0.06833519 0.07270892
000080 df 2b 20 be 8f bf a6 3e 47 fb 99 3d 0b f3 2a 3c
       -0.15641735 0.32568023 0.075186305 0.0104339225
000090 b7 2e 18 be 78 aa 05 3e 15 c3 04 3e 85 54 43 3e
       -0.1486157 0.1305331 0.12965043 0.1907521
0000a0 cc b9 35 3d f1 1f ec bc 5f 1a f3 bd 01 8a 16 3c
       0.044366643 -0.028823825 -0.11870264 0.009188176
0000b0 ea e0 d1 bd b6 8f 28 be 2c f9 7f be 26 27 a1 3d
       -0.10247977 -0.16461071 -0.24997395 0.07868795
0000c0 2e 88 2a 3d 17 3a b3 3d 32 fb a7 3c d7 bf e8 bb
       0.041633777 0.08751314 0.020505521 -0.007102947
0000d0 57 01 fa 3d 5f 99 20 be 49 46 d9 bd 5c de dc bc
       0.12207287 -0.15683506 -0.10609109 -0.026961498
0000e0 1f 7f 23 3e 1b b2 0d be 67 08 87 3d 6f 1a 24 3e
       0.15966462 -0.13837473 0.065933995 0.16025709
0000f0 7a d2 cf 3d c8 b7 8a 3e 6d c7 2c be 2c 7f d0 be
       0.10147567 0.2709334 -0.1687295 -0.40722024
000100 e0 74 e4 bd 6c 5b b9 39 0a 99 3b be 7a 2b b0 3c
       -0.11155105 0.00035354064 -0.18320099 0.021505106
000110 e2 6c 51 bd ac 0d e4 3c 4f ee fc 3c 94 c5 30 be
       -0.05112923 0.02783855 0.030875353 -0.1726287
000120 3c e5 3c 3e f3 8e 49 be c1 f1 17 3d 9d e5 6e be
       0.18446821 -0.19683437 0.03709579 -0.23329778
000130 7d 25 16 be 3f 2a 69 3d b6 c8 80 be de a7 ac bd
       -0.14662738 0.056925055 -0.2515313 -0.084304556
000140 41 42 09 be 05 8c 1b 3e 45 41 ae bd 67 51 2a bd
       -0.1340418 0.15190132 -0.08508543 -0.041581538
000150 53 f0 34 3d 2a e3 75 bd e4 d2 08 3e 76 a7 21 3e
       0.044174504 -0.060031094 0.13361698 0.15786538
000160 72 f7 7e bc 2b 87 d3 bd b0 ea a5 3c fa 38 0e 3e
       -0.015561925 -0.103285156 0.02025351 0.13888922
000170 b2 8e ca bd f3 f7 35 3d 15 76 f1 3d 1f 89 67 be
       -0.09890498 0.044425916 0.117901005 -0.22610901
000180 6e 43 e8 3c 01 a4 f4 b7 ad 5f 94 3d 2f d6 92 3d
       0.028352465 -2.9163437e-05 0.07244811 0.071697585
000190 95 42 25 be f5 6d 96 3d f6 d6 83 3e cb dc 98 3e
       -0.1613868 0.073451914 0.2574994 0.29855952
0001a0 07 0b ba 3d 90 77 39 bd ed f7 84 3d 81 8b 97 bc
       0.090841345 -0.04528004 0.064926006 -0.018499138
0001b0 d3 26 b4 bc 80 d6 24 bd fb ae aa 3d cb 1d 86 3d
       -0.02199117 -0.040243626 0.08334156 0.06548651
0001c0 a0 d4 10 3e 5f 04 ea ba 5c e1 25 bd 06 dc c1 bb
       0.1414361 -0.0017854086 -0.040498123 -0.0059161214
0001d0 fc bc 87 be 67 fa 2c 3e 3f bf 2f bc 6d 24 23 3d
       -0.2651137 0.16892396 -0.010726749 0.03982966
0001e0 f2 59 89 be cb df 47 3e 64 eb e0 bc fb 77 83 3c
       -0.26826435 0.19518964 -0.027455993 0.016048422
0001f0 32 b8 a0 3e 2b 74 2e 3e c0 1d 37 3d 49 df 55 be
       0.3139053 0.17036502 0.044706106 -0.20885958
000200 70 c7 10 3e d1 b4 eb 3d 0c c2 d7 bd d7 03 de 3c
       0.1413858 0.11509097 -0.105350584 0.02710144
000210 66 cb ac 3d 8e 81 db 3d db 27 08 3e aa 34 6e be
       0.08437233 0.1071807 0.13296454 -0.23262277
000220 35 0d a3 be 79 91 b3 3d 03 b6 f2 bd 92 f4 67 3d
       -0.31846014 0.08767981 -0.11851122 0.056629725
000230 a7 04 61 3d aa bd 52 be 6c 6e c7 3e 11 ee 0d 3d
       0.054936077 -0.20580164 0.38951433 0.034650866
000240 20 ed 4b be a2 d0 8f bc 8f c9 bc bc d7 5f 51 3e
       -0.19914675 -0.017555539 -0.02304533 0.20446716
000250 6a 32 d1 3d 08 db 10 3e 6f c9 29 3b c1 7b 07 be
       0.10214694 0.14146054 0.0025907417 -0.13230802
000260 bf 82 2e 3e 78 11 41 be 4a 2c b4 3d 0c 35 33 3e
       0.17042063 -0.1885432 0.0879751 0.17500705
000270 47 25 bd bd 7b 44 f4 bd 6d ce b1 bd 8a 2e 4f 3e
       -0.09235626 -0.11927124 -0.08681951 0.20232597
000280 79 f8 2b 3e a8 b9 9c bc 00 27 1d bb f8 e3 8c be
       0.16794004 -0.019131497 -0.0023979545 -0.27517676
000290 85 a2 86 3e 5c 54 f7 3d cc 48 0b be 65 84 87 3c
       0.26295868 0.12076637 -0.13601989 0.016542623
0002a0 97 ae 53 be 3e 9b 09 3e 03 30 6d 3d 6c e7 4b be
       -0.2067207 0.13438126 0.057907116 -0.19912499
0002b0 73 6b 47 3d 9b a9 dd 3d fb fe 44 bd 1c a8 6e 3e
       0.048686456 0.10823365 -0.04809473 0.23306316
0002c0 4a 27 a5 3d 9b ab b1 bd e0 3b 30 3e 42 78 00 3e
       0.080641344 -0.08675309 0.1721034 0.12545875
0002d0 28 10 d3 bd 13 8a da 3d 6a 5d 4b bd d1 5a ef bd
       -0.10305816 0.10670867 -0.049649633 -0.11687244
0002e0 c7 3f 64 3d 08 9d a6 be ce 08 45 be 8a 95 f2 bd
       0.055724885 -0.3254168 -0.1924164 -0.118449286
0002f0 f6 1b c7 bd 61 95 ea bb 3e b7 09 3d 23 8b 6a bd
       -0.0972213 -0.0071589206 0.03362202 -0.057261597
000300 cb 7c 05 3e 85 c7 1a 3e ff 02 28 be b4 3b 00 be
       0.13035886 0.15115173 -0.16407393 -0.12522775
000310 78 1a 7c bd 79 32 ec 3d b3 a6 b7 be 74 48 2c be
       -0.06154868 0.115330644 -0.3586937 -0.16824514
000320 eb 6b af be f1 a9 66 3d af 2f 5b bd 1e fe 73 3c
       -0.34262022 0.056314413 -0.05351227 0.014892129
000330 b1 86 f0 bb 21 5b 3d bd 88 a5 bf 3c 0c 7e fa 3c
       -0.007340275 -0.046229485 0.023394361 0.030577682
000340 84 b5 c8 3d b7 52 5c 3d 7b 9c a9 3d b9 47 77 3e
       0.09800246 0.05378982 0.082817994 0.24148454
000350 b5 79 70 bd 95 38 71 3e 6f b7 d3 bc a4 55 be 3d
       -0.05870982 0.2355674 -0.025844304 0.092936784
000360 43 6f b9 3e e7 35 d1 bd 42 8a f5 bd 5f 2d 54 3e
       0.36217698 -0.10215359 -0.11989261 0.20720433
000370 7f 70 90 3d 82 d1 13 3e c6 33 9f 3e 01 b5 f3 3c
       0.07052707 0.1443539 0.31094187 0.029749395
000380 1d 24 b6 3c 9d 14 7f be 13 b0 e7 bd 43 9b 79 3d
       0.022234017 -0.24910207 -0.1131288 0.060939085
000390 d6 bf 45 3c 81 d3 7e bd 57 c6 2c 3d 14 99 86 3e
       0.012069663 -0.062213425 0.04218134 0.26288664
0003a0 0a 7c e9 3d ce 6c dc bd ac 02 a9 bc 34 78 8d bd
       0.11400612 -0.1076294 -0.020631157 -0.069076926
0003b0 7d ab 1b 3e c7 03 60 3d 23 30 bf bd 32 e6 ce 3d
       0.15202136 0.054691102 -0.09335353 0.101025
0003c0 ef 47 05 3e 28 b3 84 3e c1 5c e8 bc 6b 30 99 bc
       0.13015722 0.25917935 -0.028364541 -0.018699845
0003d0 8c 12 ba bd 45 d7 66 be 06 84 9d 3d 40 9a 15 be
       -0.09085569 -0.22543056 0.07691197 -0.14609623
0003e0 b1 c4 d8 bd 7e 29 c5 3e 1f cd 73 bd 8c 85 83 3c
       -0.10584391 0.3850822 -0.05952179 0.016054891
0003f0 55 04 45 3e 85 72 a0 bd 06 8e 95 3d e7 29 e8 3d
       0.19239934 -0.07834343 0.073024794 0.11336117

bias f4 [100]
000000 c0 76 8c be 3b 9e bc 3d 57 57 c6 3e 7c 45 33 be
       -0.2743435 0.092098676 0.3873851 -0.17506975
000010 e4 17 e6 3c fd 94 d6 3e 19 28 b7 3e 7e 12 bb 3e
       0.028087564 0.41910544 0.3577278 0.36537546
000020 43 6f ac be c6 2a 09 3e 9f 3b b0 be 2c 22 cf 3c
       -0.33678636 0.13395223 -0.34420487 0.02528485
000030 d2 f7 b0 be 20 24 92 3d 0f e2 4d 3e 83 d2 ba be
       -0.34564072 0.071357965 0.20105766 -0.36488733
000040 8f 95 0f bd 29 f0 32 be cb 42 ad 3e 8b 73 8b bc
       -0.03505474 -0.17474426 0.33840021 -0.017022869
000050 24 61 3e 3e f5 da a0 be f5 35 63 3d a0 39 a3 3e
       0.18591744 -0.3141705 0.05547138 0.31879902
000060 f3 b1 73 3d 5f 65 0b be e1 36 50 be 1e e3 8a 3e
       0.059495877 -0.13612889 -0.20333435 0.27126402
000070 73 fd 53 3e d4 da 97 3d e9 8e 86 3e 5c 12 57 be
       0.20702152 0.07414785 0.26280907 -0.21003097
000080 e3 fb 97 be e5 a9 04 be 3c d5 90 3e 5c c4 d3 be
       -0.29684362 -0.12955435 0.28287685 -0.41360748
000090 ce e8 3c be af 66 39 3e 0b 3c 0c 3e 4c 9d 7e 3e
       -0.18448183 0.18105577 0.1369478 0.24864691
0000a0 96 15 0a 3e 86 20 b3 be e6 5d e9 bd 9a d1 9e 3e
       0.13484797 -0.3498575 -0.11394863 0.31019288
0000b0 a2 f1 06 3e c2 18 a4 3e 71 24 bf 3e 73 12 5f 3e
       0.13178113 0.3205014 0.3733249 0.21784382
0000c0 7f a3 3d be 7c 6e 36 be bc 1b a3 bd 6a 66 a0 bb
       -0.185194 -0.17815584 -0.07964274 -0.004895021
0000d0 49 54 8b bd ac b1 2c be 08 9a 86 3d 92 d7 92 3e
       -0.068031855 -0.16864651 0.06572348 0.28680092
0000e0 33 9d 92 be 2c 55 80 3e 86 bb ce be f3 b6 63 3d
       -0.28635558 0.2506498 -0.40377444 0.055594396
0000f0 9b 45 b3 be 7c a6 b7 3e e8 aa a6 be 36 eb 52 be
       -0.35014042 0.35869205 -0.32552266 -0.20597538
000100 5a 37 9a 3e 23 34 3c 3e db b2 bc 3e 3d e4 c7 3d
       0.30120355 0.18379264 0.36855206 0.0976033
000110 fe a3 dd be d2 02 97 be 5d 34 a0 3e 71 06 ce be
       -0.4328918 -0.2949434 0.3128995 -0.4023929
000120 42 75 cc 3e 26 a4 e6 bd b5 41 c9 3d fa b2 a8 3b
       0.3993321 -0.112617776 0.09826986 0.005148289
000130 e1 f6 cd bd a2 a7 8c bd e5 4d 0c 3e 59 dd da bc
       -0.10056854 -0.06867911 0.1370159 -0.026716875
000140 27 d1 18 3c 68 59 ad 3e 97 ab b4 3d ba ec 9e be
       0.00932721 0.33857274 0.08821791 -0.31039983
000150 a9 4b 97 be 4b 63 a0 3e 5e e9 12 3e 20 ad 25 3d
       -0.29549912 0.31325755 0.14346835 0.040448308
000160 c7 2f 24 be f0 bc a9 be 50 66 aa 3e fe a8 c0 be
       -0.1603385 -0.3315196 0.33281183 -0.3762893
000170 0b b0 3d be 7c c3 1d 3e e6 06 bb 3e 32 65 09 be
       -0.18524186 0.15406603 0.365287 -0.13417509
000180 fc 68 b4 be 64 8b dd 3d f0 cf ca bc 28 3e 0d be
       -0.35236347 0.10817602 -0.024757355 -0.13793242
