result/transfer_baseline_compare/synthetic/pretrained/0_vae(xn1.0_xa1.0_y1.0_kl0.1_tc1.0_css10.0_tf0.001_uxn3_uxa3).pth (torch, 773690 bytes, 64 tensors)

enc_un.in_layer.weight f4 [100, 2]
00000000: 7c29 903e 6b6e 06bd a184 07be 5813 b63c
00000010: 194f 09be 1826 053e 238c de3d 2574 79be
00000020: 2c1e 55bd 3505 17be 1f68 87be 8f8e 4dbe
00000030: 198a 3a3e 91e8 fabd ff1c 2c3e aaf3 3c3d
00000040: b563 aa3e 9f47 8bbd a9ee 4fbc 9937 1f3e
00000050: c51b 8dbd 242c 803d 2832 16be e299 c43d
00000060: 6be0 73bd 5b87 a6bc ef1d fcbd 773c 58be
00000070: 2e9c d7bd 67b1 ef3d 892f 20be e707 9dbd
00000080: c66c 01be a4d5 1bbd f141 31be 3dc4 b2be
00000090: 4b0e 02bd aa9f 0bbe 1531 01bd 2345 363e
000000a0: f6f8 4f3a ba67 963c f97e b0bc 76d7 6d3e
000000b0: 2256 81be b66c d4bc 266b c43c 3d46 9abd
000000c0: ab04 69bb b2d0 623e baeb 3cbe 7f0b 8bbe
000000d0: 0bb0 e53d 8abc 50bd e517 093e e6dc 1b3e
000000e0: 999d 6bbc 5795 5e3d 18a8 203e 0b90 593e
000000f0: 8378 a6bd 71d9 60be ee67 c5be 72ee 1cbe
00000100: 4b03 493d bab8 903e 2822 5abe 0edc 9cbe
00000110: 671d 90be cdd3 a2bd f36e 6dbe a193 adbd
00000120: 0740 27be beb5 a3bd 9e99 c73d bb7d 193e
00000130: 6718 36bd 410c 953e 6e7a 09be 4420 4abd
00000140: eefe fcbd 3522 423d c17f 8fbe 4c46 9a3c
00000150: 8477 d53d 658c 723e 80aa 23bd 7716 1a3e
00000160: da38 edbc f094 543d fb2f 62bc 64c5 d0bd
00000170: c79c 913c 11cb 20bd 397e a5bd d05b 9f3b
00000180: 1c1a 8a3d e9e4 0b3e a8ec f53d a5ee 083e
00000190: 6f67 f53d 18f5 b83d 9b12 4f3d 5319 cfbd
000001a0: b7f2 36be 1fb9 6e3e 011b 52be 3427 183e
000001b0: c568 c53d 0d31 c4be ea89 3bbe c135 e13c
000001c0: f532 aa3e 7b59 483e d855 1f3e 71ce 9e3d
000001d0: 6197 283e 090a 4a3e 10ed 49be 2b04 673d
000001e0: c061 113e 0793 0a3d 08cf 50be 959a dc3d
000001f0: a731 6cbe dbdd 3c3e a9f0 8b3e db67 f03d
00000200: b076 7f3d ef75 7b3e 7417 1bbd 69c2 74bd
00000210: 9fce 73be 0b0b ad3d 7bad 22bd 833b bbbc
00000220: 11f0 95bd 7637 053e 741b 183e d8e5 703e
00000230: 8829 9bbe be79 c3bd a4bc 173e 1e8f 6f3d
00000240: bd38 363e 5b88 28bd 279e d4bc 65d9 7cbd
00000250: 3d48 2d3e 8134 8fbd 9246 45bd 384f 92bc
00000260: 721d cdbd be56 253d 4f30 09bd d00f 7dbc
00000270: 75b4 15be 0068 1cbd 84c2 693e 32af 8c3e
00000280: 660b 483e 5e5e 0b3e 1ddd 64bc 88e2 253e
00000290: 3c30 64bd d3d0 22be 8c74 6ebd 612e 57bd
000002a0: caf4 95bd c8e1 98bd 24a9 b4be 1b9e 0b3e
000002b0: 5110 df3d b705 37be 62c0 a63d 951f af3c
000002c0: f865 85be 7819 9c3e b895 8dbb 1320 523e
000002d0: 97bd c0bd 49dd cebd 5673 373e e149 f2bc
000002e0: 67b9 3cbe 3f4f 88bd 282b b93d fc3f 543e
000002f0: 23be 34be 6a6c 593d 01c9 49be dd70 22be
00000300: ca46 083c 2930 873c 3526 643d e5c4 3fbe
00000310: 97a1 78bd 34d7 3fbe ea10 94bd 555d f23d
0.2815665 -0.032820147 -0.13234188 0.02222602 -0.1340908 0.13002813 0.10866573 -0.24360712
-0.052030727 -0.1474808 -0.26446626 -0.20073913 0.18216743 -0.1225139 0.16807936 0.046130814
0.33279195 -0.0680077 -0.012691178 0.15548553 -0.06890062 0.06258419 -0.1466757 0.09599663
-0.059540194 -0.020328214 -0.12310397 -0.21116816 -0.10527836 0.11703759 -0.15643133 -0.07667523
-0.1263915 -0.03804554 -0.17310311 -0.34915343 -0.031751912 -0.13635126 -0.03154095 0.17799811
0.00079335214 0.018360008 -0.02154492 0.23226723 -0.25261027 -0.025930744 0.023976874 -0.07532928
-0.003555576 0.22149923 -0.18449298 -0.27157208 0.11215218 -0.050961055 0.13388021 0.15220985
-0.014380836 0.05434164 0.15689123 0.21246354 -0.081284545 -0.21957947 -0.38555855 -0.15325335
0.049075406 0.28265935 -0.21302092 -0.30636638 -0.28147432 -0.07950554 -0.23186855 -0.084754236
-0.16333018 -0.07993649 0.09746097 0.14989369 -0.044456866 0.2911091 -0.1342561 -0.049347177
-0.123533115 0.047395904 -0.28027156 0.018832348 0.104231864 0.23686369 -0.039957523 0.15047632
-0.028957773 0.05189985 -0.013805385 -0.10193899 0.017774953 -0.03925616 -0.08080716 0.00486324
0.06743261 0.13661541 0.12008029 0.13372286 0.11982619 0.09031123 0.050554853 -0.10112252
-0.17866026 0.23312806 -0.20518114 0.14858705 0.09639124 -0.38318673 -0.18314329 0.027491452
0.33242002 0.19565384 0.1556009 0.07754219 0.16463996 0.1973039 -0.19719338 0.05640046
0.14197445 0.033831622 -0.20391476 0.10771672 -0.23065816 0.18444006 0.27332047 0.11738559
0.06236905 0.24556707 -0.037864164 -0.059755716 -0.23809288 0.08449372 -0.039716225 -0.022855526
-0.0732118 0.13009438 0.14854223 0.23525178 -0.30305123 -0.09544705 0.14818054 0.058486097
0.17795081 -0.041145664 -0.02595432 -0.06173076 0.16922088 -0.06992436 -0.048163004 -0.01786004
-0.10015382 0.040365927 -0.033493336 -0.0154456645 -0.1461962 -0.03818512 0.22828108 0.27477413
0.19535598 0.13610217 -0.013968733 0.16199696 -0.055710062 -0.15899973 -0.058216617 -0.052534465
-0.073220804 -0.07464939 -0.35285294 0.13634531 0.10891784 -0.17873274 0.08142163 0.021377364
-0.26054358 0.3048818 -0.0043208264 0.20520048 -0.094111614 -0.101008005 0.17915091 -0.029576244
-0.184301 -0.0665574 0.090414345 0.20727533 -0.17650656 0.053081907 -0.19705583 -0.15863366
0.008317659 0.016502457 0.0557005 -0.18727453 -0.06070098 -0.18734437 -0.072297886 0.11834208

enc_un.in_layer.bias f4 [100]
00000000: d0ed 2f3e 4bda 06bf 718e 293f 31fd a1be
00000010: e86b ee3e dbac 503d 5606 69bd 67d3 513c
00000020: 749b 1d3e edbb be3e eee0 243e c775 633e
00000030: ee0c 2fbf 9736 0d3f 3869 2b3f 5269 213f
00000040: a9b5 0e3f 54cc 0fbf b4c6 8abe 5f1c 2b3f
00000050: 4909 15bf 72cf 323f a92e 1bbf e1c6 08bf
00000060: f7da c93e d12c 09bf d56c 5ebe 68d0 0a3f
00000070: 2a98 1a3f 0e21 353f 2fd9 42be 84e2 1abf
00000080: 779c 3d3f ec9d 53be f5a9 adbe 72e1 5c3e
00000090: 872d 0cbf 75f9 033f a97d fd3e c1b0 15bf
000000a0: 02e0 20bf 8b8c edbc 0552 ad3e 61c3 aa3c
000000b0: 0dc4 d3be 8f57 b4bb f1f5 32bf cfad f1be
000000c0: c2fd e9be e177 203f e49f 2b3f 6def 97be
000000d0: 2c8f a23d 8984 b63e 6c8d 8a3d 9712 cfbe
000000e0: 08e4 ea3e 7ac0 f63e b032 c0bc ae9b 43bd
000000f0: 1d26 303f 4605 253f 1a0e e6be 5b7a 3e3f
00000100: 10cc 6b3e 112c 05bf a004 de3e 2eb1 04bf
00000110: 4caf 313f df71 fabe 9b8c 693e 12b3 8e3e
00000120: dd1d 4b3e 9e66 233f 8ee9 afbe 2c27 b3be
00000130: 1e55 2abf ae1d 44bd 16e7 babe a4da 9d3d
00000140: 69fe dabd d901 7f3e a097 293f 9545 763e
00000150: e24d 8dbe ccf4 a9be 124e 2abf d758 223f
00000160: 9c5b c6bd 6ad2 443e 6c1a 3a3d b688 01bf
00000170: 1088 e33e de0f e33e 2d34 9b3d 40ae e7be
00000180: beef aabe f0a9 f6bc 6b45 e0be 5d77 e2be
0.17180562 -0.5267684 0.66232973 -0.31638482 0.465667 0.050946098 -0.056890808 0.01280675
0.15391332 0.3725275 0.16101429 0.22212897 -0.68379104 0.5516142 0.66957426 0.6305133
0.5574594 -0.56171155 -0.27104723 0.66840166 -0.58217293 0.69847786 -0.6061807 -0.53428465
0.3942487 -0.5358401 -0.21721204 0.5422425 0.60388434 0.7075356 -0.19028161 -0.60501885
0.7406687 -0.20665711 -0.3391873 0.21570376 -0.5475697 0.51552516 0.49509934 -0.5847283
-0.6284181 -0.02899768 0.33851638 0.020845117 -0.41360512 -0.005503602 -0.69906527 -0.47202918
-0.45701414 0.6268292 0.6704085 -0.29674855 0.07937464 0.3564799 0.06765255 -0.4044387
0.458771 0.48193723 -0.02346167 -0.04775589 0.68808156 0.6446117 -0.44932634 0.7440545
0.23027062 -0.52020365 0.43362904 -0.51832855 0.69408107 -0.48915002 0.22807543 0.27870995
0.1983561 0.63828456 -0.34357876 -0.34990823 -0.6653613 -0.047879867 -0.3650443 0.07707718
-0.10693056 0.24903049 0.66246986 0.24049981 -0.27598482 -0.33194578 -0.66525376 0.6341681
-0.09685442 0.19220892 0.045435354 -0.5059923 0.44439745 0.44348043 0.07578311 -0.4525013
-0.33386034 -0.03011033 -0.43802962 -0.44231692

enc_un.h_layer.0.weight f4 [100, 100]
00000000: f45c 80bd 8bd4 113e 236c 4b3d a78d 82bd
00000010: 3fbd 8bbd b9c0 963b 2178 113e 8676 30be
00000020: 53fa c0bd 79a8 efbd 2e80 b53c b0c8 763d
00000030: bdeb 13be 43ae 94bc b0b6 863d 82cd 8bbc
00000040: 75ea 523e 7223 a6bd 1e19 e8bd c29a 34be
00000050: 0e94 983d 397b baba a681 09be da46 52bd
00000060: 13d9 0fbd 94a9 2f3d 09b5 febc 7e79 453e
00000070: 2b6b b23d 2f60 88bd cbff 55be 6447 0dbe
00000080: 518c a53d ad72 aebc 370d b03d 3572 1e3e
00000090: a52b 0e3e f656 7c3c f7b4 71bd 0872 c03d
000000a0: 8f81 f0bc 4241 243c 8112 14be 1fbf d83d
000000b0: 7852 87bd 3587 05be 383d b13d 94a2 90bd
000000c0: ddff abbd d0ee 27bc 58cf e63d fa55 0dbe
000000d0: 88b7 3a3d cd58 dd3d 5db2 8fbc 90ec 1b3e
000000e0: 0058 ffbd 065a ec39 b227 28be 60a7 8c3b
000000f0: b226 373d 4435 10be 65b0 5f3c db17 08bc
00000100: 673f a3bd d664 a43d 34b3 68bc 76ba afbd
00000110: 5867 103e 9d3f 103c ec1e 753d 34b2 3bbd
00000120: d21b 883d 91d0 053e b587 8b3e dd27 543e
00000130: a84d 2d3e c639 a6bd 97f5 2e3e 075f 41bd
00000140: 8cce 94bd 35b9 2abe 2bfa c13d a8ca 163e
00000150: 6f2c 5b3d 4416 8cbd 0193 bdbd 2388 393e
00000160: c23f 74bd e4a6 96bb 3633 fc3d cf0b dabd
00000170: 6f93 503c 514e 8e3d 6a53 503e f513 d93c
00000180: 05f1 083e a53f 13bd c004 df3d feef 823d
00000190: fd06 4d3d d53d 2ebe a34a e83d 7a3b c1bd
000001a0: 4032 99bd a45d d13d 2305 e2bd 7e77 21bd
000001b0: d9b1 833e e731 d43d 291d 9abd 3bc7 2fbd
000001c0: 03b2 4cbd 4e20 0b3e 9781 0e3e 9bca 1c3e
000001d0: eb9a aebc b345 623b c671 26be 07c3 133e
000001e0: bfff 14be ac87 b83a 7799 493d ca01 99bd
000001f0: 6d46 6a3e bb38 c6bc f544 fabd 482e 12bc
00000200: 1cff 413e 48b9 8e3e f477 3ebe e04c b7be
00000210: a5bc 373d 5aa6 b9bd 0a71 e2bd 8cc7 a6bc
00000220: 6524 f6bd 6359 2a3e 4380 3c3e 72b7 243e
00000230: e26c 153c 5839 ee3d beb2 e23d b5ab 033e
00000240: 742a 4dbd 6dab 0cbe f3ec 743b 6c3e 2bbe
00000250: 33af 57be c7ec 553c 0b7f e83d d7d6 e23c
00000260: 9a7f 1f3e 81cd a73c b6f3 28bc 7d65 3c3b
00000270: 1d9c 433c d3f4 85bd fc2e 673e df0b bd3c
00000280: 32b2 7d3e 45c9 253d f3d1 a7bd c403 16bd
00000290: dc88 0e3e 8fb9 8b3c 18ea 4c3e 6892 17be
000002a0: 52e9 273b fadc afbc 110a b13d 7001 903d
000002b0: 564a 97bd 1814 3d3e 41a0 043d 2a00 54bd
000002c0: b37a e63d 0b3b a8bc 36fd 9dbd ae33 373c
000002d0: 9274 133e 7e95 02be a019 7cbd 4d46 813e
000002e0: ced1 073e f4d9 a6bd 51d8 f2bd fb21 77bd
000002f0: d72f 563e fa10 ca3c cbcd b73d 945d 01be
00000300: 3ffe 9e3d ec9d 8ebc 7523 8bbd c042 c7bd
00000310: 3ebc 2bbe f2b3 bebd 2881 aabc c709 ebbd
00000320: 9c75 ddbc ffd6 9bbc 6209 233c 6da7 26be
00000330: df1f be3d 6f27 05be 84c7 24be ee1d d5bb
00000340: d8ca 213b 5c6d a33a 5fbb cc3d 0d39 9fbc
00000350: 52a6 adbd 9981 903d 0696 da3d f689 88bd
00000360: 46fb 133e 3186 b03c 2c7a c53c 0068 813d
00000370: b766 27bd 8409 4a3e 80c8 9bbd f5cf 23be
00000380: f238 a4bd 1982 a5bd 0691 8a3d 946a e9bd
00000390: 697e d43b bf4d 993d d628 933d 5155 20be
000003a0: ead2 7a3d 27fb 08be 0165 8fbe df36 8ebc
000003b0: cfc7 dbbd 5714 b03c 4104 af3d 2b1b 0cbe
000003c0: 9bc2 99be 43b4 843d 6db3 95b9 12ef b33c
000003d0: 7ae4 0f3d 1886 9b3d fad5 ea3b ed44 08be
000003e0: e32c 203e 5e9d 1fbd 446c 98bc 6e0e 86bb
000003f0: ba4f 12bd 6ec1 383e 8bab 34bd c618 e4bd
-0.062677294 0.14241235 0.049663674 -0.06374674 -0.06823205 0.004600611 0.14205982 -0.17232713
-0.094227456 -0.117020555 0.022155847 0.060249984 -0.14445396 -0.0181495 0.065778136 -0.017065767
0.20597251 -0.081122294 -0.11332916 -0.1763716 0.07450114 -0.0014227397 -0.13428363 -0.0513371
-0.035119127 0.04288633 -0.031092184 0.19284627 0.08711847 -0.066589706 -0.20898359 -0.13796765
0.08083404 -0.021294916 0.085962705 0.15473254 0.13883837 0.0154015925 -0.059010472 0.0939675
-0.029358653 0.010025324 -0.14460184 0.105833285 -0.066075265 -0.13039859 0.08654255 -0.07062259
-0.083984114 -0.010249808 0.112700164 -0.13802329 0.045585185 0.10807953 -0.017541105 0.1522696
-0.124679565 0.000450805 -0.16421393 0.0042924136 0.044714637 -0.14082819 0.013652896 -0.008306469
-0.079710774 0.080270454 -0.014202882 -0.085804865 0.14101923 0.008804229 0.059843943 -0.045824245
0.06645931 0.13067843 0.27251974 0.20718332 0.16924155 -0.08116488 0.17085873 -0.047209766
-0.07265958 -0.16672213 0.09471544 0.14725745 0.053509172 -0.06840184 -0.092565544 0.18118338
-0.059631117 -0.0045975316 0.12314455 -0.106467836 0.012730463 0.069485314 0.2034432 0.026498774
0.13373192 -0.035949368 0.10889578 0.06393431 0.050055493 -0.17015775 0.11342361 -0.094351724
-0.074802876 0.10222939 -0.11036136 -0.039420597 0.25721624 0.103610806 -0.07525093 -0.04291461
-0.049974453 0.13586542 0.13916622 0.15311663 -0.021314105 0.0034526407 -0.16254339 0.14429866
-0.14550684 0.0014078519 0.04921862 -0.07471044 0.22878428 -0.024196973 -0.12220184 -0.008922167
0.18944973 0.27875733 -0.18600446 -0.35800838 0.04485764 -0.09064932 -0.11056717 -0.020358823
-0.120186605 0.16635661 0.18408303 0.16085604 0.009120198 0.11632031 0.110692486 0.1285847
-0.050089315 -0.13737269 0.0037372678 -0.16723031 -0.21062927 0.01305694 0.113523565 0.027690334
0.1557602 0.020483734 -0.010312011 0.0028747015 0.011939076 -0.06540837 0.22576517 0.02307695
0.24775007 0.04047515 -0.081943415 -0.036624685 0.13919395 0.017056255 0.20011175 -0.14801943
0.0025621247 -0.021467675 0.08644498 0.07031524 -0.07387225 0.18464696 0.032379393 -0.05175797
0.11253872 -0.020535966 -0.07714312 0.011181755 0.14399937 -0.12752339 -0.061547875 0.25248948
0.13263628 -0.0814704 -0.11857665 -0.06033514 0.20916687 0.024666298 0.08974799 -0.12633353
0.07763337 -0.017409287 -0.06793872 -0.097295284 -0.16771027 -0.093116656 -0.02081354 -0.11476474
-0.02703362 -0.019023417 0.0099509675 -0.16274805 0.09283423 -0.13003324 -0.16091734 -0.006503812
0.0024687555 0.0012468505 0.09996676 -0.019436384 -0.08478989 0.07055969 0.10673146 -0.06666939
0.14451322 0.021548362 0.024106108 0.063186646 -0.04086944 0.19730192 -0.07606602 -0.15997298
-0.08018674 -0.08081455 0.06765942 -0.11397281 0.006484796 0.07485532 0.07185523 -0.15657546
0.0612363 -0.13377057 -0.28006747 -0.017360149 -0.1073147 0.021494074 0.08545733 -0.13682239
-0.30031285 0.06479695 -0.00028553177 0.021964584 0.03513 0.07593936 0.0071666213 -0.13307543
0.15642123 -0.038968436 -0.018606313 -0.0040910756 -0.035720564 0.18042538 -0.04410891 -0.11137538

enc_un.h_layer.0.bias f4 [100]
00000000: 8fcd a8bd f6b4 53bd 89fc b23d aea8 623d
00000010: 08ce af3d 4509 c8bd 155b 633c 0a09 babd
00000020: d478 f43c e633 ccbd 8923 a5bd d10d c7bd
00000030: 427d 27bd 08cd e6bc 5baf 96bd 084d dc3d
00000040: 0a10 2b3d 0b8a 073e f3c8 673c 68c6 bb3b
00000050: 375a c53d 0ab0 dcbd 96c4 053d 0a6e 8e3d
00000060: d3e1 cbbd ad52 4abd ae22 dc3b 7399 4b3d
00000070: b2b8 883d 6c52 be3d 0d43 9ebc 0f32 57bd
00000080: 5726 a3bd f5dd 743c 7b6a 773d c51a 1f3d
00000090: cc7b a03d 3ed7 b23d 8f2a 0abe 9087 603d
000000a0: a6aa 363d 4e08 fc3d 4254 f63d b73e be3c
000000b0: 69ca 933d 8132 b43d 919c 463d e756 50bd
000000c0: b2d4 493d 92a1 68bd 21f0 bb3d 347d b8bc
000000d0: f2d9 943c 5baa d13d 3cc9 e13d 00b1 453d
000000e0: e557 33bc 4835 263d 60a8 c93d 141b a53b
000000f0: f7cf c9bd 48b4 8dbd 0d26 243d 1fa2 583d
00000100: 269f 5ebd ff96 7f3d b3fd f9bc 7113 8f3d
00000110: 2ee6 cf3d 6f00 b5bd 1820 eebb 5bb9 66bc
00000120: ab6b fe3b 8980 10bd ca49 f33c 1e3c ea3d
00000130: 5d34 96bc 9006 323d b88d 6abd d888 9e3d
00000140: db2a 683d d492 f93c 28c0 42bd fcce a63d
00000150: fff7 fc3d 6eae 8db9 74d9 ad3d 7b8e 5dbd
00000160: f6f7 f6bd d615 d23c 9588 473c 81ee 71bd
00000170: a5be e5bd fa09 eabd 6063 f23c 0ced c5bd
00000180: 57df 20bd 3764 3fbd 4836 9d3d d44b 24bb
-0.08242332 -0.05168625 0.087395735 0.055336647 0.08584219 -0.09767393 0.013876696 -0.09083755
0.029842772 -0.09970836 -0.080634184 -0.09719432 -0.04089094 -0.028173938 -0.07357665 0.1075688
0.041763343 0.13236253 0.014147031 0.005730439 0.09636348 -0.10775764 0.032658182 0.06954582
-0.09955182 -0.049395252 0.0067180013 0.049706887 0.06675853 0.092930645 -0.019319082 -0.052537974
-0.07966297 0.014945497 0.060404282 0.03884389 0.078361124 0.087324604 -0.13492797 0.054816782
0.044596337 0.123062715 0.1202779 0.023223264 0.07216341 0.08798695 0.048489157 -0.050864127
0.049275108 -0.05679471 0.0917666 -0.022520639 0.01817033 0.10237571 0.110247105 0.048264503
-0.010946249 0.040578157 0.09846568 0.0050386284 -0.09854119 -0.069191515 0.04007535 0.052888986
-0.054350995 0.06239986 -0.030516481 0.0698613 0.10151325 -0.08837973 -0.0072670095 -0.014082278
0.0077643 -0.03527883 0.029698271 0.11437248 -0.018335516 0.04346329 -0.05726406 0.077409446
0.056681495 0.03046552 -0.047546536 0.08144948 0.12351989 -0.00027023576 0.084887415 -0.054090958
-0.120590135 0.025645178 0.01217856 -0.059065346 -0.11218003 -0.11427684 0.029588401 -0.09664354
-0.039275493 -0.04672643 0.07676369 -0.002506961

enc_un.h_layer.2.weight f4 [100, 100]
00000000: 29bf d0bb 52ff 28be 0d1a 10bd cf58 6bbd
00000010: 8852 653b bd73 afbd 04bc 89be e9f6 173c
00000020: a3e3 a3bd 94da bcbd 8244 5a3c 06f7 bf3d
00000030: 3f3c c8bd 0cf7 0e3e cadc 8cbc 7a01 0c3e
00000040: 89a7 5e3d 5f9c 0c3e 00f7 5d3d 43a6 2bbd
00000050: 5e2e 06be 4ae8 f13c 8015 ccbd 2b30 6f3a
00000060: 8e43 f63d adb9 003b a506 183d de19 9abc
00000070: 9e37 ee3d 400c b8bc b1c6 21be d97f bc3d
00000080: 0a70 813c 46e5 a5bd 1185 1ebe c542 d2bd
00000090: 5158 3bbd c3cc 723d a3a0 80bd 04e9 07be
000000a0: 66a4 e43d c5fb e0bd 5f49 133e bd15 a73c
000000b0: dadf 313e c9b2 803d 4801 c2bc d549 37bd
000000c0: ae5d 97bd 8e9c aabc de95 f9bd 30ac 843c
000000d0: c4a9 0c3e 4281 893c 7200 bbbd c04f 6c3d
000000e0: db90 00bc ffef 85bd ce3d 9dbd edfb 18bd
000000f0: 91d6 7bbd 0dfd 19be 1231 5d3e e535 4a3d
00000100: df08 33bc e12d 543b 0567 b6bc d9c3 8bbd
00000110: bde3 e23c 2bb7 1d3d be81 1dbd e8c3 0a3d
00000120: a5a8 203d ff8b 99be c4c9 f43b 4c16 0ebd
00000130: 05e5 22be abab 76be 750b 893d d2ae 2ebe
00000140: 944c 303e 214b edbd 3885 57bd 0899 19be
00000150: b940 ab3d d7f4 5b3d 43a8 e4bd 44ac 583d
00000160: 0b56 b3bc 14be 883e d4e8 243e 23c9 d7bd
00000170: 323c 0d3d e16d d53d a980 3e3e 73f6 e1bd
00000180: af01 e9bb 7059 e7bc 397c 0a3e 3929 e13c
00000190: 3e4a 2d3e 3b51 e93c d850 f8bc 97f9 d43d
000001a0: 000c cd3c 9017 1ebe a6d4 6a3a 6c11 283d
000001b0: 88d1 91bb ed1a bd3c bc06 f63b f8f9 80bd
000001c0: 1299 c9bb ae88 013e d99a 463b 3909 8a3d
000001d0: e680 03bd bdfe 95bb 67a6 243d 186d 9cbd
000001e0: 4fa8 39bd 6e86 bbbd d86a f43d efb7 b6bc
000001f0: 9c87 1e3e ffd7 343d aac7 ff3c 391c 51bd
00000200: 0f1e 06be 8324 9dba 2e2f e73c a15e 0a3e
00000210: 256d ca3d ab54 cb3d 249f 17bd c8e7 5f3d
00000220: 88d8 713d ab36 573e d946 e13d fd31 c5bd
00000230: bc5b 0f3d bf9d 043e 5cfa b83c 6dc6 31be
00000240: 1fed 08bb 6440 3e3e 48ad 08bd 6649 5abe
00000250: a9c9 3fbd 5ea2 3dbc c967 ab3c cdbb 00be
00000260: 2cbf 6ebd 0d85 5dbd 747b f6bd 9593 013d
00000270: 0d82 09be 8ec8 503e 4a7c 9d3d 2483 1f3e
00000280: a2c0 653e 4ea0 c6bd aea8 863d a200 493d
00000290: 95ea fb3d 9473 3cbd 517b bdbd 7f3e 5c3c
000002a0: b73c c0bd 1632 7f3e 133e c5bd 3d04 043d
000002b0: cd51 183d 1b04 63bd 649d bdbd 213c a33d
000002c0: 0406 cc3d 4362 f3bd a027 dabd 1dce 8fbc
000002d0: da19 10be b16f 98bd 5af8 4e3d b907 823c
000002e0: 31b3 463e c478 563c 7065 973d 4e66 0bbd
000002f0: 1e2a fa3d 38ec 2d3e d322 45be 3778 df3a
00000300: 17ca 533d e473 5fbe 3573 fa3d 029c 3ebe
00000310: 0141 353e 6728 6e3d eff9 1e3d 15c9 ddbc
00000320: 3784 0bbe 957f 753d 76b2 12bd 1890 63bd
00000330: 5b0d 33bd e4f6 85bc 5785 8b3d 7cc0 993d
00000340: add5 33be b932 693d 8972 e8bd 691c 92bc
00000350: 2865 263c 3d91 87bd 1a68 9b3b 80ef 5ebd
00000360: bbf8 1fbe 57ed 48bd e95f 75bb e5da 8b3d
00000370: 00c0 073e 38da 05be 1f85 e03d e9e7 243e
00000380: bad0 99bd 6ceb cd3d 1f21 45bc 59f2 3f3e
00000390: 7540 b8bc bb2f 03bd 06a9 dabd 1804 54bd
000003a0: 2ed3 9e3d edb1 bc3d 7289 7abd faab 343d
000003b0: 383a 26be 1d25 103e e5bf 6f3d 91f3 83bd
000003c0: 0882 b9bd bcc2 4abd 8bfe 373d 0c57 c5bd
000003d0: e753 9ebd 8de4 ecbd a075 83bc 82b5 3e3c
000003e0: dadf 63bd c100 0c3e 1f29 c93d 7334 d7bc
000003f0: a2f9 1cbe d433 263d 3ca4 fa3b 6be7 853d
-0.0063704443 -0.16503647 -0.035181094 -0.05745774 0.003499182 -0.08566997 -0.26901257 0.009275177
-0.08002403 -0.09221378 0.013321998 0.09373288 -0.09777116 0.13961428 -0.017195124 0.13672438
0.054358993 0.13731526 0.054190636 -0.041906606 -0.13103625 0.02952971 -0.09965038 0.0009124304
0.12024604 0.0019641921 0.03711571 -0.018811163 0.11631702 -0.022466779 -0.15798451 0.092040725
0.015800495 -0.08100371 -0.15480448 -0.102666415 -0.045738522 0.059277307 -0.06280639 -0.13272482
0.11164169 -0.10985521 0.14383458 0.020396108 0.17370549 0.062841006 -0.023682252 -0.044748146
-0.07390915 -0.020826604 -0.12186788 0.016195387 0.13736635 0.016785268 -0.09130944 0.057693243
-0.007847036 -0.06539916 -0.07677804 -0.03734963 -0.061483923 -0.15037937 0.2160075 0.049367804
-0.010927408 0.0032375979 -0.02226592 -0.06824464 0.027696485 0.03850476 -0.03845381 0.033878237
0.039223332 -0.2998962 0.0074703414 -0.034689233 -0.15907677 -0.24088924 0.066916384 -0.17058876
0.17216712 -0.11586595 -0.05261728 -0.14999783 0.08361954 0.053700294 -0.11164906 0.05289866
-0.021891614 0.26707518 0.16104442 -0.10536411 0.034481235 0.10421348 0.18603767 -0.110333346
-0.0071107964 -0.02824089 0.1352395 0.027485477 0.16922852 0.028481117 -0.030311987 0.10399168
0.025030136 -0.15438676 0.00089580787 0.04103224 -0.004450027 0.023084128 0.007508127 -0.06297678
-0.0061522806 0.12649795 0.0030304699 0.0674004 -0.03210535 -0.0045774863 0.040197756 -0.076379955
-0.045326527 -0.091565 0.11934441 -0.022304503 0.15481418 0.044151302 0.031223137 -0.051052306
-0.13097404 -0.0011989031 0.02822074 0.1351266 0.09884099 0.099282585 -0.037017003 0.054664403
0.05904439 0.21016948 0.10999841 -0.09628675 0.034999594 0.129508 0.022580318 -0.1736085
-0.0020893288 0.1857925 -0.03336838 -0.21317062 -0.046823177 -0.011574356 0.020923512 -0.1257164
-0.058287784 -0.054081965 -0.120352656 0.031634886 -0.13428517 0.20389006 0.07689722 0.1557737
0.22436765 -0.096985444 0.06575142 0.04907287 0.12300602 -0.04600866 -0.09252036 0.013442635
-0.093865804 0.2492145 -0.0963098 0.032230604 0.037187386 -0.055423837 -0.092585355 0.07970453
0.09962085 -0.11883976 -0.10652089 -0.017554337 -0.14072362 -0.074431784 0.050529815 0.015872823
0.19404294 0.013090316 0.073923945 -0.034033112 0.122150645 0.16984642 -0.19251566 0.0017049377
0.0517064 -0.21821553 0.12229005 -0.186142 0.17700578 0.058144 0.038812574 -0.027073422
-0.13624655 0.059936125 -0.035814725 -0.05555734 -0.04371391 -0.016353078 0.06812542 0.075074166
-0.1756198 0.05693314 -0.11349971 -0.017835813 0.0101559535 -0.06619499 0.0047426345 -0.054427624
-0.15622227 -0.04905447 -0.00374412 0.0682886 0.13256836 -0.13071525 0.10962891 0.16104092
-0.075105146 0.10054669 -0.012031822 0.18744792 -0.022491673 -0.03202794 -0.1067677 -0.051761717
0.07755123 0.09213624 -0.061166234 0.044109322 -0.16233146 0.14076658 0.058532614 -0.06442941
-0.090580046 -0.04950212 0.044920485 -0.096357435 -0.07730847 -0.1156703 -0.016047299 0.0116399545
-0.055633403 0.13672163 0.09822296 -0.026270127 -0.15329602 0.04057677 0.007648973 0.0653828

enc_un.h_layer.2.bias f4 [100]
00000000: 584f d4bd f55f 50bd bd1f 943d 9d8b f7bd
00000010: 2807 a43d c9ae 773d 6556 4e3d 852d 673d
00000020: 375b f13c 15e8 9c3d 7b1a 0f3d 8d9f 13bb
00000030: d9f0 983c e203 d53c 56d1 c43d e9e7 bc3d
00000040: ff24 8c3d 39d8 e6bd 0de5 86bc 9725 32bd
00000050: e36a 04bd 62b7 11bc bbf3 26bd 6b1b e0ba
00000060: 00c2 6bbd 8daf 193d f9e6 b7bd 0c06 313c
00000070: 53b4 f93d 45f7 513d 0d8f 9d3c 6f5f 6abd
00000080: 6c8f e33d 8857 c43a 61db 64bd 2c39 fcba
00000090: f041 95bc 8083 773d 8467 b2bd 362c c73c
000000a0: 4c06 e7bd 5023 443c 967c f3bc a99d 8abd
000000b0: fbe8 a4bd e952 c63c 7d8c 223d aca1 16bd
000000c0: 3311 133d ce7e 4bbd be78 b93d 46df 6b3d
000000d0: b33f 563d adbc 81bd 8b98 abbd 1b82 04bd
000000e0: 06ee 013e 5288 30bd f7e0 60bd 0cd6 98bd
000000f0: 4c85 583d b12e 883d 704b df3b def4 48bd
00000100: 531e 413c 487e 8abd ccfc 363c d6a3 42bd
00000110: 4e14 a83b ed53 b5bd 7c98 f53d 9237 fdbb
00000120: cdce 3c3d 9a8e 71bd beb1 ad3d 0c58 b0bd
00000130: 5dbf 7dbd e3a1 c5bd 3ef5 e03c 1c40 2dbd
00000140: 89f5 8dbd 39cc 68bd 6971 0d3d ccac b93b
00000150: d575 dabc 9140 60bd f9e7 e2bc 0d18 8b3d
00000160: ca79 c43d 6407 5d3d c189 a1bd 35ab e13c
00000170: b118 5cbc 3f9a b53d 3415 cb3c e6ba bdbd
00000180: d257 9a3d 724b 563c 3bca 5bbd 42fc 1fbd
-0.10366696 -0.05087276 0.07232616 -0.12087176 0.080091774 0.060469422 0.05037536 0.056439895
0.02946244 0.07661454 0.034937363 -0.002252552 0.018669533 0.026002828 0.0961024 0.09223921
0.06842994 -0.1127171 -0.016466642 -0.04349288 -0.032328498 -0.0088938195 -0.040759783 -0.0017098015
-0.05755806 0.037520934 -0.089796014 0.010804664 0.12192597 0.051261205 0.019233251 -0.05721992
0.1111134 0.00149797 -0.05587328 -0.0019243113 -0.018219918 0.060428143 -0.0871115 0.024313074
-0.11280498 0.01197131 -0.029722493 -0.067683525 -0.0805225 0.024209457 0.03968476 -0.036775276
0.035905074 -0.049681477 0.09056233 0.057585977 0.052306842 -0.06334815 -0.08378705 -0.03235064
0.12688455 -0.043098755 -0.054902043 -0.07462701 0.052861497 0.06649531 0.006814413 -0.04906165
0.011787015 -0.067623675 0.01116867 -0.047519527 0.0051293736 -0.08853898 0.11991975 -0.0077275718
0.046095658 -0.058973886 0.08481167 -0.086105436 -0.061950076 -0.09650018 0.02746069 -0.042297468
-0.06931598 -0.056835387 0.034531984 0.005666351 -0.026667515 -0.054749075 -0.027698504 0.06791697
0.09593542 0.053962126 -0.078876026 0.027547458 -0.013433621 0.08867311 0.024790384 -0.09264164
0.07536282 0.013079511 -0.05365966 -0.03905893

enc_un.h_layer.4.weight f4 [100, 100]
00000000: 908c c33c 6a0f 373d c1f5 b3bd 333b 1e3c
00000010: 4003 7f3d 7b52 67bc 7f80 803c 9038 cd3d
00000020: fd5a 5e3e 1ffc 79bd f573 413d 5564 95bd
00000030: 529c cbbd a032 a13b 4403 73bc 14d3 903d
00000040: c49f 853d d594 11be 17e0 113d 812f 83bc
00000050: 84a1 36be fe52 173e 3d41 213e 6a9d 2e3c
00000060: 1ac4 2dbd 387a 493d 45a8 4d3e 9e3f 253e
00000070: 3bf0 15be 2d71 5ebc ff1e 6b3d 4630 473d
00000080: 471e 67bc 84c4 793a 26e4 b3bd fbe5 203d
00000090: 043c 18be f4bd 1bbd 2ef2 86bd 565c 7ebe
000000a0: ef59 be3d 0c51 c33d 6972 9b3d 3ab8 01be
000000b0: f023 f63c a762 01be 909b f73c 2c7d 453e
000000c0: 6f71 dabd 9917 5d3d 8bc9 153e 8029 993d
000000d0: f27c e5bd b2e2 b8bb 139d cb38 71c6 13be
000000e0: 19b8 143e 8eb2 9c3b 2765 a13d 613e 89bc
000000f0: 77aa d63d 6cf7 02be 35d6 be3d 2262 933d
00000100: ace4 38be a992 94bd 96e3 5e3c 0d4f 1a3d
00000110: 17cb 9ebc 8b08 873e f6c0 06be 84cf 203e
00000120: e295 c23d a7b4 073e 2fb5 683d a7c2 18bc
00000130: 6833 02be 4a7e 0a3e f8a7 aabd e0bc 0c3e
00000140: d8f8 4b3c 45d2 12be 08e3 63bd a6a7 433d
00000150: 875e 16bd b8c9 dd3c 69c1 b93d aa5d 9cbd
00000160: 4c6f bbbd 05c7 91bd d3d5 6e3c a981 59bc
00000170: 96ad e73c a700 65bc 9914 a1ba 3244 eebd
00000180: c3f5 8bbd 03b0 f6bd 85d0 663d 533f 7d3b
00000190: b52b 29be d780 293c c6bc a8bb 0423 9e3c
000001a0: bb70 a9bd b14d 96bb 2f77 4cbd e15c 4c3d
000001b0: 0042 4c3e 786f 863d 268c 50bd d33d 99bd
000001c0: 5dc3 813c d934 213d c6ab 24bc 505e 44bd
000001d0: a384 993d d657 5dbd 5b98 d23d a783 32be
000001e0: 3807 f63c 9d38 993d 449a 8fba 3887 91bd
000001f0: 8ea4 ca3d 855a cd3d f484 be3b 7a43 9f3d
00000200: 3a8d a63d 78a8 c9bc 95b0 083e 0a84 2b3e
00000210: e152 d83b cfaa 583d ccf7 643d 1f2a 38be
00000220: bdbc 65bd 6053 f03c cbb5 c3be 3e38 123e
00000230: 6895 c9bd 259c 5fbd 0593 adbc c0c3 033e
00000240: f42c eebd 44a2 df3d 877e b63d 9eeb 04bd
00000250: 469e 2abd 448b 39bd 4ab0 d93d bb55 273e
00000260: 99fc 9dbd 4ab2 f53d a349 243c 38a1 523d
00000270: 010f efbd 1cff 0ebe 6ef4 0cbd dbe3 9cbd
00000280: 059b d6bd e983 c8bd f81b ca3d d43c 713d
00000290: 9626 24bd 0795 7e3d 79d3 163e a244 1cbd
000002a0: e627 afbc b9ae e03d 5901 1c3e 1291 2abd
000002b0: 52e1 d83d ecfc c8bd 85ab 25be f845 6bbd
000002c0: 387b b83c 314f 93bd ddcb 2c3e ce68 60bd
000002d0: cf3c 3c3d 6bc2 40be 0fc4 023e 2f30 e83c
000002e0: 5bb0 ed3b 5e93 033e 7833 003d 2b61 bd3d
000002f0: f368 803e 448b cabd 52e8 b3bd 210c 7c3c
00000300: 8eb8 98bc e601 023e 946b 1abe 43fd a13d
00000310: 100c b03d 96a7 de3d 6d77 a83d a275 2bbc
00000320: 1c1b 9b3c 5f44 68bd e399 dc3d 7b26 313c
00000330: 6cf3 2a3e b0ae ecbd e649 743d e71f 683d
00000340: 886b b8bd b37a 323e 639e 433e 759d 89bd
00000350: 60dc 7e3d 89f5 ea3a 5449 853b 119f 353e
00000360: d7b5 2e3e be13 413d 441c e93c a295 453e
00000370: fe99 763d 9908 f63c 3f50 a1bc 35f0 cfbd
00000380: 849c e53d f2a6 78be ec51 8dbe 4a67 143d
00000390: ca70 3a3d ad84 babc b669 a3bc 3171 613d
000003a0: d7cd 9abe fc66 d03d 1f6b 97bd dcc3 64bd
000003b0: 0f93 4bbd c1d8 153e 4b0f 7bbc b977 543d
000003c0: 77a3 26be 54df ca3d e38a 243e dba2 a8bd
000003d0: f1cf f0bd ecb0 df3d 904a c03d a2a6 273d
000003e0: 82bc 843d 6644 5c3c 14c0 fb3d 68f0 cd3d
000003f0: 9478 e2bc 7346 aebb f03e 373e eb23 71bd
0.023870736 0.044692434 -0.08787108 0.009657669 0.06225896 -0.014118786 0.015686272 0.10020554
0.21714397 -0.061031457 0.047229726 -0.072945274 -0.09941925 0.004919365 -0.014832322 0.0707151
0.065246135 -0.14216931 0.0356141 -0.016013863 -0.17835051 0.14777753 0.15747543 0.010657648
-0.042423345 0.049188823 0.20083721 0.1613755 -0.14642422 -0.013576788 0.057402607 0.04863002
-0.01410634 0.00095278793 -0.0878375 0.039281826 -0.14866644 -0.03802295 -0.06589161 -0.24839911
0.09294497 0.09536943 0.075901814 -0.12667933 0.030046433 -0.12635289 0.030225545 0.1928603
-0.10666167 0.053977583 0.14627664 0.074786186 -0.11205472 -0.0056422586 9.709052e-05 -0.14431168
0.14523353 0.0047820276 0.078806214 -0.016753377 0.10481732 -0.12789696 0.093182005 0.07196452
-0.18055981 -0.07254536 0.013604065 0.037673045 -0.01938395 0.26373705 -0.13159546 0.15704161
0.09501244 0.13252507 0.056813415 -0.0093237525 -0.12714922 0.13524738 -0.08332819 0.13743925
0.012449466 -0.14338024 -0.055636436 0.047767304 -0.036711242 0.027073726 0.09070093 -0.076350525
-0.091520876 -0.07118038 0.014577347 -0.013275542 0.028281014 -0.013977206 -0.0012289464 -0.11634101
-0.06833985 -0.1204529 0.056351203 0.003864248 -0.16520579 0.010345659 -0.0051494567 0.019303806
-0.08273455 -0.0045868983 -0.04991835 0.049893264 0.19947052 0.0656423 -0.050914906 -0.07482495
0.015840227 0.03935704 -0.01005072 -0.047941506 0.074960016 -0.054038845 0.10282966 -0.17433034
0.030032739 0.07481501 -0.0010956009 -0.07105869 0.098946676 0.10027031 0.005814189 0.07776542
0.081324056 -0.024616465 0.1334861 0.16749588 0.006601677 0.05289727 0.05590038 -0.17984818
-0.056088198 0.029336631 -0.38224635 0.14279267 -0.0984295 -0.05459227 -0.021188268 0.12867641
-0.11629668 0.109196216 0.08910852 -0.032451265 -0.041654848 -0.04529883 0.106293276 0.16341297
-0.07714195 0.119968966 0.010027322 0.05142328 -0.11672784 -0.13964504 -0.034412794 -0.076606475
-0.104787864 -0.09790785 0.09868616 0.0588959 -0.04007586 0.062153842 0.14729108 -0.03815139
-0.02138133 0.10970826 0.15234889 -0.041642256 0.105898514 -0.09813866 -0.16178711 -0.057439774
0.022519693 -0.07192839 0.16874643 -0.05478745 0.04595643 -0.18824165 0.12770103 0.028343288
0.007253689 0.12849185 0.031299084 0.09247049 0.2508007 -0.09889844 -0.08784546 0.015383751
-0.01864269 0.12696037 -0.150801 0.07909634 0.08596051 0.10871808 0.08225904 -0.010465058
0.018933825 -0.05670583 0.10771539 0.010812397 0.1669442 -0.115567565 0.059640788 0.05667105
-0.09004885 0.17429619 0.19103388 -0.06719486 0.062221885 0.0017925958 0.0040675793 0.1773646
0.17061554 0.04713797 0.02845586 0.19295362 0.060205452 0.030033397 -0.019691585 -0.10153238
0.112114936 -0.24282435 -0.27601564 0.036231317 0.04551772 -0.022768343 -0.019947868 0.05503959
-0.30235168 0.10175893 -0.073934786 -0.05585085 -0.049700793 0.14633466 -0.01532347 0.05187199
-0.16273294 0.09905878 0.16068606 -0.08234187 -0.11758412 0.10922417 0.09389222 0.040930398
0.064812675 0.013444042 0.12292495 0.100556195 -0.027645387 -0.005318457 0.17895103 -0.058872145

enc_un.h_layer.4.bias f4 [100]
00000000: 8928 983d 3695 d33d 2ebb b23d 039b 83bd
00000010: 09d5 d4bd d73a 1e3c fa4a 21ba fa6f 833d
00000020: ea98 233d c7d2 56bd 4a96 9f3d 6498 b33d
00000030: de2c 063c b338 9d3d 3236 1dbd 14f5 2cbd
00000040: 1eb6 8bbb b0bd 0e3d b5c6 bb3d c667 123d
00000050: 0892 233d 9dfb 7cbd 2832 a03c f9cb 8fbd
00000060: ecb6 25bd 4fed 24bd 1d02 413d e0b2 c53d
00000070: 9d71 b1bc 01bd 96bd b753 1fbd 353c 813d
00000080: e215 903c a021 3cbd e7e2 903d 6a16 ce3c
00000090: 42a2 06bd a043 7a3d 814c babb f629 d7bd
000000a0: f212 033c 4cff abbd 91c4 963d eec6 963d
000000b0: 6a32 eabd 9b8b 60bc 01f0 d83c f32d c3bc
000000c0: e819 91bd 2115 98b9 aaf3 a33d 462e 073d
000000d0: d14f ab3d 6aac 843d 7e58 8a3d c648 813a
000000e0: 3477 ab3d 66b4 9e3c 14a5 ff3c f06a 5cbd
000000f0: 8598 bf3d b4c3 d8bd 72aa b13b aa49 6abd
00000100: a605 38bd 2f64 493d 2def 0cbb fb98 383d
00000110: 62ef 383d fd8e 5c3d 9301 b83c 3c90 813d
00000120: 54a9 673d f563 9abc 99a0 76bd 1545 bebd
00000130: 54f4 763d 2e99 c43d f649 8dbd e60d 8bbd
00000140: 3b80 053d ee3d 733d 7424 b03d ebef 973d
00000150: a1dc 843d cc26 e23d 0c12 a0bd 929b cf3d
00000160: b16c a6bd 1e19 903d aa9a 1bbd 3ca4 72bc
00000170: 8af3 b0bd dd44 b73b 5205 53bc e86b 583c
00000180: 1c06 f2ba 9e61 5bbd 65dd 2abd 577c aebc
0.074296065 0.10331194 0.08727108 -0.064260505 -0.10392196 0.009657583 -0.0006152835 0.06417842
0.039940752 -0.052447107 0.07792337 0.087693006 0.008189408 0.0767683 -0.038381763 -0.042225912
-0.0042636534 0.03484887 0.0916876 0.035743497 0.039934188 -0.061763395 0.019555166 -0.070213266
-0.04045765 -0.040265378 0.047121156 0.09653258 -0.02166062 -0.073602684 -0.038898196 0.06310312
0.01758856 -0.045930505 0.07074528 0.025157172 -0.032869585 0.06109965 -0.0056853895 -0.1050605
0.008000122 -0.083983034 0.07361711 0.073621616 -0.11435397 -0.01370516 0.02648163 -0.023825621
-0.07085019 -0.00029007441 0.080054596 0.033003114 0.08364833 0.06478198 0.0675516 0.0009863607
0.083723456 0.01937313 0.031206645 -0.05381292 0.09355263 -0.105842024 0.00542193 -0.057199158
-0.04492726 0.04916781 -0.0021504865 0.04506777 0.04515017 0.0538473 0.022461688 0.06326339
0.05655797 -0.018846491 -0.06021175 -0.0929052 0.060291603 0.09599529 -0.068988726 -0.0678976
0.032592993 0.059385233 0.08600703 0.074188076 0.06487394 0.11042556 -0.07815942 0.101370946
-0.081262 0.07036041 -0.037989296 -0.014809664 -0.086402014 0.005592926 -0.012879686 0.013209321
-0.0018464956 -0.053559892 -0.041715045 -0.021299524

enc_un.mu_gen.weight f4 [3, 100]
00000000: a605 e9bd 1e88 1f3d f302 9f3e 0c88 653d
00000010: 4ecd febd 3911 8d3d b9b2 50be 782e 183e
00000020: 48bd cfbc df93 923d 8089 523e 5b16 ef3d
00000030: 2631 fc3d 9fa5 fdbd 82bd 973d ad62 803e
00000040: 1659 183d 0621 08be 9928 35bc afbd 24bd
00000050: 3eba 013e 6cec 4cbe f9db e2bd 29d1 e43d
00000060: d28c 023d d718 06be fc7a a03d 089b 8ebd
00000070: d819 b439 75d9 fb3e 86cf 71be 8428 31bd
00000080: f9cb 203e 3e76 3d3c 0c3d b33d ff08 72bd
00000090: 07fd babd f986 0fbe bf76 ac3e ced6 233d
000000a0: fba2 9dbd 1202 60be 4f90 05bd b333 023e
000000b0: 886a 10bd f54e 9fbd 9f71 7c3d df4c 763d
000000c0: d87d 003c b99c f23d 81e4 abbd e517 fa3d
000000d0: 65af a2bc de9a 953d 3c1d bbbe 7979 06be
000000e0: c299 23bd e76a 0f3e 5791 8b3e 8355 183e
000000f0: d144 34be dbb5 f8bc 00fd 433e 2cf2 8d3d
00000100: 1e9b af3d cd9d 17bd 90ec 08be d0d0 bcbd
00000110: 6d82 e23d 71a9 2f3d 1070 373e 0c8b 713d
00000120: 7287 0b3e 77f1 b53d 60c9 c0bd 441c 353b
00000130: ec9e 9c3d 28c2 983d 0167 3d3e 2ab1 64bd
00000140: f02c dd3d 4954 11be 2115 c9bc 72da c03d
00000150: fb7d 4a3a de73 013c 68e4 27be 241b bdbd
00000160: 0145 213e 5834 723d 9641 2cbe 920b 6fbe
00000170: 421d b23d a030 133e 1ace 563e f018 62bc
00000180: 96e6 4abe 0ea2 edbd c8bb 563e 4ebc 003e
00000190: 3ff1 9ebc 5358 003e bd07 62be d558 133d
000001a0: a86c 8f3e a99f ffbd 4d00 05be da00 a93d
000001b0: c9bb cabd 17a2 553e a3fe 733d 91f7 7bbd
000001c0: 39ce 133e 0a57 963e 9925 8abc eff3 95bd
000001d0: e40d c8bd 04b3 393d e871 84bd 692d 83be
000001e0: 3da4 9c3d 9d86 7b3d 7281 5ebc d5a7 a53e
000001f0: a718 813d 96d9 90be a8b3 153d 5eb5 273d
00000200: 7891 f73c 47f5 3cbe 0ec1 1d3e 9c5a cabd
00000210: e0ad a13d 3e7e 46be f1b0 59be 68be a0bc
00000220: b500 c4bd 4c3e 03be c861 733e cb3f 1f3d
00000230: ccb3 9d3e db80 6bbd 6039 953e 1aab ab3a
00000240: 37ab d8bd 5d2b 9b3e 7427 dcbd 10a4 2ebe
00000250: 3140 dc3c d2f7 d13d 48c1 a2bd e0e5 503d
00000260: 8422 ce3d 3946 ffbd 0cf7 74bb 3bb6 88bd
00000270: 5071 003e 7892 c13d c74d af3d 81d4 3fbc
00000280: c64d 053d f672 91bc 0b8a 013e d4d8 87bc
00000290: 73f9 c2bc 1a93 59be 45d7 333e 5c4f 60be
000002a0: 9198 a9bd fba1 b2be ce5c b0be 9ab4 043c
000002b0: 4cfc 5ebe ff37 d23c 165d a4bc d7a1 dd3c
000002c0: 8410 803d 8e7e 8b3d 5eef 2bbe 9fe0 083e
000002d0: 87be 7a3d c4fc f9ba 1499 6fbd b4fb 58be
000002e0: abc2 b63d 0073 99bd 2133 e4bd 44c5 0fbe
000002f0: 0160 e73d 07e2 babc 7945 06be 69c4 7d3d
00000300: e09d 6bbc 5837 da3d 7bca c8bd 28c0 41bd
00000310: e801 823d 7391 623b 44e2 2f3d e766 d5bc
00000320: f999 0abc 4afe febd 8b17 a83a f0bf bb3d
00000330: f173 953e 5493 e1bd bbf3 42be efde 2fbe
00000340: 9871 af3d 97a3 503d 972b a6bd 157e c03c
00000350: c83a 09be ced9 e23b 09ba 1a3f 41f3 0a3e
00000360: 9f22 d1bd 7237 20be 69a1 043c 23df 883d
00000370: c960 9e3d 4d2a 133c a0cf 1abe c309 293e
00000380: 55f2 1d3e 4c93 9a3b 6b1d a5bd 4b4c 4abe
00000390: 9bca 413d 61ac 41be 949e 2c3e 4708 4b3e
000003a0: d51b a8bd 2cb3 ef3d a697 3abe cb7e 03be
000003b0: f71c 8bbd f361 06be 3ba7 5cbd 92eb 83bd
000003c0: 2b71 8dbc db22 943d 451e 94be 0682 223d
000003d0: 8815 7d3e 0915 7bbd 16bc 46be d2ce 00bc
000003e0: bee1 f83b a20a 35be d4af 9dbc 8aea 69bc
000003f0: c862 063e 908b 0f3d b3d6 613e 9ebd e3bd
-0.113780305 0.03894817 0.31056938 0.056037948 -0.124415025 0.068880506 -0.20380677 0.14861476
-0.025358811 0.071571104 0.20560265 0.11674186 0.12314062 -0.12385105 0.074091926 0.25075284
0.037194334 -0.13293847 -0.0110570425 -0.04021996 0.12668702 -0.20012063 -0.11077113 0.11172707
0.031872578 -0.13095413 0.078359574 -0.069631636 0.0003435153 0.49189344 -0.2361432 -0.04325153
0.1570281 0.011563836 0.08751878 -0.05909061 -0.091302924 -0.14016332 0.33684346 0.039999776
-0.07697102 -0.2187579 -0.032608327 0.12715034 -0.035257846 -0.07778732 0.061631795 0.060131904
0.0078425035 0.11846299 -0.08393193 0.12211589 -0.019859025 0.07304929 -0.36545742 -0.13132276
-0.039941557 0.14005624 0.27259323 0.1487637 -0.17604376 -0.030360153 0.1913948 0.06930956
0.08574508 -0.037015725 -0.13371491 -0.09219515 0.11060033 0.0428862 0.17913842 0.058970496
0.13625887 0.088839464 -0.09413409 0.0027635256 0.076474994 0.07458907 0.18496324 -0.05583302
0.10799587 -0.14192308 -0.024546208 0.09416665 0.0007724461 0.00790116 -0.16395724 -0.09233692
0.15748979 0.05913195 -0.16821894 -0.23344257 0.08696987 0.14374018 0.20977059 -0.013799891
-0.19814524 -0.11603175 0.2097007 0.12571833 -0.019402144 0.12533693 -0.22073264 0.03597339
0.28012586 -0.12481625 -0.12988396 0.082521155 -0.098990984 0.20862614 0.059569012 -0.061515395
0.14434136 0.2936328 -0.016863631 -0.07321917 -0.097682744 0.04533674 -0.064670384 -0.25620583
0.076485135 0.061407674 -0.013580667 0.32354608 0.0630353 -0.28291005 0.036548287 0.04094445
0.030220732 -0.18452941 0.15405676 -0.098805636 0.07894492 -0.19384095 -0.21258904 -0.019622043
-0.09570447 -0.12816733 0.2376777 0.038879197 0.30801237 -0.057495933 0.29145336 0.0013097257
-0.10579532 0.3030652 -0.107497126 -0.17054772 0.026886078 0.10252346 -0.07947022 0.051000476
0.10065177 -0.12464566 -0.0037378697 -0.06675383 0.12543225 0.09451765 0.08559757 -0.01170838
0.032544874 -0.017755013 0.12650315 -0.016582884 -0.023800587 -0.21247521 0.17562588 -0.21905273
-0.08281053 -0.34889206 -0.34445804 0.008099699 -0.21775931 0.025661467 -0.020063918 0.02705471
0.0625315 0.06811248 -0.1679053 0.13366936 0.061216857 -0.0019072522 -0.058495596 -0.21189767
0.08923849 -0.07492638 -0.111425646 -0.14040095 0.11297608 -0.022812856 -0.13112439 0.06195489
-0.014380902 0.10655087 -0.09804245 -0.047302395 0.0634802 0.0034571558 0.042940393 -0.026050044
-0.0084595615 -0.124508455 0.0012824399 0.091674685 0.2919002 -0.11014429 -0.19038288 -0.17174886
0.08566588 0.05093726 -0.08113783 0.02349762 -0.1340133 0.006922937 0.6044012 0.13569357
-0.102116816 -0.1564615 0.008095124 0.06683185 0.07733304 0.008982253 -0.15118265 0.1650763
0.15424474 0.004717266 -0.08062252 -0.19755666 0.04731236 -0.18913414 0.16857368 0.19827376
-0.082084335 0.11704096 -0.18221912 -0.12841336 -0.06792634 -0.13123302 -0.05387042 -0.06441416
-0.017265877 0.07233211 -0.28929344 0.03967478 0.24715245 -0.061299358 -0.19407687 -0.00786181
0.00759527 -0.17679837 -0.01924888 -0.01427711 0.1312362 0.035045207 0.22054558 -0.11120151

enc_un.mu_gen.bias f4 [3]
00000000: 4a25 b53d 288b f1bc 74ab b5bd
0.08845003 -0.0294853 -0.08870593

enc_un.logvar_gen.weight f4 [3, 100]
00000000: 97cc e4bd 30e0 20be 47fa cebd 5e49 37be
00000010: bced a13d dfb2 09be becc 2c3d 204c 7abe
00000020: 5526 953c e63a 963e b6fa 38be b548 3b3e
00000030: 6ffd 133e 0ac1 563e 964b dbbe 77f8 2a3d
00000040: ad57 bc3d 5172 57be 95e3 ffbd 473a fc3d
00000050: e3d7 35be 17d4 e4be fdd0 ec3d d6f7 e2bc
00000060: a879 2dbe 0d6e 63bd 8696 03be 0a2a 10be
00000070: 56a6 c8bd 9bbf a5bc ebad 9fbe bff5 3d3d
00000080: 685c e9bd db87 903d 095c 3f3e 9307 283d
00000090: 1319 17be 6667 8fbd c3ec e93d b7af 20bd
000000a0: 5330 eabc b4e0 613e f9b6 80bd 4cf8 e3bd
000000b0: 4c84 a73e c173 b2be 5291 d63d 5e8d fa3d
000000c0: 1522 8a3e ffe3 543e 1aa9 44bd 3cd8 1a3e
000000d0: 4548 0f3e d222 423e 53c1 37be 9fbf 3dbe
000000e0: 485a a4bd 394e 833d 2809 3c3e 6141 ce3d
000000f0: 02fd cabb 3025 4dbc 9fba fbbd e74b 3cbe
00000100: be58 31be 0bd9 d0bd 4b4d 1d3e f16c 8abd
00000110: 823b 70be c7a9 fbbd fd06 c33d 876e 1b3c
00000120: 7a21 9c3d 588a 663d 4f79 12bd 9c32 a23d
00000130: 8fe3 8f3d 63c1 cd3d e44f 8e3d 61e4 753e
00000140: c034 aabe 1f88 693e bef7 7e3e 8c9b 07be
00000150: ea91 8fbe df2a 20be 9097 96be 602a 23be
00000160: a750 1b3e 9809 8bbe b97e 33be 21e2 50be
00000170: 3b50 703e 6579 023e fc12 09be 1135 913d
00000180: 8c03 4a3c 7c77 ab3d 7e57 20be 5490 9c3d
00000190: 35fc 003d d389 7cbe 1e5b 2fbe bd00 f8bd
000001a0: af81 87bd 7c1d 803e 81eb d2bd 880b a13d
000001b0: 6042 763e 8bc1 e33d 2d4f 3fbe 5a7b 6d3e
000001c0: ebd2 2e3d 1481 583d e02f bcbd 31b0 3a3e
000001d0: ea46 c2bd e4a4 05be f2f2 73be 6da9 ad3d
000001e0: 7d63 3bbe f1f0 8fbd 7277 5abc 6c69 df3e
000001f0: ac90 733b e8e4 8f3e 58e2 4cbc c8b9 2fbe
00000200: 1427 783d 7e7d 36be 4e11 04be 603e 09bd
00000210: b791 a5bb fbae e1bb 8bfe af3c f4b7 923e
00000220: 4308 01be 0329 05be 200b fa3d abb9 bc3e
00000230: e5b2 fb3e 2f65 b33e e292 0bbd 655c 79bd
00000240: d799 b53e e279 a73d 8b1d 4e3e 2068 113e
00000250: 6147 9a3d 3991 2c3e d3a4 afbe a7d1 31bd
00000260: 13a5 2f3e 3027 7fbd 847d 55bd 6642 84bd
00000270: 02e9 b9bd a559 ca3c 4c44 75be 8d70 d53c
00000280: a8ec dbbd 2501 6f3d 9568 2f3e 7e2a 56bd
00000290: 4fde 7bbe 625d f93d 803f 033e 1bc8 d7bd
000002a0: 357b c93d b45d ecbc 452d 6c3e 3ca5 203e
000002b0: bb8a 6ebd 74af d23e 1ba1 363e 5abd a03e
000002c0: ee2b a6be 77dd d6bd 7666 e63e 91e2 5bbe
000002d0: 52f2 fbbc b24c 65bc cdcd d43c 4e6e eebb
000002e0: 8c5b 9a3c fff2 a5bc e4c1 c8bd d714 c5bd
000002f0: 9eae 6ebe 13f1 ccbc fc23 25bd dedc 3ebd
00000300: 7341 a13c 0549 9c3d d8cd 0fbd 1717 3abe
00000310: d151 3e3d b93f 473e db76 073e 11a4 143e
00000320: c973 edbd ed68 08bd 54ff eb3c d196 02be
00000330: 9722 0e3e b8d2 7d3e 1765 553e 5dd1 c33d
00000340: 56ed 3bbd 3674 13be 8f4a a2be 69a0 473e
00000350: 09a9 b43d f57e 8a3d c314 493e 40a0 a6bd
00000360: 1fc8 eabd 6b8a 7cbe a13b bebe bb36 3f3d
00000370: 5121 9d3c 5426 f5bd ffb8 1e3e 5581 8d3e
00000380: 4a65 68b9 d9e3 b43d 194c 3ebe 4e96 493e
00000390: 5ccf 243e 9ac6 9dbd 3e01 26bd 5fcb 5b3e
000003a0: 5c77 fabd 0da3 513e d1ed 60bd 2a21 8d3e
000003b0: ff6d b3bd c491 82be bcfc 313e d9ef 8c3e
000003c0: 1a1a f43d 0ae5 d83d 7085 c8bd 7967 b8be
000003d0: 9094 a53e f32a 0abe 1932 9b3e f8ea 9e3d
000003e0: 85e5 a43d eff2 013e eba7 6f3c ec6b 263e
000003f0: aebe 483e 52cf 82be c725 96be 6b56 15be
-0.11171835 -0.1571052 -0.1010633 -0.17899081 0.07906672 -0.1344714 0.042187445 -0.24443102
0.018206755 0.2934181 -0.18064389 0.18289454 0.14452146 0.20972076 -0.42831105 0.04174086
0.0919641 -0.21039702 -0.1249458 0.12315803 -0.17758135 -0.44693062 0.11563299 -0.027706068
-0.1694094 -0.055524874 -0.12850389 -0.14078537 -0.09797351 -0.020232966 -0.31187376 0.04637694
-0.11394578 0.070571624 0.18687452 0.04102285 -0.14755659 -0.070021436 0.11422112 -0.039230075
-0.028587496 0.22058374 -0.06284899 -0.11131343 0.32718122 -0.34853938 0.104769364 0.12233995
0.26979128 0.20790099 -0.04801283 0.1512155 0.13992412 0.18958595 -0.17944841 -0.18530129
-0.08025032 0.06411404 0.18362868 0.10071064 -0.0061947117 -0.012521073 -0.122914545 -0.1838833
-0.17319009 -0.10197648 0.15361516 -0.0675906 -0.234602 -0.12288242 0.09522817 0.009486801
0.07623573 0.05628428 -0.03576022 0.07919809 0.07025825 0.10046651 0.06948832 0.24012901
-0.3324337 0.22805832 0.24899194 -0.1324293 -0.2804101 -0.15641354 -0.29412508 -0.15934134
0.15167485 -0.27155757 -0.1752881 -0.20398761 0.23468105 0.12741621 -0.13386148 0.070902
0.012329947 0.08372399 -0.15658376 0.07644716 0.031490523 -0.24661951 -0.17124602 -0.12109516
-0.06616532 0.25022495 -0.10298825 0.078635275 0.24048758 0.111209 -0.18682547 0.23191586
0.042681616 0.052857473 -0.09188819 0.18231274 -0.09486182 -0.13051182 -0.23823145 0.08479581
-0.1829967 -0.07028378 -0.013334142 0.43635118 0.0037165089 0.2810433 -0.012505136 -0.17160714
0.060584143 -0.17821309 -0.12897226 -0.03350675 -0.005052771 -0.0068873144 0.02148368 0.2865597
-0.12600808 -0.13003926 0.12209153 0.36860403 0.49159923 0.35038134 -0.034075625 -0.06087913
0.35468933 0.08177544 0.20128457 0.14199877 0.07533146 0.16852273 -0.34305438 -0.04341283
0.17152815 -0.06229323 -0.052121654 -0.06457977 -0.09077646 0.024700949 -0.23951834 0.026054645
-0.10738498 0.0583507 0.17129739 -0.052286617 -0.24596523 0.121760145 0.12817192 -0.10536214
0.09837953 -0.028853275 0.23064144 0.15688032 -0.058237772 0.41149485 0.17834894 0.31394464
-0.3245539 -0.1049146 0.45000046 -0.21473147 -0.030755196 -0.013995336 0.02597704 -0.007276333
0.018842481 -0.020257471 -0.09802607 -0.096231155 -0.23308799 -0.025017297 -0.04031752 -0.046597354
0.019684529 0.07631115 -0.035108417 -0.1817287 0.046464745 0.19457902 0.13228934 0.14515711
-0.1159435 -0.03330319 0.028808273 -0.12752844 0.13880382 0.24787414 0.20839344 0.09561417
-0.045880638 -0.143998 -0.3169751 0.19494785 0.088213034 0.067624964 0.19636826 -0.08136034
-0.11463951 -0.24662177 -0.37154868 0.046683054 0.019180926 -0.11970201 0.15500258 0.27637735
-0.00022162977 0.08832521 -0.18583716 0.19686243 0.16094726 -0.07703896 -0.04052853 0.21464299
-0.12229797 0.20472355 -0.0549143 0.27564365 -0.087612145 -0.25501835 0.17381567 0.2752674
0.11919041 0.10590561 -0.09791076 -0.36016443 0.32339907 -0.13492946 0.3031166 0.077596605
0.0805159 0.12690328 0.014627437 0.16252106 0.19603989 -0.25548798 -0.29325697 -0.14583747

enc_un.logvar_gen.bias f4 [3]
00000000: 7b3a 193d 8a84 353d 232e 0fbd
0.037409287 0.044315852 -0.03495611
