result/transfer_baseline_compare/synthetic/pretrained/1_vae(xn1.0_xa1.0_y1.0_kl0.1_tc1.0_css10.0_tf0.001_uxn3_uxa3).pth (torch, 773690 bytes, 64 tensors)

enc_un.in_layer.weight f4 [100, 2]
0.085521884 0.017375281 0.064627245 -0.068750784 0.0544034 0.3345362 0.04250837 0.0036419954
-0.040730257 0.03616149 -0.19910333 -0.07646691 0.018069789 -0.0005145281 0.15024628 -0.02430371
-0.13550821 -0.011743391 0.015400387 -0.12681372 -0.05281951 0.03837001 0.20841709 0.32519138
0.12233414 0.04109145 0.021862308 -0.13795677 -0.044965424 -0.14745528 -0.059422307 -0.1049315
0.05661358 0.19620898 -0.030295486 -0.14362831 -0.0594687 -0.15869552 -0.21776444 -0.017851476
0.065274 0.2287202 0.16023864 -0.03210913 0.3027306 0.22248976 -0.1439631 0.11297824
-0.100857124 -0.08466807 -0.0014024721 0.3657525 -0.04490696 0.30479026 -0.118601516 0.0608097
-0.11631518 -0.017126676 0.09021177 0.13265252 -0.06042703 0.12639135 0.10249819 -0.1894685
0.18317351 -0.15177272 -0.0017877402 0.0034391081 -0.04022765 -0.31334257 0.10658065 0.07174395
-0.13605496 0.0469682 0.032191113 -0.1308538 0.06668332 0.32587308 0.0067065996 -0.071059644
-0.06723697 -0.12959713 0.06816952 -0.19871557 0.015524386 -0.13765167 -0.25404525 -0.103138395
-0.036919292 0.01059655 -0.23488285 0.18041508 -0.37960953 -0.09549322 0.21763307 0.12304961
0.3437243 0.39194706 0.15222356 -0.17552255 0.30727273 0.1188121 0.2817323 0.035565004
-0.24716535 0.043779887 0.21918748 -0.3329782 0.013923867 0.23279823 -0.13565005 -0.3993015
0.12433589 -0.25977552 -0.09857564 0.016250066 0.116340235 0.00044340015 -0.23700888 0.015241377
0.008271601 -0.24134041 -0.09123707 0.006261717 0.110943064 -0.092758566 0.09932321 -0.0053655845
-0.058956053 0.15848166 -0.0017837752 -0.124391906 -0.12652606 0.13938023 -0.14305677 -0.15810113
-0.058366153 -0.17908433 0.08733652 0.2371717 0.09305295 -0.119222194 -0.08726009 0.031565476
0.16103384 -0.13332623 0.10361373 -0.07397825 0.12929742 -0.24832533 -0.033193037 -0.1712112
0.19110541 -0.020991609 -0.09759135 0.15719512 0.064982444 -0.075686686 0.004473597 0.13397162
0.04594997 0.0945787 0.28246647 -0.06841938 0.16795008 0.132725 0.14178388 -0.094274834
0.0152028985 0.15205818 -0.080759995 -0.2994908 0.06072922 0.06553083 -0.16209634 -0.20363165
0.03271587 0.14553057 0.010966843 0.061998233 -0.18605722 0.01740382 0.12127276 -0.33445197
0.09678115 0.0030304338 -0.16550717 0.00302135 -0.012102373 -0.060777236 -0.10693255 0.07390153
0.13924518 0.06392864 0.06990085 -0.27921608 0.085994855 0.26753294 0.042409573 0.08275155
00000000: 1926 af3d 9b56 8e3c 4a5b 843d 36cd 8cbd
00000010: 19d6 5e3d 5448 ab3e 421d 2e3d 8bae 6e3b
00000020: c5d4 26bd 121e 143d bee1 4bbe af9a 9cbd
00000030: 1807 943c 65e1 06ba 29da 193e 9318 c7bc
00000040: aac2 0abe 5a67 40bc e851 7c3c 75db 01be
00000050: 4559 58bd df29 1d3d 4a6b 553e 7c7f a63e
00000060: 528a fa3d 824f 283d 9518 b33c 8a44 0dbe
00000070: aa2d 38bd 84fe 16be ce64 73bd 54e6 d6bd
00000080: a4e3 673d 02eb 483e 3d2e f8bc 4d13 13be
00000090: 7495 73bd 1481 22be a4fd 5ebe 423d 92bc
000000a0: 60ae 853d a135 6a3e 9915 243e dd84 03bd
000000b0: 81ff 9a3e 5bd4 633e 106b 13be 2361 e73d
000000c0: 2e8e cebd 7466 adbd 28d3 b7ba e943 bb3e
000000d0: 5cf0 37bd 780d 9c3e 5ae5 f2bd 9813 793d
000000e0: a736 eebd 3e4d 8cbc f3c0 b83d 10d6 073e
000000f0: 5582 77bd bc6c 013e 92ea d13d 0804 42be
00000100: d691 3b3e 4f6a 1bbe 9b52 eaba a962 613b
00000110: c0c5 24bd 706e a0be f546 da3d 7eee 923d
00000120: fe51 0bbe ba61 403d d4da 033d 8afe 05be
00000130: 4491 883d d6d8 a63e 09c3 db3b b887 91bd
00000140: 89b3 89bd 1cb5 04be 769c 8b3d 187c 4bbe
00000150: ff59 7e3c 8ff4 0cbe 3812 82be 393a d3bd
00000160: af38 17bd 279d 2d3c 2185 70be bbbe 383e
00000170: 2e5c c2be f391 c3bd 34db 5e3e 6f01 fc3d
00000180: a2fc af3e 49ad c83e 7ee0 1b3e 2fbc 33be
00000190: da52 9d3e c253 f33d 373f 903e 9cac 113d
000001a0: ea18 7dbe 8a52 333d af72 603e 1e7c aabe
000001b0: ee20 643c a962 6e3e d9e7 0abe 3f71 ccbe
000001c0: d1a3 fe3d 4c01 85be 06e2 c9bd dc1e 853c
000001d0: ca43 ee3d 2978 e839 75b2 72be f8b6 793c
000001e0: 9c85 073c f121 77be 80da babd 172f cd3b
000001f0: 1e36 e33d 34f8 bdbd f869 cb3d c9d1 afbb
00000200: e77b 71bd 0449 223e 90cd e9ba 2fc1 febd
00000210: 0c90 01be b1b9 0e3e 797d 12be 43e5 21be
00000220: 5911 6fbd e261 37be 7ddd b23d 23dd 723e
00000230: 8c92 be3d c42a f4bd 6bb5 b2bd cd4a 013d
00000240: 0ee6 243e ac86 08be 6f33 d43d e981 97bd
00000250: 8b66 043e ff48 7ebe 6cf5 07bd fd51 2fbe
00000260: 23b1 433e 98f6 abbc f9dd c7bd c2f7 203e
00000270: 8415 853d 9f01 9bbd 4097 923b db2f 093e
00000280: 0936 3c3d 7ab2 c13d 729f 903e 761f 8cbd
00000290: 1bfb 2b3e 10e9 073e cb2f 113e 2a13 c1bd
000002a0: 9415 793c 24b5 1b3e 7f65 a5bd dc56 99be
000002b0: 34bf 783d 0735 863d 95fc 25be d184 50be
000002c0: 1301 063d f705 153e 46ae 333c dcf1 7d3d
000002d0: c985 3ebe 7592 8e3c da5d f83d 4a3d abbe
000002e0: 3235 c63d 3e9a 463b b67a 29be d701 463b
000002f0: 0849 46bc 8df1 78bd 74ff dabd af59 973d
00000300: 4a96 0e3e 05ed 823d 2d28 8f3d 69f5 8ebe
00000310: 121e b03d 14fa 883e a9b5 2d3d a579 a93d

enc_un.in_layer.bias f4 [100]
-0.70472234 -0.58592904 0.373706 0.18423267 -0.2945375 -0.5558671 -0.22549196 0.24189551
0.323156 -0.15262765 0.47747144 0.008972959 0.13456605 0.58526474 -0.7315134 -0.17989008
0.3537794 -0.184968 0.52074546 0.64716554 -0.3446311 0.46064848 -0.104689255 0.30557114
0.33200324 0.2342002 0.2103086 0.5771789 0.13054897 -0.5822832 -0.19283547 -0.39006191
0.37907708 0.349627 -0.60987145 0.13217823 0.14181417 -0.098686546 -0.5020465 0.52841425
-0.58671486 0.7299343 0.49129346 -0.35356343 0.6177343 0.09966754 -0.6284397 0.51426303
-0.16118483 -0.3102433 0.30682582 -0.62529796 0.16696681 -0.100455455 -0.6382487 -0.420821
-0.17234272 0.20020624 -0.6197423 0.62648714 -0.2973321 0.27429575 -0.07067574 -0.36741316
-0.56786615 -0.7203318 -0.6868485 -0.5213271 -0.6489766 0.6478901 -0.6103217 0.5901846
0.49573255 0.58288676 -0.24947031 0.20411302 0.42341858 0.4636393 -0.5778835 0.6123403
0.09586699 0.362508 -0.27134645 -0.2726996 0.6786514 -0.35070908 -0.2580235 0.12691395
-0.31090188 -0.69322103 -0.7372848 -0.49710587 -0.44021782 -0.3452934 -0.73071986 0.21701224
-0.4041359 -0.45661575 0.028150916 0.5152108
00000000: af68 34bf 72ff 15bf 6556 bf3e 7da7 3c3e
00000010: 9fcd 96be 4e4d 0ebf 5de7 66be 75b3 773e
00000020: b474 a53e 6c4a 1cbe 2377 f43e 5103 133c
00000030: afcb 093e e9d3 153f 7644 3bbf 1b35 38be
00000040: 9322 b53e 4068 3dbe 934f 053f a4ac 253f
00000050: 7d73 b0be 1eda eb3e 5267 d6bd d273 9c3e
00000060: 54fc a93e 2dd2 6f3e 235b 573e ffc1 133f
00000070: a1ae 053e 8310 15bf a976 45be 32b6 c7be
00000080: 6416 c23e 4f02 b33e 8920 1cbf bb59 073e
00000090: bc37 113e 2c1c cabd 1f86 00bf 2846 073f
000000a0: f232 16bf f9dc 3a3f d18a fb3e 4406 b5be
000000b0: d623 1e3f 7f1e cc3d 6de1 20bf bea6 033f
000000c0: a30d 25be 36d8 9ebe 4618 9d3e 8713 20bf
000000d0: 59f9 2a3e 97bb cdbd 4464 23bf da75 d7be
000000e0: 9c7a 30be dd02 4d3e 6ea7 1ebf 7661 203f
000000f0: ea3b 98be 7e70 8c3e 71be 90bd 941d bcbe
00000100: ad5f 11bf aa67 38bf 4ed5 2fbf b175 05bf
00000110: 5523 26bf 20dc 253f 0b3e 1cbf 5716 173f
00000120: a8d0 fd3e 1138 153f 2575 7fbe 0103 513e
00000130: 52ca d83e 2162 ed3e 2cf0 13bf 55c2 1c3f
00000140: ea55 c43d a69a b93e eced 8abe 489f 8bbe
00000150: 19bc 2d3f 2490 b3be a81b 84be bbf5 013e
00000160: 882e 9fbe ef76 31bf b2be 3cbf a984 febe
00000170: 3b64 e1be 4cca b0be 7510 3bbf 7538 5e3e
00000180: e7ea cebe 8ac9 e9be c09c e63c dbe4 033f

enc_un.h_layer.0.weight f4 [100, 100]
-0.1956467 -0.14823218 -0.014868415 0.08002763 -0.049146596 0.05056526 0.03058435 0.18540905
0.02010557 -0.012256394 -0.015344282 -0.12045333 -0.21071497 -0.090267904 -0.15076444 0.080696754
0.08006863 0.005613686 0.12225138 0.10471907 -0.21691103 -0.029525358 -0.10549491 0.22358751
0.07217536 0.26165786 0.03134282 -0.008984404 0.080402605 -0.024132997 0.12525985 -0.15682936
-0.11698147 -0.24473496 0.054828238 0.028882587 0.13841255 -0.12377848 -0.11489981 -0.18090615
0.0009906902 0.005698923 0.11485475 0.13245769 0.08263225 0.10009714 -0.0004657612 0.052147605
-0.21493658 0.032124087 0.0051994594 -0.030145735 -0.013203487 -0.05821456 -0.19949898 0.14126372
-0.14645365 0.10286025 -0.076846026 -0.07241817 -0.101925254 0.010818378 0.11199059 0.06627841
0.08345554 0.09970562 0.17624024 0.031342294 0.08051981 0.029741352 0.041535836 0.14790477
-0.035900503 0.06268742 -0.088102266 -0.012363843 -0.102049 0.07400021 -0.06722175 -0.13894117
0.11680579 -0.16337726 -0.04119618 -0.03892909 -0.07957648 0.011277269 -0.15611763 0.08852414
-0.05076805 0.051438276 0.05923931 -0.085461095 -0.0076610507 0.2722698 -0.10729026 -0.08140696
-0.16365094 0.034517087 0.17212994 -0.08235898 0.0147467675 0.023389677 0.0037878337 -0.04403101
0.15748875 0.111640595 0.18318985 0.10068967 -0.038874064 0.09685969 -0.0163791 -0.03773491
-0.05618911 0.010599542 -0.012255065 0.12641177 -0.20016779 -0.015246759 0.038129356 0.12150401
0.12952901 -0.050827004 -0.018060338 -0.14142261 0.028869895 -0.15369718 -0.102699 0.08985874
0.03477923 0.098498285 -0.037134983 -0.0575136 0.15045518 -0.019696224 0.093189836 -0.15915802
-0.06613709 -0.24045798 0.025824768 -0.18148293 -0.17142193 -0.25681937 0.029718138 0.07453169
0.059075832 0.035501197 -0.10096545 -0.2193473 0.010457542 -0.0633327 -0.027583057 0.19031706
-0.037934482 -0.020514887 -0.038545966 -0.022087276 0.21406727 0.0034180102 -0.011282423 0.07556004
0.069365144 -0.08870138 0.0750152 -0.04586832 0.01917266 -0.012657245 0.064646386 0.28749934
-0.035700932 -0.008233064 -0.11604744 0.04050533 0.015626699 -0.035174888 0.0155009795 -0.30950433
-0.02589223 -0.07603669 0.027928162 -0.12969223 0.05191458 0.016566081 -0.033903424 -0.05342172
-0.118376106 0.2258097 0.09184658 0.0048448807 0.0938752 0.12552865 -0.14148621 -0.019952966
0.060977608 0.12240285 -0.008692135 -0.087631114 -0.048446562 0.09769206 -0.10345383 -0.0625738
-0.018319635 0.050250903 -0.024268128 -0.14023548 0.09098586 0.041927382 0.12726907 -0.031467356
-0.14058661 0.049173184 0.057839308 0.027886026 -0.024706066 0.20507811 -0.13759914 -0.038152356
-0.034528524 0.0017442785 -0.16365795 -0.13499561 0.20528913 -0.20554583 -0.0662509 0.054269258
-0.08626339 0.01048789 0.054486062 -0.082779855 -0.048833143 -0.079851374 -0.077344514 0.0329651
-0.040661126 -0.052579217 0.007948773 0.25546128 -0.057479057 0.067748934 0.008264663 -0.0525705
0.14902997 0.041430898 -0.005180473 -0.024905482 -0.024650719 0.03711067 -0.029694717 0.13496745
-0.02702571 0.03125298 -0.10529215 0.05863182 0.044224028 -0.060836434 -0.012923213 0.14992289
00000000: 9c57 48be 2dca 17be a79a 73bc 87e5 a33d
00000010: f14d 49bd 851d 4f3d 088c fa3c dfdb 3d3e
00000020: 70b4 a43c 0bcf 48bc 9566 7bbc 3cb0 f6bd
00000030: aac5 57be 61de b8bd fe61 1abe 5744 a53d
00000040: 06fb a33d 03f3 b73b ee5e fa3d f476 d63d
00000050: ed1d 5ebe 2adf f1bc b70d d8bd 20f4 643e
00000060: add0 933d 05f8 853e 5461 003d 5233 13bc
00000070: 1faa a43d 90b2 c5bc 1e44 003e e097 20be
00000080: fb93 efbd cd9b 7abe 9393 603d 2d9b ec3c
00000090: 05bc 0d3e 927f fdbd 9750 ebbd 763f 39be
000000a0: 0cda 813a 08be ba3b f838 eb3d fda2 073e
000000b0: 193b a93d bbff cc3d 6931 f4b9 ba98 553d
000000c0: 5618 5cbe 8c94 033d 3a60 aa3b 30f4 f6bc
000000d0: 7053 58bc 6472 6ebd 7649 4cbe 70a7 103e
000000e0: f2f7 15be 65a8 d23d 7361 9dbd fa4f 94bd
000000f0: 30be d0bd 913f 313c 535b e53d fabc 873d
00000100: bdea aa3d 7632 cc3d 5278 343e c760 003d
00000110: 92e7 a43d 23a4 f33c 7b21 2a3d 5974 173e
00000120: 680c 13bd 4362 803d f66e b4bd b791 4abc
00000130: 11ff d0bd 6c8d 973d 8fab 89bd 9846 0ebe
00000140: e037 ef3d 5e4c 27be 53bd 28bd 1c74 1fbd
00000150: fef8 a2bd 4bc4 383c 4ddd 1fbe 254c b53d
00000160: 29f2 4fbd f1b0 523d eba4 723d 3a06 afbd
00000170: 8d09 fbbb f266 8b3e ffba dbbd b1b8 a6bd
00000180: 1d94 27be ca61 0d3d d542 303e d3ab a8bd
00000190: 6d9c 713c b59b bf3c 4e3d 783b dc59 34bd
000001a0: bb44 213e d3a3 e43d 1f96 3b3e 6336 ce3d
000001b0: 693a 1fbd 605e c63d 762d 86bc ec8f 1abd
000001c0: 8d26 66bd b4a9 2d3c 78c9 48bc 1672 013e
000001d0: c9f8 4cbe 8bcd 79bc 872d 1c3d 18d7 f83d
000001e0: 41a3 043e fa2f 50bd 46f3 93bc 17d1 10be
000001f0: 8f80 ec3c cb62 1dbe da53 d2bd dc07 b83d
00000200: aa74 0e3d 78b9 c93d da1a 18bd 6193 6bbd
00000210: ec10 1a3e fa59 a1bc 50da be3d 52fa 22be
00000220: e272 87bd 9e3a 76be 778e d33c a9d6 39be
00000230: 3b89 2fbe d47d 83be 7473 f33c 12a4 983d
00000240: 80f9 713d b469 113d f9c6 cebd 949c 60be
00000250: 1c56 2b3c 93b4 81bd ddf5 e1bc 7ae2 423e
00000260: 3061 1bbd d60e a8bc 60e2 1dbd 60f0 b4bc
00000270: 7334 5b3e b200 603b e9d9 38bc 39bf 9a3d
00000280: 500f 8e3d 12a9 b5bd 92a1 993d 6be0 3bbd
00000290: fb0f 9d3c 5560 4fbc 5365 843d 1d33 933e
000002a0: 243b 12bd f9e3 06bc 48aa edbd ebe8 253d
000002b0: 9003 803c 8b13 10bd d2f7 7d3c 5a77 9ebe
000002c0: f11b d4bc 20b9 9bbd 9ac9 e43c 0ace 04be
000002d0: 62a4 543d 97b5 873c 51de 0abd bcd0 5abd
000002e0: 2c6f f2bd a83a 673e 0f1a bc3d cec1 9e3b
000002f0: a441 c03d 958a 003e c3e1 10be 6774 a3bc
00000300: a8c3 793d 58ae fa3d 7569 0ebc f177 b3bd
00000310: e76f 46bd c612 c83d 9adf d3bd b126 80bd
00000320: 0f13 96bc e4d3 4d3d f4cd c6bc e499 0fbe
00000330: cb56 ba3d 0cbc 2b3d d352 023e eae3 00bd
00000340: f0f5 0fbe d269 493d e9e8 6c3d 3c71 e43c
00000350: 6064 cabc ffff 513e cae6 0cbe a545 1cbd
00000360: c86d 0dbd 46a0 e43a f395 27be 4a3c 0abe
00000370: 5037 523e 9b7a 52be 8dae 87bd 7149 5e3d
00000380: dcaa b0bd 66d5 2b3c c72c 5f3d 7c88 a9bd
00000390: 4305 48bd 1e89 a3bd cd66 9ebd 6a06 073d
000003a0: 488c 26bd 4e5d 57bd 923b 023c d2cb 823e
000003b0: 296f 6bbd f4bf 8a3d 8268 073c 2a54 57bd
000003c0: 509b 183e 72b3 293d f5c0 a9bb 9506 ccbc
000003d0: 4ef0 c9bc 5c01 183d 5642 f3bc e834 0a3e
000003e0: 0665 ddbc 2003 003d 69a3 d7bd eb27 703d
000003f0: 4124 353d a02f 79bd e2bb 53bc 6385 193e

enc_un.h_layer.0.bias f4 [100]
-0.08551849 -0.055277426 -0.12218711 0.124805264 0.018338718 0.039522994 -0.12952402 0.0044542914
0.066687204 0.052407417 -0.03442945 0.03433132 0.044240158 -0.0028747353 -0.023434926 -0.025162218
0.016401779 0.04598462 -0.098998874 0.10901162 -0.13445327 0.080270864 -0.007524896 -0.03351726
-0.009123854 -0.106593505 0.009051484 0.08238597 -0.09897848 0.07044139 -0.0063997474 -0.06613293
-0.12012765 -0.006738561 0.0042485795 0.09277206 -0.05798859 0.016256569 -0.047411405 -0.047031593
0.050436594 -0.0033366552 -0.07704642 0.0773958 0.06936996 -0.006154019 -0.10000994 -0.060653303
0.010477254 0.0042056395 0.0037837902 -0.018753866 -0.11529756 0.111638494 0.026038291 0.0862088
0.017069085 0.03146021 -0.04067194 0.010069295 -0.10833774 -0.13117915 0.04341904 -0.0938576
0.044754006 0.0045594703 0.115174286 -0.035354063 0.017217113 0.02702035 0.009533375 0.07057604
0.054290418 -0.07508659 -0.029534623 0.025969611 -0.057650156 -0.12935485 0.037381954 0.0045073642
-0.024479432 -0.041642033 -0.1007145 0.090979 -0.0016882734 -0.112913586 0.04471133 0.018395882
-0.026541581 -0.08378004 0.1078557 -0.052738592 -0.08957652 -0.072698876 0.09452213 -0.048699915
0.046444908 -0.051620435 0.032571856 -0.06318891
00000000: 5124 afbd 956a 62bd 3c3d fabd e799 ff3d
00000010: 143b 963c dde2 213d f2a1 04be 4ef5 913b
00000020: 4d93 883d 29a9 563d e505 0dbd 009f 0c3d
00000030: 2b35 353d 0e66 3cbb 9afa bfbc ff20 cebc
00000040: 065d 863c 5e5a 3c3d ecbf cabd 7c41 df3d
00000050: 1eae 09be 0d65 a43d 6793 f6bb 6549 09bd
00000060: 387c 15bc b24d dabd ad4c 143c fab9 a83d
00000070: 3bb5 cabd 9343 903d f9b4 d1bb b470 87bd
00000080: 7c05 f6bd 26cf dcbb ab37 8b3b 47ff bd3d
00000090: 7285 6dbd 7f2c 853c 7632 42bd 33a4 40bd
000000a0: 9a96 4e3d c9ab 5abb 83ca 9dbd b081 9e3d
000000b0: d611 8e3d a7a7 c9bb 03d2 ccbd 996f 78bd
000000c0: caa8 2b3c 76cf 893b 77f9 773b b5a1 99bc
000000d0: 2121 ecbd b9a2 e43d 414e d53c 3d8e b03d
000000e0: 77d4 8b3c 6cdc 003d 9f97 26bd aff9 243c
000000f0: 2de0 ddbd d453 06be 2ad8 313d 6a38 c0bd
00000100: fa4f 373d 9c67 953b 7fe0 eb3d 6ccf 10bd
00000110: e70a 8d3c c859 dd3c df31 1c3c 2c8a 903d
00000120: a15f 5e3d 00c7 99bd 98f2 f1bc 39be d43c
00000130: 9222 6cbd 9975 04be d21d 193d 83b2 933b
00000140: 1789 c8bc d690 2abd 6743 cebd 3353 ba3d
00000150: 0e49 ddba 3d3f e7bd 3a23 373d f6b2 963c
00000160: bb6d d9bc df94 abbd 73e3 dc3d 6c04 58bd
00000170: e573 b7bd 26e3 94bd d294 c13d 9079 47bd
00000180: 043d 3e3d f36f 53bd 116a 053d 3069 81bd

enc_un.h_layer.2.weight f4 [100, 100]
-0.09198887 0.009668029 -0.07271777 -0.021308077 -0.019373314 -0.169486 0.013260496 0.12971763
0.08166765 -0.12215905 0.092037395 0.06723332 -0.050252587 0.018888514 0.09471967 0.08630468
0.12689446 0.011739378 0.05940371 0.16050604 -0.119440645 0.109141804 -0.13417876 0.03781559
0.21953902 0.13196957 0.019967802 -0.02816519 -0.0456904 0.07629145 -0.013499883 0.059548795
-0.02023547 0.06940402 0.05301454 0.19429253 0.09604569 -0.14843744 -0.13114926 -0.007036433
0.066974364 -0.085734054 -0.13235292 -0.004422949 0.103245385 0.12779333 0.02224464 -0.06858803
-0.1980125 -0.07406292 0.042433884 -0.0668252 -0.043530177 0.043683525 0.07216722 -0.06724593
-0.022372115 0.18751252 -0.14678626 0.030574134 -0.08815883 0.0789251 -0.044086825 -0.032399602
0.017597584 -0.10440642 0.16322772 0.019113688 0.17421693 0.026940372 0.09007509 0.221994
0.12389699 -0.16013232 0.17058259 0.061264604 0.085635655 0.034140985 -0.03177089 0.024742404
-0.18151748 0.18514206 -0.116470024 0.01773528 0.055782884 -0.20525159 0.13437943 0.048008647
-0.03823306 -0.123251595 0.0042899293 0.07181007 0.18558048 0.041155297 0.04640008 -0.13920428
0.097268745 0.11757141 -0.016292248 0.025560457 0.068372086 0.108367786 -0.05753004 0.01645784
-0.04283981 0.08454266 0.048863076 -0.004402584 -0.0713529 0.044936847 -0.018901693 0.06707319
0.13270335 -0.020050418 0.027247632 -0.113873705 -0.08740915 0.09669772 -0.039628915 0.054709237
-0.10778022 -0.016136656 0.26362252 -0.01541703 0.009162563 0.24575208 0.028168632 -0.08772851
-0.12618975 -0.16129307 -0.267163 0.06894511 0.026107607 -0.02030946 -0.0058188 0.095207825
0.036985915 0.10390808 0.07476219 0.18308483 -0.006952759 -0.12805434 0.0315738 -0.114327885
0.0039417055 -0.14599416 0.14434277 0.1733306 -0.06517358 -0.14943753 -0.035200924 0.03896597
0.18047105 0.04147216 0.008232621 -0.016250331 -0.027406396 -0.014408421 -0.07634478 -0.14409836
0.1540817 -0.17472352 0.09490252 0.06390908 -0.042855423 0.061293717 -0.31110522 -0.10969717
-0.20001219 -0.092690684 -0.13155119 0.1287948 0.06268486 0.006424505 -0.0075157695 0.032716636
0.049090922 0.08643073 0.039336763 0.058364425 0.018547464 0.05548684 0.095425256 0.0037548759
-0.10297748 0.291899 0.07794207 -0.0641794 -0.10773487 0.08712109 -0.189552 0.17120728
-0.010631513 0.1385938 -0.043395385 0.033140916 -0.11855091 0.067906074 -0.04510451 -0.16649729
-0.03254877 -0.05648797 -0.06967294 0.06147799 -0.09850334 0.17251848 0.01854293 0.016104212
0.021750385 -0.01068707 -0.026073368 0.00784831 -0.12632884 -0.06883017 0.16160028 0.07927539
0.004892346 -0.082193166 -0.15859249 -0.07555023 -0.066149674 -0.030552924 0.1539164 -0.10948379
0.16756113 -0.0029285466 -0.05568789 0.10967129 0.018416524 -0.032883022 0.026557237 0.047409527
0.058383055 -0.10519335 0.08383008 -0.011626019 -0.07703785 0.054506224 -0.07323341 0.062131174
-0.072925046 0.011628648 -0.1403062 -0.052006546 -0.052290224 0.14429322 -0.07057607 -0.11983343
0.061659776 0.09672617 -0.0027707857 -0.065022506 -0.14572899 -0.06546632 -0.0003698898 0.21274751
00000000: a964 bcbd a766 1e3c 0eed 94bd 478e aebc
00000010: c9b4 9ebc bd8d 2dbe 8d42 593c b3d4 043e
00000020: 5e41 a73d 862e fabd 1a7e bc3d 9fb1 893d
00000030: a8d5 4dbd 16bc 9a3c 63fc c13d 82c0 b03d
00000040: 9ff0 013e 8556 403c 4e51 733d b25b 243e
00000050: 4c9d f4bd bd85 df3d 2866 09be 85e4 1a3d
00000060: d6ce 603e 0823 073e 8493 a33c afba e6bc
00000070: db25 3bbd b13e 9c3d 9d2e 5dbc 70e9 733d
00000080: dbc4 a5bc b223 8e3d c625 593d 9ff4 463e
00000090: 9ab3 c43d fcff 17be fe4b 06be e191 e6bb
000000a0: db29 893d 5695 afbd 8687 07be 63ee 90bb
000000b0: 5172 d33d 41dc 023e 643a b63c e277 8cbd
000000c0: cac3 4abe 4dae 97bd 27cf 2d3d a7db 88bd
000000d0: b34c 32bd 7fed 323d 68cc 933d 3cb8 89bd
000000e0: ba45 b7bc 4803 403e 234f 16be 9b76 fa3c
000000f0: 9e8c b4bd 7ca3 a13d 6394 34bd 72b5 04bd
00000100: cf28 903c 08d3 d5bd 2b25 273e 4f94 9c3c
00000110: ec65 323e 0eb2 dc3c 4a79 b83d 6552 633e
00000120: b5bd fd3d baf9 23be 34ad 2e3e 98f0 7a3d
00000130: bf61 af3d 6bd7 0b3d 3122 02bd 95b0 ca3c
00000140: b8df 39be e195 3d3e d687 eebd 9449 913c
00000150: 987c 643d 792d 52be c39a 093e b7a4 443d
00000160: 459a 1cbd 556b fcbd 8992 8c3b 2811 933d
00000170: cf08 3e3e 7592 283d 030e 3e3d 918b 0ebe
00000180: d634 c73d 48c9 f03d 5277 85bc 2a64 d13c
00000190: aa06 8c3d eeef dd3d 9fa4 6bbd 98d2 863c
000001a0: cc78 2fbd b424 ad3d a624 483d 8d43 90bb
000001b0: 7821 92bd b30f 383d b9d7 9abc ab5d 893d
000001c0: 63e3 073e c640 a4bc 6d36 df3c 9e36 e9bd
000001d0: 9203 b3bd 7409 c63d ee51 22bd cb16 603d
000001e0: e0bb dcbd 0531 84bc 88f9 863e b697 7cbc
000001f0: 931e 163c 6fa6 7b3e e7c1 e63c 01ab b3bd
00000200: e337 01be 032a 25be 97c9 88be 1833 8d3d
00000210: 9fdf d53c 0660 a6bc a2ab bebb 52fc c23d
00000220: 8b7e 173d c2cd d43d eb1c 993d 977a 3b3e
00000230: f8d3 e3bb ad20 03be 8753 013d bd24 eabd
00000240: 6c29 813b 7e7f 15be 97ce 133e 947d 313e
00000250: ba79 85bd 2706 19be d82e 10bd c89a 1f3d
00000260: 67cd 383e b6de 293d 1de2 063c 6a1f 85bc
00000270: 6183 e0bc 4c11 6cbc a75a 9cbd 858e 13be
00000280: 98c7 1d3e b9ea 32be 415c c23d c4e2 823d
00000290: 2b89 2fbd 1f0f 7b3d 2f49 9fbe e9a8 e0bd
000002a0: ffcf 4cbe 9dd4 bdbd 5bb5 06be c9e2 033e
000002b0: eb60 803d a784 d23b d846 f6bb e101 063d
000002c0: 9013 493d 9802 b13d 961f 213d 890f 6f3d
000002d0: daf0 973c 2b46 633d 516e c33d 5d14 763b
000002e0: dbe5 d2bd c973 953e 18a0 9f3d 7d70 83bd
000002f0: 19a4 dcbd 8b6c b23d eb19 42be f650 2f3e
00000300: cc2f 2ebc 88eb 0d3e 5cbf 31bd c5be 073d
00000310: d2ca f2bd 5712 8b3d 82bf 38bd 447e 2abe
00000320: dc51 05bd ee5f 67bd b0b0 8ebd 58d0 7b3d
00000330: 1ebc c9bd afa8 303e 58e7 973c fbec 833c
00000340: dd2d b23c d218 2fbc d197 d5bc 3396 003c
00000350: 595c 01be d5f6 8cbd 8b7a 253e 235b a23d
00000360: f94f a03b e454 a8bd 1266 22be 14ba 9abd
00000370: 7b79 87bd 204a fabc 439c 1d3e 0a39 e0bd
00000380: 2595 2b3e dcec 3fbb fc18 64bd 579b e03d
00000390: 40de 963c 59b0 06bd 908e d93c 7e30 423d
000003a0: 1223 6f3d 9c6f d7bd 1baf ab3d 0f7b 3ebc
000003b0: 05c6 9dbd eb41 5f3d 66fb 95bd 427d 7e3d
000003c0: ba59 95bd 1686 3e3c 6eac 0fbe d104 55bd
000003d0: 462e 56bd 9ac1 133e 308a 90bd 3b6b f5bd
000003e0: f68e 7c3d 5f18 c63d 1296 35bb 852a 85bd
000003f0: fb39 15be 3513 86bd c5ed c1b9 7cda 593e

enc_un.h_layer.2.bias f4 [100]
0.07635072 -0.0254603 0.03454791 0.065613076 0.10615409 -0.031845946 0.1380411 -0.05494482
0.07073288 0.05728831 -0.10609093 0.0028633897 0.039187122 0.021172876 0.034775358 0.057289355
0.12361564 0.09260186 0.011854584 -0.016722132 0.012613668 0.0028398302 0.036972363 0.027032932
-0.029483004 0.03234249 -0.016438909 0.03715778 0.077988036 -0.029325368 -0.0058052503 0.078912094
-0.10772798 0.05809032 0.040474568 0.042097308 0.044380065 0.02590311 0.0141869 -0.037561428
-0.047961228 0.0024646742 0.058479235 0.094608754 0.03139293 0.108197026 0.03531611 -0.0030113005
-0.12435581 0.06185184 -0.07453987 -0.008961344 -0.028570108 0.0450979 -0.06995372 0.11301892
0.0051615196 -0.025790464 0.004645495 0.118391395 0.0791708 -0.024223458 -0.027560279 0.008292271
-0.012812962 0.0952172 0.036544114 0.078888476 -0.03041694 -0.08715959 -0.06811627 0.061791882
-0.121472456 -0.043750964 0.04483278 -0.023830784 0.01935259 0.065481596 -0.067003176 -0.11252746
-0.023803443 -0.01224845 0.08348108 0.06514872 -0.019052707 -0.028164014 0.029706359 0.12526882
0.051929902 0.05662692 -0.04279104 -0.08819105 0.020812107 -0.06760652 -0.014312284 0.06494963
0.08764009 0.055513397 -0.07961559 0.09666737
00000000: c45d 9c3d 1e92 d0bc 1c82 0d3d 2660 863d
00000010: 5167 d93d e570 02bd a55a 0d3e d20d 61bd
00000020: 66dc 903d 26a7 6a3d 3446 d9bd b5a7 3b3b
00000030: ad82 203d bd72 ad3c 9b70 0e3d 3ea8 6a3d
00000040: 322a fd3d 0ba6 bd3d bb39 423c dafc 88bc
00000050: 8fa9 4e3c 721c 3a3b 5570 173d 2b74 dd3c
00000060: 5786 f1bc 8f79 043d e4aa 86bc c232 183d
00000070: 31b8 9f3d c13b f0bc f839 bebb aa9c a13d
00000080: 7da0 dcbd 1ef0 6d3d a9c8 253d 3a6e 2c3d
00000090: dfc7 353d c232 d43c 2c70 683c 03da 19bd
000000a0: fe72 44bd 5f86 213b ec87 6f3d 3cc2 c13d
000000b0: df95 003d 6796 dd3d a0a7 103d 3d59 45bb
000000c0: 42ae febd 5b58 7d3d 5ca8 98bd 9ad2 12bc
000000d0: dc0b eabc 93b8 383d e543 8fbd 7776 e73d
000000e0: f721 a93b 8646 d3bc 3d39 983b 3077 f23d
000000f0: 4d24 a23d 4670 c6bc 18c6 e1bc 4edc 073c
00000100: 75ed 51bc 3c01 c33d 48af 153d 4890 a13d
00000110: f22c f9bc ba80 b2bd 8b80 8bbd 7c19 7d3d
00000120: 8dc6 f8bd 3634 33bd 94a2 373d c738 c3bc
00000130: 5389 9e3c 371b 863d f638 89bd cc74 e6bd
00000140: 70ff c2bc b9ad 48bc 21f8 aa3d b16c 853d
00000150: 6c14 9cbc 38b8 e6bc c05a f33c 7846 003e
00000160: 73b4 543d a1f1 673d a845 2fbd 829d b4bd
00000170: 277e aa3c 4a75 8abd 127e 6abc 5004 853d
00000180: a67c b33d 0462 633d 800d a3bd 8bf9 c53d

enc_un.h_layer.4.weight f4 [100, 100]
0.09748801 -0.118876316 -0.027244965 0.1432204 -0.057404596 0.058231518 0.20594658 0.12481115
-0.09489765 -0.1202783 0.08385151 0.06662616 -0.036706865 -0.040369105 0.07086875 0.067798495
-0.18714572 -0.16533561 0.007340314 -0.07842591 -0.086390115 -0.17730021 -0.06947406 0.031911977
-0.021828692 -0.07898148 0.14884213 0.083931535 0.17106426 -0.036972802 -0.13841286 0.084566616
-0.10368975 0.023110244 -0.007772041 -0.17105067 -0.09449561 0.19633411 -0.0014074096 0.061657425
-0.02568329 -0.03986015 0.22486214 -0.019302959 -0.017186802 -0.07647495 -0.040114693 0.084955886
0.19902545 0.037032302 0.070246905 -0.024530733 -0.12561008 -0.014338168 -0.05878588 -0.11157588
0.12788165 -0.19008076 -0.12241643 -0.021612387 0.04275093 -0.07927359 -0.10858291 -0.080547996
0.13497877 -0.10536594 0.15504521 0.11822182 0.003187211 0.13953419 0.024887843 -0.2021146
-0.11806732 -0.05487361 0.044711627 -0.094205685 -0.022634048 0.04763569 0.00815723 0.07811292
-0.004444324 0.19537392 -0.07374769 -0.05982548 -0.26941162 0.048586566 0.16643131 0.0062968154
-0.2808344 0.08448746 -0.15191974 0.13648595 0.01799387 0.11800259 0.08256969 -0.14271177
0.03924711 -0.06374626 -0.045920502 -0.105404004 -0.043072075 -0.09925545 -0.016011432 -0.23988304
0.042082127 0.09376231 0.059138797 -0.142876 -0.04710889 0.11475857 -0.039091397 0.04923948
-0.10940911 0.07053394 -0.31647953 -0.08201602 -0.09227886 -0.21642934 0.0133875925 0.14186203
-0.20721442 -0.118145816 -0.09542358 -8.2787235e-05 -0.05818379 -0.005450507 0.11402421 -0.017510097
0.07602487 0.093813926 -0.15723889 -0.025018401 0.18764369 0.073585816 0.13174778 -0.020646665
0.08533266 -0.06623893 -0.057667345 0.027787391 -0.17477833 0.07517998 -0.099683926 -0.10223466
-0.099759005 0.032235414 0.15821023 0.05460563 0.028358826 -0.005063514 -0.13510048 -0.022323586
0.019420186 -0.013206955 0.1474738 -0.026499046 -0.056526523 -0.1270425 -0.0494538 -0.00066520594
-0.0997278 0.060220897 0.094192564 0.020090185 -0.10602858 0.010493692 0.08867047 -0.1508294
0.016639804 0.12850077 0.02811539 -0.060465828 -0.0007789772 -0.25714886 -0.14440253 0.013808827
-0.074826695 0.080898546 0.1806446 -0.09105421 0.051173422 0.018905202 0.040381476 -0.23919477
-0.05279801 -0.10768486 -0.049119405 -0.094331354 -0.13247705 0.14956409 0.035631027 -0.012028189
-0.38830885 0.111658975 0.016592417 0.003557592 -0.04116097 -0.23152879 -0.057204407 0.052213177
-0.20671204 0.045612924 -0.052541424 0.13965602 0.075246625 -0.05878781 0.078140475 0.158273
-9.460464e-05 -0.11265471 -0.10957977 0.06266333 -0.044917062 -0.024444314 -0.045909863 -0.26553965
0.06647069 0.14047661 -0.17421973 -0.29759446 0.0032192874 0.08449 0.033773508 0.00858755
-0.10604112 -0.052474704 0.057984274 0.001489458 -0.23705485 -0.08101468 0.17408025 -0.09970908
0.043536726 -0.1641996 -0.029557496 -0.023015758 -0.14271419 -0.02965361 0.012360006 -0.017521646
-0.11043088 -0.036354 0.06703279 -0.117833614 0.032720424 -0.16408202 -0.04741009 -0.03225583
-0.028898748 0.13339195 -0.17904231 0.036677618 0.11684237 0.043122042 0.09153493 0.018980822
00000000: cba7 c73d 6d75 f3bd d530 dfbc 5ea8 123e
00000010: 1521 6bbd 2c84 6e3d a9e3 523e fd9c ff3d
00000020: b359 c2bd 7854 f6bd 57ba ab3d 4c73 883d
00000030: f059 16bd 135a 25bd a323 913d f0d9 8a3d
00000040: 21a3 3fbe bd4d 29be 0487 f03b c39d a0bd
00000050: 4ded b0bd 308e 35be 6a48 8ebd 22b6 023d
00000060: 16d2 b2bc 0bc1 a1bd 126a 183e 4ce4 ab3d
00000070: 782b 2f3e cb70 17bd 1abc 0dbe 4331 ad3d
00000080: 4b5b d4bd b251 bd3c 9bac febb e827 2fbe
00000090: ea86 c1bd cf0b 493e d478 b8ba 7f8c 7c3d
000000a0: c365 d2bc 6644 23bd 4342 663e 3d21 9ebc
000000b0: 56cb 8cbc e69e 9cbd 4e4f 24bd 5afd ad3d
000000c0: 54cd 4b3e 2faf 173d 9cdd 8f3d adf4 c8bc
000000d0: ee9f 00be a3ea 6abc 77c9 70bd e581 e4bd
000000e0: 68f3 023e 88a4 42be 77b5 fabd 760c b1bc
000000f0: 991b 2f3d 315a a2bd b760 debd 59f6 a4bd
00000100: e037 0a3e 19ca d7bd 2cc4 1e3e 481e f23d
00000110: 87e0 503b 0de2 0e3e 97e1 cb3c 21f7 4ebe
00000120: 47cd f1bd 27c3 60bd 8a23 373d e9ee c0bd
00000130: 0a6b b9bc a41d 433d e7a5 053c abf9 9f3d
00000140: b1a1 91bb 1a10 483e 0709 97bd 900b 75bd
00000150: 52f0 89be b502 473d f86c 2a3e 8455 ce3b
00000160: 87c9 8fbe c307 ad3d d990 1bbe f9c2 0b3e
00000170: e167 933c 58ab f13d 4c1a a93d 0923 12be
00000180: 94c1 203d 668d 82bd 2317 3cbd 0ede d7bd
00000190: 586c 30bd 7146 cbbd 682a 83bc e6a3 75be
000001a0: 4f5e 2c3d 7406 c03d 863b 723d 164e 12be
000001b0: 40f5 40bd 8b06 eb3d 4d1e 20bd 56af 493d
000001c0: e211 e0bd 1974 903d 9b09 a2be 04f8 a7bd
000001d0: b3fc bcbd a79f 5dbe a257 5b3c 4844 113e
000001e0: 0430 54be 6ff6 f1bd 706d c3bd 0f9e adb8
000001f0: 2052 6ebd 2b9a b2bb 8685 e93d 5671 8fbc
00000200: edb2 9b3d 8421 c03d 3b03 21be 64f3 ccbc
00000210: ab25 403e 29b4 963d e4e8 063e 3223 a9bc
00000220: e4c2 ae3d 47a8 87bd 9834 6cbd 62a2 e33c
00000230: 17f9 32be f6f7 993d 1627 ccbd 6860 d1bd
00000240: 734e ccbd 4809 043d dd01 223e 27aa 5f3d
00000250: c550 e83c d6eb a5bb c857 0abe f4df b6bc
00000260: 1517 9f3c fc61 58bc 5f03 173e 8714 d9bc
00000270: 5b88 67bd 6e17 02be 1190 4abd 3761 2eba
00000280: 173e ccbd 30aa 763d 08e8 c03d 2c94 a43c
00000290: 8325 d9bd bced 2b3c dd98 b53d 0673 1abe
000002a0: 3350 883c b595 033e 3f52 e63c 04ab 77bd
000002b0: 4634 4cba 04a9 83be 42de 13be 6b3e 623c
000002c0: bd3e 99bd 23ae a53d e6fa 383e a17a babd
000002d0: 399b 513d 15df 9a3c 0c67 253d 79ef 74be
000002e0: ba42 58bd e189 dcbd 6e31 49bd cc30 c1bd
000002f0: 10a8 07be 5427 193e d7f1 113d e211 45bc
00000300: 6bd0 c6be 76ad e43d d2ec 873c 7d26 693b
00000310: 6898 28bd e215 6dbe 2b4f 6abd 7cdd 553d
00000320: 52ac 53be 9ed4 3a3d ad35 57bd fd01 0f3e
00000330: e71a 9a3d 7dcb 70bd 1d08 a03d 5112 223e
00000340: 7b66 c6b8 83b7 e6bd 5c6b e0bd a255 803d
00000350: f4fa 37bd 713f c8bc fb0b 3cbd d0f4 87be
00000360: c921 883d 1ad9 0f3e a866 32be 4d5e 98be
00000370: aefa 523b 1809 ad3d 1756 0a3d ccb2 0c3c
00000380: 162c d9bd b7ef 56bd eb80 6d3d eb39 c33a
00000390: 82be 72be 06eb a5bd 1842 323e 4634 ccbd
000003a0: 9153 323d f123 28be 9022 f2bc 8b8b bcbc
000003b0: ab23 12be 21ec f2bc 9f81 4a3c 8e89 8fbc
000003c0: 9629 e2bd efe7 14bd 7d48 893d c052 f1bd
000003d0: da05 063d 1e05 28be 1531 42bd b01e 04bd
000003e0: 11bd ecbc e697 083e de56 37be 453b 163d
000003f0: 0d4b ef3d bda0 303d aa76 bb3d ab7d 9b3c

enc_un.h_layer.4.bias f4 [100]
-0.04584467 -0.11261976 -0.036948986 0.11847784 -0.010382188 0.04261313 0.0057113757 0.08669896
-0.06421932 -0.03335207 -0.099799864 -0.016214365 -0.040925544 -0.09754167 0.061024196 0.10558375
0.075167224 -0.0006966141 0.0424736 -0.065091826 0.10477113 0.061610654 0.03687655 -0.043263365
0.04118472 -0.0618567 0.000981765 0.042512152 -0.094756 -0.11647827 0.071064256 -0.03453707
-0.09316394 -0.058080625 -0.0460791 0.06477538 -0.08894375 0.06856578 0.043097645 -0.06570723
0.01283038 -0.098715626 -0.109643236 0.081214406 -0.045986995 -0.079621844 -0.024000261 0.051138807
-0.020142844 0.06195392 -0.099452265 0.057853624 0.06274706 0.07443132 -0.04957363 -0.08258612
-0.063891076 0.06759896 -0.0663945 -0.04298276 0.119713016 0.002806108 0.0783105 -0.06617431
-0.05021367 0.021512445 -0.0985289 0.034459166 -0.020402854 -0.11662144 0.101390205 0.019430839
0.06427414 0.08831742 -0.03241019 -0.09003059 0.003809991 0.08822053 0.047554836 -0.038696837
0.0020413622 -0.056509264 0.0864154 -0.05704921 0.1038063 0.007947749 -0.034821402 -0.028072333
-0.02840673 -0.10815137 0.088040814 -0.029563153 0.033175703 -0.010825609 0.098058745 -0.04056454
0.095218256 0.0070484728 -0.045590125 -0.009613036
00000000: 9fc7 3bbd 30a5 e6bd d257 17bd 83a4 f23d
00000010: 0d1a 2abc 1b8b 2e3d 7e26 bb3b 398f b13d
00000020: 6b85 83bd 2e9c 08bd df63 ccbd fdd3 84bc
00000030: 8ba1 27bd edc3 c7bd 82f4 793d 4b3c d83d
00000040: 46f1 993d fb9c 36ba ccf8 2d3d dd4e 85bd
00000050: 3f92 d63d 745b 7c3d de0b 173d ed34 31bd
00000060: 4fb1 283d 735d 7dbd 91ae 803a 3921 2e3d
00000070: 6f0f c2bd 298c eebd 238a 913d be76 0dbd
00000080: bccc bebd f3e5 6dbd 70bd 3cbd f4a8 843d
00000090: 2428 b6bd 376c 8c3d 2887 303d 8391 86bd
000000a0: 8436 523c 6b2b cabd a28c e0bd bd53 a63d
000000b0: dc5c 3cbd c710 a3bd 329c c4bc ed76 513d
000000c0: 9b02 a5bc 65c3 7d3d a1ad cbbd ecf7 6c3d
000000d0: 8881 803d 736f 983d b80d 4bbd e922 a9bd
000000e0: 53d9 82bd 5371 8a3d d7f9 87bd b10e 30bd
000000f0: 192c f53d aee6 373b 4161 a03d 6686 87bd
00000100: d9ac 4dbd de3a b03c 85c9 c9bd 0e25 0d3d
00000110: e323 a7bc 39d7 eebd aba5 cf3d 6c2d 9f3c
00000120: 29a2 833d c3df b43d 8cc0 04bd f561 b8bd
00000130: 0bb1 793b f7ac b43d dcc8 423d 9380 1ebd
00000140: 60c8 053b 4276 67bd 8ffa b03d 6fac 69bd
00000150: 6698 d43d 4737 023c e3a0 0ebd f3f7 e5bc
00000160: 3bb5 e8bc 777e ddbd be4e b43d 6d2e f2bc
00000170: 3fe3 073d e55d 31bc 06d3 c83d 0127 26bd
00000180: ca01 c33d e0f6 e63b b6bc 3abd ff7f 1dbc

enc_un.mu_gen.weight f4 [3, 100]
0.052345727 0.16943292 0.18102807 0.3279407 -0.22088476 0.08323824 -0.1461968 0.06345556
0.09334878 0.20891722 0.14527017 0.019767419 0.18693456 0.0070355167 0.14089045 -0.05348507
-0.036072426 0.08291644 0.06132103 0.06699676 -0.08479387 -0.02098649 0.086691044 -0.111916885
-0.098017834 -0.028129822 -0.08763058 -0.123961344 -0.19722876 0.15430659 -0.05288556 -0.19175236
-0.119362116 0.17115964 0.101613045 0.36043957 -0.13536677 -0.04779053 -0.0958135 0.094243295
0.3384414 0.0128475325 -0.106246874 0.010775071 -0.12410256 0.09910975 0.21542819 -0.271686
0.096430905 -0.052858967 0.37042835 0.016233768 -0.195446 0.2880614 0.028767714 -0.16679376
-0.00991083 0.18793808 0.036323886 0.06488523 0.0068993107 0.18569091 0.17731573 -0.04588357
0.15477861 -0.11443076 -0.026382398 0.111854315 0.22261699 0.12845598 0.036956448 0.039541703
-0.098208316 0.01910303 0.036273647 0.020972272 0.21459009 0.18583304 -0.032185685 -0.13834193
0.18894094 0.09683714 0.1806309 -0.29163074 0.042821344 0.15019804 -0.08018688 0.047618274
0.02424562 -0.042290583 0.13865608 0.32595766 0.110190906 -0.046728674 0.0659971 -0.16414496
0.24658044 0.28291312 0.022651685 -0.33648723 -0.024004791 0.062121738 0.122250065 0.021076022
0.07291658 -0.08901697 0.18224035 0.23345281 0.18108186 0.11742464 0.29455227 -0.05340344
-0.0019187331 -0.14193311 -0.025144324 0.14528164 -0.09991902 -0.03128247 -0.15270121 -0.0665311
0.07219949 0.13395037 0.17594276 -0.15822354 0.058508787 -0.22981776 0.07662961 -0.14941406
0.08068335 -0.02770072 -0.15561429 -0.051565282 0.17645742 -0.22061364 0.024783842 0.05855919
-0.12012388 -0.17092024 0.03419892 0.069021 0.06708743 0.004113397 0.03622981 0.005070075
0.22623423 -0.014829007 0.105839886 0.11678132 0.093090884 0.20259601 0.11907155 0.08908587
-0.07708675 -0.0036425632 -0.055307355 -0.060753457 -0.094731145 -0.14516667 -0.061016973 0.18782991
-0.08049184 0.05893761 0.007332894 0.042252943 0.3228097 -0.045134895 0.12998712 0.036574043
0.051212292 -0.03882015 0.07012394 -0.29220706 0.079425186 0.008477035 0.08466941 -0.14473003
-0.09131739 0.04104401 -0.13968328 0.011639409 -0.0048879962 -0.05583192 0.16248824 0.044794917
0.05051825 -0.023505857 0.023648465 0.034710024 -0.09134096 0.08203365 -0.16095178 -0.060752995
-0.053296257 -0.109571755 -0.011322499 0.03671832 -0.1118299 -0.117694594 0.2793763 0.042932454
-0.04226569 -0.13386206 -0.14182644 0.08177552 -0.11664226 -0.034563165 0.036310554 0.09683682
0.10293691 0.12844457 -0.049827553 0.054392435 -0.13636547 -0.09002567 -0.07865083 -0.120261066
0.041714933 -0.033174567 -0.12736274 -0.038751226 -0.36761457 0.12613644 0.07224822 0.13890782
0.16242424 -0.085772134 -0.02089772 -0.011689684 -0.0037850582 0.011059648 0.12716028 -0.0039596236
0.01933661 0.048910096 0.02557982 0.020549817 0.05128644 0.049479403 0.005001948 -0.081825994
-0.14975637 0.018950744 -0.06657179 -0.068956286 0.009782756 0.21357116 0.22682725 0.2211649
-0.08653122 0.17215064 -0.119436875 -0.014610403 0.03323899 -0.10862665 -0.10442293 0.066941746
00000000: 7968 563d d37f 2d3e 6c5f 393e d8e7 a73e
00000010: 9d2f 62be cf78 aa3d 9db4 15be fdf4 813d
00000020: a52d bf3d 65ee 553e b4c1 143e 48ef a13c
00000030: c66b 3f3e 318a e63b 9645 103e 2913 5bbd
00000040: aec0 13bd 18d0 a93d c32b 7b3d 9935 893d
00000050: 69a8 adbd dceb abbc 138b b13d ae34 e5bd
00000060: 93bd c8bd 8370 e6bc a977 b3bd 72df fdbd
00000070: 56f6 49be 8c02 1e3e 879e 58bd bb5a 44be
00000080: 2074 f4bd 7944 2f3e 801a d03d 898b b83e
00000090: 969d 0abe 01c0 43bd de39 c4bd a102 c13d
000000a0: 3148 ad3e 757e 523c f697 d9bd ec89 303c
000000b0: 7c29 febd 0dfa ca3d 3599 5c3e 6d1a 8bbe
000000c0: 917d c53d a582 58bd c9a8 bd3e aefc 843c
000000d0: ff22 48be c97c 933e 45aa eb3c fccb 2abe
000000e0: 0961 22bc d772 403e 5bc8 143d 8ce2 843d
000000f0: 9d13 e23b c225 3e3e 4192 353e 69f0 3bbd
00000100: 497e 1e3e ad5a eabd e61f d8bc e013 e53d
00000110: b5f5 633e f789 033e a55f 173d 7bf6 213d
00000120: 7121 c9bd f57d 9c3c ad93 143d 0bce ab3c
00000130: 81bd 5b3e 044b 3e3e 23d5 03bd 82a9 0dbe
00000140: bc79 413e 8d52 c63d 4ff7 383e a050 95be
00000150: 6f65 2f3d 84cd 193e 0539 a4bd 610b 433d
00000160: c09e c63c e438 2dbd dcfb 0d3e ece3 a63e
00000170: c5ab e13d 9166 3fbd 7d29 873d 9e15 28be
00000180: 957f 7c3e fdd9 903e 0790 b93c 0e48 acbe
00000190: b2a5 c4bc 5d73 7e3d 3e5e fa3d 9fa7 ac3c
000001a0: 4a55 953d 874e b6bd 379d 3a3e 410e 6f3e
000001b0: 866d 393e 547c f03d 8ecf 963e 91bd 5abd
000001c0: 007e fbba ea56 11be 78fb cdbc b6c4 143e
000001d0: 58a2 ccbd 0c22 00bd b55d 1cbe 7541 88bd
000001e0: 54dd 933d 492a 093e 572a 343e 5a05 22be
000001f0: e9a6 6f3d 5955 6bbe fcef 9c3d 0000 19be
00000200: 503d a53d 9fec e2bc 5a59 1fbe 1e36 53bd
00000210: 41b1 343e 8be8 61be 7c07 cb3c c3db 6f3d
00000220: 8203 f6bd b705 2fbe 2b14 0c3d e25a 8d3d
00000230: 2265 893d adc9 863b b665 143d df22 a63b
00000240: f2a9 673e 5df5 72bc 95c2 d83d 0b2b ef3d
00000250: 6fa6 be3d 5475 4f3e c9db f33d a772 b63d
00000260: a8df 9dbd 12b8 6ebb f789 62bd 9ed8 78bd
00000270: 6702 c2bd 92a6 14be efec 79bd 7c56 403e
00000280: e8d8 a4bd 9068 713d c648 f03b 6c11 2d3d
00000290: 5047 a53e 5edf 38bd 581b 053e aace 153d
000002a0: fbc3 513d e101 1fbd 249d 8f3d 2a9c 95be
000002b0: aca9 a23d 43e3 0a3c 2867 ad3d 1c34 14be
000002c0: 9d04 bbbd c41d 283d 2209 0fbe 38b3 3e3c
000002d0: 7c2b a0bb 03b0 64bd 5163 263e e07a 373d
000002e0: 39ec 4e3d 5b8f c0bc 6dba c13c 192c 0e3d
000002f0: f810 bbbd 4201 a83d 8bd0 24be 22d8 78bd
00000300: 2d4d 5abd 2867 e0bd 0182 39bc f365 163d
00000310: 1307 e5bd dd09 f1bd 690a 8f3e f1d9 2f3d
00000320: ca1e 2dbd 2313 09be f33a 11be ed79 a73d
00000330: 23e2 eebd 1b92 0dbd 60ba 143d 6252 c63d
00000340: 96d0 d23d f986 033e fa17 4cbd 9aca 5e3d
00000350: 64a3 0bbe 615f b8bd b013 a1bd 6f4b f6bd
00000360: 47dd 2a3d 0ee2 07bd 616b 02be 9bb9 1ebd
00000370: fa37 bcbe e929 013e e0f6 933d da3d 0e3e
00000380: 8a52 263e 4da9 afbd b231 abbc 1786 3fbc
00000390: bd0e 78bb 8733 353c 4e36 023e bbbf 81bb
000003a0: cf67 9e3c f455 483d c58c d13c 1758 a83c
000003b0: bb11 523d eaaa 4a3d 62e7 a33b 6394 a7bd
000003c0: bc59 19be 973e 9b3c ca56 88bd f438 8dbd
000003d0: da47 203c 66b2 5a3e 6745 683e 0d79 623e
000003e0: 4837 b1bd 4248 303e 529b f4bd 7960 6fbc
000003f0: 9b25 083d a677 debd b0db d5bd c118 893d

enc_un.mu_gen.bias f4 [3]
-0.011712393 0.0945938 -0.0358611
00000000: 56e5 3fbc 65ba c13d 17e3 12bd

enc_un.logvar_gen.weight f4 [3, 100]
0.29824182 0.16796678 0.042917028 -0.18279189 -0.004396065 0.023933101 0.029767033 -0.12610643
0.1141668 -0.16818003 0.025572332 -0.027787108 -0.103753895 0.056066405 -0.1353322 -0.2210976
-0.2543959 0.16056299 -0.23063971 0.040246278 0.051156342 -0.20864931 -0.044829987 0.23938824
-0.12519181 -0.06632754 0.10084302 0.032481562 -0.16523457 0.14883624 0.18876885 0.05152086
0.11114765 0.16911909 -0.008031208 0.050762255 0.21767768 0.11518354 -0.19739114 -0.14079542
0.06372281 0.27105594 -0.06678041 -0.058827687 0.21765475 0.15905005 -0.10458152 -0.08960111
0.032294706 -0.07126624 -0.0681895 0.07291051 0.26719195 -0.27782312 -0.12584259 0.0075860214
0.10089386 0.17443725 -0.30979905 -0.20006236 -0.2248485 0.21039559 0.18639332 -0.12699586
-0.00957963 -0.26467565 0.2135697 0.20277661 0.092723824 0.115191355 -0.1748073 0.2954959
-0.054308616 -0.22467051 -0.009517794 0.20924962 0.17369491 0.13806586 -0.07500298 0.10155537
0.12058942 0.2928692 -0.16629787 0.17542826 -0.21943481 -0.22015332 -0.12940775 -0.22344482
-0.05211775 0.120150976 -0.05492522 0.20006645 0.06645786 -0.15674898 -0.169873 -0.17279004
-0.039785974 -0.07666369 0.08315159 -0.13242677 0.021349324 0.074514434 0.0048438455 0.09753766
0.37226492 -0.20980091 -0.09091456 -0.10946025 0.012692793 0.18045975 0.062158205 -0.052255075
-0.040333886 0.11666142 -0.27583385 -0.041568894 -0.025051277 0.1360167 0.07093412 0.172297
-0.125975 -0.14899251 0.30785042 0.062408306 -0.23494418 -0.09435382 -0.25281554 0.039708156
-0.010495305 0.35003754 0.23201813 -0.027367644 0.29541624 -0.003680904 -0.050885774 0.101751484
0.09397824 0.19452125 -0.03202014 -0.07836541 -0.17741275 0.31197357 0.2896064 -0.22256708
0.13860005 0.0498926 -0.39228314 -0.053798623 0.15008517 0.13838603 0.017350042 0.23971693
0.029506242 -0.32497084 -0.16765296 0.076049 -0.15240142 -0.03518449 -0.20917132 -0.057419218
-0.036945 0.33534104 0.032436308 0.10396027 -0.23704368 -0.12521394 0.23632164 -0.08168769
0.057323147 -0.08289027 -0.2235411 0.1478646 -0.23437473 -0.12522678 0.3756448 0.07735374
0.014531152 0.24033806 -0.22277765 -0.0065974747 0.19562826 -0.30732217 -0.09517041 0.5096996
0.022428561 -0.42613393 -0.14330886 -0.1491617 0.19139524 0.3221231 -0.091610685 0.09401359
-0.008805088 -0.1919992 -0.07681793 -0.097341314 -0.046472903 -0.20265487 -0.025662761 0.03549248
-0.028558616 0.13827847 0.19087107 -0.13638322 0.08730631 -0.21251385 -0.16760658 -0.17706166
0.11727775 0.25055417 0.12031824 -0.1346012 -0.094753824 0.06349759 -0.21310928 0.044201974
-0.28581133 0.024727557 -0.19964217 0.19030389 -0.048653584 -0.10574142 0.006880476 -0.033378135
0.057159547 -0.018743508 -0.14340168 -0.4081828 0.051229108 0.18789868 0.012348647 -0.16248329
0.1674544 0.25885934 -0.13908847 0.09792804 0.19007808 0.033460103 -0.082176924 -0.17547983
0.20844509 -0.021699224 0.13498084 -0.11987383 0.2093398 0.4047377 -0.07350775 0.21326198
0.028078057 0.28053713 0.15160981 -0.1780133 0.23902582 0.068177275 -0.17815389 0.08587922
00000000: 27b3 983e 7cff 2b3e c4c9 2f3d cc2d 3bbe
00000010: de0c 90bb 5a0f c43c fed9 f33c 0b22 01be
00000020: 49d0 e93d 6337 2cbe 117d d13c caa1 e3bc
00000030: ec7c d4bd e3a5 653d 8694 0abe 6967 62be
00000040: 2e40 82be a06a 243e d12c 6cbe 48d9 243d
00000050: 5089 513d 2aa8 55be a69f 37bd 3122 753e
00000060: 4832 00be bcd6 87bd c986 ce3d 630b 053d
00000070: 4033 29be 8768 183e 9f4c 413e 8a07 533d
00000080: 61a1 e33d 8e2d 2d3e 5495 03bc 15ec 4f3d
00000090: e6e6 5e3e 59e5 eb3d e720 4abe ad2c 10be
000000a0: 1b81 823d d8c7 8a3e 2bc4 88bd 4df5 70bd
000000b0: e3e0 5e3e 04de 223e d62e d6bd c980 b7bd
000000c0: 7447 043d 09f4 91bd f0a6 8bbd 1b52 953d
000000d0: 62cd 883e d53e 8ebe e1dc 00be 2994 f83b
000000e0: 71a1 ce3d ae9f 323e fb9d 9ebe 26dd 4cbe
000000f0: af3e 66be f171 573e e4dd 3e3e 340b 02be
00000100: e1f3 1cbc 9183 87be 04b2 5a3e aca4 4f3e
00000110: fde5 bd3d 72e9 eb3d af00 33be 3d4b 973e
00000120: b672 5ebd 0710 66be 85f0 1bbc 8845 563e
00000130: 14dd 313e 2361 0d3e 2a9b 99bd 43fc cf3d
00000140: 96f7 f63d f4f2 953e fd49 2abe 77a3 333e
00000150: 85b3 60be df6f 61be 7783 04be b8ce 64be
00000160: 6c79 55bd b711 f63d 44f9 60bd 38de 4c3e
00000170: 0f1b 883d ce82 20be 30f3 2dbe dfef 30be
00000180: 9ef6 22bd da01 9dbd 614b aa3d e29a 07be
00000190: c7e4 ae3c 069b 983d 1fb9 9e3b d3c1 c73d
000001a0: 8299 be3e 0dd6 56be 6a31 babd b22c e0bd
000001b0: 6ff5 4f3c 71ca 383e 9a99 7e3d 6b09 56bd
000001c0: 2535 25bd 2fec ee3d 183a 8dbe 2544 2abd
000001d0: 5638 cdbc f647 0b3e e845 913d a06e 303e
000001e0: 97ff 00be 7e91 18be 929e 9d3e da9f 7f3d
000001f0: 3595 70be 933c c1bd 0a71 81be 05a5 223d
00000200: 80f4 2bbc 1f38 b33e 2996 6d3e 1c32 e0bc
00000210: cc40 973e 523b 71bb 9a6d 50bd 1563 d03d
00000220: aa77 c03d 9430 473e 8d27 03bd 0b7e a0bd
00000230: b0ab 35be 00bb 9f3e 4a47 943e a0e8 63be
00000240: 2ced 0d3e 2f5c 4c3d 56d9 c8be f25b 5cbd
00000250: edaf 193e 11b5 0d3e ad21 8e3c 5b78 753e
00000260: 13b7 f13c 9462 a6be 38ad 2bbe 94bf 9b3d
00000270: 1e0f 1cbe 9d1d 10bd 0231 56be 6a30 6bbd
00000280: a453 17bd d2b1 ab3e efdb 043d 1fe9 d43d
00000290: 94bb 72be 1538 00be 4dfe 713e e04b a7bd
000002a0: adcb 6a3d 60c2 a9bd f5e7 64be d169 173e
000002b0: eeff 6fbe 733b 00be 8454 c03e a36b 9e3d
000002c0: 1214 6e3c 2e1b 763e d31f 64be a12f d8bb
000002d0: c652 483e 5559 9dbe b4e8 c2bd ac7b 023f
000002e0: 1abc b73c 3a2e dabe 8fbf 12be d8bd 18be
000002f0: 1dfd 433e 52ed a43e 629e bbbd 328a c03d
00000300: 3743 10bc 709b 44be b852 9dbd e25a c7bd
00000310: 5f5a 3ebd c284 4fbe b63a d2bc 9060 113d
00000320: c2f3 e9bc df98 0d3e b573 433e 0ba8 0bbe
00000330: a7cd b23d 3b9d 59be 0fa1 2bbe a74f 35be
00000340: 512f f03d a348 803e 6969 f63d e6d4 09be
00000350: 4b0e c2bd 060b 823d 5239 5abe 210d 353d
00000360: dd55 92be 7291 ca3c ff6e 4cbe 06df 423e
00000370: fb48 47bd f58e d8bd 9e75 e13b 83b7 08bd
00000380: 2120 6a3d fc8b 99bc e4d7 12be 56fd d0be
00000390: 9dd5 513d 8368 403e fb51 4a3c 0562 26be
000003a0: 2b79 2b3e 3689 843e 356d 0ebe 7f8e c83d
000003b0: d4a3 423e 760d 093d 604c a8bd fcb0 33be
000003c0: a172 553e 92c2 b1bc 6b38 0a3e 6980 f5bd
000003d0: 2c5d 563e c839 cf3e 3b8b 96bd 5961 5a3e
000003e0: f403 e63c 90a2 8f3e 9a3f 1b3e 1e49 36be
000003f0: 2fc3 743e 87a0 8b3d f96d 36be 72e1 af3d

enc_un.logvar_gen.bias f4 [3]
-0.009084589 -0.056845516 -0.08051615
00000000: 87d7 14bc d8d6 68bd a7e5 a4bd
