result/transfer_baseline_compare/synthetic/pretrained/2_vae(xn1.0_xa1.0_y1.0_kl0.1_tc1.0_css10.0_tf0.001_uxn3_uxa3).pth (torch, 773690 bytes, 64 tensors)

enc_un.in_layer.weight f4 [100, 2]
0	0x3e891465	0.26773372
1	0x3bc4a1e9	0.0060007465
2	0x3e255db8	0.16149032
3	0x3d88d9a4	0.06682137
4	0x3eb7c05a	0.3588894
5	0xbcbe93c5	-0.023263821
6	0x3c9eb220	0.019372046
7	0x3e5295bb	0.2056493
8	0x3e189bcd	0.14903183
9	0xbc8572e6	-0.01629014
10	0x3d799921	0.06093705
11	0x3d0d5804	0.034507766
12	0x3d51d5c6	0.05122926
13	0x3ddfccc4	0.10927728
14	0xbd1fe2ef	-0.03903478
15	0xbdf034a8	-0.117287934
16	0xbd8011a3	-0.06253364
17	0xbcd6c4e4	-0.026216932
18	0x3da450e5	0.08023242
19	0xbe33a69a	-0.17544022
20	0xbdb696fc	-0.08915517
21	0xbda35df5	-0.07976905
22	0xbe270cd0	-0.16313481
23	0xbcaa4b11	-0.020787748
24	0x3d7db540	0.06194043
25	0x3e3fdde5	0.1873699
26	0xbe39e8c1	-0.18155195
27	0xbcffc0d4	-0.031219877
28	0xbe71a955	-0.23599751
29	0xbd7d52be	-0.061846487
30	0x3b967db5	0.004592622
31	0x3d210a34	0.03931637
32	0x3cbcfc40	0.0230695
33	0x3ce10688	0.027468935
34	0xbdf99404	-0.12186435
35	0xbe2785df	-0.16359662
36	0xbd99fb6a	-0.075186566
37	0x3e8db248	0.2767508
38	0x3dc8e137	0.09808581
39	0xbc21cded	-0.009875757
40	0x3e50a482	0.20375255
41	0xbd4d0d7f	-0.0500617
42	0xbd0523df	-0.032504912
43	0x3daca81e	0.08430503
44	0xbe8bb71c	-0.2728814
45	0xbbc17444	-0.0059037525
46	0xbdc2e1f6	-0.09515755
47	0xbdd23279	-0.10263533
48	0xbb6b200a	-0.003587725
49	0xbdd064a9	-0.101754494
50	0xbdea404c	-0.11438045
51	0x3e644251	0.22290923
52	0x3e1268a1	0.14297725
53	0xbd631737	-0.05544206
54	0xbcce8c60	-0.02521342
55	0x3e35ac5b	0.1774153
56	0xbe0556ad	-0.13021345
57	0x3e7ea321	0.24866916
58	0x3e0f7c3c	0.14012235
59	0xbd1ce694	-0.038305834
60	0x3e05a537	0.13051306
61	0xbc795630	-0.015218303
62	0xbdcc8265	-0.09985808
63	0x3be71ff9	0.007053372
64	0xba725380	-0.000924401
65	0xbddf59f5	-0.1090583
66	0xbe399a59	-0.18125285
67	0x3e04765b	0.12935774
68	0x3d16e9e4	0.03684415
69	0x3e5326e5	0.20620306
70	0xbd17aa85	-0.037027854
71	0x3da0a346	0.07843642
72	0xbbab6a01	-0.0052311425
73	0xbd060517	-0.032719698
74	0x3df521a4	0.11969307
75	0xbe96d2ad	-0.29457608
76	0x3c148e0c	0.00906707
77	0x3e3a5be2	0.18199113
78	0xbe8d76f8	-0.27629828
79	0x3cebffb9	0.028808462
80	0xbe399842	-0.18124488
81	0x3e7a89ae	0.24466583
82	0xbe157d63	-0.14598612
83	0x3e8c32a7	0.27382395
84	0xbd3c882a	-0.046028294
85	0xbeb75279	-0.3580511
86	0x3d8131e9	0.06308348
87	0xbe6366de	-0.2220721
88	0xbc9e9062	-0.019355956
89	0x3bb59422	0.0055413404
90	0x3dc2a17e	0.095034584
91	0xbc7c8698	-0.015412949
92	0xbec0f8a8	-0.3768971
93	0x3ddcd265	0.10782317
94	0x3e62152f	0.22078393
95	0xbd1c0e41	-0.03809953
96	0x3e3241f6	0.17407975
97	0x3d1bc052	0.038025208
98	0xbe6093f8	-0.21931446
99	0x3ed59578	0.41715598
100	0x3dae7580	0.08518505
101	0x3e029608	0.12752545
102	0x3d802c62	0.06258465
103	0x3e21e4c6	0.15809926
104	0xbc1080fe	-0.008819817
105	0xbd229dd0	-0.039701283
106	0x3e0b33e0	0.13594007
107	0x3c8c1a82	0.017102484
108	0x3e1e851b	0.15480463
109	0x3dbeac6b	0.0931023
110	0x3d92cd45	0.07168058
111	0xbe0a8884	-0.13528639
112	0xbd339f6d	-0.043853212
113	0x3ca07696	0.019587796
114	0xbbe1b8d2	-0.0068884874
115	0xbd9d0c15	-0.0766832
116	0x3e892a50	0.26790094
117	0x3ec61ce9	0.38693932
118	0xbda9951c	-0.082803935
119	0xbe699862	-0.22812036
120	0xbde43f5e	-0.11144899
121	0x3daec288	0.08533198
122	0x3e030c9d	0.1279778
123	0xbc9c6088	-0.019088998
124	0x3ddd10fb	0.107942544
125	0x3e573b92	0.21018818
126	0x3e45439b	0.1926407
127	0xbd10ff27	-0.035399582
128	0xbd78e31e	-0.06076347
129	0xbdea5a39	-0.1144299
130	0x3dae847e	0.08521365
131	0xbdba260f	-0.0908929
132	0x3dbbc030	0.09167516
133	0xbdbd8c70	-0.09255302
134	0x3d79271c	0.060828313
135	0x3de02ceb	0.109460674
136	0xbe250538	-0.16115272
137	0xbc188737	-0.0093095815
138	0x3e205a79	0.15659513
139	0x3e242658	0.16030252
140	0x3d5b70dd	0.05357443
141	0xbd30342b	-0.0430185
142	0xbd25e3f3	-0.040500592
143	0xbce6a07a	-0.028152693
144	0xbe0da399	-0.13831939
145	0x3e1a27a4	0.15054184
146	0x3dfa46e0	0.122205496
147	0x3da318b7	0.07963698
148	0xbba7b99a	-0.005118561
149	0xbe55cf5b	-0.20879881
150	0x3d94e726	0.072706506
151	0xbd8a91af	-0.06766068
152	0xbe36ca6b	-0.17850654
153	0xbd8c1456	-0.06839816
154	0xbd59e453	-0.053196263
155	0xbea94dc3	-0.3306714
156	0x3dbc1755	0.09184138
157	0xbd58de17	-0.052946176
158	0x3e7ee9ed	0.24893923
159	0x3de79b41	0.11308909
160	0xbd8588e2	-0.06520249
161	0x3e01e6bd	0.12685676
162	0x3ddc788d	0.10765181
163	0xbed305d2	-0.41215378
164	0x3da07fb6	0.07836859
165	0x3bf9d7b0	0.007624589
166	0x3dbea660	0.09309077
167	0xbc86ad4d	-0.016440058
168	0xbebf15db	-0.37321362
169	0xbdfba69b	-0.12287637
170	0xbd4f3131	-0.050584022
171	0x3c6fad84	0.014628772
172	0xbdfa8971	-0.12233246
173	0x3e0ef5e6	0.1396099
174	0xbddbfca9	-0.107415505
175	0xbd34490c	-0.044014975
176	0x3da41a0c	0.080127805
177	0x3e166472	0.14686754
178	0x3baa1f01	0.0051916842
179	0x3ebae17d	0.3650016
180	0xbd2a1f5d	-0.041533817
181	0xbad086a3	-0.0015909265
182	0x3ebdaf43	0.37047777
183	0xbca87c04	-0.020566948
184	0xbe5a9503	-0.21345906
185	0x3cdae089	0.026718395
186	0xbc5eecd7	-0.013606272
187	0x3d612c58	0.05497393
188	0xbd8ae3ed	-0.06781755
189	0xbdfabfc3	-0.12243607
190	0xbdef2fde	-0.11679052
191	0xbea225ff	-0.31669614
192	0xbe88d5a8	-0.26725507
193	0xbe5dc576	-0.21657357
194	0x3d731be9	0.05935279
195	0x3dfef191	0.12448419
196	0x3d92f930	0.07176435
197	0x3ea82414	0.32840025
198	0xbe2eb024	-0.1705938
199	0x3d8a0fc1	0.06741286

enc_un.in_layer.bias f4 [100]
0	0xbf0036c9	-0.50083596
1	0x3ef500e3	0.4785224
2	0x3edad370	0.4273944
3	0x3f29bea3	0.66306514
4	0x3f2d1dd0	0.67623615
5	0xbe88af00	-0.26696014
6	0x3f0df8dd	0.5545786
7	0xbf10c169	-0.5654512
8	0x3f0c8646	0.54892385
9	0xbeebcbc0	-0.46053886
10	0xbf059b94	-0.5219052
11	0xbf0250aa	-0.50904334
12	0x3f3bce53	0.733617
13	0x3e7669e5	0.24063833
14	0xbf0b389d	-0.5438326
15	0xbf11190c	-0.56678843
16	0x3dfc4080	0.1231699
17	0xbe4e808a	-0.20166221
18	0x3e6cc8b9	0.23123445
19	0x3ef5736b	0.4793962
20	0xbefa6cef	-0.48911235
21	0xbf2c897a	-0.6739727
22	0x3de9064a	0.11378153
23	0x3f0425eb	0.5162036
24	0x3ee80d8e	0.4532284
25	0x3cdf36dd	0.02724784
26	0xbe693bf8	-0.22776783
27	0x3e885176	0.2662465
28	0x3f0a2949	0.53969246
29	0xbf28655d	-0.6577967
30	0xbd1e608c	-0.038666293
31	0x3f14a82f	0.5806913
32	0x3f17fac1	0.59366995
33	0x3f3237f7	0.69616646
34	0x3ea42cdb	0.32065472
35	0x3f390d48	0.7228589
36	0xbf380eef	-0.71897787
37	0x3dbdfb4f	0.09276449
38	0x3e165cf4	0.14683896
39	0x3f076444	0.5288737
40	0x3e39e591	0.18153979
41	0x3efe2b89	0.4964259
42	0xbf2b29dd	-0.66860753
43	0xbdfc6543	-0.12324002
44	0x3ea1a870	0.3157382
45	0x3eeca66e	0.46220726
46	0x3e568bf8	0.20951831
47	0x3f00cfa9	0.50316864
48	0xbe46f700	-0.1943016
49	0xbcb0f4af	-0.02160105
50	0x3f34c92e	0.70619476
51	0x3f030464	0.51178575
52	0x3efbb612	0.49162346
53	0xbf29ff1f	-0.6640491
54	0x3d179342	0.03700567
55	0xbf29275c	-0.6607568
56	0x3f320a34	0.6954682
57	0x3f14b115	0.58082706
58	0x3ee28774	0.44243968
59	0xbee362e5	-0.44411388
60	0xbee2ca9a	-0.44295198
61	0xbef5ba12	-0.47993523
62	0x3ea078ef	0.31342265
63	0x3f1d81f0	0.61526394
64	0xbe0e655b	-0.13905852
65	0xbf34b7f0	-0.70593166
66	0xbe4f88a8	-0.20266974
67	0x3dfe3d6e	0.124140605
68	0x3d911131	0.07083357
69	0x3edc6f2c	0.43053567
70	0x3e7f9adc	0.24961418
71	0xbe76c92a	-0.24100175
72	0xbf00ba83	-0.50284594
73	0x3c55142c	0.013005298
74	0xbebf0d8f	-0.37315032
75	0xbf1b780d	-0.6073006
76	0xbee4a9cd	-0.44660798
77	0xbf313319	-0.69218594
78	0x3df1e611	0.1181146
79	0xbe43a05b	-0.1910414
80	0xbee1b768	-0.4408524
81	0x3db50f9d	0.088408686
82	0xbda4b20d	-0.08041773
83	0xbf07b379	-0.5300823
84	0x3ea9f0de	0.3319158
85	0xbf3810e4	-0.71900773
86	0xbc75a16b	-0.014992098
87	0x3f125887	0.5716633
88	0x3f212d0d	0.6295937
89	0x3ed8e79c	0.42364204
90	0xbdf80e53	-0.12112107
91	0x3e480c1b	0.19535868
92	0xbf0ad4f5	-0.54231197
93	0xbb81d4f4	-0.0039621536
94	0x3f17e3af	0.5933179
95	0xbe9372c8	-0.2879851
96	0xbf346843	-0.7047159
97	0x3f1f3c12	0.62201035
98	0x3e9d4f2d	0.3072447
99	0x3f0a3ced	0.53999215

enc_un.h_layer.0.weight f4 [100, 100]
0	0x3d0ed458	0.034870476
1	0x3db5eac3	0.08882668
2	0xbdfc484f	-0.12318479
3	0x3d763811	0.060112063
4	0x3e053fad	0.13012572
5	0xbdb2eabd	-0.08736179
6	0x3d420e6a	0.047377028
7	0xbce23d26	-0.027617048
8	0x3dad160d	0.084514715
9	0xbda158d7	-0.07878273
10	0xbdbc19e9	-0.091846295
11	0x3ae17ab3	0.0017202705
12	0x3d60a803	0.05484773
13	0x3e12d243	0.14338021
14	0xbe01321c	-0.12616771
15	0xbe340bb8	-0.17582595
16	0x3d2ef1fe	0.04271125
17	0x3d66fc9b	0.056393247
18	0x3e0618ee	0.13095447
19	0x3decc3aa	0.115607575
20	0x3ca94942	0.020664815
21	0xbc9750bf	-0.01847112
22	0xbd841039	-0.06448407
23	0x3e2ee2b0	0.17078662
24	0x3db25dd1	0.087093
25	0xbbe92687	-0.0071151885
26	0x3a870ad9	0.0010302915
27	0x3e154624	0.14577538
28	0x3d849884	0.064744025
29	0xbd594874	-0.053047612
30	0xbe4b077d	-0.19827075
31	0xbd1322a1	-0.035921697
32	0xbc80ab1d	-0.015706593
33	0x3e4c894d	0.19974251
34	0xbbe4fe9a	-0.0069883587
35	0x3d77532c	0.060382053
36	0x3b9c4f18	0.004770171
37	0x3ce8cacc	0.028417014
38	0xbc08da5d	-0.008352843
39	0xbd820a4f	-0.063496225
40	0xbd1a4496	-0.037663065
41	0x3d84125f	0.064488165
42	0xbd8ab26a	-0.06772311
43	0xbe286c9f	-0.16447686
44	0xbe1a1d12	-0.15050152
45	0xbdfd8dc4	-0.12380555
46	0xbd37ecd1	-0.04490358
47	0x3c5a0f87	0.013309366
48	0xbbdef76e	-0.0068043983
49	0xbd88fa60	-0.0668838
50	0xbbd3f2fc	-0.006468175
51	0x3e9d4977	0.30720112
52	0x3ceebe9a	0.02914362
53	0xbc8f51e2	-0.0174951
54	0xbe394478	-0.18092525
55	0xbe327c38	-0.17430198
56	0x3cb90617	0.022585912
57	0xbdc5da47	-0.09660774
58	0x3d2ca377	0.04214808
59	0x3d7c53a9	0.061603222
60	0x3d32ac41	0.043621305
61	0xbdce4809	-0.10072333
62	0x3e52d2f7	0.20588289
63	0xbd53ac06	-0.051677726
64	0xbd23e40b	-0.0400124
65	0xbcc8cc7b	-0.024511566
66	0xbd0824ab	-0.033238094
67	0xbb85f04b	-0.004087483
68	0xbe2997b7	-0.16561781
69	0xbd0d88c0	-0.034554243
70	0xbd867824	-0.06565884
71	0x3e1367cc	0.14395064
72	0xbd9f6c0e	-0.07784282
73	0xbd09289f	-0.033486005
74	0xbda47291	-0.08029664
75	0x3d58a6e2	0.052893527
76	0xbe0bc382	-0.13648799
77	0x3db1c93f	0.08680963
78	0xbe7692f7	-0.240795
79	0x3e466a27	0.19376431
80	0x3ddad7f8	0.10685724
81	0xbdd62923	-0.10457065
82	0x3d7925ab	0.06082694
83	0x3da4a4f8	0.08039278
84	0xbd0521d6	-0.03250297
85	0xbca62251	-0.020280035
86	0x3d805b0d	0.062673666
87	0x3dfd6d1b	0.12374326
88	0x3bdfbe69	0.0068281186
89	0xbc5a4428	-0.013321914
90	0x3e30448c	0.17213649
91	0xbdb14ac7	-0.08656841
92	0x3d388cb5	0.045056064
93	0x3ca2c880	0.019870996
94	0x3d8ab0ad	0.067719795
95	0xbc1b8b90	-0.0094937235
96	0x3d861289	0.06546504
97	0x3e3a2c7c	0.18181032
98	0x3d81bc40	0.06334734
99	0xbd136b9a	-0.03599129
100	0xbde47b1d	-0.111562945
101	0xbe4ecaa4	-0.20194489
102	0xbdb09a19	-0.08623142
103	0xbde0fe1d	-0.10985968
104	0xbe02dc6d	-0.12779398
105	0xbd19b1fa	-0.037523247
106	0xbe066193	-0.13123159
107	0x3d135a36	0.035974704
108	0xbd023ffb	-0.031799298
109	0x3c4ad2b3	0.012379336
110	0x3e08ab4a	0.13346592
111	0xbd2e88bb	-0.042610865
112	0x3b1d3845	0.0023989838
113	0x3df6f508	0.12058455
114	0x3d8c1916	0.06840722
115	0xbcf074a3	-0.029352492
116	0x3d7f9c27	0.062404778
117	0x3e2c79c3	0.16843323
118	0xbd6331c3	-0.05546738
119	0x3d0b5df4	0.034025148
120	0x3dfa53de	0.12223028
121	0x3dac6a7a	0.08418746
122	0xbc2b7d2a	-0.010466853
123	0xbe2b64b5	-0.16737635
124	0xbd47730b	-0.048693698
125	0x3e276140	0.16345692
126	0x3d217221	0.039415482
127	0xbd65c7e8	-0.05609885
128	0x3e01cacb	0.12675016
129	0xbda3ec36	-0.08004038
130	0xbd606747	-0.054785993
131	0x3d4b2c12	0.049602576
132	0x3d298e24	0.04139532
133	0xbd35e6ab	-0.044409435
134	0x3d14bd46	0.036313318
135	0xbbd10581	-0.00637883
136	0x3d978a78	0.07399458
137	0x3d213227	0.03935447
138	0xbbb1e6a6	-0.0054291068
139	0xbe37a456	-0.17933783
140	0x3daaafea	0.08334334
141	0xbc9e389b	-0.019314101
142	0x3d28064b	0.041021626
143	0x3d7bd081	0.06147814
144	0xbd844714	-0.064588696
145	0xbe0ea640	-0.13930607
146	0x3d161c2d	0.036647964
147	0xbdef530a	-0.1168576
148	0xbd57efdb	-0.05271898
149	0xbc4766a8	-0.012170471
150	0xbb913901	-0.004431844
151	0xbe3b3ffe	-0.1828613
152	0x3df1e971	0.118121035
153	0x3d7ba152	0.061433144
154	0xbdd4591a	-0.10368557
155	0xbc82a914	-0.015949763
156	0xbd153826	-0.0364305
157	0x3e0a857d	0.13527484
158	0xbe73dd88	-0.23814976
159	0xbd9b1461	-0.07572246
160	0xbe083754	-0.13302356
161	0xbde01135	-0.10940782
162	0xbe2d5678	-0.16927516
163	0x3e007140	0.12543201
164	0x3e189a49	0.14902605
165	0xbcc757bb	-0.024333825
166	0xbdd936d0	-0.10606158
167	0xbd7bf54d	-0.061513234
168	0x3d5d8b3c	0.054087862
169	0x3def457e	0.116831765
170	0x3d2d1137	0.042252745
171	0x3dfb2fa4	0.12264946
172	0x3da6b299	0.081395335
173	0x3e2f92c8	0.17145836
174	0xbce96c1f	-0.028493939
175	0xbd49357c	-0.049123272
176	0x3daf0e99	0.08547706
177	0x3da6017c	0.08105752
178	0x3cfdf800	0.031002045
179	0xbc0e47cf	-0.008684113
180	0x3d2436dd	0.040091384
181	0xbc78be71	-0.0151821235
182	0xbe56f312	-0.20991161
183	0x3e7988f8	0.24368656
184	0x3e2ca0dd	0.1685824
185	0x3dd7457e	0.105113015
186	0xbd5df00b	-0.054184
187	0xbdf634ce	-0.120217904
188	0xbde343ca	-0.11096914
189	0xbdd7b1af	-0.10531937
190	0xbe27cbb6	-0.16386303
191	0xbe1076b2	-0.14107779
192	0x3df703b4	0.12061253
193	0xbdd8ed4c	-0.10592136
194	0xbcba6ac3	-0.022755986
195	0xbc743112	-0.014904277
196	0x3e22b897	0.15890728
197	0x3d3d6014	0.046234205
198	0xbe47be57	-0.19506203
199	0xbe2398ca	-0.15976253
200	0x3d972f85	0.073821105
201	0x3d977a46	0.07396369
202	0xbc3c53bb	-0.011494572
203	0x3d5b1b3e	0.053492777
204	0xbd708bf2	-0.058727212
205	0xbd95df5a	-0.073179916
206	0x3dd3d8a9	0.10344059
207	0xbe5988ff	-0.21243666
208	0x3d8f2872	0.06990136
209	0x3bf419ef	0.0074493806
210	0xbdcd8c10	-0.100364804
211	0xbe6997fc	-0.22811884
212	0xbcdde3de	-0.027086195
213	0x3ddcfd2a	0.10790475
214	0xbe362944	-0.17789179
215	0xbdc69424	-0.09696224
216	0x3d9d469b	0.076794825
217	0xbe2199e0	-0.15781355
218	0x3c6ae672	0.014337169
219	0x3e2aedd1	0.16692282
220	0xbd96078a	-0.07325657
221	0x3d8acaa2	0.067769304
222	0x3e8f05f1	0.2793422
223	0x3ca03392	0.01955584
224	0xbe1f417e	-0.15552327
225	0x3d74027f	0.059572693
226	0xbd2152a9	-0.03938547
227	0x3e714fc8	0.2356559
228	0x3c9cbd26	0.019133162
229	0xbdc7157f	-0.09720897
230	0xbbe756f0	-0.0070599243
231	0xbcf2733d	-0.029595966
232	0x3e398e2b	0.18120639
233	0xbd5369e9	-0.051614676
234	0x3de89c50	0.11357939
235	0x3c80cc38	0.01572238
236	0x3d89784f	0.067124
237	0xbd738e05	-0.059461612
238	0x3d849561	0.06473804
239	0x3dbe6fcb	0.092986666
240	0x3cefccba	0.029272426
241	0x3d8969b4	0.067096144
242	0x3ceb9794	0.028758802
243	0xbe208d67	-0.1567894
244	0xbd5490f4	-0.05189605
245	0xbd54fdf2	-0.051999994
246	0x3cc8986a	0.02448674
247	0xb8be8b35	-9.085835e-05
248	0x3d8c897c	0.068621606
249	0xbcc18bbc	-0.0236262
250	0xbe17cd88	-0.14824498
251	0x3dc19da6	0.09453897
252	0x3cf9d5e2	0.030497495
253	0xbcd53aeb	-0.02602907
254	0x3df52ab5	0.11971036
255	0x3e05ffc2	0.13085845

enc_un.h_layer.0.bias f4 [100]
0	0xbda2529b	-0.07925912
1	0xbdeb7037	-0.11496013
2	0x3d88a611	0.066723
3	0x3dbcdd14	0.09221855
4	0xbd5a89de	-0.053354137
5	0x3aed57f0	0.0018107872
6	0x3d063851	0.03276855
7	0xbd18989c	-0.037254915
8	0x3caee489	0.021349208
9	0xbe0d196b	-0.13779227
10	0xbdc8b7a9	-0.098006554
11	0xbd2f37cb	-0.042777818
12	0x3cd8548f	0.026407508
13	0xbdf31cca	-0.118707255
14	0x3ceaad28	0.02864702
15	0xbd5d3b31	-0.054011527
16	0xbc5be67c	-0.013421651
17	0xbcc841d4	-0.024445452
18	0xbd35e82a	-0.044410862
19	0xbd96d829	-0.07365448
20	0x3dfaf944	0.12254575
21	0xbdfa3b90	-0.12218392
22	0x3d5e456a	0.054265417
23	0xbc0a8a00	-0.008455753
24	0xbdcb1a02	-0.0991707
25	0x3cbcea40	0.023060918
26	0xbd820ecc	-0.063504785
27	0x3c9f4b09	0.01944496
28	0x3c57b246	0.013165062
29	0x3d31ed2d	0.04343908
30	0x3cdb89ba	0.026799072
31	0xbcff003e	-0.031128045
32	0x3dad60ea	0.084657505
33	0xbd3ccfe9	-0.046096716
34	0xbdd87e40	-0.10570955
35	0x3dcb558a	0.09928425
36	0xbbb3cd83	-0.0054871454
37	0x3dd65ab5	0.1046652
38	0xbd9db17f	-0.0769987
39	0x3d78d854	0.06075318
40	0xbd0449b3	-0.032296848
41	0x3d7c5f84	0.06161453
42	0xbc8d5ed3	-0.01725713
43	0x3df6aa30	0.120441794
44	0x3d194a5e	0.037424438
45	0x3d167e78	0.036741704
46	0xbc24b8c2	-0.010053815
47	0x3bbfc0ae	0.0058518266
48	0x3bd7cd45	0.0065857493
49	0xbca00c18	-0.019537017
50	0x3d19e4de	0.03757178
51	0x3d2b578d	0.04183154
52	0x3d53bf84	0.051696315
53	0xbc6b54f2	-0.014363514
54	0x3daa6351	0.08319724
55	0xbd464dd9	-0.048414085
56	0xbcf6cc87	-0.030126823
57	0x3d157fc3	0.036498796
58	0xbda57e3d	-0.08080719
59	0xbaee2ce3	-0.0018171336
60	0xbdf1d5a3	-0.11808326
61	0x3e099567	0.13435899
62	0x3def7e06	0.11693959
63	0xbde992e3	-0.114049695
64	0xbdaaee54	-0.08346239
65	0x3dea2af8	0.11433977
66	0xbcefa898	-0.029255196
67	0x3d0974d6	0.03355869
68	0x3df56c84	0.11983588
69	0x3e07526c	0.13215035
70	0x3dc40400	0.095710754
71	0xbc7fb639	-0.01560741
72	0xbd99d960	-0.07512164
73	0xbcf98c48	-0.0304624
74	0xbc398367	-0.011322833
75	0xbd437dcd	-0.047727395
76	0xbb706580	-0.0036681592
77	0xbd973c71	-0.07384575
78	0xbcdf40b7	-0.027252538
79	0x3d7442b3	0.05963392
80	0x3da8148e	0.082070455
81	0x3d2a4221	0.04156697
82	0x3d26ea49	0.040750775
83	0xbd894718	-0.06703013
84	0x3da39982	0.07988264
85	0x3ce03d6a	0.027373035
86	0xbd8542b7	-0.065068655
87	0x3e07d10b	0.13263337
88	0xbdd7a4eb	-0.105295025
89	0xbe079ff4	-0.13244611
90	0x3df9890a	0.12184341
91	0x3c1086b2	0.008821176
92	0xbd47db3f	-0.048793074
93	0xbc096368	-0.008385517
94	0x3d8a3348	0.06748062
95	0x3d4ce50d	0.050023127
96	0xbda020b9	-0.07818741
97	0x3dc3ae03	0.095546745
98	0xbd17c4b1	-0.037052814
99	0x3d84e554	0.06489053

enc_un.h_layer.2.weight f4 [100, 100]
0	0x3d30f3b3	0.04320116
1	0x3da9a0b0	0.08282602
2	0x3e126f17	0.1430019
3	0x3e07289e	0.13199088
4	0xbe51c78c	-0.20486277
5	0xbcc40638	-0.023928747
6	0x3d5d67d4	0.054054096
7	0xbe94e4d9	-0.29080847
8	0xbddd5edd	-0.10809109
9	0xbdb9e183	-0.09076216
10	0xbdfeeca1	-0.12447477
11	0x3c57d4ba	0.013173277
12	0x3d6b9515	0.057515223
13	0xbd835b2b	-0.06413873
14	0x3d261c88	0.040554553
15	0xbc7b1406	-0.015324598
16	0x3d1257c5	0.035728235
17	0xbe7b8983	-0.24564175
18	0xbd4424c5	-0.04788663
19	0x3d85f465	0.06540755
20	0xbc537a25	-0.0129075395
21	0xbcab172d	-0.020885075
22	0x3c85c337	0.016328437
23	0xbe0acbc3	-0.13554291
24	0x3b6713c4	0.0035259584
25	0x3ce5a92d	0.02803477
26	0x3df4d421	0.11954523
27	0xbd8fc829	-0.070205994
28	0x3d9476b4	0.07249203
29	0x3ad9442a	0.0016576101
30	0x3c4e540b	0.01259328
31	0x3d4468c5	0.04795148
32	0x3d3471c4	0.044053808
33	0x3cd3cfbc	0.025855891
34	0xbd9c2030	-0.07623327
35	0xbda56f3d	-0.08077858
36	0x3b517dde	0.0031965892
37	0xbdd959ed	-0.10612855
38	0x3c82784c	0.015926503
39	0xbbc12ca4	-0.005895214
40	0x3cac39fa	0.02102374
41	0x3d86d824	0.06584194
42	0xbc79bd33	-0.0152428625
43	0x3da856ab	0.082196556
44	0x3e53e8d9	0.20694293
45	0xbdb58f12	-0.08865179
46	0xbd9ca80a	-0.076492384
47	0x3e2ac681	0.16677286
48	0xbe1c6132	-0.15271452
49	0xbd7eaf89	-0.062179122
50	0xbda08033	-0.07836952
51	0x3dacfe1b	0.08446904
52	0xbd1dd01b	-0.038528543
53	0x3dd642f3	0.10461988
54	0xbb83d5e5	-0.004023301
55	0x3db53c75	0.08849422
56	0xbdd8ca3f	-0.105854504
57	0xbe46b98c	-0.19406718
58	0x3dd17bfb	0.102287255
59	0x3d69abe0	0.05704868
60	0x3dacb3e7	0.08432751
61	0x3c764941	0.0150321135
62	0x3da98c8a	0.08278759
63	0xbca818d7	-0.020519657
64	0xbdb1f593	-0.08689418
65	0xbd9f5173	-0.07779207
66	0xbdda6d9e	-0.10665439
67	0x3ccd554c	0.025065087
68	0x3de71e4c	0.112850755
69	0xbe2c4140	-0.16821766
70	0xbbcd8830	-0.0062723383
71	0x3d36090d	0.044442225
72	0x3dd7b0dd	0.10531781
73	0x3c1ecd33	0.009692478
74	0x3de497dc	0.111617774
75	0x3bfabd15	0.007651935
76	0xbda3fed2	-0.080075875
77	0xbdc47848	-0.09593254
78	0xbcb01cde	-0.02149814
79	0x3d1b4f0f	0.037917193
80	0x3d42357d	0.04741429
81	0xbdb3432e	-0.08753048
82	0xbd491af0	-0.049097955
83	0xbd80b2a6	-0.062840745
84	0x3cdfbe75	0.027312497
85	0xbccba7d2	-0.024860296
86	0xbdd459cd	-0.10368691
87	0x3d9201e6	0.07129268
88	0xbcd15e15	-0.025557557
89	0x3de37201	0.11105729
90	0x3e207467	0.15669404
91	0xbdfff849	-0.124985285
92	0xbc22948a	-0.00992311
93	0x3d3bef98	0.04588279
94	0x3de9d19b	0.11416932
95	0x3d9100fc	0.07080266
96	0x3e83b796	0.25726002
97	0xbd8f6213	-0.07001128
98	0xbeb886bb	-0.3604029
99	0x3e000e1b	0.12505381
100	0x3cf59aed	0.029981101
101	0xbd94a872	-0.07258691
102	0x3ddca9ad	0.107745506
103	0x3d1d5454	0.0384105
104	0x3d88fb5d	0.06688569
105	0xbe01dae5	-0.12681158
106	0xbd9446af	-0.07240044
107	0xbe0e942a	-0.13923708
108	0x3d4bf5d1	0.049794976
109	0xbe15bd03	-0.14622883
110	0xbd021680	-0.03175974
111	0x3df7758e	0.12082969
112	0xbd78c4e4	-0.060734645
113	0xbd654087	-0.05596974
114	0x3d7dfecd	0.062010575
115	0x3d07f64e	0.03319388
116	0xbcbc57f7	-0.022991164
117	0xbd9ae6b9	-0.07563538
118	0x3df60d14	0.12014213
119	0xbbf0e17c	-0.0073510986
120	0x3d9dfd5b	0.07714339
121	0xbe209d6b	-0.1568505
122	0xbd979b76	-0.07402699
123	0x3d593b36	0.053034984
124	0xbd0f244f	-0.034946736
125	0x3d3dcb2d	0.04633634
126	0xbe490bcc	-0.19633406
127	0xba60ea58	-0.0008579842
128	0x3d1caf4f	0.038253125
129	0x3837a156	4.3780856e-05
130	0x3e1dda15	0.15415223
131	0xbe4106b1	-0.18850209
132	0xbd25c724	-0.04047312
133	0xbd5201dc	-0.051271304
134	0xbe505aaa	-0.20347086
135	0xbdfe1945	-0.124071635
136	0x3e14e251	0.14539458
137	0xbd5cd671	-0.053915445
138	0x3ce319c4	0.027722247
139	0xbdecfd59	-0.1157176
140	0x3ca936c7	0.020656003
141	0x3e2771f5	0.16352065
142	0x3db0cd1e	0.08632873
143	0x3e2816d1	0.16414954
144	0x3c8afc11	0.016965898
145	0xbd10043b	-0.035160284
146	0x3d97f618	0.074199855
147	0x3dd391ba	0.103305295
148	0xbd3d3649	-0.04619435
149	0x3e57e830	0.21084666
150	0x3c9306bf	0.017947553
151	0x3dd9ce27	0.106350236
152	0xbd77408d	-0.060364295
153	0xbccf4ea2	-0.02530605
154	0x3d315956	0.043298088
155	0x3d64592c	0.055749103
156	0x3a392279	0.0007062327
157	0x3c8fe996	0.017567437
158	0xbd432873	-0.047645997
159	0x3e1e6c42	0.15470985
160	0x3d7f7dda	0.06237588
161	0xbd257667	-0.04039612
162	0x3d7555f0	0.05989641
163	0xbdbee695	-0.09321324
164	0x3db4e71d	0.08833144
165	0x3dcf2db1	0.10116137
166	0x3bf54f72	0.0074862773
167	0x3df43e9e	0.11926006
168	0xbdc54d5b	-0.09633895
169	0xbe1f4c99	-0.15556563
170	0xbde9248c	-0.11383924
171	0xbe024b64	-0.12724072
172	0x3dd698aa	0.10478337
173	0x3dbb3d62	0.09142567
174	0x3e4955d4	0.19661647
175	0xbe040bb4	-0.1289509
176	0x3ca56089	0.020187633
177	0x3dc007da	0.093764976
178	0xbd3c6e8f	-0.046003874
179	0x3cfa1e98	0.030532166
180	0x3d06ec76	0.03294035
181	0x3d121154	0.035661057
182	0x3dce9a4b	0.10088023
183	0x3d88fcd7	0.066888504
184	0xbc30c347	-0.010788745
185	0xbd7ee6e0	-0.0622319
186	0x3e2c8965	0.16849287
187	0x3e17bc57	0.1481794
188	0xbe1e24b0	-0.15443683
189	0x3d8a15be	0.06742428
190	0x3d942a41	0.07234622
191	0xbd834c66	-0.06411056
192	0xbe7fa0c4	-0.24963671
193	0x3dc9e992	0.09859003
194	0x3caa730e	0.020806815
195	0x3e1418f2	0.14462641
196	0x3d8b967b	0.06815811
197	0x3d24c3f3	0.040225934
198	0xbc939434	-0.018015005
199	0xbc47210d	-0.012153876
200	0x3df710e1	0.12063766
201	0x3db5d09c	0.0887768
202	0xbcd5b486	-0.026087057
203	0x3d873c4e	0.06603299
204	0x3c0b654b	0.008508037
205	0x3c91254f	0.017717985
206	0xbc9ff57f	-0.019526241
207	0x3d09eef7	0.03367516
208	0x3ea0564b	0.31315836
209	0x3e41117b	0.18854325
210	0x3e3238c9	0.17404474
211	0xbe00bf72	-0.1257303
212	0x3d678a2c	0.056528255
213	0xbdf51772	-0.119673625
214	0x3d8af10a	0.06784256
215	0x3ea298e7	0.3175728
216	0xbd24f1ad	-0.040269542
217	0x3cbaeaf0	0.022817105
218	0x3cac40a5	0.021026919
219	0xbc556fba	-0.013027126
220	0x3df72f06	0.12069516
221	0x3cdb8cba	0.026800502
222	0xbd4c639d	-0.049899686
223	0xbe560383	-0.20899777
224	0xbe446ba8	-0.19181693
225	0xbd4a45ea	-0.04938308
226	0x3c0b5061	0.008503051
227	0xbc36d89d	-0.011160043
228	0x3e1f6abd	0.15568061
229	0x3e1c4d91	0.15263964
230	0x3da40340	0.080084324
231	0x3dccaabe	0.09993504
232	0xbda5a634	-0.08088341
233	0xbd461442	-0.048359163
234	0x3cbe69a3	0.02324373
235	0x3c830fd6	0.015998762
236	0x3d9897b2	0.074508086
237	0x3d8b60b2	0.068055525
238	0x3ce48fd0	0.027900606
239	0xbdc6e12a	-0.097109154
240	0x3c5054f0	0.012715563
241	0xbd855a03	-0.06511309
242	0x3e2c03cc	0.16798323
243	0x3d1605c6	0.0366266
244	0x3ced2fdc	0.028953485
245	0xbe05f3eb	-0.13081329
246	0x3d8f1d78	0.069880426
247	0xbcb4b8e6	-0.022060823
248	0x3cdc348d	0.026880527
249	0x3dde04a4	0.10840729
250	0xbd479499	-0.0487257
251	0x3d6dda51	0.05806953
252	0x3df3f645	0.119122066
253	0xbdf1d37a	-0.11807914
254	0x3e0363d6	0.12831053
255	0x3c657467	0.014004803

enc_un.h_layer.2.bias f4 [100]
0	0x3bd93806	0.006628993
1	0x3db9832c	0.09058222
2	0xbdc1861b	-0.09449407
3	0x3dada783	0.08479216
4	0xbc48fac5	-0.012266819
5	0x3cd65ac1	0.026166322
6	0x3dadc400	0.0848465
7	0x3dc5c691	0.09657014
8	0x3da06e48	0.078335345
9	0xbce7d31f	-0.028298913
10	0x3cb1917f	0.021675823
11	0x3d2a6cdf	0.041607734
12	0x3cd6e712	0.02623323
13	0xbd510315	-0.05102833
14	0xbd56b793	-0.052421164
15	0x3db0ee45	0.08639196
16	0x3d96ccef	0.07363307
17	0xba21fae7	-0.000617905
18	0x3b30096e	0.002686109
19	0x3ca360b7	0.019943578
20	0x3cf26f7c	0.029594176
21	0x3df3e320	0.11908555
22	0xbd37cdfe	-0.044874184
23	0xbdb9be86	-0.090695426
24	0x3b88aef6	0.0041712476
25	0x3caf6bd6	0.021413725
26	0x3daddbce	0.0848919
27	0x3c007ab5	0.007841756
28	0x3d8d387e	0.06895541
29	0xbb0fff33	-0.002197218
30	0x3dd6877e	0.10475062
31	0x3d7fc4b1	0.06244344
32	0xbb7226d9	-0.0036949425
33	0x3d92a0cb	0.07159575
34	0xbd9a920b	-0.07547387
35	0xbdcac89d	-0.09901545
36	0xbd914074	-0.070923716
37	0xbd914fd4	-0.07095304
38	0x3d279981	0.040917877
39	0x3d97e69f	0.07417034
40	0xbdcbbea9	-0.09948475
41	0xbdae8085	-0.08520607
42	0x3da2dca8	0.07952243
43	0xbd441468	-0.047871023
44	0xbc30edee	-0.010798914
45	0xbd48a100	-0.048981667
46	0x3d1a6cf1	0.03770155
47	0xbd95875e	-0.0730121
48	0x3c1e7f19	0.009673857
49	0xbd8afefa	-0.06786914
50	0x3da136b7	0.07871764
51	0xbd5e8b19	-0.054331873
52	0x3dfbd250	0.12295973
53	0xbdbc58c4	-0.09196618
54	0xbd5c4506	-0.053776763
55	0xbdc96e9d	-0.09835551
56	0xbce97ae8	-0.02850099
57	0x3d9dd220	0.07706094
58	0x3ddfd9f8	0.10930246
59	0x3c8d061a	0.017214824
60	0x3b9a7b3d	0.004714398
61	0x3d5ca2a5	0.053866047
62	0x3dbebc46	0.09313254
63	0x3c7c4c30	0.015399024
64	0x3d9e58b4	0.077317625
65	0x3abd3e57	0.0014438134
66	0xbd56e5cf	-0.052465256
67	0x3d9677e6	0.073470876
68	0xbb8c7d77	-0.0042874175
69	0xbb2b1fe3	-0.0026111535
70	0x3dbc0968	0.091814816
71	0x3d25206e	0.04031413
72	0xbac1a948	-0.0014775181
73	0xbcbdcde8	-0.023169473
74	0xbd46846a	-0.048466124
75	0x3c52e611	0.012872235
76	0xbd34dd92	-0.04415662
77	0xbd90ace8	-0.07064229
78	0xbce3de44	-0.027815945
79	0xbd27f38d	-0.041003752
80	0xbd7980e8	-0.06091395
81	0x3d81f03b	0.063446485
82	0x3c6e96d0	0.014562324
83	0x3d8b61d3	0.06805768
84	0x3c91adde	0.017783102
85	0x3d9ba5ba	0.07599969
86	0x3d5c238b	0.053744834
87	0x3da27caf	0.07933938
88	0x3d429ede	0.04751479
89	0x3d026fb1	0.0318448
90	0xbd60a680	-0.054846287
91	0x3da8e8d4	0.082475334
92	0x3dc1865a	0.09449454
93	0x3d07463d	0.03302597
94	0xbd9a4e10	-0.075344205
95	0x3c43a0c4	0.011940185
96	0xbd2eea51	-0.04270393
97	0x3d9d84a2	0.07691313
98	0xbda4d87b	-0.08049103
99	0xbd0398a6	-0.032128

enc_un.h_layer.4.weight f4 [100, 100]
0	0x3cf8d6bf	0.030375836
1	0x3df32b24	0.11873463
2	0x3ae6a91e	0.0017598008
3	0x3da7243c	0.08161208
4	0xbd5b660a	-0.05356411
5	0x3d7b036d	0.061282564
6	0x3e01d0a9	0.12677254
7	0xbddd4ac2	-0.108052745
8	0x3e0fb855	0.14035161
9	0xbcc5bb6e	-0.024137225
10	0xbd82a3aa	-0.06378873
11	0x3e1995aa	0.14998499
12	0xbd9742f3	-0.073858164
13	0x3e0c4ed8	0.13701952
14	0x3d87ebb7	0.06636756
15	0x3d597932	0.053094096
16	0x3ca96c6d	0.020681584
17	0x3e3f25d5	0.18666776
18	0xbdf1ccd8	-0.11806649
19	0xbe78be29	-0.2429129
20	0xbda37380	-0.07981014
21	0x3beba0de	0.0071908077
22	0xbdcefe50	-0.101071
23	0x3c87a831	0.016559692
24	0xbd2e80c4	-0.04260327
25	0xbdf28b5b	-0.11842986
26	0xbdf1a137	-0.117983274
27	0xbd030641	-0.031988386
28	0xbcbf6ba3	-0.023366755
29	0x3d920113	0.07129111
30	0x3d96bd23	0.07360294
31	0xbca62268	-0.020280078
32	0x3e2ac9e5	0.16678579
33	0x3c23ef68	0.010005809
34	0x3d7bed0e	0.06150537
35	0xbd9eef2c	-0.07760462
36	0x3dd2328c	0.10263547
37	0x3b52fd4f	0.003219444
38	0xbd22da6d	-0.03975909
39	0xbdc3efa6	-0.09567194
40	0x3c20abd6	0.009806594
41	0x3e60f59d	0.21968694
42	0xbdc933d9	-0.09824342
43	0xbd824a8b	-0.06361874
44	0xbdcc3495	-0.09970967
45	0xbd17d669	-0.03706971
46	0x3c9519c5	0.018200764
47	0x3db20763	0.08692815
48	0x3bf411de	0.007448419
49	0xbe00e494	-0.12587196
50	0xbdfe4bb4	-0.12416783
51	0xbd0e0ebf	-0.03468203
52	0xbd988c18	-0.07448596
53	0x3dde4837	0.10853618
54	0xbafa480d	-0.0019094959
55	0xbc323e7a	-0.010879153
56	0x3d807f83	0.06274321
57	0x3d389b10	0.045069754
58	0x3b88d2af	0.004175506
59	0xbd6f9ff6	-0.05850216
60	0x3e01f4ac	0.12690991
61	0x3e415f7d	0.18884082
62	0xbb2f4204	-0.002674223
63	0x3dc14c11	0.09438337
64	0x3cc261fe	0.023728367
65	0x3cbbdc59	0.022932218
66	0x3c2632f7	0.010143987
67	0x3dabe22f	0.083927505
68	0x3e1d9546	0.15388975
69	0xbe29c2f1	-0.1657827
70	0x3d1568cd	0.0364769
71	0x3c7440c1	0.014908017
72	0xbb18db99	-0.002332425
73	0xbc0c9a57	-0.008581719
74	0xbe2055d9	-0.15657748
75	0xbe2c7a24	-0.16843468
76	0xbe1ce075	-0.15319999
77	0x3e2d279e	0.16909644
78	0x3c403889	0.011732229
79	0xbbfd17ac	-0.007723769
80	0x3c91c78d	0.017795349
81	0xbda79de2	-0.08184411
82	0xbe9f66e2	-0.3113318
83	0x3c05a7a4	0.008157644
84	0xbc09c6b3	-0.00840919
85	0xbce06a90	-0.027394563
86	0xbd8f073b	-0.06983801
87	0x3d272c04	0.04081346
88	0xbc0399a1	-0.008032233
89	0xbc66b72b	-0.014081757
90	0x3e1c9a1c	0.15293163
91	0xbdee9ab6	-0.116506025
92	0xbd759f41	-0.05996633
93	0x3e0e736f	0.13911222
94	0xbdcc8e34	-0.099880606
95	0xbce9f3d4	-0.02855865
96	0xbd72527c	-0.059160694
97	0xbd5ca089	-0.053864036
98	0x3c80de0c	0.01573088
99	0xbb1ba94a	-0.0023752027
100	0xbbf14279	-0.0073626605
101	0xbd14a00b	-0.03628544
102	0xbde75133	-0.112947844
103	0x3dce6ad0	0.100789666
104	0x3d18099f	0.03711855
105	0x3dd5c2b5	0.10437528
106	0x3d3ff8bb	0.046868067
107	0x3e00048c	0.12501734
108	0x3d0b7724	0.03404917
109	0x3e14ed23	0.14543585
110	0x3dfc8b21	0.12331224
111	0x3e0fcc94	0.14042884
112	0xbed266de	-0.41094106
113	0x3d5c5284	0.05378963
114	0xbdfda6ea	-0.12385352
115	0x3acee937	0.0015786056
116	0x3d401909	0.046898875
117	0xbe288b97	-0.164595
118	0xbc475707	-0.012166745
119	0x3bcbb58f	0.006216712
120	0x3c1c86a4	0.009553585
121	0x3db0ee5e	0.08639215
122	0x3d389e26	0.045072697
123	0xbdcf8fab	-0.10134824
124	0xbe888fe5	-0.26672283
125	0xbc9265d4	-0.017870821
126	0x3d1ddd82	0.038541324
127	0xbd0cb6cd	-0.03435402
128	0xbd8a16d1	-0.06742633
129	0x3d4f3f31	0.050597373
130	0x3d4a62a3	0.049410474
131	0x3e1f7b70	0.15574431
132	0x3db91ada	0.09038325
133	0x3dcfcbf7	0.10146325
134	0xbd1d6502	-0.038426407
135	0xbd41f754	-0.04735501
136	0x3cf4288e	0.029804494
137	0xbe1d47e1	-0.15359451
138	0x3de00f1e	0.109403834
139	0x3dc11dfc	0.09429547
140	0xbe054be5	-0.13017233
141	0x3d70417b	0.058656197
142	0x3e1cd1ee	0.15314457
143	0xbd6b7841	-0.05748773
144	0xbe47bc6a	-0.19505468
145	0x3d7404d2	0.05957491
146	0x3de8e3eb	0.11371597
147	0xbd6c6ffe	-0.05772399
148	0xbdb475eb	-0.088115536
149	0x3d1923eb	0.03738777
150	0xbd9baad0	-0.07600939
151	0x3e77e96e	0.2421014
152	0x3dccae17	0.099941425
153	0x3d06852f	0.032841858
154	0xbb679427	-0.0035336108
155	0xbd8e254d	-0.06940708
156	0x3d370bfe	0.04468917
157	0x3e190817	0.14944492
158	0xbd02b43d	-0.03191017
159	0xbd81aca8	-0.0633176
160	0x3d827cde	0.06371473
161	0xbda87dba	-0.082271054
162	0xbd24e1b8	-0.040254325
163	0xbda96377	-0.082709245
164	0xbdd72058	-0.10504216
165	0x3d0fc2c1	0.03509784
166	0xbdcb2758	-0.099196136
167	0x3e2fe5e5	0.17177542
168	0xbe820751	-0.25396207
169	0xbd52439e	-0.051334016
170	0xbdc22994	-0.09480587
171	0x3df9134e	0.12161885
172	0x3d87b7d5	0.0662686
173	0xbe61566f	-0.22005628
174	0xbdfb389c	-0.12266657
175	0x3e3090fb	0.17242806
176	0x3dbb1164	0.091341764
177	0x3c894264	0.01675529
178	0xbe06066a	-0.13088384
179	0xbe02713a	-0.12738505
180	0xbdad71fe	-0.08469008
181	0xbe170eb7	-0.14751707
182	0xbc0559cf	-0.008139088
183	0xbc4b0b46	-0.0123928245
184	0x3d22dac9	0.03975943
185	0xbd939969	-0.07206995
186	0x3e739d09	0.23790373
187	0xbd437e5e	-0.047727935
188	0xbdacaaab	-0.0843099
189	0x3d240aad	0.040049244
190	0xbd71d074	-0.059036687
191	0x3dffb74d	0.12486134
192	0x3de8c037	0.11364787
193	0x3c64cfbc	0.013965543
194	0xbd8e737d	-0.069556214
195	0x3e8a2eb5	0.2698876
196	0xbd04911a	-0.032364942
197	0xbd4417cc	-0.047874257
198	0xbcdfe3e0	-0.027330339
199	0x3cdb6e73	0.026786065
200	0xbce14bb9	-0.027501928
201	0xbe8b0f55	-0.27160135
202	0x3d3c7e1b	0.0460187
203	0xbad3c07a	-0.0016155385
204	0x3c10fb32	0.008848952
205	0xbde06a33	-0.10957756
206	0xbda27940	-0.07933283
207	0xbd138068	-0.03601113
208	0xbdd76150	-0.10516608
209	0x3cea8d41	0.028631808
210	0xbd91c237	-0.07117122
211	0x3da530e1	0.080659635
212	0xbda18a7a	-0.078877404
213	0xbc4b7f91	-0.012420551
214	0xbcce5356	-0.025186222
215	0x3c959aaf	0.018262235
216	0xbc90b513	-0.017664468
217	0x3e961e64	0.2932006
218	0xbdf92be8	-0.121665776
219	0x3c90d989	0.017681854
220	0x3b8d659b	0.004315091
221	0xbd14da61	-0.036341075
222	0x3d6f0d62	0.058362372
223	0x3ddd80d6	0.10815589
224	0x3e047031	0.12933423
225	0x3ba9298a	0.0051624225
226	0x3c2ec92c	0.01066808
227	0xbd872e35	-0.0660061
228	0x3e3a896f	0.1821649
229	0x3c4345fa	0.011918539
230	0xbd8ca79a	-0.06867905
231	0xbe0ba681	-0.13637735
232	0x3cef5709	0.029216306
233	0x3e42d9a2	0.19028333
234	0x3cbd089e	0.023075398
235	0x3ca2dd13	0.019880807
236	0xbe20797d	-0.15671344
237	0x3db29ab9	0.08720917
238	0xbdd29b22	-0.102834955
239	0xbdb57f43	-0.08862164
240	0x397d1d6c	0.0002413892
241	0x3b15cec3	0.0022858835
242	0xbe8cf887	-0.2753336
243	0x3c06ee92	0.0082355905
244	0xbda4c932	-0.080461875
245	0xbd90f5e9	-0.07078154
246	0xbe16ab8f	-0.14713882
247	0xbe90b716	-0.28264683
248	0x3e3d1f2c	0.18468922
249	0xbe3d2725	-0.18471964
250	0x3ba32c8f	0.004979677
251	0xbcaddaea	-0.02122255
252	0xbdcec2a7	-0.10095721
253	0x3d8ca274	0.06866923
254	0xbb842bf2	-0.004033559
255	0x3d81bce7	0.063348584

enc_un.h_layer.4.bias f4 [100]
0	0xbdbccdf4	-0.0921897
1	0x3d51e786	0.05124619
2	0x3cb889e5	0.02252669
3	0xbd83fdc0	-0.06444883
4	0x3d656544	0.056004778
5	0x3d5cee61	0.053938273
6	0x3d9dfd01	0.07714272
7	0xbd84bfed	-0.064819194
8	0xbd219365	-0.039447207
9	0xbc745667	-0.014913178
10	0xbcec2368	-0.028825477
11	0xbd3b7b88	-0.045772105
12	0x3cd8f6ce	0.026484873
13	0x3db24793	0.08705058
14	0x3c7d3b69	0.015456059
15	0x3da76026	0.08172636
16	0x3d4c5ac5	0.049891252
17	0x3dcfa0e5	0.1013811
18	0x3d17253d	0.036900748
19	0x3c493c7b	0.012282486
20	0xbcd9f88d	-0.026607776
21	0x3d2d9958	0.042382568
22	0xbaa947ef	-0.0012915115
23	0xbd9e1eda	-0.07720728
24	0xbddfd57f	-0.10929393
25	0x3cf62f66	0.030051898
26	0x3d8f40a8	0.06994754
27	0x3de6a994	0.11262813
28	0xbdeecef6	-0.116605684
29	0x3d196e5d	0.037458766
30	0x3c511070	0.012760267
31	0x3db47a63	0.08812406
32	0xbb2bd91e	-0.0026221941
33	0xbd31eca0	-0.043438554
34	0xbc3a7b07	-0.011381871
35	0xbde5ac59	-0.11214513
36	0xbb1c20f3	-0.002382335
37	0xbddadccb	-0.10686644
38	0x3dbaa3cf	0.09113275
39	0xbd29043a	-0.041263796
40	0x3d93764f	0.072003
41	0x3d39fdd1	0.045408074
42	0xbd8b0540	-0.06788111
43	0xbb8df64f	-0.004332341
44	0x3d46d505	0.048542995
45	0xbd7ccc36	-0.06171819
46	0xbcd578f3	-0.02605865
47	0x3d2bd038	0.04194662
48	0xbd8398c1	-0.0642562
49	0x3c657e3c	0.014007147
50	0xbc826fb6	-0.015922409
51	0x3d7fe57e	0.06247472
52	0xbd7a969c	-0.06117879
53	0x3d57ebc7	0.05271509
54	0xbd331d96	-0.043729387
55	0xbcc32f78	-0.023826346
56	0x3b0e2cb1	0.0021694119
57	0x3ddb79bc	0.10716578
58	0x3dca4e8a	0.098782614
59	0x3c2e6d0c	0.010646116
60	0x3da0bfa1	0.0784905
61	0xbd1f5479	-0.03889892
62	0xbbcb43be	-0.006203144
63	0x3dbd75eb	0.09251007
64	0xbcbf3af7	-0.023343546
65	0x3b805456	0.0039163036
66	0x3d6ec6b3	0.058294963
67	0x3d39f24f	0.0453971
68	0xbd70c313	-0.058779787
69	0x3d64facb	0.055903237
70	0x3d17165b	0.036886554
71	0x3c90b0d0	0.017662436
72	0xbc89cf3c	-0.01682245
73	0xbcbaee97	-0.022818847
74	0x3be392d5	0.006944994
75	0x3d88bc64	0.06676558
76	0x3d9996f6	0.07499497
77	0x3d80beed	0.06286416
78	0x3d9e1168	0.07718164
79	0xbd749419	-0.05971155
80	0x3dc4dfd5	0.09613005
81	0xbd806f5e	-0.062712416
82	0xbdd7168d	-0.10502348
83	0xbd8a7a64	-0.067616254
84	0xbd9530cc	-0.07284698
85	0xbd1da5d4	-0.038488224
86	0xbd1daa90	-0.03849274
87	0xbb808bd6	-0.0039229197
88	0x3dae5136	0.085115835
89	0x3d75ad2b	0.0599796
90	0x3d9774f2	0.073953524
91	0x3dd7f845	0.105454005
92	0xbc951d84	-0.01820255
93	0xbd92710f	-0.071504705
94	0xbd29d73a	-0.04146502
95	0x3ad57e8e	0.0016288327
96	0xbde23d4b	-0.11046847
97	0x3d9730fe	0.073823914
98	0xbc333792	-0.010938542
99	0xbdc93b56	-0.098257706

enc_un.mu_gen.weight f4 [3, 100]
0	0x3d172c0f	0.036907252
1	0x3ce9e309	0.028550642
2	0xbd996e6c	-0.074917644
3	0xbdcbcacf	-0.09950792
4	0xbda321ad	-0.079654075
5	0x3cd527b6	0.026019912
6	0xbcee5422	-0.029092852
7	0xbe1cd4c9	-0.15315546
8	0xbd949948	-0.072557986
9	0xbc94b3dc	-0.01815217
10	0xbe33b4bc	-0.17549413
11	0xbdfcc658	-0.123425186
12	0x3c1c0da5	0.0095247375
13	0xbe864f23	-0.26232252
14	0xbcee54af	-0.029093115
15	0x3dd135d9	0.10215349
16	0xbcd076b5	-0.025447229
17	0xbe0fcd4a	-0.14043155
18	0x3e11c868	0.14236605
19	0xbc1f8b63	-0.009737822
20	0x3d0fe375	0.03512903
21	0x3dba6fa7	0.09103327
22	0xbebae448	-0.3650229
23	0xbe236198	-0.15955198
24	0xbe0db556	-0.13838705
25	0xbdad75d1	-0.08469737
26	0xbdbdb76d	-0.09263501
27	0x3dd8d97d	0.105883576
28	0x3dc2bb96	0.095084354
29	0x3d90e233	0.07074394
30	0xbd1c6561	-0.03818262
31	0xbc88809b	-0.016662886
32	0xbda90ca4	-0.08254364
33	0xbe0701bd	-0.13184257
34	0xbd8f2754	-0.06989923
35	0x3e735c06	0.23765573
36	0xbf0639a8	-0.52431726
37	0x3bce346d	0.0062928707
38	0x3e5815ed	0.21102114
39	0x3d41e7b3	0.047340106
40	0xbd553753	-0.052054714
41	0x3e1fe4a6	0.15614566
42	0x3c78e391	0.015190975
43	0x3d4c14e7	0.04982462
44	0xbe9a2e32	-0.3011337
45	0x3d65205c	0.055939063
46	0xbe75ec40	-0.24015903
47	0xbcbd331e	-0.023095664
48	0x3de27f7f	0.11059474
49	0x3e0d5b4f	0.13804363
50	0x3cd56ee7	0.026053859
51	0x3ce22640	0.02760613
52	0xbd98caea	-0.07460578
53	0xbdecdb74	-0.11565295
54	0x3c182370	0.009285793
55	0x3bffbda7	0.0078045907
56	0xbd7eb341	-0.06218267
57	0x3e2783fa	0.16358939
58	0x3daec53c	0.08533713
59	0xbe1729d1	-0.14762045
60	0xbd4138c7	-0.047173288
61	0x3c864ac5	0.016393075
62	0x3dc617d4	0.096725136
63	0x3d048dbd	0.032361735
64	0xbe0ac6ec	-0.13552445
65	0xbc2865a8	-0.010278143
66	0x3de3e294	0.11127201
67	0x3eb27142	0.34852034
68	0xbdbd4e00	-0.09243393
69	0x3e01348f	0.12617706
70	0x3d4993e8	0.04921332
71	0xbd4c4534	-0.049870685
72	0x3d84eaaf	0.06490075
73	0xbd9750b3	-0.07388439
74	0x3d1aca28	0.037790447
75	0xbe65a8aa	-0.22427621
76	0x3e5b71d7	0.21430145
77	0xbc89f19e	-0.016838845
78	0x3d025a2e	0.031824283
79	0x3d9f0efb	0.07766529
80	0xbdb9b637	-0.09067958
81	0x3cbfd03a	0.02341472
82	0x3d01e512	0.0317126
83	0xbdecd328	-0.11563712
84	0xbc3a4440	-0.011368811
85	0x3dcb70f9	0.09933657
86	0xbde574eb	-0.11203941
87	0x3dbc77bc	0.09202525
88	0x3e664ea4	0.22490937
89	0x3c414eef	0.011798604
90	0x3dbb2864	0.09138563
91	0x3cb54d2e	0.022131529
92	0x3e4ded6e	0.20110103
93	0x3d10caca	0.035349645
94	0x3e85b5ca	0.26115257
95	0x3dc7c0b8	0.09753555
96	0x3d3b47b8	0.045722693
97	0xbbd8660e	-0.0066039627
98	0xbdefcd24	-0.11709049
99	0xbdecaf21	-0.11556841
100	0xbe61627f	-0.2201023
101	0x3e568bd3	0.20951776
102	0xbdda5615	-0.1066095
103	0xbdb08cbc	-0.08620593
104	0x3db28330	0.08716428
105	0x3d25dcf5	0.040493924
106	0x3abe0277	0.0014496584
107	0x3e10e064	0.14148098
108	0x3d45ece6	0.048321627
109	0xbdcefebf	-0.10107183
110	0x3d703241	0.058641676
111	0xbd8366bf	-0.06416082
112	0xbddffc7e	-0.10936831
113	0x3d8a39c8	0.06749302
114	0xbdf27c09	-0.11840064
115	0xbdd1a336	-0.10236208
116	0x3e35b807	0.17745982
117	0xbb080b3d	-0.0020758652
118	0xbdfcd3e8	-0.123451054
119	0x3d6cf80b	0.05785374
120	0x3e6c362d	0.23067541
121	0xbdb2e50d	-0.08735094
122	0x3dce9e7b	0.100888215
123	0x3d609041	0.05482507
124	0xbd8f78fa	-0.07005496
125	0xbd40cdbd	-0.047071207
126	0xbdb3b103	-0.08773997
127	0xbe7098ef	-0.2349584
128	0xbd1b9082	-0.03797961
129	0xbe15c68e	-0.14626524
130	0x3d887758	0.06663388
131	0xbc502776	-0.012704721
132	0x3e1d5fd5	0.15368588
133	0x3d2b1c57	0.041775074
134	0x3c6b9f0b	0.0143811805
135	0xbdeaa307	-0.11456876
136	0xbda2b106	-0.07943921
137	0xbdb2d27f	-0.08731555
138	0x3e0cfb4a	0.13767734
139	0xbd7a5300	-0.06111431
140	0xbe04208e	-0.12903044
141	0xbdc0c6fd	-0.09412954
142	0x3d5c673b	0.053809386
143	0x3e3032ad	0.17206831
144	0xbe1b7d20	-0.1518445
145	0xbcfb8486	-0.03070284
146	0xbddadaff	-0.106863014
147	0x3e7285b3	0.23683815
148	0xbd05b270	-0.032640874
149	0x3e4033f5	0.1876982
150	0xbe9c7746	-0.30559748
151	0x3d6bd6c8	0.05757788
152	0xbc53eda4	-0.012935076
153	0xbe0525b0	-0.13002658
154	0x3da0b96d	0.07847867
155	0x3e36398b	0.17795388
156	0x3e59f8d1	0.21286322
157	0xbc1f6757	-0.009729228
158	0x3de0edfa	0.109828904
159	0xbe835044	-0.25647175
160	0xbbe0bc65	-0.006858396
161	0x3e81ef8c	0.25378072
162	0xbdfba060	-0.122864485
163	0x3cfe125b	0.031014612
164	0x3da99fa1	0.082824
165	0xbcc596ef	-0.024119822
166	0x3cf7d414	0.030252494
167	0xbe6ba36e	-0.23011562
168	0x3e24eb89	0.16105475
169	0xbce537ce	-0.027980711
170	0xbe154daa	-0.14580408
171	0x3d1b4a1f	0.037912484
172	0xbe64948a	-0.22322288
173	0x3d8dfcd3	0.06932988
174	0x3e32339d	0.17402501
175	0x3bc2265e	0.005924984
176	0xbb85ce86	-0.0040834574
177	0xbe40160e	-0.18758413
178	0x3dd98a81	0.10622121
179	0x3bfc08d6	0.007691483
180	0xbd170d0b	-0.036877673
181	0x3dea3fc4	0.114379436
182	0x3cb22519	0.021746205
183	0x3e81c353	0.25344333
184	0xbd63502d	-0.055496383
185	0xbd3dc5a8	-0.046331078
186	0xbe4dbd71	-0.20091797
187	0x3e7195b6	0.23592266
188	0x3e8d8d91	0.2764707
189	0xbdf18dd5	-0.117946304
190	0x3dd23fc7	0.10266071
191	0x3e0a1518	0.13484609
192	0xbd70c5a4	-0.058782235
193	0x3e7c3022	0.24627736
194	0x3cdf4db2	0.027258728
195	0x3df219a0	0.11821294
196	0x3e5f5a58	0.21811807
197	0xbd98be8a	-0.074582174
198	0xbe2893b3	-0.16462593
199	0xbe14ed46	-0.14543638
200	0x3d0ff3c6	0.03514459
201	0x3e931011	0.28723195
202	0x3d9ae7f7	0.07563775
203	0x3e2e503c	0.17022794
204	0x3e56e031	0.2098396
205	0x3e1ae6e9	0.15127148
206	0x3d4bf281	0.049791817
207	0x3c9b2be3	0.018941825
208	0xbd8018c0	-0.06254721
209	0xbc1a8e5f	-0.009433358
210	0xbe189bd9	-0.14903201
211	0x3d49f5a7	0.049306538
212	0xbdcf8dde	-0.10134481
213	0xbe51ca47	-0.20487319
214	0xbd87c3ef	-0.06629168
215	0xbdb6bf91	-0.08923257
216	0xbcf54548	-0.029940262
217	0xbe529efb	-0.20568459
218	0x3e714969	0.2356316
219	0x3e1e0a5f	0.15433644
220	0xbdd707f3	-0.10499563
221	0x3d842cca	0.06453855
222	0x3e8c3797	0.27386162
223	0x3e2bd9ed	0.16782351
224	0x3d66fa0c	0.056390807
225	0x3e2bdfba	0.16784564
226	0x3c36f4ad	0.011166734
227	0xbde80982	-0.113299385
228	0xbdb8ed82	-0.09029676
229	0x3c4c89e7	0.01248405
230	0xbe188ec9	-0.14898218
231	0x3e01b96b	0.12668388
232	0x3e958e84	0.29210293
233	0x3e122467	0.14271699
234	0x3d36579f	0.044517156
235	0xbcb17c8d	-0.021665836
236	0x3d70dd4a	0.058804788
237	0x3e466ed9	0.19378223
238	0xbc227d0f	-0.009917512
239	0x3cf0484c	0.029331349
240	0xbe2153cc	-0.15754622
241	0xbd050ae0	-0.032481074
242	0xbe5859f7	-0.21128069
243	0x3e066416	0.13124117
244	0x3cfa44a7	0.030550314
245	0x3db877d4	0.090072304
246	0x3e050e51	0.12993743
247	0xbd3ced73	-0.046124887
248	0x3d802b13	0.06258216
249	0x3ea7c42d	0.32766858
250	0x3db28984	0.08717635
251	0xbe2db509	-0.1696359
252	0xbe940cd0	-0.28916025
253	0x3ddb6769	0.10713083
254	0xbe172c1f	-0.14762925
255	0xbc39bc94	-0.011336464

enc_un.mu_gen.bias f4 [3]
0	0xbd074f33	-0.033034515
1	0x3cc07554	0.023493446
2	0xbd8da9b5	-0.06917135

enc_un.logvar_gen.weight f4 [3, 100]
0	0xbd32cd68	-0.043652922
1	0xbd399685	-0.045309562
2	0xbd8bac9e	-0.068200335
3	0x3dca1259	0.09866781
4	0xbdc741d9	-0.09729356
5	0xbe626d9d	-0.22112127
6	0xbdabf13c	-0.08395621
7	0x3c8c3649	0.017115729
8	0xbde4a11b	-0.11163541
9	0xbd15e0a5	-0.03659119
10	0x3d934853	0.07191529
11	0xbb036195	-0.0020047177
12	0xbe5ac8c5	-0.2136565
13	0x3cf6eba6	0.030141663
14	0xbc9cb112	-0.019127402
15	0xbdf02d94	-0.11727443
16	0x3e12c1b4	0.14331704
17	0xbdc36ffa	-0.09542842
18	0xbcc17fa5	-0.023620436
19	0x3dfa68c9	0.122270174
20	0xbe1df349	-0.15424837
21	0x3ef1eb18	0.47249675
22	0xbe37dcc3	-0.17955308
23	0x3e38859b	0.18019716
24	0xb98188ee	-0.00024706818
25	0xbdc5321b	-0.096286975
26	0x3c30e1f2	0.010796057
27	0xbe2b5e3b	-0.16735165
28	0x3d95ca7d	0.07314012
29	0x3db4210f	0.08795368
30	0xbe2e9493	-0.17048864
31	0xbbd35436	-0.0064492477
32	0xbdf76633	-0.1208004
33	0xbe396eb0	-0.1810863
34	0x3dbef06e	0.09323202
35	0x3e443a95	0.19162972
36	0x3e5e383e	0.21701142
37	0x3deda55d	0.11603806
38	0xbd0c2009	-0.03421024
39	0x3d94db34	0.07268372
40	0x3dbf25c1	0.09333373
41	0xbdb2a6c8	-0.08723217
42	0x3d8b68ed	0.068071224
43	0xbc7699e6	-0.015051341
44	0xbde1a262	-0.110173
45	0x3d0e0152	0.034669228
46	0x3e810491	0.25198796
47	0xbead92d7	-0.33901092
48	0x3e129b4c	0.14317054
49	0xbe199c39	-0.15001
50	0x3d2ae8d2	0.04172594
51	0x3e115205	0.14191444
52	0xbe3a3b86	-0.18186769
53	0xbe580e74	-0.21099263
54	0x3c03a453	0.008034783
55	0xbead33ff	-0.33828732
56	0x3c87a7c4	0.01655949
57	0xbcc06baf	-0.023488848
58	0xbe9def44	-0.30846608
59	0x3e89335e	0.26797003
60	0xbd8696b0	-0.0657171
61	0x3ea08478	0.31351066
62	0x3e4d0853	0.20022707
63	0xbe046976	-0.12930855
64	0x3eaf8b18	0.34285808
65	0xbe4158c3	-0.18881516
66	0x3e2526f6	0.16128144
67	0xbe43c482	-0.1911793
68	0xbe821fe6	-0.25414962
69	0xbe8ee95d	-0.27912417
70	0xbdf1ed78	-0.11812872
71	0xbbb8239c	-0.0056194793
72	0xbe054d1c	-0.13017696
73	0xbc41455a	-0.01179632
74	0x3c7deac3	0.015497866
75	0x3d7d93ec	0.061908647
76	0xbdf75477	-0.12076657
77	0xbebfaa29	-0.3743451
78	0x3d91a129	0.07110817
79	0x3b92da12	0.0044815624
80	0xbe4ae610	-0.19814324
81	0xbdfe9d91	-0.12432397
82	0x3e1b18f9	0.15146245
83	0x3e123432	0.14277723
84	0x3d8c9cff	0.06865882
85	0xbe3fa116	-0.18713793
86	0xbdcbb11a	-0.09945889
87	0xbd1aa31f	-0.03775322
88	0x3ebac924	0.36481583
89	0x3d97898a	0.0739928
90	0xbe7368c5	-0.23770435
91	0xbe13320c	-0.1437456
92	0x3d335b8b	0.043788474
93	0x3e35c5d9	0.17751254
94	0x3df0be71	0.11755074
95	0x3dcf569f	0.101239435
96	0x3e5539ac	0.20822781
97	0x3e265ca0	0.16246271
98	0x3ae82dd9	0.0017713859
99	0x3ce709be	0.028202888
100	0xbdc791ac	-0.097445816
101	0xbedb979d	-0.4288911
102	0x3d8a84c1	0.06763602
103	0xbd03d80c	-0.03218846
104	0xbe0838b1	-0.13302876
105	0x3d42c4dc	0.04755102
106	0xbdb10816	-0.086441204
107	0xbdebd4fd	-0.11515234
108	0xbda5c40d	-0.08094034
109	0xbd1f7a09	-0.03893474
110	0xbdf5972e	-0.11991726
111	0x3d283b2f	0.041072067
112	0xbe4f76b9	-0.20260133
113	0x3e4b6b05	0.19865043
114	0x3e6e8007	0.23291026
115	0xbdc37943	-0.09544613
116	0x3e3cd026	0.18438777
117	0x3c0f4a2f	0.008745714
118	0xbe4db82c	-0.20089787
119	0xbdf4cc52	-0.119530335
120	0xbd0748ae	-0.033028297
121	0x3d902937	0.07039111
122	0xbe82507b	-0.25452027
123	0x3db8268d	0.08991728
124	0x3e85c9a5	0.26130405
125	0xbdae6c9d	-0.0851681
126	0xbe555612	-0.20833614
127	0xbe3052a1	-0.1721902
128	0x3e0ebab9	0.13938417
129	0xbd3a0d70	-0.04542297
130	0xbc7bd94e	-0.015371634
131	0x3d21b0c1	0.039475206
132	0xbdd16bcf	-0.10225641
133	0x3e0e532a	0.13898912
134	0xbd0dbfd3	-0.034606766
135	0x3db76cdd	0.08956311
136	0x3d492359	0.049105976
137	0x3e1aa7ff	0.15103148
138	0x3dd4401e	0.10363792
139	0xbcfd7b87	-0.030942691
140	0xbc3bb4d1	-0.011456684
141	0xbe4bdfcc	-0.1990959
142	0x3e323393	0.17402487
143	0xbe297ae7	-0.1655079
144	0xbdda4a87	-0.10658746
145	0xbd36aa5d	-0.044596065
146	0x3e3637bf	0.17794703
147	0x3e315202	0.1731644
148	0x3e83fb29	0.25777557
149	0x3dd0aa27	0.10188704
150	0x3e36c051	0.178468
151	0xbe211f56	-0.1573461
152	0xbe6862ce	-0.22693941
153	0xbd3c6d68	-0.046002775
154	0xbe4638a2	-0.19357541
155	0x3dbaa2ef	0.09113108
156	0x3dedadf1	0.11605442
157	0xbe3854c4	-0.18001086
158	0xbe5a1245	-0.21296032
159	0xbd463e61	-0.048399333
160	0x3de2ed16	0.11080377
161	0xbe65b635	-0.22432788
162	0xbcba0014	-0.022705115
163	0xbd73c67f	-0.059515473
164	0x3e01f35c	0.1269049
165	0xbdb9c931	-0.09071577
166	0xbe04c84b	-0.1296703
167	0xbdf3d2ef	-0.11905467
168	0xbeb5533a	-0.3541506
169	0xbeca03bf	-0.39455983
170	0xbd8bdace	-0.06828843
171	0xbeb2b16e	-0.34900993
172	0xbc987a68	-0.018613055
173	0xbe7a6559	-0.24452724
174	0x3e75d30a	0.24006286
175	0x3d8fc0ff	0.07019233
176	0x3d24f3d5	0.0402716
177	0xbe05bde9	-0.13060726
178	0xbbd6bfb4	-0.0065536145
179	0xbe2afae3	-0.16697268
180	0x3d7b9e3d	0.061430205
181	0xbe466b8d	-0.19376965
182	0x3e1f16df	0.15536068
183	0x3e2c0bc9	0.1680137
184	0x3e2c1273	0.16803913
185	0x3e1e7337	0.15473638
186	0xbe16b33f	-0.14716814
187	0xbc1519d1	-0.009100393
188	0x3e81ceb5	0.25353017
189	0x3d851909	0.06498916
190	0xbe37b8c3	-0.17941575
191	0xbea68bb8	-0.32528472
192	0x3e5b5a98	0.21421278
193	0x3d25a672	0.040441938
194	0x3d928144	0.07153562
195	0xbc9cc98f	-0.01913908
196	0x3e8dac51	0.2767053
197	0x3c8fd50e	0.017557647
198	0x3e78821f	0.24268387
199	0x3d037476	0.032093488
200	0xb987461d	-0.00025801445
201	0xbe8a4601	-0.27006534
202	0x3e6fb4d5	0.23408826
203	0x3e0ce187	0.13757907
204	0xbe8d95a2	-0.27653223
205	0xbd40857e	-0.047002308
206	0xbe6d0fef	-0.2315061
207	0xbda048e4	-0.07826403
208	0xbe764fc8	-0.24053872
209	0x3d9e02bd	0.07715366
210	0xbd574181	-0.052552704
211	0x3ed9b6f6	0.425224
212	0x3dcacccd	0.09902344
213	0x3e3dd2e9	0.18537487
214	0x3e847781	0.25872424
215	0xbdc671f2	-0.09689702
216	0x3d5361e9	0.051607046
217	0xbe6cb381	-0.2311535
218	0xbe920bb0	-0.28524542
219	0xbe214c0f	-0.1575167
220	0xbbf199ed	-0.0073730857
221	0x3c7b8de3	0.015353653
222	0x3e0b9f65	0.13635023
223	0x3d918424	0.07105282
224	0x3c09ce77	0.008411041
225	0xbe7b609c	-0.24548572
226	0xbd87ed82	-0.06637098
227	0xbe2cbb31	-0.16868283
228	0xb98b0456	-0.00026515377
229	0x3e781a94	0.24228889
230	0xbe7599bb	-0.23984425
231	0x3d9acccc	0.07558593
232	0xbe0671a0	-0.13129282
233	0xbdb6d9b9	-0.08928246
234	0x3ebd7584	0.3700372
235	0x3c19e137	0.009392074
236	0xbd34e359	-0.044162128
237	0x3e18b309	0.14912046
238	0xbd4b7338	-0.049670428
239	0x3ecab84a	0.39593726
240	0xbec79023	-0.38977155
241	0xbd7e7ac0	-0.062128782
242	0xbd48f19b	-0.049058538
243	0xbd95d3b4	-0.0731577
244	0xbd9d74c7	-0.07688289
245	0x3dbbb4f5	0.09165374
246	0xbd0d65b5	-0.034520824
247	0xbe08e7db	-0.13369696
248	0x3c7e3230	0.015514895
249	0x3e8f6edb	0.28014264
250	0x3da3859f	0.079844706
251	0xbe89f4bb	-0.26944527
252	0xbe0aa7be	-0.13540551
253	0xbc413eb1	-0.011794732
254	0xbd09a63b	-0.033605795
255	0xbde342cf	-0.11096727

enc_un.logvar_gen.bias f4 [3]
0	0xbd865d74	-0.065607935
1	0x3c966573	0.018358922
2	0x3d8e639a	0.06952591
