result/transfer_baseline_compare/synthetic/pretrained/3_vae(xn1.0_xa1.0_y1.0_kl0.1_tc1.0_css10.0_tf0.001_uxn3_uxa3).pth (torch, 773690 bytes, 64 tensors)

enc_un.in_layer.weight f4 [100, 2]
00000000: 270f 263d 8ef0 d3bd 711b 5abc ac51 63bd
00000010: a8bf e2bd 33f3 bbbd 4636 45bd e83e f9bd
00000020: b03f 16be f210 423e fa62 73bd b9b8 84be
00000030: bdb7 04be 9a78 a83e 295b b03d a362 37be
00000040: bed6 1abe 607c 12bc 6836 90bd e094 78be
00000050: 655b 103e 2c0f 023e a5dd 043e 68cf 5dbe
00000060: ded1 e03d bbb7 b6be 7c48 403e a036 65bd
00000070: 05b5 d73e 94c2 93bb 920d ac3d ae6b bdbd
00000080: 7f79 32be cb5f e9bd 248a 4a3e c2a9 6e3e
00000090: 6447 4fbe 2d82 84be 5de9 713e 7698 b23d
000000a0: b051 043e 8895 b6bc 77ee 05bd 7373 363d
000000b0: ce91 0cbe c37f 2bbe 2e9a 183e ee77 0c3e
000000c0: 185b 103e 1f51 62bd 316d 0c3e 7e27 e1bd
000000d0: 010f d63d fef9 20bd d3e1 9dbd 0d6f bb3d
000000e0: aee4 cd3d 9554 fbbd c733 1c3e 22d0 8f3e
000000f0: 6da7 6b3e 0b3c 523e 7c56 a2bc 5617 e6bd
00000100: f1c5 41be 9e7b 523e 0dc1 08be 6964 5ebd
00000110: 2aff 4fbd 0bac 363e 990a a93d 3ab3 a0bd
00000120: 3543 debd 7383 1f3d 1fbd 2fbe 189b 02be
00000130: aaeb f13d 80fc bf3d 6f8b 3b3e 8dac 82bd
00000140: f2f1 b73d 8b48 273d 2e19 833d fa75 a33e
00000150: b506 303e 54d4 d3bd 4d12 c13d 7de3 39be
00000160: 6650 02be be3d fc3d 6ed0 ee3c 6777 d33d
00000170: 1285 073e 74c8 c7bd c873 abbe 85ff 073e
00000180: 4591 87be 7a13 b03b 9579 423e 4a05 8cbd
00000190: c08b 32be 794e 1abe c673 e73d e7c2 92bd
000001a0: be88 a03d 56cc eb3d 860e f73d 4d53 4fbd
000001b0: 8621 893c 26b4 2ebd d267 17bc ea21 a93d
000001c0: fdd5 643e 84da 21bd 8f6d bebd b882 fe3c
000001d0: 604a 36bc f1d0 653d 3ee2 b3bc 10bc 823c
000001e0: e643 c9bc b96a 6c3e 5bb9 3a3d f754 f7bd
000001f0: 5253 243e d747 f13b a117 203e 44a6 953d
00000200: 4933 c83d bf45 9fbe 3e6e 563e b17b e1bd
00000210: 4a32 d5bd 31c6 8c3d 5f9a 9a3d 763c ad3d
00000220: 862c 843b df2a f03d 8ba7 143d c7ac a7bd
00000230: f83a 9b3d 75fb ae3c 6346 6a3b f5ae 3a3c
00000240: 9705 083e 4309 acbe 60ec da3d 5e71 c73d
00000250: bf1c ecbd 153f 543d c17d 8ebe 5922 27be
00000260: 4f73 ab3c a496 04be 4255 8cbe 5e2b b8bd
00000270: c381 ac3d a43a 11bb a9fe 03bd 44ee 9cbd
00000280: da41 eebc 4e17 63be 7573 ccbc 1605 983c
00000290: 07b8 ad3d e330 e63c d88f 5c3e 9763 06be
000002a0: 692b 0f3d c04a be3d e1ee c43e 1dd2 7a3e
000002b0: 72c9 68be dabf cebd 0cee 14bd d50d 93be
000002c0: 05d7 3fbb 35d0 e9bd 9e89 2b3e 8b2c 3dbe
000002d0: b351 d13c 853e 383d 6ed0 483e bed1 c4bd
000002e0: 22de 8b3d c1fa 66be 37a2 6dbd 8492 b4bc
000002f0: 8dad f83d 2ece e6bd a91c b6bc 154e 853d
00000300: 9681 12be fa25 e33b 5c2a c0bc 3af3 75bc
00000310: 1c56 9d3d 18dd 1d3e 9581 00be 483a 8dbd
0.040541794 -0.103486165 -0.013312207 -0.05549781 -0.11071712 -0.09177246 -0.048147462 -0.121702015
-0.14672732 0.18951777 -0.059420563 -0.25922182 -0.12960716 0.32904512 0.086111374 -0.1790872
-0.1512098 -0.008940786 -0.07041627 -0.24275541 0.14097364 0.127011 0.12975176 -0.2166115
0.10977529 -0.3568705 0.1877765 -0.055960298 0.42130294 -0.0045092795 0.08401026 -0.09249054
-0.1742916 -0.11395224 0.19779259 0.23306945 -0.20242077 -0.25880566 0.23624177 0.08720486
0.12921786 -0.022288099 -0.03269812 0.044543695 -0.13727495 -0.16747956 0.14902565 0.13717625
0.1409725 -0.055253144 0.13713528 -0.10993861 0.104520805 -0.03930091 -0.07709088 0.09152041
0.10053383 -0.12271992 0.15254126 0.2808848 0.23013087 0.20530717 -0.01981663 -0.1123492
-0.18923165 0.20554969 -0.13354893 -0.054294977 -0.050780453 0.17839067 0.082539745 -0.07846685
-0.108526625 0.03894372 -0.17161988 -0.12754476 0.118125275 0.093743324 0.18314908 -0.06380568
0.08981694 0.040840667 0.06401287 0.31925946 0.17190059 -0.10343233 0.09427319 -0.18153186
-0.12725982 0.12316464 0.029152121 0.103255086 0.13234356 -0.0975503 -0.33486772 0.13281067
-0.2647802 0.0053734155 0.18991692 -0.06836946 -0.17436123 -0.15068997 0.11301379 -0.07166081
0.078385815 0.11513583 0.12063317 -0.05061655 0.016739618 -0.04265227 -0.009241061 0.08258422
0.22347255 -0.039515033 -0.092982404 0.031068191 -0.011126131 0.056107465 -0.021958467 0.015958816
-0.02456851 0.23087586 0.045586925 -0.12076753 0.16047409 0.0073633003 0.15634014 0.07307103
0.09775407 -0.311079 0.20940492 -0.110099204 -0.104099825 0.068737395 0.07548975 0.08458798
0.004033628 0.11726927 0.036292594 -0.081872515 0.07579607 0.021360138 0.003574752 0.011394252
0.13283382 -0.33600816 0.10689616 0.0973842 -0.115289204 0.051817972 -0.27830318 -0.16321696
0.020929007 -0.1294809 -0.27408797 -0.08992647 0.084231876 -0.0022160197 -0.032225285 -0.07662633
-0.029084135 -0.22176859 -0.024957398 0.018557113 0.08482366 0.028099483 0.21539247 -0.13123928
0.03495351 0.09291601 0.384635 0.24494214 -0.22733095 -0.100951865 -0.03635983 -0.2872149
-0.0029272449 -0.114166655 0.16751716 -0.18474023 0.025551653 0.0449815 0.1961076 -0.09610318
0.06829478 -0.22556593 -0.05801603 -0.02204252 0.12142477 -0.112697944 -0.022230463 0.065090336
-0.14307246 0.0069320174 -0.023457699 -0.015011603 0.0768244 0.15416372 -0.12549432 -0.06895882

enc_un.in_layer.bias f4 [100]
00000000: f6e2 6fbe 5e7e 373f 618a 95be 208e 42be
00000010: 90e5 0e3e abac 193f ccdb c23d dd3e cdbd
00000020: 59c9 81be 8a14 ffbd 96e2 56be e79d aa3e
00000030: 3d40 a3be 0e47 23bf 45a5 2d3c 24d9 813e
00000040: a7d0 9b3c b3b1 0d3f e303 f8be 932e 12bf
00000050: d425 183e 4d96 1cbf a3fd adbe 901e a63e
00000060: c159 f03d b8b2 54be 3724 3fbf 9ed1 913e
00000070: 598a 0d3f 0627 b63d 924c 11bf 51ad c0bd
00000080: 7422 c13e 3b74 3abf e9c5 dc3e d066 3e3e
00000090: b123 0e3f 14d4 2dbf ae8e 0dbf 3c29 883e
000000a0: 1eb1 25bf dae1 35bd 8310 e3be 6f03 cdbe
000000b0: 6127 28bf e2ec 2f3f 604d 65be 2fb3 813e
000000c0: e061 1f3f e1aa 22be 46c0 163f 4542 463e
000000d0: 5a2e 943c ea14 f0be a1fa 313f a77c c2be
000000e0: 3e97 173f 4839 6d3e a54a f23e a701 d43e
000000f0: c2a9 333f 2aba 2ebf 82a1 16bf f756 3b3f
00000100: 1fc9 033f bc13 fdbd 0c0e b0be d188 7d3e
00000110: 768d f83e 9edc e2be 0075 a3be fbd8 343f
00000120: 2582 c8be 4fbd 1e3d f981 003f 70eb 14bf
00000130: 553e 0b3f d9e6 0bbf 48ce cb3e a786 12bf
00000140: c554 0bbf 00ae 903e b674 e7be 5a05 103f
00000150: 8d54 62be 7593 3d3e 92f9 033f fda2 3f3f
00000160: f91f abbd 098d d5be 3fe5 0d3f 7bfa ae3e
00000170: cbd8 99bd a26b 31bf 9ca0 3abf 8045 3dbf
00000180: f9a3 3d3f 2c3d 023f 4127 8cbe 3380 eabe
-0.23426422 0.71677196 -0.29207137 -0.18999529 0.13954759 0.60029095 0.09514579 -0.10021756
-0.2534893 -0.124550894 -0.20984873 0.33323595 -0.31884947 -0.63780296 0.010598485 0.25360978
0.019020392 0.5534927 -0.48440465 -0.57102317 0.1485818 -0.6116684 -0.33982572 0.32445192
0.11735869 -0.20771301 -0.74664634 0.28480238 0.55289227 0.08894162 -0.5675746 -0.094080575
0.37721598 -0.72833604 0.43119743 0.18593907 0.5552321 -0.6790173 -0.55295837 0.2659396
-0.64723384 -0.044404842 -0.44348535 -0.40041682 -0.6568509 0.6872083 -0.22392797 0.2533202
0.6225872 -0.15885498 0.58887136 0.19361217 0.018088508 -0.46890956 0.69523054 -0.37985727
0.5921515 0.23166382 0.47322574 0.4140751 0.70180905 -0.68252814 -0.5884019 0.7317957
0.5147876 -0.1235728 -0.34385717 0.24759223 0.48545426 -0.44308943 -0.319252 0.70643586
-0.39161792 0.038754757 0.5019832 -0.5817175 0.54391986 -0.5464912 0.39805818 -0.57236713
-0.54426223 0.2825775 -0.4520623 0.56258166 -0.22102566 0.18513282 0.5155269 0.74858075
-0.08355708 -0.41709164 0.55427927 0.34175476 -0.07512053 -0.6930486 -0.7290132 -0.73934174
0.7407833 0.5087459 -0.27373698 -0.45800933

enc_un.h_layer.0.weight f4 [100, 100]
00000000: 0b6f 4f3d e0ea 083e 0238 d63d 070f c8bd
00000010: 63a7 8f3c cccd a5bc 880b fc3d 2831 173e
00000020: 101b 433d d2b3 603e 8431 fc3d 8071 fc3d
00000030: 7605 583d a491 a83c bb13 2dbd 4f41 c23d
00000040: eac2 0dbe e618 0b3d 3bf7 3bbd 8ab1 3a3e
00000050: 0fe5 92bb 2ede 6e3e b3f4 34bb e24b b93c
00000060: 0fed b6bd 3310 a2bc 305d 143d 7014 cabd
00000070: 6d8c 1ebe 62c1 55be f1cd 1fbd bc36 4a3d
00000080: 6d20 9ebd 7121 833e 1a23 36bd b127 da3d
00000090: 7ae0 093d c0c5 5dbd 82e3 c73d 614f 43be
000000a0: 00d8 d33d 7634 af3d da25 fc3d 42ac 6bbd
000000b0: 8e0a 563d 938a d6bd 6d2b a83d c0cd 72bd
000000c0: c440 1cbd 6e0d b83c 1fab 9bbd 1c85 023d
000000d0: 00f1 b1bd c8a9 a1bd 7de9 9b3d 8925 bf3d
000000e0: 4c8b b7bd a63c c9bd a429 903d 816f 8b3d
000000f0: d87f 04be e631 17bd 8848 afbd b399 07be
00000100: a659 35bd c332 7a3c 6402 193d 23d3 3cbe
00000110: 8450 823d ea45 d93d e05a 1bbd a0a2 2ebe
00000120: 3b64 fabd 140a e0bd e0ae 66bc d102 463d
00000130: 011f e53d 925b c83d 7c89 a5bd 7953 733d
00000140: b5d7 05be 7fae de3b a518 f33c 7aa8 9a3c
00000150: 0605 7b3d c3ad 6cba 044c 05be a699 eabd
00000160: af69 aebd 7159 86bd d7c7 94bd 34ad d83d
00000170: ed0d a63d b180 36bc 62c8 beb8 9c2c 3cbe
00000180: 6718 66be ab5f ba3d cc38 c33d a6b0 563d
00000190: 75f7 dc3d ca46 463c 174c 043e 103a 20bd
000001a0: d7aa abbd e6bc d8bd 99cb 92bc 99fb 83bd
000001b0: 2d54 723c 5162 123e 18b4 f0bd 8924 dabd
000001c0: 7ac9 643d 96fe 14bd 17e2 a03d 832f f63d
000001d0: 0f23 a93c 0e40 49bd 7289 363e 59f1 313e
000001e0: edf6 6b3d 628a 61bc 76d4 843d 4edf 96bc
000001f0: b2fb ae3d 0fad b23d b8ba 5fbd 1b8e 82bd
00000200: 418d 1bbe 4754 733e 847c 843d bc0c a0bc
00000210: 6e70 aa3d 963d 433c 608e 213d ba0f 733d
00000220: 17fb 98bd d721 77bd 0da1 fe3c 1f2b 11be
00000230: fd43 af3d 26a2 543d 33cd 503d 31f2 07bd
00000240: f147 f63c ca2d 32be 6dd1 5b3d cd1a 23be
00000250: 393c 42be 9539 72bd 8b7d cb3c db67 eabb
00000260: f1f4 a2bd 4901 fd3d 9dd2 d03d f137 613d
00000270: d513 0bbd ed6e dabd 8090 083d b480 d7bc
00000280: 380e 9dbd cef0 403d 7e07 2a3d f391 2a3d
00000290: 82b9 013d f651 d8bd 341b 0cbd 8176 a7bd
000002a0: 9e2d ddbd f38a 253e 5d85 56bd 1ba3 183c
000002b0: 6152 963c 163b cabb df6e 2bbe e1bc 313e
000002c0: 6cd9 96bc 0c2d 42bd 3847 c53c 205d 643d
000002d0: 9859 73bd 9c65 52be 65e5 b2bd 1fd1 46be
000002e0: 398d 833d 4ab3 3cbe bd12 c2bd c08b d2bd
000002f0: ecc2 343d b51a 363d 49dd 4ebc fd14 69bc
00000300: 9af0 293d 2ef8 92bd 2758 8ebc 3b52 a83d
00000310: 77b7 013e f83f 82bd cf02 0f3d 6ac2 ca3d
00000320: 78dc d73c dd42 7abd f600 babd bc0a a73d
00000330: 24b8 73bd 0e17 5d3e 3093 0cbd ee87 a0bd
00000340: a54f b43d 9ea1 a5bd 658a e6bb 03b7 573a
00000350: 5940 16be 3ad4 2fbe 99f4 28bd 635d ac3c
00000360: 4fc9 3d3d 3e1b 3abd 8654 f6bd 9884 ebbd
00000370: bf96 70bd d5c0 e73d cc89 00be 75b9 aebc
00000380: 9288 04bc fbb4 bdbd 29f4 02bd b8f2 213e
00000390: 889d a73d 1cf7 563e cbd5 c33c 98d6 6abd
000003a0: 7ede 573e 10c5 543d 8758 353d 6df6 50be
000003b0: edf2 bb3d 7a59 acbd f235 f2bc 2cf4 f03c
000003c0: e3fa 433d f2cc 1ebe 7d2e 11be dd69 50be
000003d0: 31be d43c a704 d9bd e186 8fbd a805 893d
000003e0: 1923 c3bd 2386 9abd 2a92 6d3d 8b1c a63d
000003f0: 5194 dd3c a804 06be 29b1 1bbd 24b5 2c3c
0.05064301 0.13370848 0.104599014 -0.09768491 0.01753587 -0.020239733 0.12306887 0.14764845
0.04763323 0.21943596 0.12314132 0.12326336 0.052739583 0.02057726 -0.042255145 0.09485113
-0.13843885 0.033959292 -0.045890074 0.18231788 -0.0044828723 0.23326942 -0.0027611672 0.022619192
-0.08931934 -0.019783115 0.036221683 -0.098671794 -0.15483256 -0.20874551 -0.03901476 0.049368605
-0.077210285 0.2561145 -0.04446707 0.10652102 0.033661343 -0.054143667 0.097601905 -0.1907325
0.10343933 0.08554928 0.12311907 -0.057537325 0.05225616 -0.1047565 0.08211408 -0.05927825
-0.038147703 0.022467341 -0.07600998 0.031865224 -0.08688545 -0.07893711 0.07612894 0.09333331
-0.08962116 -0.09826021 0.07039192 0.06808377 -0.12939394 -0.03691282 -0.08558756 -0.13242225
-0.04427495 0.015270892 0.037355796 -0.18439917 0.063630134 0.10609038 -0.037928462 -0.17054224
-0.12226149 -0.10939422 -0.014079779 0.04834253 0.11187554 0.09783091 -0.08082864 0.059405778
-0.13070567 0.006795704 0.029674837 0.018879164 0.061284088 -0.0009028578 -0.13017279 -0.11455087
-0.08516251 -0.06560028 -0.07264679 0.10579911 0.08108125 -0.011139081 -9.09723e-05 -0.18376392
-0.22470246 0.091002785 0.095323175 0.05241456 0.10789386 0.012101838 0.12919651 -0.039117873
-0.083821945 -0.105829045 -0.017919349 -0.06444473 0.014790577 0.14295317 -0.117531 -0.106515
0.055856206 -0.036375605 0.07855623 0.12020781 0.0206466 -0.049133353 0.17825869 0.17377223
0.057608534 -0.013765903 0.06485836 -0.018417027 0.08544101 0.087244146 -0.05462143 -0.06374761
-0.15190603 0.23762618 0.06469062 -0.019537322 0.083222255 0.011916539 0.03944242 0.05934117
-0.074697666 -0.060335007 0.031082654 -0.14176606 0.085578896 0.05191245 0.050976943 -0.033189956
0.030063601 -0.1740028 0.05366652 -0.15928192 -0.18968286 -0.059136946 0.024840137 -0.007153494
-0.07956875 0.12353761 0.10196421 0.05498499 -0.03395446 -0.10665689 0.03334093 -0.026306488
-0.07668728 0.04710465 0.04151105 0.041643094 0.031671055 -0.10562508 -0.03420563 -0.081769
-0.107997164 0.16166286 -0.05237328 0.009316231 0.018349828 -0.0061715944 -0.16741513 0.17357208
-0.018414222 -0.04740624 0.024081811 0.055752873 -0.059411615 -0.20546573 -0.0873516 -0.19415711
0.064234205 -0.18427768 -0.0947623 -0.102805614 0.044131204 0.044459064 -0.012626001 -0.014226195
0.04148922 -0.07176243 -0.017376019 0.08218809 0.12667643 -0.06359857 0.034914788 0.09900363
0.026350245 -0.061098922 -0.090822145 0.08156344 -0.059501782 0.21590826 -0.034320056 -0.078384265
0.088042535 -0.08087467 -0.007035541 0.000822887 -0.14672984 -0.17170802 -0.04124889 0.021040624
0.04633456 -0.045436136 -0.1202784 -0.114998996 -0.058737513 0.11316077 -0.12552565 -0.021328667
-0.0080892015 -0.09263035 -0.03197113 0.15815246 0.081843436 0.20992702 0.023905655 -0.05733356
0.21080968 0.051945746 0.04427388 -0.20406504 0.09177194 -0.08415504 -0.029566739 0.029413305
0.047846686 -0.15507868 -0.1417789 -0.20352884 0.025969597 -0.105965905 -0.07008148 0.06690532
-0.09528179 -0.07545116 0.05800072 0.08110913 0.027048262 -0.13087714 -0.03801075 0.010541234

enc_un.h_layer.0.bias f4 [100]
00000000: 7109 4d3c 870a 15bd d3f4 963c e193 c73d
00000010: 5d8b d1bb 43ad c53d 2cce 8d3c 1a9a df3d
00000020: edc4 cabd 4c21 c2bd d6cf 2d3d 7a23 d5bd
00000030: ea7a 94bd 2ffc 9a3d dd11 d63d 2fd7 90bd
00000040: 32ed 68bc 3916 09be d8b4 913d 741a 953d
00000050: 2434 723d ca61 833d 2f83 733d eb87 1cbc
00000060: 4377 b4b9 acc0 f2bd c7b7 8fbd b7ef 3d3d
00000070: 919d 453c 0e32 8a3d fbcd ed3a 70b2 58bd
00000080: 7c52 473d b711 debd e596 113d 9fbf 843c
00000090: eee5 483d 192c 923d 90db a9bd 94ff 7abd
000000a0: 1873 06bd 316b 123d b9ac bc3d 33ab 54bd
000000b0: 1211 3a3d af30 ca3d 35cc 8bbd e91d f53b
000000c0: 8911 ebbd 10f4 f13d ac95 fabd 68f3 debc
000000d0: 5795 2abd 8c45 5f3c 5c2d ccbd 7e0f e03d
000000e0: de15 62bd cd5f 0cbd 97d4 89bd 47f8 953d
000000f0: 36d5 8ebd e2c8 fa3d 84d1 be3d 16d2 3fbd
00000100: 8d8a ac3d d106 dd3d d116 21bd ac5a b03d
00000110: 5ee5 c03d 2521 d4bd 350a 783c 8a44 cdbd
00000120: 56ab 1bbd 3eb0 863d ac33 ad3c a2ac 6f3d
00000130: cefe b1bd bb07 343d 4bae f73d 5b3e 75bd
00000140: 556c 073e 2387 fe3d 7b47 63bc 5632 de3c
00000150: 218e 26bd 64db 803d fe57 db3d 8d40 c23d
00000160: e61d 253d 406a 1e3d 7d88 443d f182 763d
00000170: a800 f4bd 40d7 52bd 3402 df3d 0d47 b53d
00000180: 84fb 463c acca c63d 7d53 603d 9027 e7bd
0.012514458 -0.036386993 0.018427288 0.097450025 -0.006394787 0.09652188 0.017310224 0.109180644
-0.09900842 -0.09479007 0.042434536 -0.10407157 -0.072500065 0.075676315 0.10452626 -0.07072293
-0.014216708 -0.13387384 0.07114571 0.07280436 0.059131756 0.06415136 0.05945128 -0.00955389
-0.00034421132 -0.118531555 -0.070174746 0.046371188 0.012061493 0.067478284 0.0018143052 -0.052904546
0.048662648 -0.108432226 0.035544295 0.016204653 0.049047403 0.07137317 -0.08293831 -0.061278895
-0.032824606 0.035746757 0.09212632 -0.05192108 0.045426436 0.09872567 -0.06826059 0.007480372
-0.11477954 0.11814129 -0.12235579 -0.027215675 -0.041646328 0.013627421 -0.09969589 0.10940455
-0.055196635 -0.03427105 -0.067300014 0.07322746 -0.069742605 0.122453466 0.09317306 -0.046831213
0.08424864 0.10792316 -0.0393284 0.08611044 0.09418748 -0.10357884 0.015139152 -0.100228384
-0.038005196 0.06576584 0.021142803 0.058514245 -0.08691178 0.043952685 0.120937906 -0.05987392
0.13224919 0.12428119 -0.013872023 0.027123611 -0.04066289 0.062918454 0.107101426 0.09484968
0.040311716 0.038675547 0.047981728 0.06018347 -0.11914188 -0.05147481 0.10889092 0.088514425
0.012144927 0.09706625 0.05476712 -0.11286843

enc_un.h_layer.2.weight f4 [100, 100]
00000000: 6dfa bb3d a458 12bd bdfa b63a 8bca f83d
00000010: bdd5 e33c a3c4 a93d d957 40bd 3eb5 1d3d
00000020: 776f 08bc db51 77bd 071b 28be 2796 f83d
00000030: cba9 293e 3812 523d 99ca 3bbe 7422 2c3e
00000040: 0670 103d 4874 abbd 24ef 13be 13cb c7bd
00000050: 746a 7e3e bfb3 f6bd e560 bfbd c0a8 2cbe
00000060: 6d03 8dbd c690 783d d10a 933d 1550 5bbd
00000070: 4efb 593c 1a59 3dbe 5d4e bbbd 1e66 103e
00000080: f11f fdbc e309 4b3e 1fa9 91bb e519 97bd
00000090: 29f5 f13d 84ac b23c a5ce 363c f3b9 b4bd
000000a0: b9cb e1bd 7884 713d 4991 e83d 49a5 d53b
000000b0: 7d98 d3bc 5e1a a73d 812d 1e3d efdf 683d
000000c0: 9b48 443e 5937 7d3d 0f62 313e faf0 9bbd
000000d0: f535 833b 9e26 c23d e8fe a93d b1a0 a5bc
000000e0: b863 ecbd e886 1abd 7483 943c 70b2 9abd
000000f0: 1292 12be 94db 36be fe24 9fbc 86eb 3fbc
00000100: c5b4 a33d 7bb0 04be 93b5 babd 1118 a43d
00000110: cc4a 39bd f5ec 023e 38b7 2cbe b061 cebd
00000120: dfed 053e 6723 9b3d aaad e13b 909e 6cbe
00000130: 8ea9 26be a63b 2ebe 3074 f33d 8e22 eebd
00000140: 7419 d33d e82d d53d 8170 08be d48e c5bc
00000150: d3b0 11be a3cd 953d 9019 58be d7cd 49bd
00000160: 4c10 e33c a3bd ae3c af66 7fbe 7b8b bb3c
00000170: a310 403d 85f6 eb3d aaf0 4b3d 3223 10be
00000180: afb0 dd3c d7ae 90bd b8d3 013d e3de 2b3d
00000190: 789c 1d3e 6b4a 02be 2b39 d2bd 52cc 60bd
000001a0: 3329 c03d 6271 e83d bfd1 28bc f215 543d
000001b0: afbc bcbd 8ca8 f13c 840b 793d 908f d3bd
000001c0: f250 80bc a3bf 663e 2b3d 4f3d 3aa2 5abd
000001d0: aeed ca3d 45a9 2fbe 2cba 64bd 3de2 0dbe
000001e0: c7f3 71bb 3368 a0bc b80e 00be 5ca1 063e
000001f0: d313 e13c 8f3c 723c 4efd b43c 8a79 af3d
00000200: 9d83 5abe 6ae0 a1bc 2a98 5c3e 857f 66be
00000210: 7a11 8ebd 581c 15bc ce10 4bbd b647 9b3d
00000220: f541 9dbd 57ec 373e 395a fcbd 0c1b ffbd
00000230: 3b6e 9fbc ebb5 433d f1d0 e93d f25b e63d
00000240: 099b 42bd cfd8 38bc 1ee6 1bbd a7ae 2b3b
00000250: 36a8 5dbe 0814 a13b 5201 b93d ab0c 8f3d
00000260: 88c6 c0bd 2940 09be 4e1c 1abe f8dc 19be
00000270: 3e8f 593e 89bb 4dbd 2810 edbd 38f4 e23c
00000280: 9a6a 073e 1873 39bd 93ac 6e3c 55be b33c
00000290: b476 6a3d 329e a23d c795 25bd 6953 643d
000002a0: 6e11 02bd e3bf 49be 2863 a03d 649a ff3d
000002b0: fde1 7e3d cb1b 833d a01d 8f3d 0b82 43bd
000002c0: fcee 073e 56cc a5bb e03c b03c 5eeb 133e
000002d0: be26 05bb c398 1a3e d985 20bc c9b1 873c
000002e0: 8d4b afbc 15e0 46be 5ec6 b13d 8d35 3d3e
000002f0: fe13 22be 33fd 0bbd d5f4 5c3e d730 5ebe
00000300: d67c 483c 43d9 933d e7cb fd3d 167a ff3d
00000310: 8817 8e3d 0fe1 ff3d a500 543c d2a5 83bd
00000320: 28be 93bc 6796 433d d575 3f3e 5fcc 0c3d
00000330: 8472 563e ccf0 d53d 2b3e 4cbd 1199 edbc
00000340: 0b7d c8bd b5f9 d1bb deaa d13d 42ea a0bd
00000350: cd13 7b3c daf6 08be ba62 aabd e4c2 d4bd
00000360: 7526 a23c d46b 293d a02d 833d a8d2 873d
00000370: 91a9 17be bef3 16bd 20c1 febd db8c 543d
00000380: ebc5 d4bd f0c8 5d3c b033 303d da54 653d
00000390: 7a73 58bd 0fd1 e33d a9d7 963c 0278 2bbe
000003a0: 6636 c7bd d1db 5bbe e709 a13c f460 b03d
000003b0: 969d dfbd 0255 143e 8f33 4d3e 8836 00be
000003c0: a48b f3bd 680b 283e 8054 10bd 48a9 9e3c
000003d0: b5a4 3f3e 8552 bf3c 5605 a13d 8198 bc3d
000003e0: b53b 49be 8e69 ddbd b43d 95bd 49b3 db3d
000003f0: af1a e1bd bb4f 69bd 7e4d 5ebd 6425 fcbd
0.09178624 -0.035729066 0.0013960224 0.12148007 0.02781188 0.082894586 -0.046958778 0.038502924
-0.008327357 -0.060380798 -0.1641656 0.12138014 0.16568677 0.051286906 -0.18339004 0.16810018
0.035263084 -0.08371788 -0.14446694 -0.0975553 0.24845296 -0.120460026 -0.09344653 -0.16861248
-0.06885419 0.06068494 0.071797974 -0.05354317 0.013304545 -0.18491021 -0.09145806 0.14101455
-0.03089902 0.1982799 -0.0044452096 -0.07377986 0.11814339 0.021810777 0.011157666 -0.088245295
-0.11025185 0.058964223 0.11355836 0.0065199477 -0.025829548 0.08159326 0.038617615 0.056854185
0.19168322 0.06182036 0.17322563 -0.07614322 0.004004235 0.09480022 0.08300573 -0.020218225
-0.11542457 -0.037726313 0.018129088 -0.075535655 -0.14313534 -0.178572 -0.019426819 -0.011713868
0.079934634 -0.12957947 -0.09116664 0.08012403 -0.045237347 0.12785704 -0.16866767 -0.10077226
0.13079022 0.07575112 0.0068871574 -0.23107362 -0.16275617 -0.17014942 0.118873954 -0.116276845
0.10307589 0.104091465 -0.13324167 -0.024115957 -0.1422761 0.07314613 -0.21103501 -0.04926857
0.027717732 0.02133066 -0.24941514 0.022893658 0.046890866 0.11521629 0.049790062 -0.14075926
0.027061788 -0.07064598 0.03169605 0.04196061 0.1539172 -0.127237 -0.1026481 -0.054882355
0.09382858 0.11349751 -0.010303914 0.05177874 -0.09215676 0.029499315 0.060801998 -0.10330117
-0.015663598 0.22534041 0.050595444 -0.053377368 0.09908615 -0.17154415 -0.05584161 -0.13855834
-0.0036918984 -0.019580936 -0.12505615 0.13147491 0.027475273 0.014784946 0.022093441 0.085681036
-0.21339269 -0.01976033 0.21542421 -0.22509582 -0.06936927 -0.009100996 -0.049576573 0.07582037
-0.07678596 0.1796125 -0.12321896 -0.12456331 -0.019461742 0.047780912 0.114168055 0.11248006
-0.047511134 -0.01128216 -0.038061254 0.002619663 -0.21646199 0.004915718 0.09033455 0.06984838
-0.09412867 -0.13403381 -0.1504986 -0.15025699 0.21246049 -0.050227676 -0.11575347 0.027704343
0.13224259 -0.045275778 0.014567512 0.021941343 0.05724211 0.079403296 -0.040426042 0.05574361
-0.031754903 -0.19702105 0.078314126 0.124806195 0.062227238 0.064017855 0.069880724 -0.04773144
0.13274759 -0.005059759 0.021513402 0.14445254 -0.0020317282 0.15097336 -0.009797537 0.016564267
-0.02139833 -0.19421418 0.08680414 0.18477459 -0.15827939 -0.034177016 0.21577771 -0.21698318
0.012236794 0.07219174 0.12392407 0.12474458 0.06938082 0.124940984 0.012939607 -0.06428112
-0.01803501 0.047750857 0.18697293 0.03437459 0.20942122 0.10446319 -0.049863975 -0.029003652
-0.09789475 -0.006407941 0.102376685 -0.07857181 0.015324545 -0.13375416 -0.08319612 -0.10388735
0.019793728 0.0413626 0.06405187 0.06631976 -0.14810778 -0.036853544 -0.124391794 0.051892143
-0.10389312 0.013536677 0.043018043 0.055989124 -0.052844502 0.11123859 0.018413382 -0.16744998
-0.097271726 -0.21470572 0.019658042 0.08612242 -0.10918729 0.14485553 0.200392 -0.12520802
-0.11891869 0.16410601 -0.035236835 0.019367829 0.18715174 0.023354778 0.07862346 0.09208775
-0.19651683 -0.108111486 -0.072871596 0.10727555 -0.109914176 -0.056960803 -0.05427312 -0.12311819

enc_un.h_layer.2.bias f4 [100]
00000000: 4e53 69bc d88a 1abc d102 cb3c b26f e6bd
00000010: 76ee dd3d 63d6 0f3d 3f40 093d 8962 523d
00000020: 0bb5 343c 4250 58bc 6e85 7fbb 90e5 a53d
00000030: 416a 273d cf72 31bd 36b9 af3d 0089 66bc
00000040: 2bb1 86bd 803e 583c b6e4 ddbd 59c4 57bd
00000050: f599 e83c 14b6 afbd 9946 95bd 7351 5abd
00000060: 2157 c9bd e903 463c ac39 d2bc 5935 a4bd
00000070: 6698 003e 2056 e4ba 7c1a adbd f179 7abd
00000080: 704c 9ebb d471 74bd 7959 c3bd fc04 39bd
00000090: b230 88bc d1ca 003d 3c63 88bc 1bfd c13d
000000a0: 6f6d 473d e725 6bbc 512a febc 4f25 ff3c
000000b0: 8a1f b6bb f3ce 1dbd a118 2cbb a586 05bd
000000c0: fcd5 7c3d 3225 24bb 9b38 b5bd d38c 01be
000000d0: 8352 b93c eff7 2b3d 3494 edbd e140 8ebd
000000e0: cde8 0b3d 9179 80bd 955b 873d 48c6 bb3c
000000f0: 696e d1bd 077e ae3d 3a51 e93c 0141 59bd
00000100: fb9b d3bc 1e89 a6bd 552c 163a 2427 633d
00000110: e9f2 9fbd 94c6 cabd a037 9b3c 5502 bcbd
00000120: 8a1e e43d 328d 973c 1520 8ebd 61d0 33bd
00000130: a4f5 7fbd 7f77 81bd 9c04 a53d c4fe 5b3d
00000140: a766 2abc 6bdf cebd 5a23 db3d 8ec1 b5bc
00000150: 760e e13d a642 c03d 2434 a93d 65fa ee3d
00000160: 579b d73c eb36 c53d 745a ce3d 766b 863d
00000170: dcbd 90bc fe0b 753d 55e1 183d 71a0 c03d
00000180: 0d7b 5d3d 12c9 c7bb 9d3b e33d d48a 133d
-0.014241053 -0.009432517 0.024781616 -0.11251773 0.108364984 0.035116564 0.033508535 0.0513635
0.011029492 -0.013202729 -0.0038989442 0.08100426 0.040872816 -0.04332238 0.08580248 -0.014070749
-0.06576761 0.013198495 -0.10834639 -0.052677486 0.028393725 -0.085796505 -0.07288856 -0.053300332
-0.09831072 0.012085893 -0.025662266 -0.08017988 0.12558135 -0.0017420687 -0.08452317 -0.06115145
-0.0048308894 -0.059678867 -0.0953855 -0.04517077 -0.016624782 0.03144342 -0.016648881 0.09472104
0.04868835 -0.014352298 -0.031026037 0.03114572 -0.005557959 -0.03852744 -0.0026259797 -0.03259911
0.06172751 -0.0025046584 -0.08848687 -0.12651376 0.022622352 0.041984495 -0.11600533 -0.069459684
0.034157563 -0.06273187 0.06609265 0.022921696 -0.10226137 0.085201316 0.028481115 -0.05304051
-0.025831213 -0.08131622 0.0005728652 0.05545725 -0.07810003 -0.09901157 0.018947423 -0.09180132
0.11138637 0.018499944 -0.06939713 -0.043899897 -0.06249012 -0.0632162 0.0805752 0.05370976
-0.010400451 -0.10101207 0.10700102 -0.02218702 0.10989086 0.09387712 0.08261898 0.11668853
0.026319189 0.096296154 0.10075846 0.06563465 -0.017668657 0.05982589 0.03732427 0.09405602
0.05407243 -0.0060969675 0.11095355 0.03602107

enc_un.h_layer.4.weight f4 [100, 100]
00000000: c36d 083e efc0 85bd 7ca0 08be 219e 9e3c
00000010: f690 ddbd a07d 323d 27b4 283d 928c 23be
00000020: 1ab8 acbd 8621 8dbd cd5f b3bd d863 4fbd
00000030: 6f42 fcbd a2dd 9e3d 2e2e bcbd 6bee 093e
00000040: c144 083e 1b4a 15bd 8307 0f3e b732 143e
00000050: df5a b1bd 6867 10be a5ce 253d 27e5 083e
00000060: 0fee b1bc 947c df3c f1f7 14bd 9113 74bd
00000070: 0ef0 933d bdad 43bd d3e9 24bd b179 12bc
00000080: 4642 ab3d 59f9 1cbe 7549 c7bc 00bb 06be
00000090: eb77 1b3e ba43 d4bc b270 c93c 3eae a43d
000000a0: 5b0e 23bd 768c 6dbd 8bc2 d2bd a713 1dbe
000000b0: b72e 8d3d c2e4 803c 028e 92bd 69c2 d5bd
000000c0: 696f 5bbe 1b7d 6cbc c36e d93c 80ea 13be
000000d0: 06ba 72bd d433 f8bd 7f31 67be bd19 99bd
000000e0: 326b f3bd d7e1 d1bd f2fa 1cbc 7f3c 5b3d
000000f0: c110 3a3d 23e5 593e 333a 6cbd eddf b8bd
00000100: cf0b faba 4a65 dcbd 9d39 a23b 6bb8 573d
00000110: 54bc 783b ca06 203d 4de8 6b3d ec86 253e
00000120: 49f9 a23d d09b 93bd 2ed4 043e c671 72bd
00000130: 777e 093e 01cc 9cbc 1e70 9a3d f655 e23b
00000140: 33e6 1cbd f672 0bbe 1d77 043c d2c7 9abd
00000150: 0958 2d3e e058 e5bc d26d 0a3e 7e44 f93c
00000160: 0e3b bfbc 3933 303d 9979 02be a7d4 93bd
00000170: 88a8 403e 6087 5cbd a5f8 57bd 8e2b 8bbe
00000180: 28e6 14bd 7b81 0e3d 7dc9 bc3d 70f4 933d
00000190: 9805 f7bd efbb 1ebe 8610 bc3d d684 1c3e
000001a0: b1e0 f03d 13ed aabd 1c15 c13d 3cf0 92bd
000001b0: 19c1 70bd 5329 83be 4b76 c6bd 2926 abbc
000001c0: a8de 913b 858c 143b de9f d7ba d1c1 003e
000001d0: af26 813d c9f3 52bd 8a03 3d3e e4d6 2a3d
000001e0: b3ed 91bd 6694 0c3e d487 abbd 3988 4c3d
000001f0: 1c0a 163c a484 1f3b 2053 79bd 0768 d43d
00000200: 19e0 babd 6559 f23d 7296 85bd d0de f53d
00000210: 5893 3b3e d981 23be 945f 1e3e 2d5a 923d
00000220: 4186 133d cf0a c2bd 8525 b93d d02c 253c
00000230: 630b 41be 81f9 47bd 9a5d 1e3d 3e7b 2ebd
00000240: 2ea8 05bd 962b 8bbd bd85 c43c 3d67 53bd
00000250: 782e 393e 5f8b a4bd 6109 843d 7a1d 2f3d
00000260: 1804 13bc 648b 01be 8332 a4bc 3749 7b3d
00000270: 5364 b2bd bdcb e2bb 3659 0abe c4b7 2b3d
00000280: 5be4 31be 28e9 86bc 2ee2 7cbd a351 0d3d
00000290: 9d74 c2bd 82f6 963d 3363 d43b 024b 283e
000002a0: f6ed bf3d 6d90 703e e1b7 4c3d 2d8b f43d
000002b0: 8ea3 84bd dbd4 d03d 91a2 743d 55d0 60be
000002c0: 113e 913d 8f68 58bc 82c5 283d 9cc9 ba3d
000002d0: 46b3 723e fbc9 e13d e24c 9f3c 95f2 b4bd
000002e0: 9bd1 203e 386f 433c cbcc 023e 0cad 123d
000002f0: fc37 b0bd 41a7 95bd 5c4a 0bbe 4871 95bd
00000300: 242f cb3d 5be9 22bd 4b34 f3bb 03fc 7c3d
00000310: 0856 003e dee7 3d3e 86bc acbd 28d4 ea3c
00000320: 8fec 353d edd2 e6bc 177a edbd badb abbd
00000330: a804 2abe a6da 05bb e65e de3d 1bce aabd
00000340: 8612 c1bd 5b6a 823c 9ef3 e4bd c421 da3c
00000350: e7e0 9b3d dc82 d2bd 4fbf b13d 4ee7 9cbc
00000360: b76c 8cbd 4ab8 073d 76d4 463d 3d27 953d
00000370: 14e4 173c 361a 623b 8e3d 93bd d226 263d
00000380: 532f 3a3d 4fa8 58bd e583 12bd 9ff8 90bd
00000390: 09da 973d 6e1e f0bc 7f52 91ba 9137 993d
000003a0: 27dc 593e ee71 213e 79f5 7dbb 048a f2bc
000003b0: a3c9 a63c ab93 983d f039 ad3d 7cd0 943d
000003c0: 5e57 bebd 907f c9bd 9a39 003e 406a 6cbd
000003d0: ebd9 c93d 6125 923d c4c8 913d 0ec3 29be
000003e0: 423d cdbd 9a57 e03d 22f3 0c3e fc5b 5cbc
000003f0: 9730 babc ca1b 5ebd d3e4 643c cea9 f2bd
0.13323121 -0.0653094 -0.1334247 0.019362511 -0.10818665 0.043576837 0.04118743 -0.15971592
-0.08433552 -0.0689116 -0.08758507 -0.050632328 -0.12317359 0.07757117 -0.091884956 0.13469855
0.13307478 -0.036447626 0.13967709 0.14472471 -0.086599104 -0.14101946 0.040480275 0.13368665
-0.02171996 0.027281083 -0.036369268 -0.059588972 0.07223521 -0.04777311 -0.040262055 -0.008940146
0.0836225 -0.15329494 -0.02432702 -0.13157272 0.15182464 -0.0259112 0.02458987 0.080410466
-0.039808612 -0.057995282 -0.102910124 -0.15339528 0.06893676 0.01573408 -0.07155992 -0.104374714
-0.21429218 -0.014434124 0.026542073 -0.14444923 -0.059259437 -0.121192604 -0.22577475 -0.07475612
-0.1188568 -0.10248154 -0.009581314 0.05352449 0.045426134 0.21278815 -0.05767269 -0.090270855
-0.0019077006 -0.10761507 0.0049507157 0.05266611 0.003795405 0.039068975 0.057594586 0.1616475
0.079577036 -0.07207453 0.12971565 -0.059190534 0.13427149 -0.019140245 0.07540916 0.00690722
-0.038305473 -0.13618073 0.008085039 -0.07557644 0.16928114 -0.02799648 0.13518456 0.030428167
-0.02334359 0.0430176 -0.12741698 -0.072182946 0.1881429 -0.05384004 -0.05272736 -0.27181667
-0.036352307 0.03479145 0.09218118 0.07224357 -0.12061614 -0.15501378 0.09182839 0.15285048
0.117616065 -0.083459996 0.094278544 -0.07174727 -0.058777902 -0.25617465 -0.09690531 -0.02089222
0.0044515915 0.0022666764 -0.0016450842 0.12573935 0.063062064 -0.051502023 0.18458381 0.041708842
-0.07125416 0.13728485 -0.083755165 0.0499346 0.009157684 0.0024340535 -0.06087029 0.10371404
-0.091247745 0.11833457 -0.06522836 0.12005389 0.18317926 -0.15967502 0.15466148 0.07146106
0.036016706 -0.09474718 0.090403594 0.010081485 -0.18852 -0.04882193 0.038663484 -0.042598
-0.03263109 -0.06795423 0.023989553 -0.051612128 0.18084133 -0.080343954 0.064471014 0.04275272
-0.008973144 -0.1265083 -0.020043617 0.06134912 -0.087105416 -0.00692126 -0.13510594 0.0419233
-0.17372267 -0.0164686 -0.06173914 0.034501683 -0.094948985 0.073712364 0.006481552 0.16434863
0.09371559 0.23492594 0.049980048 0.11940608 -0.06476508 0.10196849 0.059725348 -0.21954472
0.07091916 -0.013208522 0.041203983 0.09120485 0.237012 0.11024853 0.01944584 -0.08835331
0.15704958 0.011928372 0.12773435 0.03580956 -0.08604428 -0.07307292 -0.13602585 -0.07296997
0.09921101 -0.039773326 -0.0074220053 0.061763775 0.12532818 0.18545482 -0.084343955 0.028665617
0.044415053 -0.02817675 -0.115955524 -0.08391519 -0.16603339 -0.0020424514 0.10857944 -0.08340093
-0.09427361 0.015919855 -0.11179279 0.026627429 0.07611256 -0.10278866 0.08679067 -0.019153263
-0.06856673 0.033134736 0.048542462 0.07282875 0.009270687 0.0034500486 -0.07189475 0.040564366
0.04545529 -0.052894887 -0.035770316 -0.07078671 0.07414634 -0.029311385 -0.0011087208 0.074813016
0.21275388 0.15766117 -0.003875105 -0.029606827 0.02035982 0.074500404 0.08458316 0.07266328
-0.09294008 -0.09838784 0.12521973 -0.057718515 0.09856018 0.07136036 0.07118371 -0.16578314
-0.100214496 0.10954209 0.13764623 -0.013449665 -0.022728248 -0.05422572 0.013970572 -0.11848794

enc_un.h_layer.4.bias f4 [100]
00000000: 6ffe e5bc 73b7 443d 00b1 80bd 397a 65bd
00000010: ad04 4dbd 90fe cc3c 33bb bbbc e310 96bd
00000020: 3e82 d3bd c409 d13d b3d4 69bc 88c2 24bd
00000030: 2548 8bbd 15f4 a5bc dc19 bc3d 0deb b63c
00000040: f3cf 4ebd 0838 3bbc da0d 5fbb 389b c23d
00000050: 817f c1bd fcc1 583d 7d77 c93d a72f 973d
00000060: c65e c83d 5087 84bd 732e 76bd 0150 a63c
00000070: acbe 02bd e483 9dbd fc0a 553d 40a8 b3bd
00000080: 7213 223d 153f 22bd 234d b73d bee9 013e
00000090: 964c a93d de91 d5bc 9672 a1bb e087 9e3c
000000a0: b21b 23bd a48f 8e3d 5b7c 77bd a439 dd3c
000000b0: 5dea b4bd 65a7 9cbd a53e a33d 0080 f43c
000000c0: 4674 e43d 3e70 8a3d 2b55 ad3d a304 96bd
000000d0: d5af b93d 8210 8dbd b14b 103d 0445 b43d
000000e0: d28b 5c3d 9a87 d53d b741 da3d e500 a2bd
000000f0: c04d d93c 6e00 8cbd 01df 903c 01dc 21bc
00000100: 3fe3 383d 361f d4bd 53f0 99bd 3123 b5bc
00000110: 6613 8ebd 0468 8c3d c100 b7bd e251 c1bb
00000120: 2edf c0bb 6647 76bd 5224 b83d 3a5c b2bc
00000130: c7da e9bb 86ff 913d bb44 883d 5499 713d
00000140: b196 ebbc fab4 633d c5ed 7bbd 750f dbbc
00000150: e328 1cbd 1cfc 3e3d e082 aa3d d8e8 d6bd
00000160: 646c 383d a2ab 153d ea6e a9bd f2cd 193d
00000170: b26c 6a3d b943 f43d 8c14 d63b 954a eabd
00000180: 7fcc e8bc 6d48 6a3d df10 96bc 00ca 45bd
-0.028075425 0.048026513 -0.0628376 -0.056024764 -0.050053287 0.025023729 -0.022916412 -0.0732744
-0.10327576 0.10206941 -0.014271903 -0.040224582 -0.0680087 -0.020257989 0.0918462 0.022328878
-0.050491285 -0.011426933 -0.0034035356 0.09502262 -0.094481476 0.052919373 0.09837244 0.07382136
0.097837016 -0.06471121 -0.06010289 0.02030182 -0.03192012 -0.07691172 0.05201243 -0.087723255
0.039569326 -0.03961094 0.089502595 0.12686822 0.08266561 -0.026070531 -0.00492699 0.0193519
-0.039821334 0.06960991 -0.06042133 0.027005024 -0.08833764 -0.076491155 0.07970933 0.029846191
0.1115499 0.0675969 0.0846351 -0.07325103 0.090667404 -0.06887914 0.035228435 0.08802226
0.05384428 0.104262546 0.10657065 -0.07910327 0.026526332 -0.068360195 0.017684462 -0.009879113
0.045138594 -0.103575155 -0.07516541 -0.022111507 -0.06937294 0.06855777 -0.08935691 -0.005899654
-0.00588598 -0.060126685 0.089913025 -0.021772493 -0.007136676 0.07128815 0.06653734 0.058984116
-0.028758379 0.055592515 -0.06150605 -0.026740769 -0.03812493 0.04662715 0.08325744 -0.1049363
0.045025244 0.036540635 -0.08273108 0.03754992 0.057232566 0.119269796 0.006533211 -0.11440007
-0.028417824 0.057197977 -0.018318592 -0.048288345

enc_un.mu_gen.weight f4 [3, 100]
00000000: 297a 45be 38cb 0c3e 791d 3dbe e01c 803d
00000010: 98b3 083d 99c4 a0bc 5aee 843d 1ead 223e
00000020: 9c67 e4bd c130 8a3a 04f3 0d3e 0bcb 6d3e
00000030: 674d 34be 7922 2dbe 5127 eb3d 4f96 fa3c
00000040: f78a 93be 9a85 25be 124d edbd 7618 2bbe
00000050: f9fe 75be c071 8c3c 4650 64bd 1395 5c3c
00000060: eb27 26be 9dd6 013e 55be 773e 75e7 2b3d
00000070: a5a7 483e 9471 cbbe 767d a43d d87c a1bd
00000080: a113 133e 69f4 d2bd 068a 49bd 22a2 24be
00000090: ca69 97be 6e8e 18bc 3d71 683e 0cba 14bd
000000a0: 95d1 b53d b822 eabc 6b24 243d 5739 b33d
000000b0: cbba 0a3e 6ba6 893d 5eac 59bd 661a 8c3d
000000c0: f4fa 553e fcc2 833d 2ef3 3cbd 7ed4 803e
000000d0: 6e2b 963e 4938 6ebe 164d 0d3d dc9e 8dbe
000000e0: 50e2 983e 1d2f 473c 34bd 65bd 890a 96bd
000000f0: 1505 d13e 69c5 26bd be30 82bd 2a9b 39be
00000100: 67a7 26bd 8933 14be 8888 14be fc8d 02bd
00000110: 53e3 6bbe c6ac 90bc f56f e83d e800 703c
00000120: 26f4 483d f857 8f3d 8f1c fc3d ee9a 75be
00000130: 11c0 55bd cb15 8b3c 3cee fe3d 23ca 1dbe
00000140: 865c 11be 0bfd 3cbc d170 8abe 803c 41be
00000150: f0fb 1bbe d1ff 343d ce5e cc3c 2acc 0ebc
00000160: ffd9 7abd a18a 75bc 5345 4ebe 6963 933b
00000170: 1d1e 3cbe 1b1d 91bd e2a2 b63e 7ecc 5f3d
00000180: 4acc 70be eab0 1b3e 7217 873e 5338 423e
00000190: eff8 8a3d 2ed7 b5bd 25c3 c3bb eb13 74bd
000001a0: af21 61be 87cf 513e 6955 7f3e 4485 30be
000001b0: 1203 553e 5d4d 113e 3b4d 5fbe 6676 4e3e
000001c0: 203a 2bbc 8324 e73b df18 0abe 7e20 8c3e
000001d0: ffc4 a9bb 046a 5dbe 5346 c7bc 16b4 98bd
000001e0: 6689 d13c b201 5b3d 37a3 113e 254f 93be
000001f0: ac86 2ebc b60c bb3d 04b1 acbe d3d3 663e
00000200: 4f52 13bb 89ef 233d 7c38 92be 76ca 64bd
00000210: ae1f 48bd 7138 0fbd 1296 13be 45cd 6ebe
00000220: fccb 903d 01b6 063d 4d3d 10be 38ad d8bd
00000230: bc41 a23c 57dd d7bd 787e c3bc 9db0 18be
00000240: 24b5 be3c b038 01be 0327 e6bc bdb4 e2ba
00000250: b19f 25be a3e4 87bd 8fa6 823e 1521 5b3d
00000260: 14ad 05be 32ea 8a3d 4ede 86bd dcbf b5bc
00000270: bba4 e83d 0bf6 81bd 4862 00bd edc9 88bd
00000280: a700 9f3e 0fc8 543e 3b3b 513e ba90 acbd
00000290: 968d 4d3e f3fd 363e 4d93 abbe fea8 50be
000002a0: e59b ebbd fc0a 033e 7029 733c 2a44 60bc
000002b0: 1093 1d3e c155 0bbe 1fee e63c 940f 17be
000002c0: b1d4 fd3d 06a1 60bd 49e1 2e3e bd98 59be
000002d0: 9873 e33a 1b21 863d 2a11 0f3d b3d6 013e
000002e0: fc3d f13d e19e 313c 94b1 bbbd 74f6 dd3c
000002f0: 166b 723d 087a ac3d 529a b3bd c7c7 74be
00000300: 7164 123e ff13 993e 7a10 2d3e 1ce3 c3bd
00000310: 0ff0 853c 5475 fabc ed78 2738 68ab 393d
00000320: f9f3 a93e 8095 40be fbb1 6abd c3a2 4ebe
00000330: 19ae 30be b7c7 0a3e 7e36 083e 4b9f 9dbd
00000340: 6867 a93d 8dcd 9b3d ca57 98bc 7fbd ee3d
00000350: 77cb 04be 58e4 76be 0c4d 613e f69f ce3d
00000360: 3c71 b43d f0d2 1b3e fe9c c93e 42d2 eb3d
00000370: 042a 1c3e f55b dcbd 61d8 cd3d d503 3b3c
00000380: e844 8a3d 225a 40be efb8 833e 356f bdbe
00000390: 9377 0dbe d9aa eebc 55d3 c6bc 32ba 153e
000003a0: 8192 2ebd 5c4b d5bd b613 3dbb 8ab6 80bd
000003b0: c7b9 14be 6cda 3b3e 8368 b6bc 39e9 893e
000003c0: f5a4 81be 9ff6 c53d b95a 353d 52eb 2e3e
000003d0: 6c9e ffbc b17a d4bd efae 00bc 8433 6f3d
000003e0: 6323 633e 7dbe 153e 09fb 2ebc cb84 b8bd
000003f0: b504 dabd 04be 623e 4f7d 303e 1118 e0bd
-0.19284882 0.13749397 -0.18468274 0.062555075 0.0333744 -0.019624995 0.064907745 0.15886351
-0.111525744 0.0010543094 0.13862234 0.23221986 -0.17607652 -0.16907682 0.114821084 0.03058925
-0.2881696 -0.16164246 -0.115869656 -0.1670855 -0.24023046 0.017144084 -0.055740617 0.013463276
-0.16226165 0.12679525 0.241937 0.04196878 0.19595201 -0.3973509 0.08031742 -0.0788514
0.14362957 -0.10300524 -0.049203895 -0.16077474 -0.29572898 -0.009311302 0.22699447 -0.03631024
0.08877865 -0.028581008 0.040073793 0.08751171 0.13547818 0.06721195 -0.053142898 0.068409726
0.20896512 0.06433675 -0.04613035 0.2516212 0.2933001 -0.23263659 0.034497343 -0.27660263
0.29860163 0.012157229 -0.05608864 -0.07326228 0.4082419 -0.04071561 -0.06356953 -0.18125597
-0.04068699 -0.14472784 -0.14505208 -0.031873688 -0.23035936 -0.01766051 0.11349479 0.014648654
0.049060963 0.069992006 0.123101346 -0.23984882 -0.052185122 0.016978165 0.12447783 -0.1540914
-0.14195451 -0.0115349395 -0.27039197 -0.18870735 -0.15232825 0.044189278 0.02494755 -0.008715669
-0.061243054 -0.014986665 -0.20143633 0.0044979346 -0.18370862 -0.070856296 0.35671145 0.05463838
-0.2351543 0.15204206 0.26385075 0.18966798 0.067857616 -0.08878933 -0.005974191 -0.059589308
-0.21985506 0.20489322 0.24934925 -0.17238337 0.20801952 0.14189668 -0.21806805 0.20162353
-0.01045087 0.007053913 -0.1348605 0.2736854 -0.0051809545 -0.21622473 -0.024325525 -0.07456224
0.025578212 0.053468414 0.14222418 -0.2877132 -0.010652225 0.09133284 -0.33728802 0.22541742
-0.002247948 0.04002336 -0.2855872 -0.055857144 -0.048858337 -0.034965936 -0.14412716 -0.23320492
0.07070157 0.032888416 -0.14085884 -0.10579914 0.019806735 -0.10540264 -0.023864016 -0.14911123
0.023279734 -0.12619281 -0.028094774 -0.0017296296 -0.16174199 -0.06635406 0.255177 0.053498346
-0.13054305 0.067829505 -0.0658537 -0.022186212 0.11359545 -0.06345757 -0.03134373 -0.06679139
0.31055185 0.20779441 0.20432751 -0.08426042 0.20073542 0.17870311 -0.3351082 -0.20376965
-0.11504344 0.12797159 0.014841422 -0.013688127 0.15388131 -0.13606931 0.028189717 -0.14752036
0.12394083 -0.054841064 0.17078127 -0.21249671 0.0017353175 0.06549283 0.03492848 0.12679558
0.11779401 0.010841102 -0.0916473 0.027095057 0.059184156 0.08421713 -0.08769669 -0.23904334
0.14296128 0.29898068 0.16900817 -0.09564802 0.01634982 -0.030573525 3.9928524e-05 0.04532948
0.3319395 -0.1880703 -0.05729864 -0.20179276 -0.17253913 0.13552748 0.13302037 -0.07696398
0.08271676 0.07607565 -0.018596549 0.11657237 -0.1296824 -0.24110544 0.22002047 0.10089104
0.0881066 0.15217185 0.39377588 0.11514713 0.15250403 -0.10759727 0.100510366 0.011414488
0.06751424 -0.18784383 0.2572703 -0.36998907 -0.13815145 -0.0291342 -0.024270693 0.14621809
-0.042620186 -0.10414764 -0.002885086 -0.062848166 -0.14523993 0.1834504 -0.022266632 0.26935747
-0.25321165 0.0966618 0.044275973 0.17081955 -0.031203471 -0.10374964 -0.007854207 0.05839874
0.22181468 0.14623447 -0.010679969 -0.09009703 -0.10645429 0.22142798 0.17235301 -0.1094209

enc_un.mu_gen.bias f4 [3]
00000000: 35eb 1a3c ec60 603d ca97 b43d
0.009455492 0.054779932 0.08818014

enc_un.logvar_gen.weight f4 [3, 100]
00000000: a4d7 d93d 7483 903e a551 0c3d f9db c1bb
00000010: 8758 5cbd f8ac 1b3e 6036 29be 4996 0d3d
00000020: b8a8 db3c 321f c3bd 9684 1abe 268f 9d3c
00000030: f488 75be 569a 843d 758b 16be a6a0 05be
00000040: 7782 283e 0d72 20be 41ec e6bd 0e8f 573e
00000050: 1be1 9b3d 456e 89be 14f8 f8bd c94a 0d3e
00000060: 46af bebd e3f9 ea3c 5726 84bd 0df3 bf3d
00000070: c5d2 84be 5cab 4c3e c4c0 1fbd 8cb7 183e
00000080: 1ee4 45be a55c 5ebe 68a5 c43d 8d7f 4cbb
00000090: 62fa b13c da91 283e 8c99 083e a60c 4a3d
000000a0: b3dc 03bd e8eb 64be d39b 5cbe 34f1 44bd
000000b0: 9ecc da3d 6c48 3b3e 20ec 54be c068 89bd
000000c0: 7b28 b6bd 5908 9e3d ca0f aebd 9b44 53be
000000d0: 2728 5abe d4a3 923d b2ed 6b3e 99ca 0a3e
000000e0: acae e6bc cb96 73bd 5856 7cbe d6b9 0a3d
000000f0: 0927 10be 3bbc cb3c 6fbc 54bd 9685 9c3d
00000100: 2a60 bdbe 0980 d63d 8ee8 bcbd 73f8 7bbd
00000110: 8eed 143c 1901 e13b 3763 8abd bc72 3a3d
00000120: 8e50 18be 76a7 4b3c fbfe 933e ce45 403e
00000130: 63d7 fe3d 31d2 1a3e 6d9c 9cbd 841a a53d
00000140: a312 93be 9718 f23d 1f4e 91be 4117 be3c
00000150: 7254 323e 013b 8d3e 7bce 2cbb f014 f13d
00000160: a447 083e 46ef f33d 80bf 2c3d 3c4b efbd
00000170: 31c1 78be 657b 4cbe 35cb 473d ec08 123e
00000180: aaa5 96bd deb0 87bd 17ee 693e 212b 3e3d
00000190: e6b4 12be b596 183e 479c 22bd 0480 24bd
000001a0: 8712 a73d ec84 c13d eb11 f0bd f448 903e
000001b0: b66f 473d 84d4 013d d8f2 bfbd 7977 4a3d
000001c0: 7cba 89be f24c c33b 72bf debc e703 173b
000001d0: 6b5b 023e e023 783d 2c0a 1e3e 4482 29be
000001e0: 8a67 f53d a36b 71bc 63b4 f9bd 4535 16be
000001f0: 3825 26be 6303 f0bd f4d5 0b3c 7a89 493e
00000200: 7d93 0cbe b4aa 273d e19d 10be fcd5 733c
00000210: 0d66 c33c d668 dbbd 7725 f93d bfbd 58bd
00000220: 653e 27bd 5132 083e 9546 22be 8551 183e
00000230: 828d 003e 881a cf3d 8280 91bd 1913 22be
00000240: 8342 86be 6475 883d 3c89 dbbd d5f1 f5bc
00000250: 6a84 3dbe f204 9cbd 6bf1 16bd 81f1 42bd
00000260: cf3f b83d b57f 00be 4b43 3d3e dc9a 3abe
00000270: 296f 67be 09a8 c43c 358f 20be 66c7 e63e
00000280: 0ea5 173e e785 f0bc 51e9 b1bd 69ec 8c3e
00000290: 5208 a9bb 772c 8f3e 91c6 88be 7cf6 52be
000002a0: 4a75 3abe ed41 cb3d b0a5 a7be e592 9cbd
000002b0: 928d 35be 2dbc 583d 5137 2c3e fd75 ea3c
000002c0: 4c01 3f3d 7ff9 79be 0564 08be 42bb 823d
000002d0: 96c6 09be c1d6 933e b82f b73d 7892 6dbd
000002e0: 9834 ed3d a3af 1cbe 4e90 e03d 3143 eabc
000002f0: 095c 7bbe 94f6 cd3c 15bc b7bc edbb 29be
00000300: e1e3 22be f916 b6be bcfc 663e 369c dabd
00000310: 85bb 4abc 1546 49be 4a00 033b 3bb0 653e
00000320: 7d2b adbc be27 79bd 6542 af3c ce3b 0d3e
00000330: 15fa 3b3e 13c3 0c3e d438 d33d 0ac8 e7bc
00000340: c33b 803d 1f92 61be e6c1 5f3e dc0c b7bc
00000350: 2a6e 073c f03d a0bd eb90 15be df44 40be
00000360: 4755 f73d caa4 ad3b 81b0 593e 2a4d a6be
00000370: 1326 773e a714 483e f6d5 72be 5740 5c3e
00000380: 7573 98be 857f f7bd f819 abbd 9ecd c13b
00000390: 3fa4 30be f7d1 663e 50a6 143b b2dd 343e
000003a0: 90cc 1cbd 6590 583d 027c 293d c461 58be
000003b0: ca98 983e be2b 233e 1b52 47be 4299 2d3e
000003c0: a3f5 9f3c 2805 c5bc 6bfe 0cbe 38df ce3c
000003d0: 1543 33be 808a ccbd a282 e73d 1812 0fbd
000003e0: 6889 09bc 1768 8c3d 1837 ccbd a473 aabe
000003f0: 4916 8f3e 1c9f 3bbe fd10 c63c 7ca8 2fbc
0.10636833 0.2822529 0.03425755 -0.0059161154 -0.053795364 0.15202701 -0.16524649 0.03456715
0.02681385 -0.095274344 -0.1508964 0.019233298 -0.23978025 0.0647475 -0.14701636 -0.13049564
0.16456018 -0.15668507 -0.112755306 0.21050665 0.07611295 -0.2684194 -0.12156692 0.1379806
-0.093107745 0.028683608 -0.06452625 0.0937253 -0.25942054 0.19987243 -0.039002195 0.14913768
-0.19325301 -0.21715029 0.09601861 -0.0031203956 0.021725837 0.16461888 0.13339823 0.04932847
-0.032192897 -0.22355616 -0.21543817 -0.04808159 0.10683559 0.18289346 -0.207932 -0.067094326
-0.0889444 0.07716436 -0.08499105 -0.2063164 -0.2130438 0.07160154 0.23039892 0.13553847
-0.028159462 -0.05946998 -0.24642313 0.033868633 -0.1407739 0.024870029 -0.051937517 0.07642667
-0.3698743 0.104736395 -0.09224044 -0.061516237 0.009089841 0.006866586 -0.06757205 0.045519575
-0.14874479 0.0124300625 0.28905472 0.18776628 0.124434255 0.15119244 -0.07647023 0.08061698
-0.28725156 0.118210964 -0.28379914 0.023204448 0.17415026 0.2758408 -0.002636819 0.11771572
0.13308579 0.11910872 0.042174816 -0.11684272 -0.24292447 -0.19968946 0.048777778 0.14261216
-0.07355817 -0.066255316 0.2284473 0.04642785 -0.1432682 0.1490124 -0.03969982 -0.040161148
0.08157831 0.09449181 -0.117221676 0.2818066 0.04869052 0.03169681 -0.09372491 0.049430344
-0.2690009 0.0059601003 -0.027190898 0.0023043097 0.12730186 0.060581088 0.15433568 -0.16553599
0.11982639 -0.014735135 -0.12192609 -0.14668758 -0.16225135 -0.11719396 0.008534897 0.1968135
-0.13728137 0.04093428 -0.14122726 0.014882561 0.023852373 -0.10713355 0.12165349 -0.05291533
-0.04083099 0.13300444 -0.15847237 0.14874847 0.12553981 0.10112482 -0.07104589 -0.15827598
-0.2622262 0.066630155 -0.10719535 -0.030022541 -0.18507543 -0.07618131 -0.036851328 -0.047593597
0.089965455 -0.12548716 0.18482701 -0.18223137 -0.22600998 0.024005907 -0.15679629 0.45074004
0.14809057 -0.029360725 -0.0868708 0.27524117 -0.0051584626 0.2796361 -0.26713994 -0.20601839
-0.18208805 0.09924684 -0.32743597 -0.076452054 -0.17729786 0.052913833 0.16817977 0.028620714
0.046632096 -0.24411581 -0.13319404 0.06383373 -0.13454661 0.28874782 0.089446485 -0.05800101
0.11582297 -0.15301375 0.10965024 -0.028596492 -0.24546827 0.025141992 -0.022428552 -0.16575594
-0.15907241 -0.35564402 0.22557348 -0.10674326 -0.01237381 -0.1965564 0.0019989186 0.22430508
-0.0211389 -0.060828917 0.021393964 0.13792345 0.18357117 0.1374629 0.103135735 -0.028293628
0.06261399 -0.22028397 0.2185131 -0.022344999 0.008266011 -0.07824314 -0.14606063 -0.18776272
0.12076812 0.0052991854 0.21258737 -0.32480747 0.24135618 0.19539128 -0.23714432 0.21508919
-0.29775587 -0.12084869 -0.083545625 0.005914404 -0.17250155 0.22541033 0.0022682138 0.17662695
-0.038281024 0.05287208 0.04137803 -0.21131045 0.2980407 0.15934655 -0.19464915 0.16952994
0.019526308 -0.02405031 -0.13768928 0.025252923 -0.17506059 -0.09987354 0.11304213 -0.034929365
-0.008394577 0.06855791 -0.09971446 -0.33291352 0.2794669 -0.18322414 0.024178023 -0.010721322

enc_un.logvar_gen.bias f4 [3]
00000000: dd05 d9bd b172 913c 8feb a5bd
-0.105968215 0.017754884 -0.0810157
