result/transfer_baseline_compare/synthetic/pretrained/4_vae(xn1.0_xa1.0_y1.0_kl0.1_tc1.0_css10.0_tf0.001_uxn3_uxa3).pth (torch, 773690 bytes, 64 tensors)

enc_un.in_layer.weight f4 [100, 2]
-0.084462404 -0.018324262 0.25266114 0.23586993 0.047160108 0.10956526 0.054046623 -0.033430908
0.47042224 -0.03975546 -0.17855243 0.21802865 0.21899113 0.008640433 -0.0034886831 -0.07314411
-0.047079545 -0.18477018 0.0062183742 0.07871656 -0.31351554 0.152554 -0.087512836 0.0012646917
0.019513274 -0.24446526 0.064338975 -0.19303867 -0.059936725 0.01262032 -0.17565303 -0.034729235
-0.05218051 0.023708086 -0.09344509 0.005360752 0.06567556 0.03861494 -0.037320573 -0.22547889
0.098695174 0.08569429 -0.013881877 0.1675603 0.046351053 -0.10651558 -0.06723834 0.30516428
-0.069930844 0.06297805 0.11952032 -0.10528035 0.20640163 0.03941135 0.17142446 -0.108039625
0.034671307 0.22025622 0.14267497 -0.010037633 0.16728011 -0.08389858 0.10021288 -0.012846966
-0.14629553 -0.12383012 0.006518831 0.054365937 -0.08598079 0.040526763 0.2939387 -0.0017295788
-0.1325451 0.19237949 0.12657648 -0.028896898 0.102704294 0.0065095723 0.047270216 0.08094576
0.3574371 0.1661988 -0.05492962 -0.1701647 0.03912215 -0.07231195 -0.046600614 -0.10295292
-0.05325019 -0.052702356 -0.06037149 0.06416097 -0.074071705 -0.15309061 0.117962494 0.19397022
0.026534945 0.17620753 -0.14405885 0.020749828 -0.057739217 -0.057154097 0.17589156 -0.15940435
0.023974044 -0.1608717 -0.15888233 -0.10942953 0.15872754 -0.13928676 0.10935329 0.036926694
-0.21701524 0.16120292 0.1793808 0.015344699 0.0765337 -0.029065847 -0.007734301 0.14129376
0.110666804 0.15135354 -0.11790696 0.2701064 0.091457516 0.2695768 -0.0028376798 0.14861211
-0.36465472 -0.10625137 -0.11863531 0.025679307 -0.08002021 -0.06495161 0.003243634 -0.0910469
-0.11544957 0.027426157 0.15032153 0.037006866 0.24781832 0.2250133 -0.039086737 -0.28579524
0.054333072 0.05897217 -0.32239848 0.10075458 0.14480649 -0.16903794 -0.2721674 0.16901965
0.015489036 -0.19597086 0.34436813 -0.04108709 0.038920704 -0.09550848 0.068578325 0.123664744
0.093497396 -0.052896764 -0.13893062 0.1405462 0.09051146 0.1180974 -0.1716624 -0.0030706977
-0.035256885 -0.15783681 0.2599275 0.101664715 0.01161578 0.048501413 0.11140465 0.117054835
0.06532747 -0.030399963 -0.11551308 -0.17745613 -0.0036718263 -0.025720514 0.09419764 -0.014158002
0.218914 -0.13963737 -0.060498215 0.14057115 0.024232809 -0.28220144 -0.019827154 -0.028753443
-0.0162538 -0.1860652 -0.012124218 0.27392 0.09977354 0.010778621 -0.049515173 0.14089525
00000000: a0fa acbd c31c 96bc cd5c 813e e387 713e
00000010: f52a 413d c063 e03d fe5f 5d3d d9ee 08bd
00000020: 2fdb f03e 9fd6 22bd 73d6 36be e742 5f3e
00000030: 363f 603e 9a90 0d3c 64a2 64bb 94cc 95bd
00000040: 7bd6 40bd 6534 3dbe 81c3 cb3b 2636 a13d
00000050: 1c85 a0be 1e37 1c3e ee39 b3bd 03c4 a53a
00000060: 4dda 9f3c 1a55 7abe 27c4 833d eeab 45be
00000070: 3680 75bd 75c5 4e3c 63de 33be 3e40 0ebd
00000080: 3bbb 55bd 7637 c23c 2460 bfbd 3fa9 af3b
00000090: e880 863d b32a 1e3d 75dd 18bd f0e3 66be
000000a0: b220 ca3d 7d80 af3d d070 63bc ed94 2b3e
000000b0: 9ada 3d3d d724 dabd 41b4 89bd 7e3e 9c3e
000000c0: e737 8fbd a3fa 803d 12c7 f43d 399d d7bd
000000d0: f35a 533e cc6d 213d e589 2f3e e143 ddbd
000000e0: 8003 0e3d d98a 613e 6319 123e e274 24bc
000000f0: 7a4b 2b3e 05d3 abbd 693c cd3d 157c 52bc
00000100: 7fce 15be a59a fdbd eb9b d53b d1ae 5e3d
00000110: b216 b0bd 64ff 253d 227f 963e 09b3 e2ba
00000120: e7b9 07be 21ff 443e 449d 013e 30b9 ecbc
00000130: a156 d23d 404e d53b 6a9e 413d e4c6 a53d
00000140: ff01 b73e 0530 2a3e e2fd 60bd a83f 2ebe
00000150: 8c3e 203d 4a18 94bd 49e0 3ebd fbd8 d2bd
00000160: df1c 5abd 6dde 57bd 1848 77bd d466 833d
00000170: e8b2 97bd c9c3 1cbe 5296 f13d 21a0 463e
00000180: d05f d93c bf6f 343e 2a84 13be 8bfb a93c
00000190: f57f 6cbd 6a1a 6abd eb1c 343e e53a 23be
000001a0: 3765 c43c 8dbb 24be 0db2 22be 971c e0bd
000001b0: 7989 223e 30a1 0ebe 9ef4 df3d 7240 173d
000001c0: 3e39 5ebe 6112 253e 9aaf 373e 5568 7b3c
000001d0: b3bd 9c3d 801b eebc 0570 fdbb 50af 103e
000001e0: 47a5 e23d 6cfc 1a3e 3479 f1bd 634b 8a3e
000001f0: 144e bb3d f805 8a3e 5ef8 39bb c62d 183e
00000200: 06b4 babe 519a d9bd 12f7 f2bd 695d d23c
00000210: a3e1 a3bd 5a05 85bd 2693 543b cc76 babd
00000220: d370 ecbd d2ac e03c e3ed 193e 8394 173d
00000230: 16c4 7d3e e369 663e 6a19 20bd c153 92be
00000240: 5b8c 5e3d cd8c 713d 6a11 a5be 6b58 ce3d
00000250: 2748 143e 4818 2dbe 8759 8bbe 7d13 2d3e
00000260: bac5 7d3c 96ac 48be 0551 b03e f04a 28bd
00000270: 516b 1f3d f399 c3bd cb72 8c3d f143 fd3d
00000280: 907b bf3d 47aa 58bd d443 0ebe 58eb 0f3e
00000290: 135e b93d 0ddd f13d 45c8 2fbe c23d 49bb
000002a0: 8669 10bd f99f 21be 3815 853e 9735 d03d
000002b0: 1d50 3e3c 6ba9 463d 1f28 e43d 72ba ef3d
000002c0: 69ca 853d 5809 f9bc 1f92 ecbd 0fb7 35be
000002d0: 06a3 70bb d4b3 d2bc b1ea c03d f7f6 67bc
000002e0: fe2a 603e 19fd 0ebe facc 77bd e2f1 0f3e
000002f0: e283 c63c b57c 90be 8e6c a2bc 578c ebbc
00000300: b026 85bc e087 3ebe a8a4 46bc 3e3f 8c3e
00000310: 1256 cc3d d098 303c 6cd0 4abd d846 103e

enc_un.in_layer.bias f4 [100]
-0.6982016 -0.2290562 0.63894546 0.32475147 -0.046033714 -0.469712 -0.4753947 -0.68036926
-0.25466624 0.2936097 0.49305812 0.37420315 -0.6731922 -0.47534752 -0.1475308 0.7319705
0.12748945 -0.22871304 0.3448106 -0.32125765 -0.50400513 0.5633872 -0.3654095 -0.10581121
-0.7180513 0.5336926 0.58394504 0.2721571 -0.46230894 -0.7400284 -0.61933935 0.580723
0.3874135 0.64293855 0.4243259 0.21042594 0.043019928 -0.57855624 -0.64925265 -0.6591432
0.32440582 -0.39915064 -0.16403674 -0.44925296 -0.17843537 -0.5415701 -0.5120979 0.28504863
-0.23714426 0.4888363 -0.27840957 -0.5720858 -0.1298656 -0.40365726 -0.2635725 -0.7226253
0.44481263 -0.5182347 0.37916774 0.37325317 0.55760384 -0.55220705 0.5578209 -0.38339522
0.3084981 0.71804476 -0.13819815 -0.023343036 -0.20424478 -0.6328239 0.38123965 -0.7382032
0.48220196 0.5687516 0.72506595 -0.12923592 -0.6228245 0.21712197 0.4400595 -0.7182985
-0.20200749 -0.46600533 -0.05108037 -0.3917808 -0.34011582 -0.22948489 -0.6856768 0.62345916
0.63582945 -0.16261838 -0.07911144 -0.33139968 -0.6796259 -0.73534393 0.27328923 -0.4401699
-0.4866891 -0.0063978923 -0.28513145 -0.27706224
00000000: 57bd 32bf b58d 6abe ee91 233f d345 a63e
00000010: d98d 3cbd 177e f0be ef66 f3be ae2c 2ebf
00000020: 9d63 82be 0354 963e 1d72 fc3e 8e97 bf3e
00000030: 5356 2cbf c060 f3be 5012 17be 6b62 3b3f
00000040: 988c 023e c033 6abe 048b b03e e27b a4be
00000050: 7b06 01bf 253a 103f f416 bbbe 8cb3 d8bd
00000060: 36d2 37bf 14a0 083f 6c7d 153f 2d58 8b3e
00000070: c2b3 ecbe 8072 3dbf 068d 1ebf 43aa 143f
00000080: 105b c63e 9f97 243f 3f41 d93e e679 573e
00000090: aa35 303d 431c 14bf 6c35 26bf 9cbd 28bf
000000a0: 8518 a63e 795d ccbe 3ff9 27be 7c04 e6be
000000b0: c3b7 36be 57a4 0abf d918 03bf e5f1 913e
000000c0: f2d5 72be c048 fa3e b38b 8ebe 3774 12bf
000000d0: 7dfb 04be 2aac cebe faf2 86be f9fd 38bf
000000e0: 7bbe e33e 08ab 04bf 4622 c23e 0a1b bf3e
000000f0: 20bf 0e3f 715d 0dbf 5acd 0e3f 614c c4be
00000100: 77f3 9d3e c8d1 373f d183 0dbe e539 bfbc
00000110: 8b25 51be bf00 22bf d831 c33e e3fa 3cbf
00000120: 2de3 f63e b499 113f ec9d 393f 6c56 04be
00000130: 6d71 1fbf 3955 5e3e 7b4f e13e 69e2 37bf
00000140: 0ddb 4ebe 4098 eebe a639 51bd 7e97 c8be
00000150: a923 aebe 16fe 6abe 8488 2fbf 059b 1f3f
00000160: b8c5 223f 6f85 26be 2e05 a2bd 38ad a9be
00000170: f7fb 2dbf 803f 3cbf 91ec 8b3e f35d e1be
00000180: 502f f9be 69a5 d1bb c0fc 91be 1adb 8dbe

enc_un.h_layer.0.weight f4 [100, 100]
0.12222176 0.09498889 -0.04727288 -0.06117148 -0.02780964 0.016757112 0.07560319 0.07435098
-0.033836886 -0.017763596 0.17091684 -0.101609014 0.059097834 0.07111953 -0.01800634 0.031666595
-0.07753951 0.07116961 -0.16697672 0.060844876 -0.1624035 0.17955689 0.08058837 -0.10904187
0.10955513 0.052422956 -0.039822172 0.059383903 -0.27150846 -0.08795755 -0.19725329 -0.07324661
-0.02765837 0.15924652 -0.097837225 -0.112643436 -0.13383605 0.038614213 0.104217455 -0.14889117
0.044339422 0.11273419 -0.07981895 0.081841506 0.16292582 -0.07574093 0.05648204 0.070822164
0.04070064 -0.09735842 0.10162363 0.074181154 0.0756965 0.036445003 -0.05963982 -0.15163872
0.048577864 -0.14530188 -0.06865056 -0.0094928015 0.071503125 0.07205061 -0.052707776 -0.09848317
-0.13986945 0.03317931 0.075260706 -0.17049922 0.006540072 -0.027083036 -0.08283454 0.0897779
-0.035352565 -0.084267296 -0.08424871 0.0678222 0.14670025 0.05640845 -0.09358345 0.20025274
-0.030135429 -0.03092064 0.05154109 -0.060432054 -0.14542413 -0.06703205 -0.01419273 0.07039962
0.008197624 -0.016105395 -0.020781178 -0.047354456 -1.7381037e-05 -0.031081278 -0.0029547166 -0.13429554
0.07138361 -0.06884179 0.21217595 0.05808193 0.03756023 -0.04130181 -0.14729007 -0.079488546
0.13771382 0.097401716 -0.22974502 0.036662765 0.15523975 -0.010104585 0.12556005 0.18301378
-0.2082228 0.12782958 -0.12307794 -0.08204766 0.14617059 -0.07151407 0.07924262 -0.00076022896
0.0014126356 0.12448433 0.22449268 0.14184678 -0.08481072 -0.0005461256 0.09933753 0.10545958
0.030574927 0.11601235 -0.016071985 0.07644894 0.10779988 -0.0053874273 -0.050349325 0.0396251
0.0064526414 0.04161287 0.023382913 -0.03277126 -0.01269919 0.09814594 -0.050713684 -0.02933242
0.07288941 -0.27880558 0.011575367 0.27284843 -0.09950634 0.24755429 -0.04136441 0.00015255074
-0.06304003 0.051443405 0.049050134 0.10819891 -0.04142365 0.010186356 0.09335246 -0.067947716
0.24328114 -0.09896263 0.112597056 -0.10182977 0.09815166 0.038897347 -0.24039567 -0.072704144
-0.2734099 0.027355477 -0.021137033 -0.123886205 0.16922499 -0.040957075 0.016289182 0.07731364
-0.08251381 0.18587545 -0.07581698 -0.012912691 -0.09011446 0.025591977 0.18844786 -0.03021297
-0.027026376 -0.053705025 -0.08136206 0.075815536 0.09719346 0.22170211 -0.15537794 0.09064924
-0.023861708 0.07875847 0.03285099 -0.07569849 -0.04014114 0.053979483 -0.06484256 -0.04659946
-0.09647275 0.09245632 0.05774414 0.065142125 0.13268764 0.08809691 0.01794303 -0.070203036
-0.1743582 0.05408534 0.065031625 -0.04382121 -0.22415285 -0.005435232 -0.14005435 -0.029571941
-0.020219885 -0.04784641 0.003411272 -0.14291197 -0.06887745 -0.112438165 0.058797754 0.013461482
-0.15202276 0.05092714 -0.079502955 0.02773955 0.18030298 -0.060382184 -0.05488176 -0.049044035
-0.1360464 0.21106346 -0.16777518 0.00048199255 0.060299832 -0.043002743 -0.12690197 -0.029612703
0.15609741 -0.047945615 -0.013275368 0.035508517 -0.03719522 -0.19009279 -0.07890565 -0.10397931
-0.015757103 0.16387306 -0.00018482581 0.10599008 0.060365144 0.10451397 -0.08872076 0.033813387
00000000: 674f fa3d 8989 c23d 35a1 41bd f28e 7abd
00000010: 0bd1 e3bc 3646 893c d8d5 9a3d 5445 983d
00000020: 8c98 0abd f684 91bc d304 2f3e 6318 d0bd
00000030: 9210 723d 1ea7 913d 0882 93bc d5b4 013d
00000040: 09cd 9ebd 5fc1 913d f2fb 2abe 7a38 793d
00000050: 1a4d 26be c3dd 373e 840b a53d 5851 dfbd
00000060: 715e e03d 74b9 563d 931c 23bd 893c 733d
00000070: 2803 8bbe 1723 b4bd c4fc 49be 5202 96bd
00000080: ce93 e2bc 8511 233e e25e c8bd 9ab1 e6bd
00000090: 510c 09be f029 1e3d f66f d53d ed76 18be
000000a0: 419d 353d 2fe1 e63d 1e78 a3bd 859c a73d
000000b0: 07d6 263e 101e 9bbd b659 673d 360b 913d
000000c0: b7b5 263d da63 c7bd 0d20 d03d 4aec 973d
000000d0: c406 9b3d 5b47 153d e248 74bd 2e47 1bbe
000000e0: 95f9 463d 04ca 14be aa98 8cbd b287 1bbc
000000f0: 3b70 923d 458f 933d 1ce4 57bd 8bb1 c9bd
00000100: f039 0fbe 07e7 073d 4922 9a3d 5997 2ebe
00000110: 1a4e d63b 3edd ddbc 28a5 a9bd 7add b73d
00000120: dacd 10bd 5594 acbd 968a acbd 5ee6 8a3d
00000130: 9738 163e 8c0c 673d aea8 bfbd 0e0f 4d3e
00000140: 93de f6bc 484d fdbc c01c 533d 9a87 77bd
00000150: 10ea 14be 1948 89bd a088 68bc ad2d 903d
00000160: 544f 063c 76ef 83bc 4a3d aabc bff6 41bd
00000170: 7ecd 91b7 2a9e febc eba3 41bb c584 09be
00000180: 9231 923d edfc 8cbd a744 593e 51e7 6d3d
00000190: c1d8 193d 162c 29bd 35d3 16be e4ca a2bd
000001a0: da04 0d3e 8d7a c73d 4742 6bbe b22b 163d
000001b0: 2bf7 1e3e b48d 25bc d092 003e f767 3b3e
000001c0: 5c38 55be c2e5 023e 4910 fcbd 9b08 a8bd
000001d0: bead 153e f875 92bd f449 a23d 1a4a 47ba
000001e0: 2f28 b93a a4f1 fe3d 69e1 653e 4840 113e
000001f0: 3eb1 adbd de29 0fba 7a71 cb3d 31fb d73d
00000200: 4578 fa3c e297 ed3d 65a9 83bc 4391 9c3d
00000210: 2fc6 dc3d 0489 b0bb 183b 4ebd ee4d 223d
00000220: ae70 d33b 4272 2a3d 868d bf3c 283b 06bd
00000230: 4310 50bc bd00 c93d 27b9 4fbd 8b4a f0bc
00000240: 0b47 953d 9bbf 8ebe 9ca6 3d3c cab2 8b3e
00000250: fbc9 cbbd df7e 7d3e ba6d 29bd 07f6 1f39
00000260: 221b 81bd 52b6 523d cbe8 483d 6497 dd3d
00000270: d8ab 29bd ace4 263c 932f bf3d 2c28 8bbd
00000280: b11e 793e ebac cabd 4999 e63d 208c d0bd
00000290: bd03 c93d d352 1f3d 482a 76be e9e5 94bd
000002a0: 62fc 8bbe 9818 e03c 9227 adbc 0db8 fdbd
000002b0: 5149 2d3e 9bc2 27bd e470 853c 9d56 9e3d
000002c0: 00fd a8bd 2256 3e3e ef45 9bbd c08f 53bc
000002d0: ee8d b8bd 44a6 d13c 7af8 403e 3181 f7bc
000002e0: 6b66 ddbc cdf9 5bbd 27a1 a6bd 2d45 9b3d
000002f0: 5d0d c73d e105 633e 651b 1fbe 4fa6 b93d
00000300: a179 c3bc 1f4c a13d c28e 063d cf07 9bbd
00000310: 096b 24bd 9719 5d3d 2dcc 84bd 13df 3ebd
00000320: 8193 c5bd bd59 bd3d 1f85 6c3d 3c69 853d
00000330: 45df 073e 276c b43d 43fd 923c 9cc6 8fbd
00000340: f58a 32be 9788 5d3d 4d2f 853d de7d 33bd
00000350: 5388 65be 081a b2bb 686a 0fbe db40 f2bc
00000360: 2ca4 a5bc 99fa 43bd a68f 5f3b 8457 12be
00000370: 9f0f 8dbd fb45 e6bd ead5 703d 8c8d 5c3c
00000380: dbab 1bbe fa98 503d 72d2 a2bd 0e3e e33c
00000390: 58a1 383e 4f53 77bd b2cb 60bd 66e2 48bd
000003a0: bf4f 0bbe 0521 583e 42cd 2bbe f2b3 fc39
000003b0: f5fc 763d a523 30bd 97f2 01be 5796 f2bc
000003c0: 00d8 1f3e 9f62 44bd ee80 59bc 6171 113d
000003d0: 045a 18bd afa7 42be 4999 a1bd 1bf3 d4bd
000003e0: 0a15 81bc 57ce 273e cdcd 41b9 5411 d93d
000003f0: 7141 773d 6c0b d63d 3bb3 b5bd e87f 0a3d

enc_un.h_layer.0.bias f4 [100]
-0.06150092 0.0062943036 0.07532778 0.13530931 0.07112173 -0.03920124 0.013088927 -0.05632554
-0.03775781 -0.07470559 -0.060826793 -0.116577685 -0.11368052 0.070851885 0.068359144 0.03557043
-0.053441204 0.03897003 0.098158 -0.0437468 0.10603491 0.087611765 -0.003017799 0.117757894
-0.010726469 -0.014059322 0.12446688 0.014840214 0.113685384 0.022942271 -0.111521706 0.04556016
0.03239327 0.08926179 0.014457189 0.084146656 -0.10499746 0.03458368 0.12196321 -0.04711899
0.124303535 0.071795136 0.08595122 0.06432418 -0.04832437 -0.005928731 0.026684105 -0.08847785
-0.08207312 0.0974009 -0.11226869 -0.08116452 0.024428936 0.04344058 -0.028904302 0.018430037
0.097777255 -0.10480692 0.020828217 -0.04990779 -0.06691432 -0.12426129 -0.012915946 0.04679423
-0.07769672 -0.034835406 0.041773234 0.101421624 -0.05016048 0.10198645 0.0855697 0.061339494
-0.033772483 -0.055662192 -0.06747682 -0.039394528 -0.030385094 0.027161783 0.030184792 0.08979845
-0.05489012 -0.10677831 0.024579454 0.0647192 0.116422206 0.0058069844 0.12107219 -0.06216928
-0.05246574 -0.0011955056 -0.0790501 0.003990622 -0.07123747 -0.06065639 -0.0661391 -0.029684458
-0.12284435 -0.09928681 -0.06011485 -0.11558548
00000000: 64e8 7bbd 7240 ce3b 7345 9a3d 868e 0a3e
00000010: 45a8 913d 7b91 20bd f072 563c 9cb5 66bd
00000020: efa7 1abd 3fff 98bd 8425 79bd 48c0 eebd
00000030: 55d1 e8bd cb1a 913d e1ff 8b3d 4db2 113d
00000040: 2ae5 5abd 0a9f 1f3d 1007 c93d d82f 33bd
00000050: d528 d93d cc6d b33d 44c6 45bb 0d2b f13d
00000060: 12be 2fbc 1259 66bc 7ee8 fe3d 5e24 733c
00000070: e2d3 e83d 6ef1 bb3c 7e65 e4bd 4a9d 3a3d
00000080: ceae 043d e3ce b63d d8dd 6c3c 1555 ac3d
00000090: e908 d7bd 9ea7 0d3d d9c7 f93d d8ff 40bd
000000a0: da92 fe3d 5409 933d 3107 b03d 65bc 833d
000000b0: c6ef 45bd cd45 c2bb a098 da3c e033 b5bd
000000c0: f415 a8bd 207a c73d 20ed e5bd 9539 a6bd
000000d0: 311f c83c c0ee 313d b7c8 ecbc 97fa 963c
000000e0: 713f c83d 03a5 d6bd f09f aa3c 1c6c 4cbd
000000f0: 600a 89bd b47c febd 679d 53bc 4eab 3f3d
00000100: 751f 9fbd 92af 0ebd 691a 2b3d 24b6 cf3d
00000110: 1375 4dbd 46de d03d 2b3f af3d 1f3f 7b3d
00000120: 0455 0abd 0afe 63bd 4931 8abd 285c 21bd
00000130: 29ea f8bc 6382 de3c 1946 f73c 40e8 b73d
00000140: 76d4 60bd 96ae dabd da5a c93c 808b 843d
00000150: c46e ee3d 8448 be3b b2f4 f73d 37a5 7ebd
00000160: 51e6 56bd 83b2 9cba 05e5 a1bd c3c3 823b
00000170: f3e4 91bd d672 78bd f073 87bd d22c f3bc
00000180: d295 fbbd e256 cbbd fd3a 76bd 15b8 ecbd

enc_un.h_layer.2.weight f4 [100, 100]
-0.20869747 -0.0011357557 -0.11905736 0.12319106 -0.0931349 -0.011715474 0.03751855 -0.04219164
-0.0056870044 -0.017197419 0.100133866 0.100842044 -0.093920775 -0.08329741 -0.06667059 -0.07998084
0.050107103 -0.22181414 0.028760279 -0.034584064 0.10473656 -0.05427256 -0.09235948 -0.13185051
0.03667355 -0.02033442 -0.14183287 -0.04125468 0.17786904 -0.20555346 0.05786207 0.2503389
0.11738377 -0.08398186 -0.02163468 0.06547211 0.034712125 -0.07441233 -0.043068524 0.08486434
0.03808181 -0.060206838 -0.044387117 0.2430264 -0.018080877 0.057712376 0.05814725 0.066492364
-0.12020464 0.05722377 -0.042159762 -0.06475546 -0.014120351 0.14651683 -0.19057155 -0.03541517
-0.1371105 0.11921241 0.22895494 -0.0009323707 -0.011702726 0.071921736 -0.011517016 0.13487251
-0.09671907 0.040361375 -0.0752029 -0.0731227 0.17343257 -0.09322572 0.072780445 0.035294387
-0.13889688 0.08404558 -0.15949963 0.02699156 -0.030983873 -0.07127102 0.007920253 -0.062104195
-0.16505238 -0.009287771 0.025999228 -0.13113546 -0.16685355 -0.1081054 -0.060392514 0.259288
0.060371492 -0.09258821 -0.026933564 -0.037085347 0.042511713 0.060299546 -0.14716275 0.10898381
-0.01535781 0.15477945 -0.11007627 0.034903865 -0.039485905 0.01106493 0.15008408 0.059524983
0.07518577 0.09934641 -0.22017989 -0.02241861 -0.032267038 -0.16097309 0.025270028 -0.10399328
0.08270476 0.28896603 -0.060369913 0.07174255 -0.1380413 0.17265193 -0.14910892 0.08684583
0.116821826 0.055558328 0.009451997 0.0704622 -0.15286267 0.2664971 0.09883653 0.012258263
0.033536468 -0.04960484 -0.04294481 -0.061423022 0.081613615 0.04049328 -0.008130283 0.041398313
-0.091163 -0.029486712 0.00052013627 -0.006389798 -0.09435978 0.05674029 0.040349912 -0.05014398
-0.15892401 0.059770785 0.06895866 -0.046591707 0.090065874 -0.13524082 0.05556243 0.0342276
0.19546361 0.11333737 0.04233564 0.029658414 0.03442487 0.20810941 -0.033733875 0.01108954
-0.17918503 -0.1018834 -0.17545085 0.0039322674 0.041792013 0.09258271 0.20821628 0.117497735
-0.19993591 -0.05680573 0.07111845 0.0029936635 -0.06347528 0.0022038792 0.113082536 -0.06214945
-0.04545744 0.030010004 -0.07316409 0.13837858 0.051592477 -0.18779272 0.16981813 0.16572802
0.02921758 0.19149673 0.014084033 -0.12640755 0.039892226 0.006111036 -0.09825658 0.03769619
0.003497364 -0.055120658 0.015929563 0.13848348 -0.2019166 -0.07294359 0.14431678 0.06039539
-0.14874011 0.13991785 -0.038900364 -0.009915031 -0.0042474526 -0.14206831 -0.057320416 0.042059164
-0.19886546 -0.00064763764 0.07945225 0.00033553745 -0.19140841 0.083127275 0.06254784 0.013381294
-0.06262535 0.027412063 0.084378995 0.014623575 0.08286653 0.13860537 0.038444906 0.019108957
-0.05371238 0.0049348823 -0.046029314 0.056908097 -0.0026197773 -0.040585168 -0.048888665 -0.13064657
0.2071339 0.16172442 -0.039862104 -0.027216982 -0.023687724 0.07630556 0.10212904 -0.06838335
-0.00460397 -0.06326543 -0.0028171379 -0.052079014 -0.11661789 -0.084127605 -0.084397525 0.04223726
-0.0371645 -0.04000174 -0.074572876 0.07701667 0.122925736 0.15000334 0.12949921 -0.19439788
00000000: cab4 55be a3dd 94ba 58d4 f3bd 984b fc3d
00000010: 83bd bebd 42f2 3fbc 0dad 193d 24d1 2cbd
00000020: 0d5a babb 9ae1 8cbc fc12 cd3d 4686 ce3d
00000030: 8959 c0bd d597 aabd 978a 88bd ffcc a3bd
00000040: 1b3d 4d3d 3f23 63be ad9a eb3c 05a8 0dbd
00000050: 1f80 d63d e74c 5ebd f826 bdbd d203 07be
00000060: 0137 163d 5f94 a6bc a33c 11be abfa 28bd
00000070: 4d23 363e 9b7c 52be c700 6d3d 6c2c 803e
00000080: e766 f03d aefe abbd 363b b1bc 3e16 863d
00000090: 4d2e 0e3d 7e65 98bd 9f68 30bd 5bcd ad3d
000000a0: acfb 1b3d 729b 76bd 44cf 35bd eadb 783e
000000b0: 591e 94bc d063 6c3d d02b 6e3d 262d 883d
000000c0: da2d f6bd 7963 6a3d b7af 2cbd 839e 84bd
000000d0: 0b59 67bc 8208 163e 3025 43be 7f0f 11bd
000000e0: b266 0cbe a325 f43d 2a73 6a3e 576a 74ba
000000f0: cabc 3fbc b44b 933d deb1 3cbc 051c 0a3e
00000100: a614 c6bd f851 253d fa03 9abd 5bc1 95bd
00000110: 4f98 313e 20ed bebd ea0d 953d d990 103d
00000120: fc3a 0ebe 1720 ac3d df53 23be 671d dd3c
00000130: e4d1 fdbc 8af6 91bd f3c3 013c f860 7ebd
00000140: 7e03 29be bc2b 18bc 55fc d43c 6048 06be
00000150: a8db 2abe 5d66 ddbd 245e 77bd 66c1 843e
00000160: 1948 773d e39e bdbd c7a3 dcbc cee6 17bd
00000170: c320 2e3d a8fc 763d d5b1 16be e732 df3d
00000180: 539f 7bbc 817e 1e3e ab6f e1bd 5bf7 0e3d
00000190: f9bb 21bd ae49 353c a4af 193e 78d0 733d
000001a0: fffa 993d 2176 cb3d d676 61be 3ca7 b7bc
000001b0: 712a 04bd 21d6 24be 1703 cf3c 6efa d4bd
000001c0: 1d61 a93d 5bf3 933e 7146 77bd c2ed 923d
000001d0: b35a 0dbe abcb 303e 02b0 18be 3adc b13d
000001e0: 4840 ef3d 2191 633d 8cdc 1a3c 7c4e 903d
000001f0: 0888 1cbe 4f72 883e cf6a ca3d e2d6 483c
00000200: 895d 093d 722e 4bbd e6e6 2fbd b596 7bbd
00000210: 0a25 a73d 48dc 253d e134 05bc 4791 293d
00000220: abb3 babd 1e8e f1bc c159 083a 8361 d1bb
00000230: b33f c1bd 8268 683d f345 253d c663 4dbd
00000240: fabc 22be 36d2 743d 333a 8d3d f2d6 3ebd
00000250: 7574 b83d 927c 0abe 6e95 633d 3d32 0c3d
00000260: 9d27 483e 6c1d e83d 2368 2d3d 34f6 f23c
00000270: 1801 0d3d a21a 553e 882c 0abd e7b0 353c
00000280: 487c 37be 3ea8 d0bd 63a9 33be 40da 803b
00000290: 1a2e 2b3d 019c bd3d a636 553e a7a2 f03d
000002a0: 00bc 4cbe 20ad 68bd 8da6 913d 5731 443b
000002b0: 54ff 81bd f56e 103b d197 e73d 6c90 7ebd
000002c0: 9531 3abd 8ad7 f53c 0ed7 95bd 1db3 0d3e
000002d0: a252 533d bc4c 40be cee4 2d3e 9bb4 293e
000002e0: b559 ef3c b817 443e b7c0 663c fb70 01be
000002f0: 0866 233d 163f c83b bf3a c9bd 5267 1a3d
00000300: 0834 653b 33c6 61bd b77e 823c 9dce 0d3e
00000310: 3ac3 4ebe 7363 95bd c7c7 133e 2861 773d
00000320: 544f 18be a046 0f3e fd55 1fbd a772 22bc
00000330: 372e 8bbb 5b7a 11be d0c8 6abd 3b46 2c3d
00000340: 63a3 4bbe 3ac6 29ba dcb7 a23d 13eb af39
00000350: 9100 44be a23e aa3d 1519 803d 373d 5b3c
00000360: b841 80bd 438f e03c e5ce ac3d b897 6f3c
00000370: edb5 a93d 91ee 0d3e 6878 1d3d 638a 9c3c
00000380: 8301 5cbd cbb4 a13b 3c89 3cbd 7718 693d
00000390: 92b0 2bbb a23c 26bd 7b3f 48bd 37c8 05be
000003a0: e91a 543e 169b 253e 7246 23bd 26f6 debc
000003b0: c20c c2bc 1746 9c3d 0829 d13d 920c 8cbd
000003c0: e6dc 96bb 4e91 81bd bb9f 38bb ce50 55bd
000003d0: 5cd5 eebd 184b acbd 9cd8 acbd fa00 2d3d
000003e0: ce39 18bd ddd8 23bd aab9 98bd eaba 9d3d
000003f0: 7dc0 fb3d 7a9a 193e 719b 043e 3d10 47be

enc_un.h_layer.2.bias f4 [100]
-0.036892243 -0.059705637 -0.051694475 -0.047134284 -0.07003913 0.108418085 -0.013127887 0.004907167
0.104629 -0.058057968 0.007394026 -0.061567232 0.08681514 -0.07426435 0.09121584 -0.006080014
-0.07030174 0.019905042 -0.039010473 -0.05212571 0.041765377 0.09355646 0.035668634 -0.025726227
-0.035129827 0.03130317 -0.120313466 -0.077418685 -0.11686921 0.11911466 0.026487121 -0.07383206
-0.059145264 0.024017192 0.061756343 0.0058622183 0.06332153 0.025955768 -0.05139271 0.049609847
0.09096923 0.0027319575 0.05764069 -0.12384537 -0.114106216 -0.058518466 0.012258171 -0.027850458
0.033650745 0.032902233 0.07120637 -0.10573536 0.112711735 -0.10660772 -0.06324882 -0.016775662
0.04342732 -0.045673575 -0.11674779 -0.0403119 -0.056926113 0.12561846 0.0096161375 0.09072681
-0.05758997 0.0896467 -0.030998562 0.05701414 0.07695012 0.112895265 0.05312586 0.027068019
0.108641446 0.102911696 -0.101075985 -0.0255656 0.082410306 -0.046698727 -0.010066849 -0.02827688
0.091815 -0.09456946 0.045539845 0.03993621 0.028467877 -0.08298202 0.021697849 0.0534014
-0.012100822 0.04435101 0.030749673 -0.021351406 0.09231903 -0.073217735 0.0006329049 0.011848489
0.11581582 0.07224966 -0.10593496 -0.041953444
00000000: 521c 17bd e68d 74bd 96bd 53bd e10f 41bd
00000010: ad70 8fbd 4d0a de3d 5916 57bc 4dcc a03b
00000020: bb47 d63d 31ce 6dbd 9649 f23b ec2d 7cbd
00000030: 23cc b13d e817 98bd 5fcf ba3d db3a c7bb
00000040: 5cfa 8fbd e60f a33c 72c9 1fbd c581 55bd
00000050: 2c12 2b3d 889a bf3d 4619 123d cfbf d2bc
00000060: 4be4 0fbd c137 003d e866 f6bd b08d 9ebd
00000070: 2059 efbd 63f2 f33d 85fb d83c 4335 97bd
00000080: 4e42 72bd b4bf c43c 38f4 7c3d da17 c03b
00000090: b8ae 813d 31a1 d43c 2a81 52bd b233 4b3d
000000a0: 134e ba3d a40a 333b a518 6c3d a4a2 fdbd
000000b0: 85b0 e9bd 0fb1 6fbd 7fd6 483c a526 e4bc
000000c0: 5dd5 093d 7ec4 063d a5d4 913d c88b d8bd
000000d0: 69d5 e63d 2655 dabd 9988 81bd 1d6d 89bc
000000e0: d8e0 313d 3714 3bbd 7719 efbd 171e 25bd
000000f0: 5b2b 69bd 20a2 003e 018d 1d3c face b93d
00000100: 76e3 6bbd b098 b73d b2f0 fdbc a987 693d
00000110: 0698 9d3d a235 e73d 809a 593d c0bd dd3c
00000120: 687f de3d 5ec3 d23d ed00 cfbd f36e d1bc
00000130: bcc6 a83d 2a47 3fbd 6def 24bc eaa4 e7bc
00000140: 8109 bc3d a2ad c1bd fd87 3a3d 2794 233d
00000150: 7735 e93c 7af2 a9bd b0bf b13c 6dbb 5a3d
00000160: 8742 46bc 68a9 353d bde6 fb3c 25e9 aebc
00000170: c211 bd3d 2ef3 95bd 87e9 253a 2a20 423c
00000180: d830 ed3d a1f7 933d 6ef4 d8bd 60d7 2bbd

enc_un.h_layer.4.weight f4 [100, 100]
-0.040817544 0.09905053 0.085663706 -0.05183088 -0.0074459356 -0.031882726 -0.064358145 -0.13794747
0.23075077 -0.1474874 -0.15008765 0.18110462 0.0034616096 -0.078011654 0.08507904 -0.12903443
0.04787962 -0.048436057 0.02702757 -0.1076602 -0.045460306 0.090986565 -0.13577612 0.12909561
-0.018394371 4.381016e-05 -0.12499483 0.077632375 -0.15494817 0.33012694 -0.053026672 -0.100298926
-0.102476746 -0.15265024 0.015118386 -0.14385912 -0.10022186 0.090450704 0.022051394 -0.096130185
0.15393712 -0.06549436 0.047940683 -0.13582563 0.009055581 -0.020285632 0.068262756 0.11849089
0.088894084 0.10103724 -0.09903128 0.031141363 0.0036279566 -0.08845096 -0.028381955 -0.047376443
-0.014521945 0.01621852 0.034328498 0.15446812 0.089196876 -0.033253536 0.028800946 0.052209407
-0.075171545 0.13580309 0.10822207 0.08389845 0.1101989 0.023564102 -0.12131556 0.002292092
0.032165464 0.20321228 -0.055166632 -0.07301899 -0.0122031765 -0.14947334 -0.019799957 -0.0128415795
0.13545927 -0.088585146 -0.07838725 -0.012383713 0.119399145 -0.10063421 0.046573494 -0.060694795
0.041134387 0.09590331 0.26740837 -0.031314842 0.03082218 -0.055901542 -0.14545971 0.05621671
-0.0270595 0.22951405 -0.1660573 -0.0028913727 -0.033105925 -0.05620838 -0.1294155 0.068255045
0.034666628 -0.24209945 0.11155657 -0.03410912 -0.10240621 0.10480103 -0.19317815 0.062185217
-0.12639752 -0.22472079 -0.12351957 -0.024598718 -0.06299397 -0.09028652 -0.051143583 0.12571016
-0.012601291 0.051423557 0.059816077 0.045681942 0.048249573 -0.025949579 0.13693279 -0.21249154
-0.098571785 -0.06547695 0.097152404 0.029371904 -0.037282653 0.012773575 -0.010755962 -0.0050110184
-0.04046516 -0.07117325 -0.19976354 0.018414507 0.06933084 0.13907245 -0.112871155 -0.10034276
-0.054883357 0.021927185 0.013700301 -0.13129134 -0.06970835 -0.09359335 -0.08769277 0.12979096
-0.06924106 0.03154176 0.11659149 0.12528317 0.006865462 0.09237255 0.14861277 -0.050401956
-0.051410176 -0.116800345 0.15101609 0.05060312 -0.15644255 -0.056853816 0.19780537 0.071405105
0.027070548 -0.07070752 -0.019585455 0.06711847 0.040371448 -0.011395744 -0.07333052 0.042367414
0.10032474 0.10730927 0.027739007 0.03132723 -0.049683217 0.006673868 -0.07493483 0.01555314
0.04384688 0.021713639 -0.008971862 -0.057180997 -0.100228466 -0.06846522 0.018883366 -0.30767366
-0.04955346 0.008486175 -0.08279092 0.13991705 -0.09611486 -0.031102959 0.08011865 0.030661143
0.11941152 0.06546394 -0.027245564 -0.05477067 0.050027933 0.0080250045 -0.09074686 0.05538147
-0.046412565 0.210012 0.027576543 -0.15094523 -0.08669888 -0.13417378 -0.06825486 0.1861081
0.08336644 -0.11085141 0.08443736 -0.058747552 0.23537056 0.017467285 0.22441947 -0.072583534
0.057139054 -0.10646256 0.14883372 0.2229476 0.031976063 0.073229484 -0.026708186 -0.042722087
-0.19361365 -0.05611327 0.26729193 0.012973751 -0.023549467 -0.1367392 -0.056125104 -0.0038196107
-0.08828193 0.020607185 0.16906783 0.08550608 0.061361946 0.056054335 0.03899961 0.013979298
-0.03988421 0.049964536 -0.111306906 -0.030490123 -0.08610375 -0.04717121 -0.15424727 0.11486924
00000000: 4c30 27bd 01db ca3d 7470 af3d 9e4c 54bd
00000010: 09fd f3bb 7697 02bd 34ce 83bd 1a42 0dbe
00000020: ee49 6c3e f006 17be 94b0 19be 7d73 393e
00000030: 2cdc 623b 93c4 9fbd eb3d ae3d 9a21 04be
00000040: 6c1d 443d e364 46bd ec68 dd3c f37c dcbd
00000050: 9634 3abd 2a57 ba3d e508 0bbe a431 043e
00000060: cbaf 96bc cdc0 3738 4afd ffbd b9fd 9e3d
00000070: bcaa 1ebe 6606 a93e 7f32 59bd 8669 cdbd
00000080: 54df d1bd 5850 1cbe 1bb3 773c ce4f 13be
00000090: 1e41 cdbd 383e b93d 20a5 b43c e7df c4bd
000000a0: b1a1 1d3e e821 86bd 735d 443d e015 0bbe
000000b0: dc5d 143c 0e2e a6bc 58cd 8b3d 5aab f23d
000000c0: 1a0e b63d 9dec ce3d e9d0 cabd 2c1c ff3c
000000d0: 03c3 6d3b c725 b5bd 4681 e8bc cd0d 42bd
000000e0: 74ed 6dbc b4dc 843c 0a9c 0c3d e42c 1e3e
000000f0: daac b63d dc34 08bd f6ef eb3c 88d9 553d
00000100: 8af3 99bd f70f 0b3e 88a3 dd3d f3d2 ab3d
00000110: f6af e13d 8109 c13c 4b74 f8bd ec36 163b
00000120: efbf 033d e116 503e 68f6 61bd fb8a 95bd
00000130: d5ef 47bc 8a0f 19be 8533 a2bc 7d65 52bc
00000140: d6b5 0a3e 216c b5bd 7f89 a0bd 0fe5 4abc
00000150: 8a87 f43d 4f19 cebd d9c3 3e3d 1b9b 78bd
00000160: 887c 283d f468 c43d c0e9 883e fe43 00bd
00000170: cc7e fc3c 04f9 64bd 64f3 14be 7e43 663d
00000180: e2ab ddbc bb05 6b3e ed0a 2abe 2f7d 3dbb
00000190: 149a 07bd c23a 66bd 7f85 04be 4dc9 8b3d
000001a0: 98fe 0d3d ebe8 77be c577 e43d 01b6 0bbd
000001b0: 59ba d1bd eca1 d63d 7ed0 45be edb5 7e3d
000001c0: 5a6e 01be 351d 66be d4f7 fcbd 4083 c9bc
000001d0: fc02 81bd 24e8 b8bd ef7b 51bd 2aba 003e
000001e0: a575 4ebc 82a1 523d b401 753d fd1c 3b3d
000001f0: 58a1 453d 3694 d4bc 1c38 0c3e 6297 59be
00000200: 01e0 c9bd c718 86bd d7f7 c63d 599d f03c
00000210: b2b5 18bd 4248 513c c639 30bc 7833 a4bb
00000220: ccbe 25bd 48c3 91bd d08e 4cbe 05da 963c
00000230: 54fd 8d3d 0269 0e3e fe28 e7bd 8180 cdbd
00000240: 5fcd 60bd a4a0 b33c 3a77 603c 3d71 06be
00000250: 40c3 8ebd dfad bfbd 4498 b3bd ece7 043e
00000260: 42ce 8dbd ef31 013d 85c7 ee3d 3b4a 003e
00000270: abf7 e03b d22d bd3d f22d 183e 4872 4ebd
00000280: 7a93 52bd 0535 efbd f6a3 1a3e 3845 4f3d
00000290: 7a32 20be 8cdf 68bd 7e8d 4a3e d73c 923d
000002a0: 0ec3 dd3c 1bcf 90bd ad71 a0bc 6975 893d
000002b0: 885c 253d 37b5 3abc 502e 96bd 7489 2d3d
000002c0: 0f77 cd3d f6c4 db3d ea3c e33c fb50 003d
000002d0: a180 4bbd 76b0 da3b 6f77 99bd 99d2 7e3c
000002e0: c998 333d cde0 b13c b7fe 12bc 9f36 6abd
000002f0: 9544 cdbd 7e37 8cbd 4ab1 9a3c 6787 9dbe
00000300: 92f8 4abd 9909 0b3c 498e a9bd 6a46 0f3e
00000310: ded7 c4bd a2cb febc 3f15 a43d 142d fb3c
00000320: 078e f43d f511 863d 1732 dfbc 3657 60bd
00000330: 17ea 4c3d 4f7b 033c 7dd9 b9bd aed7 623d
00000340: 1a1b 3ebd 630d 573e 34e8 e13c 6391 1abe
00000350: 2f8f b1bd da64 09be 34c9 8bbd 1f93 3e3e
00000360: 06bc aa3d 1006 e3bd 7fed ac3d 46a1 70bd
00000370: fb04 713e 8d17 8f3c 38ce 653e ada6 94bd
00000380: a40a 6a3d 0b09 dabd de67 183e 604c 643e
00000390: 55f9 023d 57f9 953d 20cb dabc 5bfd 2ebd
000003a0: a842 46be 07d7 65bd 7dda 883e db8f 543c
000003b0: d0ea c0bc 5c05 0cbe 70e3 65bd 6f52 7abb
000003c0: 28cd b4bd 66d0 a83c 1e20 2d3e d01d af3d
000003d0: aa56 7b3d 3b99 653d 0ebe 1f3d 6d09 653c
000003e0: a05d 23bd 9da7 4c3d e0f4 e3bd 6cc6 f9bc
000003f0: 2a57 b0bd 9936 41bd fff2 1dbe 9040 eb3d

enc_un.h_layer.4.bias f4 [100]
0.026775165 0.009546746 -0.0357489 -0.08201382 -0.02664644 -0.04819692 -0.0756003 -0.009121384
-0.049654648 -0.011609932 -0.031316873 0.06677452 0.021496309 0.090829425 -0.01824618 0.007973426
0.05690931 0.07783935 -0.048775062 0.09007421 -0.025502903 0.07188235 -0.07162721 -0.045522567
0.06848136 0.009910581 -0.053902943 0.07155816 0.119162075 -0.053356625 -0.059587672 0.05255365
0.059283085 0.071802005 0.06392113 -0.0744616 0.08386439 0.0279273 -0.02850464 0.06509412
-0.069151245 -0.04556426 0.032916345 -0.049715497 0.055333268 0.054260742 0.046169963 0.033543505
-0.06888789 0.0675991 -0.02652648 -0.026926987 -0.030350318 -0.022809872 0.011698913 -0.051588364
-0.07724057 -0.030911308 0.063585155 0.03308965 0.053327996 -0.014199054 -0.06494793 -0.10410733
0.03687728 0.05861913 0.11390008 -0.08034577 -0.016329002 -0.047448583 0.087547936 -0.07827076
-0.027347906 0.047423642 -0.07855782 0.07844011 -0.002456346 -0.0071333963 0.011023093 -0.08702798
-0.07284761 0.069129094 -0.068126276 0.003411382 0.0050745187 0.10973066 0.10141788 0.06734708
-0.035950184 0.095714346 -0.04697549 -0.09257047 -0.0021979243 0.05633729 0.07496613 0.0042145257
-0.04664194 -0.017562361 -0.0039840187 0.11516416
00000000: 9757 db3c f469 1c3c 706d 12bd ddf6 a7bd
00000010: a349 dabc 226a 45bd 55d4 9abd db71 15bc
00000020: ac62 4bbd 9637 3ebc 1f46 00bd 14c1 883d
00000030: 0719 b03c c704 ba3d 0379 95bc f9a2 023c
00000040: bd19 693d 3d6a 9f3d 5cc8 47bd d478 b83d
00000050: 77eb d0bc 0e37 933d 49b1 92bd df75 3abd
00000060: f53f 8c3d fd5f 223c 55c9 5cbd 168d 923d
00000070: 3f0b f43d 7a8c 5abd 3412 74bd 7f42 573d
00000080: d2d2 723d ee0c 933d 15e9 823d 537f 98bd
00000090: 18c1 ab3d cbc7 e43c 9082 e9bc 1150 853d
000000a0: 2b9f 8dbd 97a1 3abd 4ad3 063d 7aa2 4bbd
000000b0: 23a5 623d 8340 5e3d b71c 3d3d ea64 093d
000000c0: 1815 8dbd 6671 8a3d 104e d9bc fc95 dcbc
000000d0: 3ba1 f8bc c5db babc ccac 3f3c 524e 53bd
000000e0: 4e30 9ebd b639 fdbc ef38 823d 0389 073d
000000f0: 756e 5a3d 26a3 68bc 6c03 85bd 3936 d5bd
00000100: a10c 173d 9d1a 703d 7244 e93d 538c a4bd
00000110: 66c4 85bc 7259 42bd 554c b33d 6c4c a0bd
00000120: b708 e0bc 4b3f 423d ece2 a0bd 35a5 a03d
00000130: a6fa 20bb 44bf e9bb 349a 343c ba3b b2bd
00000140: 2131 95bd 8e93 8d3d ca85 8bbd 7e91 5f3b
00000150: 2648 a63b 78ba e03d 2db4 cf3d 44ed 893d
00000160: 8040 13bd e205 c43d 5f69 40bd 9695 bdbd
00000170: 0d0b 10bb eec1 663d d887 993d 011a 8a3b
00000180: 9e0b 3fbd f1de 8fbc 5f8c 82bb 30db eb3d

enc_un.mu_gen.weight f4 [3, 100]
-0.0073843305 -0.024922341 0.009954792 0.0561194 0.16237092 0.17129505 -0.083593555 0.11859962
0.1279844 -0.1140701 0.1286077 0.18658775 0.0108076995 -0.10275714 0.17991139 0.03186164
0.061078 0.08830409 -0.13012567 -0.17886618 0.14117196 -0.06280705 0.1674794 0.11436294
-0.09710849 0.019022284 0.0891053 -0.22791304 0.018776659 0.16958316 -0.21363567 0.27083373
-0.047561307 -0.081998385 -0.22494501 -0.0745731 -0.04665939 -0.086782634 0.14252345 0.144023
0.25388247 -0.25353557 0.022480413 -0.18334372 -0.068851635 0.08736232 -0.14021525 0.15013088
0.0633104 -0.088853166 -0.17400031 0.13425353 0.069109194 -0.05374982 -0.42386734 -0.013103756
0.09736708 0.16341567 0.1701904 0.09620756 0.17387955 0.3496895 -0.036078103 -0.06842167
-0.09826734 -0.35991442 0.12712656 -0.08877216 0.053966675 -0.07654199 0.08190225 -0.08146099
-0.01499368 -0.07168536 -0.028964788 0.14172815 -0.45540333 -0.20635259 0.08199027 -0.17387007
0.07080316 0.28698945 0.13989568 0.16341084 -0.049542148 -0.09460504 -0.11202758 -0.13070351
-0.14208114 0.13936834 -0.09818208 0.09820022 0.09470862 0.0072640944 0.2122491 0.16025814
-0.10915574 -0.04948433 0.14035775 0.2138033 -0.10205351 0.10252084 0.17499194 -0.12832206
0.20293382 -0.11364769 0.07692012 0.24175994 0.16992603 -0.2369128 -0.03477217 0.07963729
0.1571127 -0.041034468 -0.12141486 -0.017277513 0.04559538 0.19025274 0.03868836 -0.10959989
0.01593462 0.11946485 0.058333952 -0.028537903 -0.1501461 0.04288545 0.12471164 0.10884668
-0.07190268 -0.037743315 0.12878342 0.15999757 -0.34950548 0.34610042 0.16357782 -0.04245241
-0.23375696 0.008247628 -0.0808417 0.035249036 0.016373195 -0.13597885 0.032002572 0.04801159
0.017692793 0.0151731875 0.05425485 -0.123237245 -0.061065517 -0.009225175 -0.06715534 -0.09071607
-0.15547904 -0.07803171 0.073757336 -0.011584579 0.08250541 -0.02821831 0.047867253 0.3697582
0.05406914 0.060715128 -0.05454857 -0.06466356 -0.014128431 -0.028472973 -0.08721689 -0.012265058
-0.16579807 0.044326168 -0.017217005 0.15215419 -0.1404835 0.37070134 0.19009377 0.15211503
-0.015079112 -0.32410803 0.16052856 0.019327084 -0.024357567 -0.22673881 0.15145755 0.10664024
0.38646024 -0.048067927 0.1283172 -0.25185534 0.025385275 0.09752725 0.13323958 0.33312923
0.11338203 0.38322455 -0.07765787 0.008126047 0.07940329 0.15573053 0.026624383 -0.22972819
0.22050741 -0.008502293 0.07685383 -0.23253503 -0.019180115 0.019690791 0.46106604 -0.024418002
-0.10638561 -0.08334103 -0.15064663 0.18396117 0.23657455 -0.07112209 -0.072687596 -0.022527315
-0.051325258 0.041880224 -0.013166064 -0.015778271 -0.088911876 0.005183316 -0.024055531 -0.12895536
-0.18586846 -0.09867116 -0.23755169 -0.07699088 0.03517718 -0.09930158 -0.08540183 -0.2637546
-0.049653232 0.13960306 -0.013589839 0.072800905 -0.068725206 -0.23048855 0.23794845 0.0004915761
-0.05592457 -0.2309064 -0.06889391 0.016001523 -0.27774915 -0.22078718 -0.13486372 0.09593101
0.10294584 -0.025811069 -0.22289588 -0.08894458 0.25491482 0.055361733 -0.047566388 0.17340031
00000000: 41f8 f1bb f029 ccbc 6d19 233c 75dd 653d
00000010: 9044 263e f867 2f3e 1933 abbd 5ce4 f23d
00000020: 580e 033e 969d e9bd bdb1 033e dc10 3f3e
00000030: c712 313c 5672 d2bd b13a 383e 5a81 023d
00000040: ed2c 7a3d c6d8 b43d aa3f 05be b228 37be
00000050: 628f 103e fca0 80bd b87f 2b3e 1e37 ea3d
00000060: d1e0 c6bd 9fd4 9b3c d77c b63d 0962 69be
00000070: 82d1 993c 35a7 2d3e 4fc3 5abe b8aa 8a3e
00000080: a5cf 42bd c5ee a7bd fc57 66be c8b9 98bd
00000090: eb1d 3fbd 18bb b1bd abf1 113e c47a 133e
000000a0: e2fc 813e 6acf 81be d828 b83c 75be 3bbe
000000b0: 1602 8dbd 04eb b23d 9694 0fbe e9bb 193e
000000c0: e2a8 813d a6f8 b5bd 232d 32be c279 093e
000000d0: 1f89 8d3d c528 5cbd 2405 d9be 23b1 56bc
000000e0: 6468 c73d 7056 273e 6446 2e3e 7808 c53d
000000f0: 7b0d 323e 810a b33e a2c6 13bd a920 8cbd
00000100: 6340 c9bd b446 b8be 772d 023e 2ece b5bd
00000110: 290c 5d3d 0cc2 9cbd 5ebc a73d 05d5 a6bd
00000120: 0da8 75bc c6cf 92bd 9047 edbc 2f21 113e
00000130: a02a e9be 184e 53be 84ea a73d ff0a 32be
00000140: 3f01 913d 48f0 923e d040 0f3e 2c55 273e
00000150: b5ec 4abd 4ac0 c1bd b76e e5bd 24d7 05be
00000160: b87d 11be 93b6 0e3e b013 c9bd 321d c93d
00000170: 98f6 c13d a407 ee3b d457 593e b61a 243e
00000180: 0b8d dfbd 15b0 4abd f1b9 0f3e 41ef 5a3e
00000190: 6e01 d1bd 72f6 d13d 1631 333e dc66 03be
000001a0: e2cd 4f3e 1fc0 e8bd 4c88 9d3d eb8f 773e
000001b0: 1701 2e3e 4599 72be 436d 0ebd e018 a33d
000001c0: 27e2 203e c213 28bd 5ba8 f8bd 9289 8dbc
000001d0: 39c2 3a3d 9dd1 423e b077 1e3d e875 e0bd
000001e0: 5289 823c fda9 f43d 95ef 6e3d 52c8 e9bc
000001f0: e6bf 19be a7a8 2f3d d168 ff3d 02eb de3d
00000200: b641 93bd bc98 1abd cddf 033e 67d6 233e
00000210: 62f2 b2be 1334 b13e f280 273e 94e2 2dbd
00000220: fc5d 6fbe 0f21 073c 5590 a5bd 4b61 103d
00000230: 1421 863c 0a3e 0bbe 2115 033d cda7 443d
00000240: 7af0 903c f698 783c 553a 5e3d cf63 fcbd
00000250: d61f 7abd 3025 17bc bd88 89bd 59c9 b9bd
00000260: e635 1fbe 17cf 9fbd 160e 973d 3fcd 3dbc
00000270: 99f8 a83d 162a e7bc 7410 443d f250 bd3e
00000280: 9a77 5d3d 6db0 783d 526e 5fbd 546e 84bd
00000290: ef7a 67bc 2740 e9bc c59e b2bd 62f3 48bc
000002a0: f8c6 29be 5b8f 353d ad0a 8dbc 4fce 1b3e
000002b0: e8da 0fbe 91cc bd3e f1a7 423e 0bc4 1b3e
000002c0: 610e 77bc 7df1 a5be 9961 243e d553 9e3c
000002d0: 8589 c7bc 382e 68be b017 1b3e 3366 da3d
000002e0: 1ede c53e e0e2 44bd 9665 033e 2ff3 80be
000002f0: c8f4 cf3c 5ebc c73d f56f 083e ea8f aa3e
00000300: d634 e83d 0236 c43e 170b 9fbd 1d23 053c
00000310: 319e a23d d377 1f3e 611b da3c de3d 6bbe
00000320: b2cc 613e 344d 0bbc 8a65 9d3d aa1d 6ebe
00000330: 9e1f 9dbc 954e a13c d910 ec3e 4308 c8bc
00000340: b3e0 d9bd b4ae aabd 1c43 1abe 5160 3c3e
00000350: 9940 723e 75a8 91bd 3cdd 94bd 348b b8bc
00000360: 6f3a 52bd 998a 2b3d 7ab6 57bc 6f41 81bc
00000370: 6e17 b6bd ced8 a93b 1b10 c5bc e00c 04be
00000380: 4d54 3ebe 1b14 cabd c040 73be 65ad 9dbd
00000390: f215 103d a05e cbbd 28e7 aebd d80a 87be
000003a0: 3061 4bbd 1bf4 0e3e eba7 5ebc a418 953d
000003b0: cdbf 8cbd 3105 6cbe c2a8 733e 1ddd 003a
000003c0: 2911 65bd ba72 6cbe 4018 8dbd a015 833c
000003d0: 2335 8ebe 0916 62be b719 0abe 7a77 c43d
000003e0: 45d5 d23d bc71 d3bc d13e 64be 9328 b6bd
000003f0: 3284 823e fcc2 623d f9d4 42bd da8f 313e

enc_un.mu_gen.bias f4 [3]
0.07826851 -0.013353134 0.102729194
00000000: 3e4b a03d 1ac7 5abc af63 d23d

enc_un.logvar_gen.weight f4 [3, 100]
0.031627085 0.08007382 -0.07246122 -0.107723296 0.09439759 -0.35927355 -0.16481325 -0.3705125
-0.22769476 0.10994772 -0.09033691 -0.04905104 -0.29334536 -0.15025102 -0.048190266 -0.2335436
0.071527064 0.14504969 0.018021094 -0.16690172 -0.104511306 -0.20702223 -0.015177199 0.14069742
0.21969505 0.13665304 0.17105798 -0.17590731 -0.15719272 -0.0070250495 0.09598619 -0.012250461
-0.07512378 0.11878536 -0.1276913 -0.20857176 0.14845887 -0.18737662 0.2982322 -0.09780407
-0.20848656 0.21193609 0.16222884 -0.23227723 -0.08591497 -0.19213097 -0.14034377 0.24255952
-0.23545378 0.14482714 0.19676235 0.12520799 0.0697739 0.068417996 -0.23522323 0.20241031
-0.0024425369 0.14112286 -0.2252128 -0.10256292 -0.030233799 0.2746839 -0.10025631 0.1229651
-0.01801744 0.16371967 -0.22967386 0.04633722 -0.20969336 0.08434353 -0.08138864 -0.03179551
0.10311443 -0.03693692 0.009902533 0.35386327 -0.2029713 -0.016260058 -0.12071797 0.07063557
0.11583975 0.17934923 0.21736069 0.010131335 0.11399093 -0.25112382 -0.04754131 0.014108562
0.03601639 -0.3367456 -0.3019372 0.11376397 -0.112803385 -0.11892878 0.14892976 0.25759888
-0.17939793 -0.01653274 -0.1655844 -0.076963305 -0.0027853476 0.0833173 -0.07207352 0.042678062
0.11731903 -0.08779404 -0.041357525 -0.18803777 -0.08738829 0.091695525 0.28491998 -0.08187636
-0.24056852 -0.0493723 -0.28049907 0.010805024 0.13762572 -0.2355849 -0.11322219 -0.16811857
-0.07639825 -0.22999425 -0.32977876 0.30449107 -0.0018688783 -0.0067452253 0.011481087 -0.09775241
-0.06839452 -0.033624694 -0.0059022536 0.07677268 0.1311758 0.12208519 -0.0047098994 -0.29620433
-0.06118927 -0.32784343 0.34752113 0.107495286 -0.02514307 0.13628148 -0.023948459 0.08006023
0.0201479 -0.07509278 -0.04125386 0.35566607 -0.15797418 0.037262067 -0.005844758 0.057099935
-0.29671326 0.10198146 0.036693078 0.10194846 0.008113826 0.008290826 -0.1284546 -0.3502619
0.029889943 -0.056731652 0.069148 0.00944759 -0.037627324 0.051570717 -0.15094736 0.11446043
-0.1222709 0.43469736 0.054574866 0.2727224 -0.13438402 0.425828 -0.06098172 0.08945407
-0.08587439 0.054628137 -0.24791089 0.3671123 -0.042171095 0.044541158 0.18891707 -0.025526334
-0.069051825 -0.14118107 -0.16172364 -0.010578191 0.1667297 0.031895325 -0.23962475 0.089774944
0.057871662 -0.23580445 -0.07581281 0.13991065 -0.05431671 0.05556521 -0.06343888 -0.16873291
-0.21832173 0.19733858 0.15496087 0.18027103 -0.1854548 -0.027608328 -0.0034330597 0.025664968
-0.06213005 -0.013010137 0.13413194 -0.16484323 0.011156689 -0.057562318 -0.27139318 0.32933414
0.058272734 -0.1595152 0.39550513 0.061598852 -0.34978878 -0.11535339 0.09583868 0.054022387
-0.13909748 0.08884097 0.1173635 -0.107756875 -0.08012298 0.10811245 0.13924944 0.13064352
-0.23677683 0.18171732 0.13539317 -0.068869576 -0.27461433 0.14044891 0.14952241 -0.14746606
0.066110864 0.12677772 -0.02327994 0.21451075 -0.165864 -0.021725364 -0.1024998 -0.22791532
-0.046709925 0.046950217 0.03945788 0.14193042 -0.10687254 0.15420002 0.05033979 0.27992925
00000000: 678b 013d befd a33d 8c66 94bd 089e dcbd
00000010: 8653 c13d b4f2 b7be cec4 28be d0b3 bdbe
00000020: d128 69be 452c e13d 8f02 b9bd bee9 48bd
00000030: 5d31 96be 67db 19be 2863 45bd 0e26 6fbe
00000040: c87c 923d e887 143e f9a0 933c 49e8 2abe
00000050: 060a d6bd a3fd 53be c9a9 78bc fc12 103e
00000060: bdf7 603e c6ee 0b3e d329 2f3e 0c21 34be
00000070: 21f7 20be 6332 e6bb 6894 c43d 28b6 48bc
00000080: 7fda 99bd bd45 f33d 82c1 02be d693 55be
00000090: 9a05 183e a8df 3fbe e4b1 983e 804d c8bd
000000a0: 807d 55be c605 593e 511f 263e 15da 6dbe
000000b0: 30f4 afbd fbbd 44be 47b6 0fbe 8661 783e
000000c0: cc1a 71be 914d 143e 127c 493e 8636 003e
000000d0: 9ee5 8e3d bc1e 8c3d 5cde 70be a644 4f3e
000000e0: f812 20bb 8382 103e 2f9e 66be 820c d2bd
000000f0: dfac f7bc 5ea3 8c3e 2e53 cdbd 20d5 fb3d
00000100: 4f99 93bc 21a6 273e a02f 6bbe 19cc 3d3d
00000110: dbb9 56be 4dbc ac3d 16af a6bd 023c 02bd
00000120: a92d d33d 2b4b 17bd 3c3e 223c 912d b53e
00000130: b5d7 4fbe d033 85bc fc3a f7bd 62a9 903d
00000140: 643d ed3d 53a7 373e cd93 5e3e e6fd 253c
00000150: 1474 e93d 4d93 80be adba 42bd 9927 673c
00000160: ec85 133d eb69 acbe 8397 9abe 16fd e83d
00000170: 7605 e7bd ef90 f3bd 0b81 183e 00e4 833e
00000180: 17b4 37be ab6f 87bc f58e 29be f09e 9dbd
00000190: 618a 36bb 43a2 aa3d 489b 93bd 31cf 2e3d
000001a0: f644 f03d 5dcd b3bd 8266 29bd f98c 40be
000001b0: a2f8 b2bd ddca bb3d 08e1 913e cbae a7bd
000001c0: 9857 76be 9c3a 4abd 939d 8fbe 8e07 313c
000001d0: c2ed 0c3e 2b3d 71be 09e1 e7bd 4627 2cbe
000001e0: b076 9cbd 9d83 6bbe c3d8 a8be 41e6 9b3e
000001f0: 26f5 f4ba 0d07 ddbb 2b1b 3c3c 6a32 c8bd
00000200: 6d12 8cbd 0cba 09bd b167 c1bb ff3a 9d3d
00000210: f352 063e cd07 fa3d 8055 9abb 18a8 97be
00000220: 9aa1 7abd 18db a7be 4aee b13e 7d26 dc3d
00000230: d7f8 cdbc 5f8d 0b3e 8f2f c4bc 9ef6 a33d
00000240: 350d a53c 3eca 99bd cff9 28bd dd19 b63e
00000250: fcc3 21be 1ca0 183d 6285 bfbb 9fe1 693d
00000260: cdea 97be a8db d03d 7b4b 163d 5bca d03d
00000270: daef 043c 3fd6 073c 9a89 03be 8755 b3be
00000280: c1db f43c 735f 68bd 779d 8d3d 11ca 1a3c
00000290: 1c1f 1abd d13b 533d f291 1abe 3b6a ea3d
000002a0: 2a69 fabd a790 de3e e589 5f3d 45a2 8b3e
000002b0: f79b 09be 2106 da3e f8c7 79bd b233 b73d
000002c0: eade afbd c1c1 5f3d 5adc 7dbe 25f6 bb3e
000002d0: 99bb 2cbd ca70 363d 7a73 413e 9a1c d1bc
000002e0: 0b6b 8dbd c591 10be e29a 25be 2650 2dbc
000002f0: 31bb 2a3e aca4 023d 3160 75be eddb b73d
00000300: d60a 6d3d b976 71be bf43 9bbd bd44 0f3e
00000310: 337b 5ebd 5898 633d 3eec 81bd 52c8 2cbe
00000320: bb8f 5fbe 2013 4a3e 10ae 1e3e f898 383e
00000330: dde7 3dbe dc2a e2bc 2ffd 60bb 573f d23c
00000340: 147c 7ebd 7828 55bc e259 093e aacc 28be
00000350: 8cca 363c 77c6 6bbd 0cf4 8abe 7c9e a83e
00000360: 64af 6e3d f457 23be a67f ca3e 144f 7c3d
00000370: 8417 b3be 663e ecbd 1247 c43d 9446 5d3d
00000380: 926f 0ebe 41f2 b53d 465c f03d a3af dcbd
00000390: 8417 a4bd 0f6a dd3d 6897 0e3e 6ac7 053e
000003a0: a075 72be 1b14 3a3e 82a4 0a3e 7e0b 8dbd
000003b0: 409a 8cbe d7d1 0f3e 671c 193e 5801 17be
000003c0: 2265 873d 05d2 013e 93b5 bebc b5a8 5b3e
000003d0: 41d8 29be 64f9 b1bc 6aeb d1bd a262 69be
000003e0: e852 3fbd df4e 403d 969e 213d 3556 113e
000003f0: fedf dabd 9ce6 1d3e 1831 4e3d e352 8f3e

enc_un.logvar_gen.bias f4 [3]
0.037226416 -0.10052911 0.013105352
00000000: ba7a 183d 35e2 cdbd d5b7 563c
