baselines/generative/DCEVAE/result/a_r_1_a_d_1_a_y_1_a_h_0.4_a_f_0.0_u_1_ur_3_ud_4_run_1/model.pth (torch, 212722 bytes, 40 tensors)

weight f4 [100, 4]
000000 dc a1 d6 3e 46 c5 78 be f7 25 03 be 44 08 17 3d
       0.41920364 -0.24294004 -0.12807451 0.036873117
000010 07 95 54 3e 42 6c ae bd 5e b4 09 3d d0 7e 4f be
       0.20759974 -0.08516742 0.033619277 -0.20263219
000020 41 5b 62 be 53 9a bb 3d db 07 31 3d 76 fd 34 bd
       -0.22105123 0.091602944 0.043220382 -0.04418703
000030 44 2b 5d bd 87 da 7e be 2e c5 49 3d 73 96 77 3e
       -0.05399634 -0.24888049 0.04926031 0.24178486
000040 b6 aa 28 3d e8 ba 29 be b5 7f 92 bd 2f 87 d1 3d
       0.041178428 -0.16575205 -0.071532644 0.10230862
000050 fc 57 0e 3d 9d 17 16 bc 8b 9b b5 bb 71 74 6b 3e
       0.034751877 -0.009160903 -0.005542224 0.22993638
000060 9d 12 4c bd 90 f0 b9 bd 11 df 51 be e0 60 80 3e
       -0.04982244 -0.09079087 -0.2049525 0.2507391
000070 e4 35 84 be f7 f0 23 3e 23 50 9d bd 3d 13 05 3d
       -0.25822365 0.1600989 -0.076813005 0.03248905
000080 91 62 17 be b2 24 d7 bd c7 4f 9c bd 64 9c b3 3d
       -0.14783694 -0.10505046 -0.07632404 0.087700635
000090 9a 88 3b be 16 0a 0a be 61 40 b1 3c 5f a5 1f 3c
       -0.18313828 -0.1348041 0.021637144 0.009744017
0000a0 b8 33 0e 3c a2 f5 22 bc db 60 08 be 4e dc 81 bd
       0.008679323 -0.009946259 -0.13318197 -0.06340848
0000b0 1a 31 e2 bc aa 29 08 be 64 52 73 3d cc 02 cb 3d
       -0.027611304 -0.13297144 0.059404746 0.09912643
0000c0 d0 d1 bf 3d 3b 61 30 3d 4d d4 04 3e 70 74 8b be
       0.093661904 0.043061476 0.12971611 -0.27237272
0000d0 94 03 80 be ab ee d7 bb 91 b4 83 3b a7 0c b3 bd
       -0.2500273 -0.0065897307 0.004019328 -0.087426476
0000e0 ef 5e 95 bd 58 2c bd bd 46 6c 0f 3e a1 60 39 be
       -0.07293498 -0.092369735 0.14006147 -0.18103267
0000f0 57 3c c3 3d 9e a2 53 be bd bb e1 3d f0 4e 8d 3d
       0.09532993 -0.20667502 0.11022136 0.06899822
000100 92 ee a0 3d 6a 8a f6 3c 46 11 a9 3d 9f 17 85 3e
       0.07858004 0.030095298 0.08255248 0.25994584
000110 4d 81 3b bd 19 f8 15 3e 18 32 21 bc 84 c0 06 3e
       -0.045777608 0.14645423 -0.009838603 0.13159376
000120 8a 8f 3a be 0c 5b d6 3d 22 6a 93 3d 25 bd 3c be
       -0.18218818 0.104665846 0.071979776 -0.18431528
000130 fc 57 c2 3c 1a 19 80 3e 9d 12 9e be 94 56 a2 bd
       0.023723595 0.2501915 -0.30873576 -0.0792667
000140 6d 25 22 be e0 ff 4a 3d 8e de 33 be d3 55 24 3d
       -0.1583459 0.049560428 -0.17565367 0.04012091
000150 65 44 15 bc 7e a2 98 3d 2a 7d eb bc 54 8c 1d be
       -0.009110545 0.07452868 -0.028746206 -0.15385562
000160 58 8f 63 bd 3a df c8 3c 7e 62 7c 3e ed f6 0a 3d
       -0.055556625 0.024520505 0.24646947 0.033926893
000170 2b ed 68 bd 8f c4 67 be 43 5b 52 bd b3 15 62 3d
       -0.056866806 -0.22633575 -0.051356565 0.055196475
000180 99 b9 c2 bd 84 f8 8b bc fc 88 36 3d ca f9 98 3c
       -0.09508056 -0.017086275 0.044564232 0.018673796
000190 03 99 24 3d c4 90 4c 3d 0d 3b 98 be eb 49 8d 3e
       0.040184986 0.049942747 -0.29732552 0.27595457
0001a0 9b 4e 75 3d 25 68 9b 3d b4 a3 4e 3d 92 76 ae 3d
       0.059889417 0.07588223 0.05044909 0.08518709
0001b0 b7 d2 be bd bd 57 e8 3b dc 02 22 3e 53 98 3d 3b
       -0.093175344 0.0070905373 0.15821403 0.0028929904
0001c0 36 3d 20 bc 5b 58 b7 3c fd b5 81 bd a4 69 56 3d
       -0.009780219 0.022380998 -0.0633354 0.05234684
0001d0 88 e0 09 3c a6 49 62 3e f2 2e 10 be 99 cd 65 be
       0.008415349 0.22098407 -0.14080408 -0.2244171
0001e0 05 2a fb 3d e4 1a 3d bb 47 a8 bd 3e fc 36 d3 3d
       0.12263874 -0.002885514 0.37042448 0.10313222
0001f0 b7 26 1f bd 3e 95 1c be df 0a db 3d 3c 4e c6 bc
       -0.03885528 -0.15291306 0.10695433 -0.024207227
000200 18 7c 15 be 66 9d 3a 3d 68 80 fc 3e b0 95 2f 3b
       -0.1459812 0.045560263 0.49316716 0.0026792102
000210 49 a6 91 3d d1 dd 92 bd 27 b8 5b 3d 53 3d 43 be
       0.071117945 -0.07171214 0.05364242 -0.19066362
000220 13 d8 36 be 4c ee e6 3d 65 36 b6 3d e3 cf bb 3d
       -0.17855863 0.1127592 0.08897094 0.091705106
000230 93 7d 95 3e fc b4 c6 bb 59 f0 b9 3d 74 9e 7e bb
       0.29197368 -0.0060640555 0.09079046 -0.003885177
000240 1a 9b 13 3e f9 ab 93 bd 89 43 42 3d 2f 8c 90 3e
       0.14414635 -0.072105356 0.047427688 0.28231952
000250 50 15 c9 bd f7 e3 d8 3a a9 be 89 bd da c7 6b 3d
       -0.09818518 0.0016547431 -0.06725819 0.05756364
000260 4d aa 91 3c 13 42 43 3d c0 13 77 bc d6 35 db bd
       0.017781401 0.047670435 -0.015080392 -0.10703628
000270 cc 00 05 be da 0f 34 3d 47 7a 71 be 2f d7 be bc
       -0.12988585 0.04396043 -0.23581801 -0.023295967
000280 67 75 30 3c c8 94 96 bb 03 30 0d 3e 10 e5 71 3d
       0.010770178 -0.004595373 0.13787846 0.05905634
000290 06 a4 96 be eb d6 21 3e 73 44 e4 bd f6 27 ee bd
       -0.29422015 0.15804641 -0.11145868 -0.11628716
0002a0 5b 9f 1e bc fa 32 63 bd 0c f2 37 3d 4e 83 e3 bd
       -0.009681548 -0.055468537 0.04490857 -0.11109029
0002b0 db 98 01 be 26 8f ec 3d f4 8b 7f 3d 9f 4c 3b 3c
       -0.12655966 0.11550741 0.06238933 0.011431842
0002c0 26 95 86 3d 77 04 7f bc 6e a6 b1 bc 58 31 01 3c
       0.065714166 -0.015565029 -0.021685805 0.0078853
0002d0 2c 02 30 be ce ed 06 3e b0 7e 4e be 94 fd 3b 3e
       -0.17188329 0.13176653 -0.20165515 0.18358451
0002e0 7c 15 1e 3d e7 62 92 bc 99 21 6b 3c 19 da b7 ba
       0.038594708 -0.017869426 0.014351272 -0.001402679
0002f0 de a3 f1 3d a7 d0 ca 3a 2a 47 3b 3e ab d3 17 3e
       0.11798833 0.001547356 0.18288866 0.14826839
000300 c8 e7 57 be 86 9f d8 3d f3 e9 02 3e 62 7b 84 be
       -0.21084511 0.10577302 0.12784557 -0.25875384
000310 34 81 3d 3e b9 a8 5e 3e 45 7a 66 be 4e 69 39 bd
       0.18506318 0.2174405 -0.2250758 -0.045266442
000320 8d 98 96 be 72 d2 8d bd 33 8f 81 3d f4 ce 81 be
       -0.29413262 -0.06924905 0.06326141 -0.25353205
000330 85 56 25 be c9 6e 62 bd e4 c7 1d be f9 52 35 be
       -0.16146286 -0.055281434 -0.15408283 -0.17707433
000340 98 e2 b7 b8 24 52 9f bd 8e 61 d5 3d 0d 78 f3 3d
       -8.7683264e-05 -0.07779339 0.10418998 0.11888132
000350 5d da b9 3d 56 6d 53 3e c7 4e a5 3d 90 a1 6e bd
       0.090748526 0.20647177 0.08071666 -0.058259547
000360 2c cf e4 3d 51 26 7a 3e be eb 53 3c 04 25 80 be
       0.111723274 0.24428679 0.012934623 -0.2502824
000370 9e ee 2b 3d b2 1c 90 3d 9b b1 b5 bd 3c 23 36 3e
       0.04197561 0.07036723 -0.08871766 0.17786878
000380 f8 e2 21 be f1 0b 50 be cd ae 20 be 11 00 18 3e
       -0.15809238 -0.20317055 -0.15691681 0.14843775
000390 d2 39 65 be db a4 a8 3d a2 37 8e 3e 08 d9 04 be
       -0.22385338 0.08234569 0.2777682 -0.12973416
0003a0 08 41 14 3e fe ab aa bc 7d 54 da bd ee aa e9 bd
       0.14477932 -0.020833965 -0.10660646 -0.114095554
0003b0 f6 59 9f bd fb d0 a4 3d 10 ed 97 3d 8c fa 94 3e
       -0.077808306 0.08047672 0.07418263 0.29097402
0003c0 2b 72 19 bd ed d9 0b 3d f4 27 82 3d d0 6c 09 be
       -0.037462395 0.034143377 0.06355277 -0.13420415
0003d0 b2 8b 94 3d 25 c3 13 3e c5 05 72 3d f3 1c ea bd
       0.07253207 0.1442991 0.059087534 -0.11431303
0003e0 ee d1 1b 3e d8 ee 7b 3e 64 41 d6 bc 97 ac a3 bd
       0.152168 0.2460283 -0.026154228 -0.07991903
0003f0 2f 89 ca bd 1c 05 da 3c 5b c7 a4 3d 95 93 17 be
       -0.09889447 0.026613764 0.080458365 -0.14802392

bias f4 [100]
000000 32 3a 83 be 95 fa a3 3e 93 29 8c bc 5e 00 c7 be
       -0.25630337 0.32027116 -0.017109668 -0.38867468
000010 32 6c db bd 6a 11 dd be 38 0b 66 be 45 2b 94 be
       -0.10713996 -0.43177348 -0.22465217 -0.28939262
000020 bc 9c ad 3e a3 f6 a6 bd ee 75 98 bd a4 f9 72 3e
       0.3390864 -0.08152511 -0.07444368 0.23728043
000030 84 08 43 3e 84 b2 b0 be ad 81 3d 3e 7b 88 5f 3e
       0.19046217 -0.34511197 0.18506499 0.21829407
000040 93 7d bc be c6 a8 cd 3e 16 80 7e be ff b2 1a be
       -0.36814556 0.40167826 -0.24853548 -0.15107344
000050 57 cf da be ea 40 e4 3e 42 07 ab 3d d0 8b c2 3e
       -0.42736313 0.44580775 0.08350994 0.37997293
000060 d8 3b 1f 3c a8 9c 80 3e b9 13 10 be e2 95 ca be
       0.009718858 0.2511952 -0.14070024 -0.39567477
000070 56 fa ac 3d 49 af 49 bd 4a e5 30 bd 24 35 7d be
       0.08446185 -0.04923943 -0.043187417 -0.24727303
000080 a7 73 31 3c 8f d1 08 3e 85 13 1e 3e e2 92 c1 be
       0.010830796 0.1336119 0.15437134 -0.37807375
000090 17 50 62 3e 37 93 13 3d 11 7f 9d 3e ec 86 a4 3e
       0.22100864 0.036029067 0.30761006 0.32134187
0000a0 4a f0 b7 be 27 8d ef 3e 49 44 fd be de fe 90 3e
       -0.35925514 0.46787378 -0.4946616 0.28319448
0000b0 80 ba 66 3c bd 23 69 3e 67 a8 81 be ab 76 93 3e
       0.014082551 0.2276754 -0.25323793 0.28801474
0000c0 a1 a3 81 be c6 69 ee be 42 1c 1d 3e 25 77 82 3e
       -0.2532015 -0.46565074 0.15342811 0.25481525
0000d0 f2 a5 fd 3e aa 5b 33 bd 6f 47 ea 3e 14 19 9e 3e
       0.4954067 -0.04378859 0.45757625 0.30878508
0000e0 b2 a8 74 be 4b c7 c6 be d1 a4 95 3e f4 98 82 be
       -0.23892477 -0.38823923 0.29227307 -0.2550732
0000f0 27 ca 5e 3e d6 a6 cc be 02 73 b5 3e cf 0b 21 3e
       0.21756802 -0.39971036 0.35439306 0.15727161
000100 f1 5a 66 bd e9 d5 69 3e 22 aa b0 be 4e ce e1 bd
       -0.056239072 0.22835506 -0.345048 -0.110256776
000110 e1 ba 7f 3c a8 ff 97 be 43 55 1a be d4 3d 57 be
       0.01560852 -0.29687238 -0.15071587 -0.2101968
000120 8c 02 f2 3e 56 69 e6 3e 1d 57 db 3e 29 44 cb 3e
       0.47267568 0.4500224 0.428399 0.3970044
000130 70 91 d8 be 52 d3 18 3e 0d c5 39 3e 69 a6 b7 be
       -0.4229846 0.14924362 0.18141575 -0.35869148
000140 9e 3b 4d 3e b8 a0 90 be c8 5a 82 3d af 96 20 3e
       0.20042273 -0.2824762 0.063649714 0.15682481
000150 95 cc dd 3e de ed 82 be 32 de c0 be 99 b4 e2 3e
       0.43320146 -0.25572103 -0.37669522 0.4427841
000160 c8 47 40 3e 60 f5 60 3e 37 df 36 3e 04 3a 13 be
       0.18777382 0.21968603 0.17858587 -0.143776
000170 34 9c 9d 3e 96 10 dc be ca 6c 7b 3d 5d 48 66 3e
       0.30783236 -0.42981404 0.061383046 0.22488542
000180 5c 0d b1 3e 1a 69 83 be 28 ee 9c be 34 d3 28 3e
       0.34580505 -0.25666124 -0.3065045 0.16486818

weight f4 [100, 100]
000000 f6 98 87 3d 2f 2c 15 3e 93 9a d7 3d 10 60 19 be
       0.06620972 0.14567636 0.105275296 -0.14978051
000010 2e af 3a be 88 4f d0 bc 85 49 ab bd 96 e9 c5 3c
       -0.18230888 -0.025428548 -0.08363632 0.024159234
000020 8a 1f 78 bc e4 e2 d8 bd fc 02 d8 bd 89 26 f5 bd
       -0.015144238 -0.10590151 -0.10547444 -0.119702406
000030 4c 7d 2e bc f6 70 75 bd c1 e0 2e 3e f1 89 a8 3d
       -0.01064999 -0.05992218 0.17077924 0.08229435
000040 e4 32 1a be 31 11 0c 3c 03 4f fb 3d 94 33 45 3d
       -0.15058476 0.008549021 0.1227093 0.04814489
000050 c9 7d 83 3d 98 7b cb bb ee 7d 1c be f9 1a dc 3d
       0.06420476 -0.006209802 -0.15282413 0.10747332
000060 36 34 4c bd 23 72 29 bd 13 9a 32 3e 31 0f fe 3d
       -0.04985448 -0.041368615 0.17441587 0.12405241
000070 ca 1d 16 be df c9 ed bc aa a6 04 3c e2 54 92 3d
       -0.14659801 -0.029026924 0.008096376 0.07145096
000080 6c 8b 94 3d 4c f2 ec 3c 84 dd 31 3e 9e 3b 1b be
       0.07253155 0.02892413 0.17369658 -0.15159461
000090 f9 cd 21 3d cc 5c ac bd ff 83 4d 3d fd bc 42 be
       0.03950307 -0.08416137 0.05017471 -0.19017406
0000a0 40 a0 ed 3b 72 db 9f 3d 99 55 02 3d 46 90 2c 3d
       0.0072517693 0.07805528 0.031819914 0.042129777
0000b0 76 8b 06 3e 18 bc 27 3e aa ba d5 bc 1a e2 0e be
       0.13139138 0.16380346 -0.026089985 -0.13953438
0000c0 bd cd 49 bd 59 33 f5 bd fa 69 b7 bd 45 bc 87 bd
       -0.049268473 -0.119726844 -0.0895576 -0.066277064
0000d0 00 c3 83 3d 09 1e 53 3d b1 bc e7 3d 42 8b 8c bd
       0.06433678 0.051542316 0.11315287 -0.06862499
0000e0 ae 62 9a 3d cf f1 ee 3b e9 2f de 3b 88 7d 95 3d
       0.07538353 0.0072920094 0.0067806137 0.07299334
0000f0 aa 19 4a 3d 1f 58 37 3e 04 2a e5 bd 2b 03 8c 3e
       0.04934088 0.1790471 -0.111896545 0.27346167
000100 37 24 a4 bd c1 30 92 bd c6 91 e8 3d 93 3f c5 3c
       -0.0801472 -0.07138205 0.11355929 0.024078166
000110 e9 78 0e 3e 65 cf 9f bd dc 74 e2 bd 95 e7 3f bc
       0.13913311 -0.07803229 -0.110574454 -0.011712928
000120 0a 2b da 3c 85 6e 17 bd 85 9f 57 3d fa a7 7e bd
       0.02663185 -0.036970634 0.052642364 -0.062171914
000130 d3 60 31 bd 57 96 1d bd 96 f7 d1 3d 01 3b 95 3d
       -0.04330523 -0.038473453 0.102523014 0.07286645
000140 81 b4 83 b9 b8 74 4b 3d 8b c2 63 3c 79 15 12 3d
       -0.00025120753 0.04967186 0.013901363 0.03566501
000150 e6 8f f7 bd 13 47 15 bd 52 4e a1 bd 6c 73 fe bd
       -0.12087993 -0.036444735 -0.078762665 -0.12424359
000160 0a 14 aa bd 5a ef b0 3d 69 4a 30 3d f2 05 0f be
       -0.083046034 0.08639403 0.043039713 -0.13967112
000170 3a 6f 1a 3d 79 b5 67 3c 4f 28 a2 3c 89 f7 77 bd
       0.03770373 0.014142388 0.019794611 -0.060538802
000180 be 3d af 3c 4c d0 06 3e 80 c3 90 3c a8 ea f6 bd
       0.021391746 0.13165396 0.017671347 -0.12056476
000190 70 08 3d 3e d2 cb ce 3c ea 44 c5 3c 54 ca ba bd
       0.1846025 0.025243673 0.024080712 -0.09120622
0001a0 ec 01 c6 3c 55 9f 99 bd 58 0a 12 be 70 83 e3 3d
       0.024170838 -0.07501093 -0.14261758 0.11109054
0001b0 30 70 bc bc c6 20 c9 bd 7b 71 47 bd eb e2 18 3d
       -0.023002714 -0.09820704 -0.048692208 0.03732578
0001c0 d0 07 2e 3e 76 6a 3f be cb 05 22 3d 26 e8 a3 3d
       0.16995168 -0.18692955 0.039556306 0.08003263
0001d0 16 12 b2 bd 7d bc bf 3d 71 44 af 3d 72 f6 c9 bd
       -0.08694856 0.09362123 0.08557976 -0.09861459
0001e0 a3 d1 ac bd ec 68 24 3c 76 43 42 bd c8 52 25 be
       -0.084384225 0.010034781 -0.047427617 -0.1614486
0001f0 ae 36 47 be d6 cc 64 bd 70 22 b1 3e 66 a2 fb bd
       -0.19454452 -0.05585941 0.34596586 -0.122868344
000200 5c fe d5 bd 70 ad 3b 3d 5b 5c 67 3d 74 02 83 3d
       -0.10448906 0.0458197 0.05648456 0.06396952
000210 b1 8c e1 bc fd 96 b9 3d 8e ca 13 be cd 05 34 3e
       -0.027532907 0.09062002 -0.14432737 0.17580338
000220 ef 04 8f bd 64 62 2a bd 6d c6 65 bd 06 9b 08 be
       -0.06983363 -0.04159774 -0.056097437 -0.13340387
000230 48 77 12 be fc e1 ea 3d 38 7c cb 39 3a 44 2b 3e
       -0.14303315 0.11468884 0.00038811727 0.16725245
000240 f6 d3 03 bb 77 3b 88 3d 5a ae a0 3b ad f4 9e bd
       -0.0020115352 0.06651967 0.004903597 -0.07761512
000250 38 fc 8c 3d 5b 30 89 3d f9 02 7b 3d 0e ce 50 3d
       0.068840444 0.06698676 0.06128213 0.05097776
000260 80 67 95 bc 04 5e 9b 3d e7 a1 15 bd 3f a4 19 3d
       -0.01823783 0.075862914 -0.036531355 0.037510153
000270 99 5f 51 3d 45 df f0 bd 29 a4 df 3d 56 73 b7 3d
       0.05111656 -0.11761335 0.10919983 0.089575455
000280 ad d1 39 3d 7e bc ac bd dd 99 ba 3d e2 31 41 bd
       0.045365978 -0.084343895 0.09111378 -0.047166713
000290 32 37 57 bd 8c 21 d3 3d b5 31 73 be ec 59 c2 3d
       -0.052542873 0.10309133 -0.2374943 0.094898075
0002a0 a3 b8 25 3c 6c 6b 18 bd 69 3a a2 3d 0f 52 e4 bd
       0.010114822 -0.03721182 0.07921297 -0.11148464
0002b0 92 2b af 3d bb a2 33 3e 84 db ce bd 2c 3c 46 bd
       0.08553232 0.17542545 -0.10100463 -0.048397228
0002c0 c0 b8 f1 bd d4 5d 17 bd a3 10 3c be fa 2b a9 3d
       -0.118028164 -0.036954716 -0.18365721 0.08260341
0002d0 e2 55 f2 3b 23 0e 4f bd 24 93 23 be 29 57 5d 3e
       0.007395492 -0.05055059 -0.15974098 0.2161528
0002e0 33 22 99 bc 29 05 4b 3d ae e7 1b 3d 68 bd bf bd
       -0.018693065 0.049565468 0.038062744 -0.09362298
0002f0 a5 03 27 3e f3 2e 8d 3d 8e 0d 05 3e 76 47 9c 3d
       0.16309984 0.068937205 0.12993452 0.076308176
000300 99 1e f1 3d 88 a2 c6 bd 49 6c fd 3d 0e 83 68 bc
       0.11773414 -0.09698969 0.123741694 -0.014191402
000310 0f 0a e8 bd 31 e0 9f bc 57 40 07 3e 24 f9 90 3c
       -0.113300435 -0.019516082 0.13208137 0.017696925
000320 ae 08 bc 3d 8d bf c6 3c 08 e3 76 bc 03 60 fb 3c
       0.09181343 0.02426126 -0.015068777 0.03068543
000330 50 b7 c8 bd 2f 4c 61 3d a0 e2 c4 3d 06 b6 2b 39
       -0.09800589 0.055004295 0.09613538 0.0001637564
000340 e1 20 ee bb a4 7e d5 bd 0b c0 5d 3e ed 87 fa bc
       -0.007267103 -0.104245454 0.2165529 -0.030582393
000350 80 bf 8d 3d 82 26 1f be 14 11 f6 bd 3a de ca bd
       0.06921291 -0.15542033 -0.12014976 -0.099056676
000360 de 36 96 bd 8b 50 1e 3c 21 3b 0f bd 04 51 e9 3d
       -0.07334684 0.009662758 -0.0349685 0.11392406
000370 7b da fa b9 d4 f7 70 bc b1 57 30 bd 6c d8 ab 3c
       -0.00047846496 -0.014707524 -0.04305238 0.020977221
000380 3c b5 34 3e c0 c2 99 bc d3 1f 0f bc 05 db 8b bb
       0.1764726 -0.018769622 -0.008735615 -0.0042680525
000390 54 bb 9a 3d 6f 7e 9d bc 91 dc b1 3d 4d b0 28 be
       0.07555261 -0.019225327 0.08684648 -0.16473503
0003a0 c3 a6 86 bd 81 1d f2 bc 3e 8a 0d bd ba cf 20 be
       -0.06574776 -0.029555084 -0.034555666 -0.15704241
0003b0 8e 91 16 be 3f 39 c1 b8 ed 5d 2a 3d f2 2e ac 3d
       -0.14703962 -9.21362e-05 0.04159348 0.084073916
0003c0 43 03 62 bc 26 80 06 be b2 a0 11 3e 80 f4 7c bd
       -0.013794723 -0.13134822 0.14221457 -0.06175661
0003d0 38 ba 5d 3c df 93 4f 3d 85 fd 1d 3d 00 16 05 3c
       0.013533168 0.05067813 0.038571853 0.008122921
0003e0 88 6a 55 3d a5 8d 0b be 06 86 65 bc 1f 8d 0a bd
       0.05210355 -0.13628252 -0.014009004 -0.03382599
0003f0 d2 fc 79 3e 26 d4 95 bd 31 16 2e bd cd 2b 2f bd
       0.2441285 -0.07315855 -0.042501632 -0.04276638

bias f4 [100]
000000 4d 06 bb bb a6 f2 a7 3c c4 0e bd bd 77 3a 10 bd
       -0.005707538 0.020501446 -0.09231332 -0.035212006
000010 43 59 14 3c a0 75 46 3d af 11 74 3d 49 63 30 3d
       0.009054485 0.04845202 0.059587177 0.043063436
000020 52 13 97 3d 0b 68 f1 bd 90 22 2b 3d bd d9 ee 3c
       0.07376732 -0.11787423 0.04178101 0.02915656
000030 2b 95 1c bd 43 bd bc bd 86 73 a4 3d a6 05 26 bd
       -0.038228195 -0.09215786 0.08029847 -0.04053273
000040 5c 1e d0 bd 37 06 93 bd a6 85 d5 3c 73 70 86 3d
       -0.101620406 -0.0717892 0.026064705 0.06564417
000050 7e 49 84 3c 10 33 42 3c fd 32 86 bc e3 bb 06 b9
       0.016148325 0.011852995 -0.016381735 -0.00012849229
000060 e5 47 69 bc 55 a5 88 3d 49 53 07 3d 0e 06 2c bd
       -0.014238332 0.066721596 0.03303841 -0.04199796
000070 de 63 0b 3d 43 4f 45 bd d3 bc a3 bd e7 ea fe bc
       0.034030788 -0.048171293 -0.07995 -0.03111787
000080 f0 31 cc 3d 0b 91 34 3d 41 a4 bb bd d1 42 a8 3d
       0.09970462 0.044083636 -0.09162188 0.08215869
000090 69 b6 8a bd 33 51 83 3d b8 94 75 3b 07 d7 20 bd
       -0.06773073 0.06411972 0.0037472676 -0.039267566
0000a0 8b fd cb bb f8 83 62 bd e6 9a bb 3d 11 d7 0e bd
       -0.006225293 -0.055301636 0.09160404 -0.034873072
0000b0 43 b2 24 bd 25 08 99 bd 7d 5f 93 3d a5 4b 9d 3d
       -0.040209066 -0.074722566 0.07195947 0.07680444
0000c0 f3 52 af 3c 53 aa 4a bc 56 bf c9 3c 2f ac 5f bd
       0.021401858 -0.01236971 0.024627369 -0.054607566
0000d0 ba a9 bb 3d ea e6 19 bc fb 6a f2 3c d6 34 8c 3d
       0.09163232 -0.009393433 0.029592028 0.06846015
0000e0 b0 96 c8 bc a7 42 b3 3d 6a 82 86 3d 49 58 76 bb
       -0.024485916 0.08752947 0.06567843 -0.0037589243
0000f0 88 10 30 bd 6c 70 86 3d e2 83 f5 3c eb ca bd 3c
       -0.042984515 0.065644115 0.029970113 0.023168048
000100 0b bc 92 bc db 93 cd bd 10 62 ae bd 5f 04 88 ba
       -0.017911931 -0.10037967 -0.08514798 -0.0010377279
000110 42 6e d7 bd 41 5f cc bd 6c 50 06 bd 2e e4 9d bc
       -0.10519077 -0.09979106 -0.03279154 -0.019273844
000120 2c d3 93 3d 8c 9e 8a bd 19 9b c0 bd 57 9b 45 bc
       0.07218012 -0.06768522 -0.094045825 -0.012060962
000130 63 4e ad bd fd 56 b7 bc c6 1f 96 3d 42 d2 7c bd
       -0.08462217 -0.022380346 0.07330279 -0.061723955
000140 a2 fa eb 3c 92 65 04 bd 21 a2 ce 3d 03 ec 3a 3c
       0.028806034 -0.032323427 0.100895174 0.011408809
000150 f1 a3 b6 bc 9f e5 99 bc 6e 2b 2e bd 0a 78 a2 3d
       -0.02229497 -0.01878625 -0.042521887 0.07933052
000160 f0 b7 79 bd 57 83 cd 3d e9 24 71 3d 5b fd aa bd
       -0.060966432 0.10034817 0.05887309 -0.08349105
000170 cd 9c ba 3d db 65 0f 3b 97 c2 30 3d eb 68 f8 bc
       0.091119386 0.002188078 0.043154325 -0.030323466
000180 42 0f ba 3b d0 da b0 3b b4 a2 2e bc 86 62 ad bc
       0.0056780884 0.005397178 -0.010658909 -0.021165144

weight f4 [3, 100]
000000 d6 5c 8a 3e f6 f6 bc bd 21 8f 06 3e c0 45 dc 3d
       0.27023953 -0.092267916 0.13140537 0.10755491
000010 71 ea 06 be 62 96 2a be 4d ac 53 3e a3 d0 d4 3d
       -0.1317537 -0.16658929 0.20671196 0.10391357
000020 7a b1 ca 3d 5b 3c 2a be 87 4d 67 3d f1 c5 92 3d
       0.09897132 -0.16624586 0.05647042 0.071666606
000030 e6 67 99 bd 47 39 99 bd 0c 1b 27 be 69 e7 b5 bd
       -0.0749052 -0.07481628 -0.16318911 -0.088820286
000040 45 51 5c bd 9c 24 cb be a4 77 a8 3e 34 f6 ad 3d
       -0.053788442 -0.39676368 0.3290378 0.08494225
000050 7e a8 8f 3d f2 8b 4b 3e 67 b1 3a 3e c1 2e 84 3e
       0.07014559 0.19877604 0.18231736 0.2581692
000060 e4 7b 34 3e 8e 15 c7 3c fd c1 49 be e5 58 fb bc
       0.17625386 0.02430227 -0.19702907 -0.030682037
000070 38 37 76 3d a7 7f b0 bd 91 94 31 bd bc f9 bd bd
       0.060111254 -0.08618098 -0.043354575 -0.09276149
000080 49 76 61 bd 3a 17 33 bd 45 20 0c 3e 73 70 49 bd
       -0.055044446 -0.043723322 0.13684185 -0.049179506
000090 34 5a e4 bd a6 f4 9c 3e e4 d7 36 3e 1f 11 46 be
       -0.111500174 0.30655402 0.17855793 -0.19342469
0000a0 60 1a 03 3e cc 8d de 3d 97 1a 24 3e cc c3 33 3e
       0.1280303 0.10866889 0.16025768 0.1755516
0000b0 fb 98 e3 b7 a1 ca 03 be ae 2a 5f 3e cd 33 08 bd
       -2.7131746e-05 -0.12870266 0.21793625 -0.033252526
0000c0 2f 2b 45 be 23 7b 12 3e 13 c1 03 3e ac 4c 52 bc
       -0.19254754 0.14304785 0.1286662 -0.012835663
0000d0 0b e5 a5 bd c4 f0 a7 3d 45 55 d0 3d e5 d3 c8 bd
       -0.08100327 0.08200219 0.10172514 -0.09806041
0000e0 ae 98 e6 bc 79 15 39 be 6b b4 43 be 87 55 87 be
       -0.028148975 -0.18074597 -0.19111793 -0.2643244
0000f0 4c 06 02 3d 10 f5 56 be 8e 36 82 3e 5d ff 83 3e
       0.031744286 -0.20991921 0.25432247 0.25780764
000100 65 75 33 3e 04 44 55 be 2b ea f3 3c 3b d1 6a 3d
       0.17525251 -0.20826727 0.029774746 0.057328444
000110 90 b4 82 3e 98 4b 55 3c 7d 62 3e be 20 ce 28 bd
       0.25528383 0.013018511 -0.18592258 -0.0412122
000120 c4 9f fc 3d 2d d1 aa 3d cb 81 a9 bd f1 9d 9e be
       0.123351604 0.08340678 -0.08276709 -0.30979875
000130 ef 51 cd bd 5c d8 5d bd b0 77 bc 3d a8 29 60 3e
       -0.10025393 -0.054161415 0.09202516 0.2189089
000140 ed 62 3e 3c e3 e3 61 3e 8e bf 75 bb 93 32 05 3e
       0.011620265 0.22059588 -0.0037498209 0.13007574
000150 39 48 c9 bd 37 a4 ea 3e b8 3f a5 bc 81 2f 29 be
       -0.098282285 0.4582841 -0.020171985 -0.16522028
000160 5f ec 3c 3d 62 39 69 bd f1 0b 66 be 84 75 8c bd
       0.04612386 -0.05693949 -0.22465493 -0.06858352
000170 0d 01 0e 3e b7 a0 8f bd 29 58 ca bc 88 45 e9 bd
       0.13867588 -0.07013076 -0.024700241 -0.11390215
000180 81 e4 47 bc de 10 eb 3c eb ec 81 3a ad eb 5b bb
       -0.012200476 0.028694566 0.0009912526 -0.0033557222
000190 37 ea 20 3d dc c0 73 be e8 82 44 bd 6e 53 d5 3d
       0.039285865 -0.23804039 -0.047976404 0.104163036
0001a0 e8 0b 97 3d a1 88 e0 bd b0 75 0e 3e 72 81 17 3d
       0.07375318 -0.1096356 0.13912082 0.036988683
0001b0 11 08 1c bc 04 69 44 bd f9 ea f0 3c 47 6b db bc
       -0.009523408 -0.047951713 0.029408919 -0.026784552
0001c0 49 da 89 bd 1e 50 c4 bd 2d f1 ac 3d 5a 63 de bd
       -0.06731088 -0.09585594 0.08444438 -0.108587936
0001d0 1b 6d 33 be 0a c5 4b bd a0 c5 25 3e 4b 20 97 3c
       -0.17522089 -0.049748458 0.16188669 0.018448016
0001e0 db 02 25 bc 59 f4 63 3e 4f f6 1f 3e 6f e8 1b 3e
       -0.010071482 0.2226118 0.15621303 0.15225385
0001f0 40 3d ce bd 14 74 8e 3a 08 0a da 3c 6b a6 65 bd
       -0.10070276 0.0010868334 0.026616111 -0.05606691
000200 fc 93 e2 3d ad 83 8c bb 8b 7d 1f 3e af c8 28 bd
       0.11063382 -0.004288158 0.15575235 -0.04120701
000210 b7 ce 8c bd 3b 54 44 bc 20 05 4c be 9a 56 21 3e
       -0.06875365 -0.011982973 -0.1992383 0.15755692
000220 0a 3b 8e 3d f8 84 ac 3c a7 d5 13 3e fb 2b af 3c
       0.069448546 0.021059498 0.1443697 0.021383276
000230 b1 4a d6 3c 32 c0 d8 bb 8f e4 06 be 10 3a c9 3d
       0.026158663 -0.0066147083 -0.13173126 0.09825528
000240 38 80 9b bd 13 8c a0 3d 63 4b e7 3c 2b fe 78 bc
       -0.07592815 0.07839217 0.02823419 -0.015197317
000250 0c c0 30 be 93 ce e3 bd 6e b1 61 3e c3 87 7b 3d
       -0.1726076 -0.11123385 0.2204034 0.06140877
000260 73 2d 53 3e 85 3c 12 bd 31 5c be 3d 6f f0 6a 3d
       0.20622806 -0.035702247 0.09294928 0.0573582
000270 89 cf 05 3d 5a c1 dd 3b f2 7d 0b be 1e 40 d8 3d
       0.032668624 0.006767434 -0.13622263 0.105591044
000280 b7 29 03 3e 70 58 2a 3d e0 eb 1c bd 58 c8 10 3e
       0.12808882 0.041588247 -0.038310885 0.14138925
000290 db 47 76 be 8c 1b 1d 3d c5 c9 85 3d ee 43 d5 3d
       -0.24050848 0.03835635 0.06532625 0.10413347
0002a0 fd 03 9b ba d7 b1 10 3e c3 5f 00 3e bc 19 db 3c
       -0.001182675 0.1413034 0.1253653 0.02674567
0002b0 d9 68 0d 3b a0 46 2f bd 23 6c 4a be 29 fa d0 bd
       0.0021577387 -0.042791963 -0.19767813 -0.10203964
0002c0 fc d2 8e bd cf 6d 25 3e a1 5a 23 be 11 76 70 3c
       -0.06973836 0.1615517 -0.15952541 0.014676587
0002d0 e6 82 a1 bd 4e 7d e9 3d 84 bb 7e be d0 3e 00 be
       -0.07886295 0.11400853 -0.24876219 -0.12523961
0002e0 db 54 5f bd 43 1c 66 3e 44 e8 85 bd ee f6 c0 bd
       -0.054524284 0.22471718 -0.06538442 -0.09422098
0002f0 59 12 40 3d 8a 9b ba 3d 89 ab fd 3d 19 da 75 3d
       0.046892498 0.09111698 0.12386233 0.060022447
000300 a4 b0 ac 3d 6c 09 f5 bd 44 7f d5 bc 2e 82 7b 3d
       0.08432129 -0.11964688 -0.026061662 0.061403446
000310 1a a9 0b 3e 43 c3 18 bc e7 35 16 3e 9d cd b4 3d
       0.13638726 -0.009323898 0.14669 0.0882828
000320 1c 19 da bd a8 75 5a be d2 8b 81 3e 81 2a c5 bd
       -0.106493205 -0.21333945 0.25301987 -0.096272476
000330 ce 29 bd 3c b4 2f f8 3d 49 14 1a 3d 71 48 55 3d
       0.023091223 0.12118474 0.037617 0.05207104
000340 0e 1c 50 bd 45 06 62 3e 80 0f 14 3e f5 4c 80 3d
       -0.050808005 0.22072704 0.14459038 0.062646784
000350 49 4c b7 3d bb af a3 3d 60 f8 fb bd 05 47 5c 3e
       0.08950097 0.07992502 -0.12303233 0.21511467
000360 ce 7c 3f be 30 20 64 3e 3d 5b e4 bc ee 3d 9f 3c
       -0.18699953 0.22277904 -0.027875537 0.01943871
000370 7c 59 39 bc 7f 7c 37 be eb 1d 14 3e fb ba d7 3c
       -0.011312839 -0.17918585 0.14464538 0.026334276
000380 0b bc 93 bb 21 9d 14 bd 7f 20 75 bc 95 3d 3b 3d
       -0.0045085005 -0.036282662 -0.014961361 0.045713026
000390 86 dd 21 3e 00 3a 1c be 9d 3f 00 3e d6 62 9f 3c
       0.1580716 -0.152565 0.12524267 0.019456308
0003a0 58 52 b2 3d 81 30 f3 3c 6f 1f 14 3e f8 ab ba bd
       0.08707112 0.029686214 0.14465116 -0.09114832
0003b0 cb c8 3c be 93 8c d1 3b e1 08 0b be f0 a9 0d 3e
       -0.18435971 0.0063949316 -0.13577606 0.13834357
0003c0 06 c8 33 3e 54 b7 4d 3d 73 01 8a 3c ed 65 4d 3d
       0.17556772 0.050223663 0.016846394 0.050146032
0003d0 d1 20 14 3d 3b fe 0f 3e 16 69 b1 bd 1a 50 42 bd
       0.03616411 0.14061825 -0.08662622 -0.047439672
0003e0 f1 94 9b 3d 53 0e 52 3d 21 2b b7 bd dd 9b 30 3e
       0.07596768 0.051283192 -0.08943773 0.17246957
0003f0 d2 fc 8f 3d 13 4b 64 3e 93 e5 3c bd 15 d3 58 be
       0.070306435 0.22294264 -0.046117377 -0.21174271

bias f4 [3]
000000 90 65 b6 3d 5e 2b 37 3d 0e 39 73 3b
       0.0890609 0.044719093 0.0037112865

weight f4 [3, 100]
000000 d0 c8 a1 3c c8 04 5d be 6e d8 e4 3d e6 3b f3 3d
       0.019749075 -0.21583855 0.11174093 0.11876659
000010 5b 8c 81 be 52 b7 ac bd fd 4e e0 3d da a7 01 be
       -0.25302395 -0.08433403 0.10952566 -0.12661687
000020 c3 ff 11 3e 3c e8 5b 3d b0 01 4c 3d c8 56 1f 3d
       0.14257722 0.053688273 0.049806297 0.03890112
000030 d8 d0 f5 3d b2 9d 5b be c3 69 81 3e 21 0e fc bc
       0.120027244 -0.21446875 0.25276002 -0.030768456
000040 01 e9 34 be 52 d5 2e 3e 94 f3 c5 bc 98 30 9a 3e
       -0.17667009 0.17073563 -0.024163999 0.301152
000050 1a 77 f9 bd 76 69 17 3e 2d 40 eb bd 34 e3 dd 3d
       -0.1218092 0.14786324 -0.1148685 0.10834351
000060 38 5f c4 be 45 12 8a 3c 82 f4 05 be 9b ae fe 3d
       -0.38353896 0.016854415 -0.13081554 0.12435647
000070 97 8c 9d 3d bf 91 31 bd 75 7d aa bd 42 cb 30 be
       0.07692831 -0.043351885 -0.0832471 -0.17265037
000080 8c fc c3 bd 21 c6 31 be c6 6b 16 3d 7a 2b cb 3c
       -0.09569654 -0.17360736 0.036723875 0.024801005
000090 2a df 1b bd a5 d4 3b 3c dc f3 a6 3d 3b c0 18 3e
       -0.038054623 0.011464273 0.08151981 0.1491708
0000a0 45 7d 40 3c a0 9b 4d 3c b4 75 4a be 0e 42 4e 3e
       0.011748617 0.012549311 -0.19771463 0.20142385
0000b0 6f 01 34 bd eb 16 98 bc 71 87 46 3e f8 cb e5 3d
       -0.04394668 -0.018565616 0.19387604 0.112205446
0000c0 2e e9 79 3c a2 72 d2 bd 39 b2 20 be 75 68 c7 3d
       0.015253348 -0.10275771 -0.15692987 0.097367205
0000d0 67 38 e1 bd a5 70 90 be ba 55 d6 3c 36 a1 b0 3d
       -0.10997086 -0.2821094 0.026163924 0.086244985
0000e0 f3 e7 ea 3b 0c 43 95 bd af a6 c3 bd 2b 40 e3 bc
       0.007168764 -0.07288179 -0.09553277 -0.027740559
0000f0 d3 99 3d 3e 67 3c 2f 3e bd 38 12 3e b2 da 48 be
       0.1851571 0.17112885 0.14279456 -0.19614676
000100 07 f9 02 3d 82 60 5f 3d 51 12 d6 bd d6 75 a2 bd
       0.031975772 0.054535396 -0.10452712 -0.07932632
000110 81 0c b6 3e 1a 00 82 be e1 68 60 bd 43 5d d3 3b
       0.35556415 -0.25390702 -0.05478752 0.0064503266
000120 37 d8 d7 bd 8f 41 82 be 4c ea 10 bd 98 d9 11 3e
       -0.105392866 -0.25440642 -0.035379693 0.14243162
000130 09 71 a4 bd 70 da c4 3b 2d 31 30 3e 8d b9 87 3c
       -0.08029372 0.006007485 0.17206259 0.01656797
000140 03 20 3c 3d 81 60 41 3e a6 62 23 3e 27 74 58 be
       0.045928966 0.1888447 0.159556 -0.21138059
000150 9c 86 dc 3a bf c5 6f 3e dd b0 14 be 4c 86 6e bd
       0.0016824785 0.23415278 -0.14520593 -0.058233544
000160 8b 1d 34 bd 3c ce 63 bc ba 4d 43 bb 50 f4 de 3d
       -0.043973487 -0.013904151 -0.0029800967 0.10886443
000170 c6 0a f0 bc d8 f4 30 3e 1d 38 e9 3c d6 30 36 3e
       -0.029302012 0.172809 0.02846914 0.17792067
000180 4c 3c 4a 3e bb 42 97 3c 40 14 b3 bd 68 89 cf bd
       0.19749564 0.018464437 -0.08744097 -0.1013363
000190 5b 63 2a be df c7 b2 bd 88 dd de 3d 8c ee 31 3d
       -0.16639464 -0.08729529 0.108820975 0.043440387
0001a0 91 14 86 bd da 07 28 3d bf 04 86 3c 89 96 1f be
       -0.065468915 0.041023113 0.016359685 -0.15584768
0001b0 5f 3d d9 3d 40 52 2a 3e e7 29 1e bd 3e 97 64 3e
       0.10607409 0.16632938 -0.03861418 0.2232332
0001c0 be 3f 55 3e 59 88 8d 3d 2d 37 df bd 9c af c9 bd
       0.20825097 0.06910772 -0.10899196 -0.09847948
0001d0 ae e9 8b be 6b 6c 32 3d bb e0 56 bd 32 1b 9a 3d
       -0.2732672 0.043560427 -0.052460413 0.07524718
0001e0 03 9a 8a 3e ec 52 0f 3e 1e 76 bd bc 2b 53 26 bd
       0.27070627 0.13996476 -0.023127612 -0.04060666
0001f0 8f c1 55 be 28 3d 4d bd 1a 5a 2b be 3f 91 06 bd
       -0.20874618 -0.05010715 -0.1673359 -0.03285336
000200 49 bb 81 bd ad e0 9d bd 1c 96 7d be ef 98 8c bd
       -0.0633455 -0.07708869 -0.24764293 -0.06865107
000210 3a 64 05 3d aa 09 73 be 57 33 18 3e e4 be f8 3d
       0.032566287 -0.23734155 0.14863335 0.121457845
000220 f8 90 a8 3c 42 e8 6f bd f0 84 2f be ee 6e db bd
       0.020576939 -0.058571108 -0.17140555 -0.107145175
000230 14 a0 6b 3c 3a d4 a9 3c d3 a1 03 be 94 eb c8 3d
       0.014381427 0.02073108 -0.128547 0.09810558
000240 ef c9 9b 3d 2e 9f b1 3c eb f4 2a 3e 4e 07 5c 3d
       0.07606875 0.021682348 0.16694991 0.053717904
000250 7f 6e 25 bd e0 4a 0f be 74 f5 f5 3d 91 50 b1 bc
       -0.04038858 -0.13993406 0.12009707 -0.021644862
000260 69 eb b8 3d 4e da 61 bd a3 c7 1a be 11 32 6c 3d
       0.09029276 -0.055139832 -0.15115218 0.057664935
000270 18 b8 9b 3e 27 15 98 bd 7d 85 b5 3c 70 a8 92 bd
       0.3041389 -0.074259095 0.022158379 -0.07161033
000280 a2 31 15 bd ef 4f c9 39 0d ce 11 3e 8e c5 7b 3c
       -0.036424287 0.00038397263 0.14238758 0.015366925
000290 a0 12 8f 3d c3 14 ee bd 9e da f0 bd ba 12 67 3c
       0.06985974 -0.11625054 -0.11760448 0.014103586
0002a0 f1 1c 91 3d bb 95 43 3d 13 5e f4 bd 6e 9b 2c 3e
       0.07085598 0.047750216 -0.11932006 0.16856167
0002b0 22 23 de 3d f6 02 f4 bd 64 38 25 3e d6 a9 5b bd
       0.10846545 -0.11914627 0.16134793 -0.053628765
0002c0 d5 03 82 bd 43 d3 95 bd fe 42 ab bd 9f 2e d0 3d
       -0.06348387 -0.073156856 -0.08362387 0.10165142
0002d0 5e f1 db ba 8f 08 09 bd b2 02 7b 3d e5 ad b0 bc
       -0.0016780307 -0.033455428 0.061281867 -0.021567294
0002e0 99 b3 02 be 5a e5 09 bc 9d ef e4 3c a4 3d 7a bb
       -0.12763824 -0.008416498 0.027946288 -0.0038183713
0002f0 88 b3 f8 bb 9e cf 36 3e bc 0e 4d be 3c df a1 bb
       -0.007589761 0.17852637 -0.20025152 -0.0049399417
000300 31 5b c7 3c 0d 02 17 be 7d b1 85 bd 6a a0 1b 3d
       0.024335476 -0.14746876 -0.06527994 0.03799478
000310 ab 23 0b 3e ae 85 42 3e 1f bb 84 be d6 95 81 3d
       0.13587825 0.18996307 -0.25924012 0.06327407
000320 e8 1f 6e 3d 83 60 ed bc f7 e0 07 be 20 45 4b 3d
       0.058135897 -0.028976684 -0.13269411 0.04962647
000330 5e b2 57 bd 99 0b 55 3d 22 5b a2 be 82 ba 26 be
       -0.05266034 0.052013014 -0.31710154 -0.16282085
000340 ba 20 36 3d f2 23 4e 3c 99 69 a3 bd e6 3f 37 3e
       0.044464804 0.012581812 -0.079791255 0.17895469
000350 c2 11 9b bc ba 6e fa bd 06 7b 23 bd 4b 4e 4e be
       -0.018929366 -0.12228151 -0.039912246 -0.20147054
000360 25 4d 07 be ce 1f 23 3c 45 5d a4 3d 12 3b 8a 3e
       -0.13213022 0.009956313 0.08025602 0.26998192
000370 e5 cf e8 3c d7 6d 73 3d 0e cd 33 3d 94 38 8d bc
       0.028419444 0.059430923 0.043896727 -0.017238893
000380 d7 70 99 bc 3a f1 0d be 3d 0c 00 3e 47 54 82 3c
       -0.018730564 -0.13861552 0.12504669 0.015909327
000390 97 f0 e3 bc c7 00 ce 3c 23 55 a4 bc c3 c4 ba 3d
       -0.027824683 0.025146855 -0.020060128 0.091195606
0003a0 71 59 9e bc 75 12 d8 bd 71 dd d3 3d 8c 7d 8d bd
       -0.019329758 -0.105503954 0.10344971 -0.06908712
0003b0 2f 2b cd 3c 09 6a 6d bd 51 5b 2d 3e 29 37 f6 3d
       0.025045006 -0.05796245 0.16929366 0.1202224
0003c0 83 27 fa bd f1 94 e6 bc 96 7d 08 be 16 92 c6 3b
       -0.122145675 -0.028147193 -0.13329157 0.0060598953
0003d0 75 62 87 be d0 7f 13 bd fb ab 01 3e a2 b3 fc 3d
       -0.26442304 -0.036010563 0.12663262 0.1233895
0003e0 b9 03 63 3d 72 ab 8e bd c0 5d 57 be 2c 96 b4 bd
       0.055423472 -0.06966294 -0.21031857 -0.088177055
0003f0 cf 64 0d be 52 4b ea 3d 4a a3 43 3e 09 45 15 bb
       -0.13807987 0.114401475 0.19105259 -0.0022776744

bias f4 [3]
000000 c3 64 6f 3b 1a b8 b7 bd 65 3a 16 bc
       0.0036528565 -0.089706615 -0.009169196

weight f4 [100, 5]
000000 58 1c db bd 5d 08 71 3d 3d 69 d3 3e 1d 46 b1 bc
       -0.106987655 0.058845866 0.41291228 -0.021639878
000010 94 16 b3 bb 83 98 72 3e 2b 01 ff 3d f9 b8 4f 3e
       -0.005465338 0.23690991 0.12451395 0.20285405
000020 00 0e 23 3e 56 d0 99 3d 30 a9 6c 3d 31 4d 55 be
       0.1592331 0.0751044 0.057778537 -0.20830227
000030 7f 01 0c 3e 4e 8f 0d bd a1 11 3e 3d 3b f8 ee 3c
       0.13672446 -0.034560494 0.04640353 0.0291711
000040 56 b0 50 3d bb 25 ba 3d 14 94 a1 bd a0 21 b0 bd
       0.050949417 0.09089228 -0.07889572 -0.086001635
000050 96 fd 4f 3c 0d 51 22 be fa 29 8a 3d f1 69 3c bc
       0.012694737 -0.15851231 0.06746288 -0.011499868
000060 46 aa b2 3d b4 8e 8c bd 1f 40 38 be f4 6e 32 3e
       0.08723883 -0.06863156 -0.1799321 0.17425138
000070 58 e9 0c 3e 99 05 40 bd 4e a6 cd bd 53 66 2d 3e
       0.13760889 -0.04688034 -0.10041486 0.16933565
000080 a6 8d 19 3e 8c 2b eb bb 6f 60 4d 3c 3b 3b 93 3d
       0.14995441 -0.007176822 0.012535199 0.07189032
000090 69 f9 24 be bf 8a 95 3d c4 5f c8 3b 95 40 3c 3e
       -0.16110767 0.07301854 0.006114932 0.18384011
0000a0 1b 85 4f 3e 52 75 ff bd fe 23 85 3e 77 6c 0f 3e
       0.2026562 -0.12473549 0.26004022 0.1400622
0000b0 a4 f4 5d bd 09 df 6c bd 25 0a dc bd 3e 61 68 3d
       -0.054188386 -0.05782989 -0.107441224 0.056733362
0000c0 f5 40 d5 3b 7c 4e d4 bc 4d 8c 28 be 43 c2 9e bb
       0.0065079876 -0.02591633 -0.1645977 -0.004844935
0000d0 83 9a e8 bc 66 36 bd bc b3 51 26 3e 7f b6 15 bd
       -0.02839399 -0.023097228 0.16242103 -0.036550995
0000e0 af b1 2c bd b7 8e fd 3c 9f 1e f7 bd c5 8e 8c bc
       -0.04216164 0.03095184 -0.120663874 -0.017157922
0000f0 b3 b2 49 3c c7 9e a1 3e b4 b1 1d be 3b 8e 1d be
       0.012310672 0.3156645 -0.1539982 -0.15386288
000100 b4 3f 3f 3e 3c 96 ee 3d fe 20 59 3d bc dc 25 be
       0.18676645 0.11649749 0.05300998 -0.16197485
000110 04 f8 05 3e d3 f7 96 3d 11 f3 71 be 11 94 e0 3c
       0.13082892 0.073714875 -0.23627879 0.027414354
000120 21 5a e8 3d 8d 1d 05 be ae 84 bf 3e 5c 09 26 3e
       0.11345316 -0.12999554 0.37405914 0.16214508
000130 ff e2 2c 3c 2d 1a 50 bd f8 04 c5 3d cc 8d 83 bd
       0.010552167 -0.050806213 0.09620088 -0.0642353
000140 0d e2 2a be 47 5b 68 bd e2 62 5c 3d f4 bb 20 be
       -0.16687794 -0.056727674 0.05380524 -0.15696698
000150 13 62 68 bd 2d 8b 93 bd c5 c6 4b bc bb e4 70 3e
       -0.056734156 -0.0720428 -0.012437527 0.23524754
000160 4c ed 62 be c1 98 ea bc 1d 6c ce 3d 69 f1 fd bd
       -0.22160834 -0.028637292 0.10079215 -0.12399561
000170 ac a3 cb 3c ea f9 ef bc 50 09 4f be 07 82 a7 bb
       0.024858318 -0.029293973 -0.20218396 -0.005111936
000180 83 15 be bc 88 ce 11 3e fb ae 9d 3c 40 29 bf 3d
       -0.023203617 0.14238942 0.019248476 0.0933404
000190 ed d6 66 bd 40 74 5a be d0 ae cd 3d 84 8d ea bb
       -0.056357313 -0.21333408 0.100431085 -0.0071579833
0001a0 da a0 1d 3d a4 dc 4a 3b d7 3a 87 bb eb 12 85 3d
       0.038483478 0.0030954266 -0.0041268873 0.06497749
0001b0 54 30 67 3d be be 87 3e 34 97 3c 3e 97 74 3d 3e
       0.056442574 0.26512712 0.18417054 0.18501507
0001c0 61 5a 88 3e 23 9c 94 bd 2e 8e 2f 3e 08 28 58 3e
       0.26631454 -0.07256343 0.17144081 0.2110902
0001d0 7c 67 01 3e 14 a3 8c bd 7e 4b 8b 3e ab dc 5b be
       0.12637132 -0.06867042 0.27206033 -0.21470897
0001e0 6c 71 0d 3e 34 83 03 be ee 5c 29 be be ac 91 bc
       0.13812798 -0.12843019 -0.16539356 -0.017782565
0001f0 ba d5 87 bc f7 0a 32 39 b6 bc cf bc b7 e8 26 3e
       -0.016581405 0.00016979488 -0.02535854 0.16299711
000200 80 f6 ad bc 8d a8 e3 bd b1 37 84 3e 21 2a 6a 3b
       -0.021235704 -0.11116133 0.2582374 0.0035730677
000210 95 fc 00 3d e1 9a 12 be 4d 35 91 be 60 cd 3f 3e
       0.03149088 -0.14316894 -0.28360978 0.18730688
000220 60 87 5b be d7 a9 1a 3c 13 9b 1c 3e 3c 4c 18 be
       -0.2143836 0.009439907 0.15293531 -0.14872831
000230 66 1b 3b be 79 82 57 3c 68 27 a1 3d 5f 16 50 3e
       -0.1827217 0.013153666 0.07868844 0.20321034
000240 11 c4 0b 3b f4 a4 9b bd fe a5 ae bd f2 8a a7 3d
       0.0021326581 -0.07599822 -0.08527754 0.081807986
000250 ef 9b 31 3e 24 25 c9 bd a3 93 76 be 17 c5 24 3e
       0.1734464 -0.09821537 -0.24079756 0.16090809
000260 19 05 09 be 42 42 25 be e7 b0 94 bd 89 b6 12 3e
       -0.13380851 -0.16138557 -0.07260304 0.14327444
000270 b2 eb 7d 3e 83 53 83 3d af e2 69 be ff b5 72 bc
       0.24796942 0.06412413 -0.22840379 -0.014813899
000280 38 c3 bf bd ef 8d be 3d 54 d5 74 3d 38 6a 0e be
       -0.09363407 0.093044154 0.059773758 -0.13907707
000290 40 d8 c1 bd 8f 89 a7 3d d7 5a 89 bc dc ec 5a bd
       -0.094650745 0.08180534 -0.016766949 -0.053448543
0002a0 c9 08 91 3e 20 eb 2a bd 53 b4 91 3d e4 c8 cf 3c
       0.28327015 -0.04172814 0.07114472 0.025364347
0002b0 f2 7e b9 3d a5 5c 1c be 9c 92 80 3d ab cc 76 3d
       0.09057416 -0.15269716 0.062779635 0.06025378
0002c0 1c d5 10 3e 43 fe 67 bc 83 79 af bd 28 4a b6 3e
       0.14143795 -0.014159742 -0.085680984 0.35603452
0002d0 1d 9a 1a bd 5b dc 3a bc 76 01 32 3e 4e 82 04 be
       -0.03774463 -0.011405076 0.1738337 -0.12940332
0002e0 21 3b 8a bc df ba ea bd 5a a4 ae bd 87 49 09 3e
       -0.016873898 -0.11461424 -0.08527441 0.13406955
0002f0 ab de 92 bc 71 b5 da bb 00 c2 c3 bd 5b 44 42 bc
       -0.017928442 -0.0066744615 -0.09558487 -0.0118571175
000300 d7 62 a3 3d f0 ae 03 bc 58 6c 5d bd b3 8f 3f be
       0.079778366 -0.008037314 -0.054058403 -0.1870716
000310 34 a7 7a 3e 32 45 32 be cc 76 2f be df 57 1c be
       0.24477845 -0.17409208 -0.17135161 -0.15267895
000320 1c 0d 0d be 3c 8a ce 3d 2a 7e 7e bd 30 67 80 3c
       -0.13774532 0.1008496 -0.06213204 0.015674204
000330 45 0b 95 3e 1f 11 5b 3e 9b 46 ad 3d 29 f5 dd bc
       0.2911016 0.2139325 0.084607325 -0.02709444
000340 f9 fa a5 3d 86 61 22 3e c7 2c 0f 3c f5 f7 2c be
       0.0810451 0.15857515 0.008738703 -0.16891463
000350 89 14 d3 bd c7 e6 73 3d 49 bb 1a be 26 58 1f 3e
       -0.10306651 0.05954626 -0.15110506 0.1556097
000360 b4 4a 0e 3d 18 97 30 3e aa b6 50 bc 7b 6b bd 3b
       0.03473921 0.17245138 -0.012738863 0.005780635
000370 16 6f 2b 3d 7a 1a e7 b9 3e 64 1e 3e 3f c6 e0 3e
       0.041853987 -0.0004407948 0.15467927 0.4390125
000380 11 f3 8c be 70 62 28 bd db 79 5f bc fa f1 69 3d
       -0.27529195 -0.041109502 -0.013639892 0.057115532
000390 88 a0 e6 3d 2a 94 93 3d ed c0 51 3d bb 2d 0f 3e
       0.11261088 0.072059944 0.05120938 0.13982289
0003a0 03 fe 3a 3e 8d e8 31 be eb 1c b7 3c 28 34 60 3e
       0.1826096 -0.17373867 0.022352656 0.21894896
0003b0 0c 4b 8e 3d af 32 41 3e a2 76 aa 3e b9 49 12 3c
       0.06947908 0.1886699 0.33293635 0.00892871
0003c0 c5 48 74 bd fa 73 1f be cf ac a3 3b 0d 4a 84 bd
       -0.05963971 -0.15571585 0.0049949656 -0.064594366
0003d0 f3 f5 14 be 70 89 ad 3d 52 65 33 3e 29 8d 63 be
       -0.14546947 0.0847348 0.1751912 -0.22221817
0003e0 59 e4 29 be 77 87 72 be 36 12 76 3d d6 47 43 3d
       -0.16591014 -0.23684488 0.06007596 0.04767593
0003f0 19 b7 58 3d 12 26 02 bd 85 6c 97 3d 22 42 df 3d
       0.05290899 -0.031774588 0.07393745 0.10901286

bias f4 [100]
000000 4b 42 b5 be 5e a2 49 3e 88 12 9e 3d 56 a8 c6 be
       -0.3540214 0.19690844 0.07718378 -0.38800305
000010 70 f8 26 be c9 0d a1 be 8b 43 1a 3e 30 dd ba 3d
       -0.16305709 -0.3145583 0.15064828 0.091242194
000020 3b 0a b5 3e c9 14 b6 3e e5 0c 0d bd 44 66 d8 3c
       0.35359368 0.35562733 -0.034436125 0.026415952
000030 2e 10 a2 be 06 5d c7 be 27 0c fc bc 62 4f b5 bd
       -0.3165297 -0.3893816 -0.030767513 -0.08853032
000040 1a d7 4e 3e ca 42 dc 3d e8 18 8b be e9 01 ed 3c
       0.20199242 0.107549265 -0.2716744 0.028931575
000050 30 e9 94 be 34 c0 fa bb fa 68 e8 3e 84 c8 ed bd
       -0.29084158 -0.007652307 0.4539259 -0.11610511
000060 47 91 cb be c1 b4 d1 bd 59 20 8a be 3b 71 af 3e
       -0.39759275 -0.10239554 -0.26977804 0.34266075
000070 fb 72 6a 3e e0 f8 d3 be ec 52 11 bd 70 37 ca bc
       0.22895424 -0.41400814 -0.03547947 -0.024684638
000080 19 a7 87 3e 07 f5 28 3e 09 0d 88 3e d3 ee 67 3e
       0.26494673 0.1649972 0.26572445 0.22649698
000090 ea 4d 65 be c1 a0 23 3d 81 19 43 bd 58 00 09 be
       -0.22393003 0.03994823 -0.047631744 -0.13379037
0000a0 9c 96 ec be bd 60 c8 3d 4b 77 81 3e 83 fd bd bd
       -0.46208656 0.09784076 0.25286326 -0.09276869
0000b0 78 38 25 3d 1b 21 b8 3e 57 4c 9e be 24 e7 a6 be
       0.040337056 0.35962757 -0.30917618 -0.3259822
0000c0 b5 56 58 be 00 85 af 3e ea 5a af bd 97 54 9a 3e
       -0.21126826 0.34281158 -0.08562262 0.30142662
0000d0 0e 69 33 3d e6 5f 9d be 5e 14 c6 be 5f 20 6e 3e
       0.04380136 -0.30737227 -0.38687414 0.23254536
0000e0 4d 77 10 bd e3 98 f2 3d 8b 36 8c 3e e5 7e fd bc
       -0.035270024 0.11845567 0.27385363 -0.030944297
0000f0 d6 0a b0 3e 8b 0f c3 3e 23 3c 1e bd ce d6 ba 3e
       0.34383267 0.38097796 -0.03863157 0.36492008
000100 8f fb a8 3e 63 d4 4c 3d 38 c9 3f be ee 74 24 be
       0.33004424 0.050007235 -0.18729103 -0.1606023
000110 20 77 4e 3e 9e 13 bb 3e 69 b4 2b be 67 1f bd be
       0.2016263 0.36538404 -0.1676804 -0.3693802
000120 93 53 bf be db cb 15 bd ce 15 5c bd 8d 06 fa 3d
       -0.3736845 -0.036571365 -0.053731732 0.12208281
000130 b3 55 29 3e b6 f3 31 3e 6a c4 b4 3d b3 09 2c 3e
       0.16536598 0.17378125 0.088265255 0.16800575
000140 96 8a 4e be b4 72 c6 be 42 1d 48 be d8 40 bf be
       -0.20170054 -0.38759387 -0.19542411 -0.3735416
000150 3c e0 9d 3d f8 a8 1e 3d 36 0e af 3e 03 21 e1 3e
       0.07708785 0.03873536 0.3419053 0.43970498
000160 df 40 1a 3d 9c 04 a6 3e 47 3d b9 3d 32 d3 3f 3e
       0.037659522 0.32425392 0.09044891 0.18732908
000170 03 0b 69 3e b1 42 99 3e bb 7e 91 be 80 ee 8c be
       0.22758107 0.29933694 -0.28417 -0.2752571
000180 2d 57 d5 3e f5 2f aa 3e a6 fb 77 3d 21 f8 31 be
       0.41668072 0.33239713 0.060542725 -0.1737981
