result/single_baseline_compare/synthetic/pretrained/0_vae_single(xn1.0_xa1.0_y1.0_kl0.1_tc0.5_css5.0_uxn3_uxa3_seed3).pth (torch, 647860 bytes, 54 tensors)

enc_xn.in_layer.weight f4 [100, 2]
-0.05245252 -0.0666777 -0.15617694 -0.10188137 0.07414278 -0.023160819 0.06314572 0.30255428
0.024866872 0.268667 -0.014484424 -0.041354094 -0.24046572 0.016403431 -0.08125672 0.21340203
-0.14267252 0.17460918 -0.055736598 -0.2930485 0.21566401 -0.04417372 -0.23863812 0.24218924
-0.114458896 0.2892869 0.116198234 0.12196587 -0.062396146 0.16082865 0.07246478 0.13630275
0.057812393 -0.18708956 0.12806028 -0.048677724 -0.12700713 0.05240907 0.14085396 -0.010135215
-0.038506772 -0.081763856 0.073677935 0.0031908948 0.10629162 0.21498014 -0.18503869 0.020078262
-0.023332406 0.096564695 -0.16725971 0.09395054 0.004065836 0.2692932 0.20666276 -0.044474393
-0.13400339 0.16076683 -0.1669171 -0.0211736 -0.15249242 -0.051961035 0.07993852 -0.07729115
0.038954224 0.018946245 -0.031364877 0.11582348 0.08572602 -0.1266017 0.1974792 -0.044523634
0.10777526 0.23537076 -0.25046998 0.28438842 -0.14779384 0.09649298 0.17296502 -0.16718535
0.005668952 -0.16423826 -0.13919641 -0.18191946 -0.032440044 -0.1638848 -0.027143044 -0.11872648
-0.19583704 -0.1420217 0.15714422 -0.27014002 -0.2459227 0.06922677 0.101770364 0.03190834
0.41090208 -0.1165616 -0.3195734 -0.073177196 0.088000655 -0.08799382 -0.18451756 0.4616638
-0.29310417 -0.18714455 -0.08994455 -0.12823033 0.10562925 0.19621192 0.09296214 0.1447923
-0.026589299 0.20990473 0.23148532 0.09882671 -0.12544192 0.04345673 -0.16306314 -0.108117685
0.13022266 0.0657117 -0.1257635 0.04894414 -0.13091587 -0.020474054 -0.032766826 0.281277
0.12018472 0.054081775 0.030603219 -0.2045141 -0.15563346 -0.22534847 -0.10755083 0.18642953
0.11137753 -0.1101083 0.09993548 0.11115646 -0.00026298373 0.0023339519 -0.14094372 -0.06489219
-0.006042737 -0.10001779 -0.13967201 0.20109254 -0.024835335 -0.093091644 0.04301067 -0.019396877
-0.04779352 -0.3328256 0.24521458 -0.16201591 -0.0024206396 0.023472752 -0.11120027 0.20421496
0.15743102 0.08933051 0.22547023 0.10683581 -0.05933342 -0.24197406 0.043934435 0.28283945
-0.07741284 0.048483368 0.05472991 -0.19623749 0.26586083 0.044082243 0.021659542 -0.04363096
-0.07661514 0.20236708 -0.08016729 -0.14716461 -0.062048186 0.21151237 -0.07160769 -0.07534645
-0.06811354 -0.082926534 -0.049624547 -0.19951658 0.16877426 0.30619755 0.08097535 0.21757697
-0.3835571 0.09440612 0.13262191 0.088847004 0.018980626 -0.10990061 0.15243566 0.012909798
00000000: 74d8 56bd 518e 88bd d9ec 1fbe 2ea7 d0bd
00000010: 2bd8 973d c2bb bdbc 8b52 813d 65e8 9a3e
00000020: 9cb5 cb3c b98e 893e 1450 6dbc e962 29bd
00000030: a53c 76be 7d60 863c ec69 a6bd 1086 5a3e
00000040: bf18 12be c0cc 323e 0f4c 64bd 740a 96be
00000050: 07d7 5c3e 81ef 34bd 8d5d 74be 7500 783e
00000060: 6d69 eabd 6a1d 943e 57f9 ed3d 3ec9 f93d
00000070: 1a93 7fbd 44b0 243e 6a68 943d f392 0b3e
00000080: b0cc 6c3d 6894 3fbe 3c22 033e 4b62 47bd
00000090: 280e 02be e5aa 563d 053c 103e 2c0e 26bc
000000a0: 47b9 1dbd cf73 a7bd 75e4 963d 551e 513b
000000b0: 6caf d93d c123 5c3e c87a 3dbe 2b7b a43c
000000c0: 9a23 bfbc b6c3 c53d 2146 2bbe 2469 c03d
000000d0: b43a 853b cce0 893e 679f 533e c82a 36bd
000000e0: 2f38 09be 0fa0 243e 51ec 2abe 4274 adbc
000000f0: f926 1cbe 18d5 54bd cfb6 a33d d34a 9ebd
00000100: 778e 1f3d 2835 9b3c 7578 00bd dc34 ed3d
00000110: 2091 af3d e0a3 01be fd37 4a3e 6a5e 36bd
00000120: 47b9 dc3d 0805 713e 9a3d 80be 5c9b 913e
00000130: 4557 17be 1d9e c53d be1d 313e a332 2bbe
00000140: 9ec2 b93b 132e 28be 8189 0ebe 1849 3abe
00000150: dadf 04bd 6bd1 27be 175b debc de26 f3bd
00000160: 8189 48be 236e 11be 6aea 203e cb4f 8abe
00000170: 29d3 7bbe c4c6 8d3d fb6c d03d 52b2 023d
00000180: c261 d23e d9b7 eebd 209f a3be eddd 95bd
00000190: b039 b43d 1b36 b4bd 2cf2 3cbe 335f ec3e
000001a0: c011 96be d2a2 3fbe d934 b8bd d04e 03be
000001b0: 2654 d83d c7eb 483e ef62 be3d 6f44 143e
000001c0: cdd1 d9bc 44f1 563e 7d0a 6d3e a865 ca3d
000001d0: d973 00be afff 313d 06fa 26be ce6c ddbd
000001e0: 1759 053e db93 863d 26c8 00be a779 483d
000001f0: cf0e 06be 34b9 a7bc 8236 06bd 8a03 903e
00000200: 6823 f63d da84 5d3d 9ab3 fa3c 256c 51be
00000210: 615e 1fbe c0c1 66be 9c43 dcbd 62e7 3e3e
00000220: e719 e43d 7680 e1bd f9aa cc3d 00a6 e33d
00000230: 14e1 89b9 37f5 183b 8d53 10be 32e6 84bd
00000240: 2702 c6bb 21d6 ccbd 2e06 0fbe 34eb 4d3e
00000250: 7973 cbbc d5a6 bebd f52b 303d 33e6 9ebc
00000260: 23c3 43bd 1e68 aabe 8819 7b3e 80e7 25be
00000270: 98a3 1ebb ee49 c03c f8bc e3bd ba1d 513e
00000280: 9935 213e eaf2 b63d abe1 663e bccc da3d
00000290: 9a07 73bd 0cc8 77be 98f4 333d 55d0 903e
000002a0: a08a 9ebd 7f96 463d 782c 603d 7bf2 48be
000002b0: e91e 883e 958f 343d 5a6f b13c 61b6 32bd
000002c0: 66e8 9cbd 5139 4f3e c02e a4bd 52b2 16be
000002d0: 3d26 7ebd b396 583e 0da7 92bd 3d4f 9abd
000002e0: 1d7f 8bbd 63d5 a9bd 1c43 4bbd 134e 4cbe
000002f0: 29d3 2c3e edc5 9c3e 68d6 a53d 7fcc 5e3e
00000300: 9961 c4be ff57 c13d 0ace 073e 6bf5 b53d
00000310: 427d 9b3c 9213 e1bd 1818 1c3e 9e83 533c

enc_xn.in_layer.bias f4 [100]
-0.4808795 0.43354863 0.40710425 0.6385996 0.6257837 -0.25342256 0.5171901 -0.53638136
0.517319 -0.43542394 -0.5053568 -0.47166517 0.7066105 0.21649392 -0.49212578 -0.5601613
0.09925533 -0.14567056 0.2051145 0.43539426 -0.4538189 -0.66118467 0.059475716 0.48256803
0.44529825 -0.013136307 -0.16951002 0.22666301 0.5042036 -0.5906235 -0.086102754 0.5559958
0.56166726 0.6858449 0.29172236 0.71646166 -0.69707704 0.1365057 0.11376323 0.5073439
0.1638999 0.48083603 -0.64619786 -0.09733092 0.27289575 0.468671 0.18978843 0.47552192
-0.2141207 -0.038206015 0.6888765 0.4923025 0.50428796 -0.62976664 0.015646555 -0.60848075
0.6593505 0.594405 0.39653397 -0.4415485 -0.40162057 -0.47677195 0.28226438 0.5946729
-0.10700342 -0.66511023 -0.18141319 0.111271955 0.049858876 0.39436582 0.23023887 -0.18847993
-0.51428986 -0.003968616 -0.3372341 -0.55311495 -0.428789 -0.65978944 0.07018411 -0.18005015
-0.41861176 0.14723685 -0.051685344 -0.48660776 0.33019722 -0.71153903 -0.03778387 0.5706704
0.59401655 0.39632052 -0.1545702 0.16765854 -0.5136923 -0.02943691 0.6368619 -0.2737738
-0.68140495 0.5975517 0.2852009 0.50933605
00000000: d635 f6be 16fa dd3e f86f d03e 437b 233f
00000010: 5c33 203f 9ac0 81be 9266 043f 4a50 09bf
00000020: 056f 043f e3ef debe 105f 01bf 197e f1be
00000030: 6de4 343f 95b0 5d3e e9f7 fbbe bb66 0fbf
00000040: 6146 cb3d aa2a 15be 8909 523e ffeb de3e
00000050: f35a e8be 6643 29bf cf9c 733d 2813 f73e
00000060: 22fe e33e aa39 57bc 0994 2dbe 591a 683e
00000070: 7d13 013f 1a33 17bf a456 b0bd be55 0e3f
00000080: 6dc9 0f3f 8893 2f3f a25c 953e 086a 373f
00000090: a473 32bf 26c8 0b3e b2fc e83d 4ae1 013f
000000a0: 60d5 273e 2430 f63e 396d 25bf 6f55 c7bd
000000b0: feb8 8b3e a5f5 ef3e e657 423e 9c77 f33e
000000c0: 7542 5bbe e97d 1cbd 365a 303f 130f fc3e
000000d0: 0419 013f 6338 21bf 342d 803c 65c5 1bbf
000000e0: 32cb 283f ed2a 183f 8006 cb3e a512 e2be
000000f0: 36a1 cdbe 741b f4be f584 903e 7c3c 183f
00000100: 9c24 dbbd aa44 2abf 61c4 39be 8de2 e33d
00000110: d238 4c3d 51ea c93e bdc3 6b3e e200 41be
00000120: 80a8 03bf 2a0b 82bb f3a9 acbe f198 0dbf
00000130: 3b8a dbbe f6e7 28bf b0bc 8f3d 115f 38be
00000140: 4854 d6be 42c5 163e 03b4 53bd a724 f9be
00000150: 9c0f a93e 6c27 36bf 42c3 1abd 7517 123f
00000160: 7811 183f 86ea ca3e a747 1ebe aeae 2b3e
00000170: 5781 03bf ad25 f1bc 6209 233f 142c 8cbe
00000180: 8e70 2ebf 26f9 183f da05 923e d963 023f

enc_xn.h_layer.0.weight f4 [100, 100]
-0.044770908 -0.18993223 -0.01968888 -0.020813951 0.08394139 -0.028696883 -0.02887522 0.03264362
0.119574316 0.020305958 -0.0390757 -0.057146486 0.21151125 0.110970646 0.0074043283 -0.011169861
0.089432485 0.09387887 0.20295443 0.13193633 -0.050794672 0.033462543 -0.14527485 0.0162339
0.054646786 -0.06529721 0.18409547 0.0109829875 -0.16478167 0.018370561 -0.047899865 0.066505246
0.03416962 0.09886483 0.04934071 0.14793581 0.053368494 -0.06757144 -0.06570124 0.18026276
0.07738371 0.088818304 0.14440718 0.11013513 -0.03363122 -0.030448314 0.11882063 -0.0019393301
0.11549428 0.07833123 -0.061350845 0.062736884 -0.06498256 -0.051491246 0.014921786 0.024371656
0.10205193 -0.07686222 -0.04606112 -0.011625605 0.03602802 0.09799947 -0.11217452 -0.16702247
-0.025010072 0.10289698 0.049381576 0.07803304 0.03129321 0.054679453 0.12670879 0.000981706
0.017383335 0.033818047 -0.03761061 -0.061363544 -0.044225365 0.0679352 -0.090234645 0.0015211197
0.002066521 0.1359864 -0.14654878 -0.026719753 0.13483472 0.027432974 0.15040778 0.11721594
0.0765854 -0.004267114 0.12773025 0.0069141416 0.09654935 0.036815494 -0.021801375 -0.060858853
-0.26794803 0.030867863 0.041368596 0.18519467 0.07923337 -0.09846037 -0.0820543 0.07436426
0.074863136 0.10154607 0.25771397 -0.07248803 0.000956832 0.065301076 0.06442575 0.009789066
0.037705008 -0.15054722 0.003388627 0.035357412 -0.07194626 0.022669783 -0.067184985 0.15566663
0.041479852 0.068125434 -0.10311764 -0.01836873 -0.04463456 -0.04355045 0.07741789 0.13762808
-0.017355444 -0.082439795 0.054569874 -0.034156606 -0.02672496 -0.11032036 -0.090088114 0.11908225
0.057823513 -0.066407494 0.061848044 0.021348849 0.07559566 0.027599815 0.09754805 0.025175523
-0.1622915 -0.0055829436 -0.20155752 -0.09999445 0.099685095 0.12689221 -0.08008166 0.018179031
-0.15645905 -0.022526575 0.13201125 0.050933134 0.05790427 0.049453974 -0.015160996 -0.105379105
0.019154472 -0.073440015 -0.07032733 -0.061269514 0.027741553 -0.06509902 -0.12633598 0.151142
0.027071645 0.14089707 0.085534945 -0.0008846038 -0.13369119 0.016346881 0.04334807 -0.0999005
-0.03839066 0.04433272 -0.08079037 0.06439643 -0.02833737 0.0054633226 -0.04325335 0.112996385
-0.08614702 0.09846618 -0.0072394353 -0.05632908 -0.09281592 -0.21742854 -0.05427653 -0.060266078
-0.013597651 -0.084756896 0.06635777 0.09861185 -0.09828847 0.015250678 -0.13151312 -0.019773914
0.0020045885 0.004122439 0.006461743 -0.019890172 0.016424417 0.06324083 0.09651945 -0.13016291
0.0014642125 -0.012183949 -0.02689383 -0.15007545 -0.07325008 -0.07858795 0.024667123 -0.15878469
-0.014409466 -0.008385396 0.09702056 -0.016686028 -0.21930316 -0.16139637 0.1893127 0.026034659
-0.1757064 -0.008644219 -0.019785158 -0.016057635 0.0011557201 0.052066553 -0.18117997 0.082426585
0.15105164 0.075715505 -0.0068701296 -0.07061132 0.06345587 -0.045105815 -0.04672578 -0.31289634
-0.13149053 -0.11439548 0.03550562 -0.102674656 -0.020229835 0.026272388 0.008917482 0.14688891
-0.028850215 0.03784756 -0.025720933 -0.0017791447 -0.10416296 -0.0792471 0.0045598065 -0.09388997
00000000: b361 37bd 987d 42be 934a a1bc 0582 aabc
00000010: 77e9 ab3d ba15 ebbc ba8b ecbc 51b5 053d
00000020: 61e3 f43d ae58 a63c d70d 20bd 6f12 6abd
00000030: 6896 583e 9444 e33d 02a0 f23b cb01 37bc
00000040: 6128 b73d 9143 c03d 49d3 4f3e 511a 073e
00000050: 130e 50bd 0510 093d eec2 14be f5fc 843c
00000060: 4fd5 5f3d 8bba 85bd 8683 3c3e fdf1 333c
00000070: 87bc 28be dc7d 963c a632 44bd e733 883d
00000080: 72f5 0b3d a579 ca3d 7c19 4a3d 7c7c 173e
00000090: ec98 5a3d e562 8abd 5f8e 86bd cd96 383e
000000a0: 5a7b 9e3d 5fe6 b53d 7adf 133e 878e e13d
000000b0: e4c0 09bd be6e f9bc 3b58 f33d 1f31 feba
000000c0: 4488 ec3d 206c a03d 064b 7bbd 327c 803d
000000d0: 9415 85bd 7ce8 52bd 827a 743c 11a7 c73c
000000e0: 9a00 d13d f169 9dbd 96aa 3cbd 5279 3ebc
000000f0: 1e92 133d f2b3 c83d c1bb e5bd f007 2bbe
00000100: ece1 ccbc a7bb d23d 5644 4a3d c9cf 9f3d
00000110: 4f2d 003d 90f7 5f3d f3bf 013e 96ac 803a
00000120: 7f67 8e3c cb84 0a3d 950d 1abd 5758 7bbd
00000130: a825 35bd 9c21 8b3d f1cc b8bd 4f60 c73a
00000140: 786e 073b 0540 0b3e e210 16be 62e3 dabc
00000150: 1d12 0a3e 1ebb e03c 7f04 1a3e e90e f03d
00000160: ced8 9c3d 26d3 8bbb b8cb 023e 0690 e23b
00000170: aabb c53d d8cb 163d cc98 b2bc 2247 79bd
00000180: 7c30 89be 9ade fc3c 1e72 293d aca3 3d3e
00000190: 1b45 a23d 97a5 c9bd 160c a8bd 4a4c 983d
000001a0: d851 993d 63f7 cf3d 16f3 833e 9b74 94bd
000001b0: e9d3 7a3a 92bc 853d a6f1 833d 5262 203c
000001c0: 9170 1a3d 0d29 1abe ba13 5e3b efd2 103d
000001d0: 9058 93bd fbb5 b93c 4898 89bd 1367 1f3e
000001e0: c7e6 293d 5985 8b3d 572f d3bd 057a 96bc
000001f0: bad2 36bd f561 32bd 458d 9e3d 60ee 0c3e
00000200: 012d 8ebc 32d6 a8bd a984 5f3d cce7 0bbd
00000210: 4eee dabc a4ef e1bd 1e80 b8bd 65e1 f33d
00000220: 59d8 6c3d a700 88bd 6054 7d3d c8e3 ae3c
00000230: e6d1 9a3d 0219 e23c 46c7 c73d e63c ce3c
00000240: be2f 26be 20f1 b6bb 1865 4ebe e4c9 ccbd
00000250: b327 cc3d 08f0 013e da01 a4bd 31ec 943c
00000260: cd36 20be a789 b8bc f52d 073e 439f 503d
00000270: 072d 6d3d 4090 4a3d d365 78bc 00d1 d7bd
00000280: d7e9 9c3c b867 96bd c607 90bd bef5 7abd
00000290: 4142 e33c a352 85bd 385e 01be f8c4 1a3e
000002a0: 5bc5 dd3c 5247 103e f22c af3d c2e4 67ba
000002b0: 58e6 08be e5e9 853c bf8d 313d a298 ccbd
000002c0: 863f 1dbd 3a96 353d 6c75 a5bd 47e2 833d
000002d0: c623 e8bc ac05 b33b 6d2a 31bd a66a e73d
000002e0: d96d b0bd a3a8 c93d c938 edbb 52b9 66bd
000002f0: 4616 bebd 96a5 5ebe 1151 5ebd 90d9 76bd
00000300: afc8 5ebc 0695 adbd 95e6 873d 02f5 c93d
00000310: 774b c9bd fbdd 793c 60ab 06be e7fc a1bc
00000320: 6a5f 033b 8615 873b 07bd d33b b7f0 a2bc
00000330: 808c 863c 6984 813d fdab c53d 6d49 05be
00000340: d2ea bf3a 309f 47bc 7350 dcbc 61ad 19be
00000350: 2304 96bd b8f2 a0bd b512 ca3c 7498 22be
00000360: ae15 6cbc e662 09bc b7b2 c63d 23b1 88bc
00000370: 0291 60be 1745 25be 30db 413e a346 d53c
00000380: 61ec 33be 7ba0 0dbc 7c14 a2bc 4d8b 83bc
00000390: 887b 973a bd43 553d 3e87 39be 45cf a83d
000003a0: 48ad 1a3e bb10 9b3d d31e e1bb ab9c 90bd
000003b0: 27f5 813d e0c0 38bd 8863 3fbd f333 a0be
000003c0: 74a5 06be 2d48 eabd 576e 113d 1747 d2bd
000003d0: 0ab9 a5bc 3139 d73c a11a 123c 0c6a 163e
000003e0: 4957 ecbc 0b06 1b3d b5b4 d2bc 3132 e9ba
000003f0: 6453 d5bd 4e4c a2bd 6e6a 953b 6249 c0bd

enc_xn.h_layer.0.bias f4 [100]
-0.07975252 -0.08565959 0.03439995 0.06936694 -0.07464092 0.010270373 0.04799286 0.014224177
0.06118439 -0.093518764 -0.10717058 -0.07503712 -0.013454524 -0.06722664 -0.021608703 -0.08505141
0.013699641 0.010382037 -0.069178306 -0.08813183 0.06817335 -0.0816052 -0.008327933 -0.037973713
-0.06325996 -0.012668153 -0.06952068 0.03416994 -0.014960757 0.050442584 -0.01807705 0.013711995
0.039258502 -0.034419004 -0.072625324 0.07065827 -0.042901922 0.0956747 -0.0355039 0.025126377
-0.052569903 0.040055066 -0.0043831593 0.08228182 0.0129394615 0.0063784933 -0.02237584 -0.02346849
0.06761409 0.03582795 0.0743554 0.05884373 0.056459073 -0.044488564 0.03834059 -0.04813891
-0.009363791 0.027140912 -0.0846261 0.0044043125 -0.060591854 0.11534875 0.10414404 -0.102577016
-0.077507794 0.10907955 -0.07699314 0.04228135 0.07591642 0.118755236 0.04730455 0.034590457
-0.054854013 -0.049625456 -0.03856291 -0.029630713 0.04172422 -0.07829631 -0.009701384 0.034668356
0.09348722 0.038658146 0.024408681 -0.04866398 0.070998706 -0.02627484 -0.06269128 0.103623904
-0.05531826 -0.07131831 0.12348994 0.030520437 -0.011802831 -0.029464914 0.052605014 0.029566126
-0.112036794 0.08801505 -0.012780472 0.11478002
00000000: 4a55 a3bd 4c6e afbd f6e6 0c3d 4110 8e3d
00000010: 57dd 98bd 1145 283c 2994 443d 860c 693c
00000020: 7c9c 7a3d c486 bfbd 407c dbbd 10ad 99bd
00000030: 5d70 5cbc 1fae 89bd bc04 b1bc 6f2f aebd
00000040: 7674 603c 6b19 2a3c 5bad 8dbd 767e b4bd
00000050: 789e 8b3d a120 a7bd e271 08bc 538a 1bbd
00000060: 708e 81bd 168e 4fbc dc60 8ebd c7f5 0b3d
00000070: f71d 75bc e29c 4e3d 5216 94bc 47a8 603c
00000080: 86cd 203d f1fa 0cbd 96bc 94bd 48b5 903d
00000090: edb9 2fbd 19f1 c33d 8a6c 11bd d5d5 cd3c
000000a0: 8a53 57bd c810 243d 9ba0 8fbb 5f83 a83d
000000b0: 0900 543c ae02 d13b 8a4d b7bc fe40 c0bc
000000c0: 4279 8a3d 54c0 123d a547 983d 1f06 713d
000000d0: a141 673d a439 36bd 060b 1d3d 4e2d 45bd
000000e0: 966a 19bc 9e56 de3c 7350 adbd 0d52 903b
000000f0: 2a2f 78bd f73b ec3d 7849 d53d e613 d2bd
00000100: 68bc 9ebd 1965 df3d 94ae 9dbd 352f 2d3d
00000110: 117a 9b3d f235 f33d 6ac2 413d b9ae 0d3d
00000120: 9aae 60bd 1044 4bbd 24f4 1dbd 1cbc f2bc
00000130: 04e7 2a3d d159 a0bd 8ef2 1ebc 6800 0e3d
00000140: 3a76 bf3d 0158 1e3d b7f4 c73c e253 47bd
00000150: c567 913d 553e d7bc 4964 80bd c538 d43d
00000160: 6695 62bd 560f 92bd 4be8 fc3d ff05 fa3c
00000170: a960 41bc 6760 f1bc 5b78 573d a934 f23c
00000180: 8c73 e5bd 3c41 b43d 2f65 51bc ca11 eb3d

enc_xn.h_layer.2.weight f4 [100, 100]
0.1520633 0.0060884696 -0.06804821 -0.07263388 0.16389373 -0.15445046 -0.030301185 0.020900672
0.07069516 0.09648539 -0.032656763 -0.09965423 -0.014696928 0.1455337 -0.020603739 -0.0502021
-0.06810496 -0.16569693 0.021270048 0.013768587 -0.06406428 0.07005572 -0.03238697 0.06923651
0.06462663 0.026911683 0.012627911 0.014305455 -0.04773785 -0.083180085 -0.09835401 -0.06747518
-0.03275289 0.057922844 -0.11347721 -0.0104724625 0.06587821 -0.040177606 0.12494126 0.103970096
0.010982012 -0.099852316 -0.04506982 -0.032207917 0.21910287 -0.088934146 -0.24222064 0.0578855
-0.05439532 0.0031862778 0.14213818 0.021215733 0.00039787142 0.018321397 0.1851785 0.13851845
0.046317205 -0.17223029 0.08838305 0.06241353 -0.077032916 0.0016860745 -0.024909606 0.029511003
0.1755376 -0.049468916 0.03359273 0.057169612 -0.09100348 0.04272145 0.12713341 0.05818256
-0.0144153945 -0.01727772 -0.009983483 0.11187235 0.0070881876 0.091413714 -0.14820115 -0.09660672
-0.033259965 -0.04441275 -0.086747676 -0.08415214 -0.029137619 -0.07000055 0.06286364 -0.09870425
0.07951301 -0.10933914 -0.018328127 -0.10520223 0.10258074 0.12074747 0.22133327 -0.035574436
-0.018667677 0.16497704 -0.07872021 0.04831576 -0.03600565 0.24002592 -0.01549026 0.11884164
-0.043758832 -0.019158714 0.05991854 0.009890409 0.0016369977 -0.12835889 -0.083703734 -0.043908644
0.22136031 -0.15202382 -0.04393713 0.0902355 -0.1474491 -0.03702818 0.12881628 0.07118186
-0.053972356 0.048925806 -0.13525675 -0.023723839 -0.1556101 0.15595934 0.062505804 -0.19399521
0.060177412 -0.075702235 0.215577 -0.04487934 0.06474566 0.06003777 -0.095273696 0.06490679
-0.07117134 -0.046007413 -0.17446658 -0.11738003 0.007998997 -0.048175264 0.24534757 0.037752423
-0.08979531 0.07991631 0.13732617 0.08225884 -0.06608671 -0.2174203 0.027860498 0.12452116
0.021575876 -0.015107983 0.03578909 0.06379098 0.06297706 -0.027708368 -0.100438125 -0.24433352
-0.12394967 0.071704246 -0.015930492 0.088819705 0.08829378 0.0067511573 -0.03222016 -0.05965275
-0.07284727 0.005563193 -0.028031185 -0.062360078 0.14129096 -0.057765245 -0.055800542 0.050297875
-0.09568542 -0.05630386 -0.0746936 -0.18038978 -0.048485216 -0.035557803 0.09657612 0.17141235
-0.04179473 0.030212227 -0.0050166463 0.1004258 -0.03741955 0.047287956 0.064980194 0.0645639
-0.3642907 0.058313586 -0.1215641 -0.050508987 -0.021189611 0.019355102 -0.033238426 -0.08832805
-0.104004025 0.017736977 0.07735402 -0.05725195 -0.2189001 0.1059261 -0.042968314 -0.038539767
0.092001684 0.10240906 -0.12573996 -0.03619572 -0.0796998 0.08471612 0.10038811 -0.0026671551
-0.005024575 0.102321245 0.10490121 -0.1297489 0.06462366 -0.2505219 0.12650317 0.03212985
0.01279916 0.04164078 0.11020651 -0.024988832 0.077672385 0.0064608897 -0.02804154 0.24584953
-0.006365149 0.04390532 -0.083144456 0.017676756 -0.13635221 0.07256133 0.0316136 -0.0901202
-0.19263555 -0.06354249 0.07206151 0.1637006 0.0058470075 0.07014581 -0.13353482 -0.012570515
0.028425371 0.042958215 -0.09086125 -0.17676073 0.12260995 0.16976777 -0.06361417 0.010972951
00000000: 7bb6 1b3e c981 c73b dc5c 8bbd 12c1 94bd
00000010: c2d3 273e 4328 1ebe 313a f8bc e337 ab3c
00000020: a0c8 903d 229a c53d 19c3 05bd 8417 ccbd
00000030: 62cb 70bc c906 153e 2cc9 a8bc b8a0 4dbd
00000040: 9d7a 8bbd 75ac 29be 863e ae3c a495 613c
00000050: 2234 83bd 6079 8f3d 33a8 04bd dfcb 8d3d
00000060: f75a 843d e475 dc3c 4ce5 4e3c 6d61 6a3c
00000070: c488 43bd 525a aabd d46d c9bd 6d30 8abd
00000080: e527 06bd 8140 6d3d bd66 e8bd b194 2bbc
00000090: 28eb 863d 4691 24bd 34e1 ff3d 46ee d43d
000000a0: e6ed 333c 5f7f ccbd 229b 38bd 73ec 03bd
000000b0: 815c 603e 1b23 b6bd b008 78be 5919 6d3d
000000c0: a1cd 5ebd dfd0 503b ac8c 113e 9ecc ad3c
000000d0: 6699 d039 c116 963c 6f9f 3d3e c8d7 0d3e
000000e0: 1cb7 3d3d 235d 30be 2c02 b53d 54a5 7f3d
000000f0: 6fc3 9dbd 46ff dc3a 3b0f ccbc 0fc1 f13c
00000100: 21c0 333e eb9f 4abd 8898 093d af2a 6a3d
00000110: 0860 babd b0fc 2e3d 432f 023e d650 6e3d
00000120: 8c2e 6cbc 018a 8dbc c391 23bc 551d e53d
00000130: 0744 e83b 1d37 bb3d 0bc2 17be bed9 c5bd
00000140: 9a3b 08bd 25ea 35bd c4a8 b1bd f557 acbd
00000150: 04b2 eebc 735c 8fbd a7be 803d 7425 cabd
00000160: b8d7 a23d 33ed dfbd de24 96bc 4474 d7bd
00000170: da15 d23d 734a f73d 30a5 623e 80b6 11bd
00000180: f5ec 98bc beef 283e 1038 a1bd bfe6 453d
00000190: a97a 13bd 5bc9 753e dcca 7dbc 3f63 f33d
000001a0: 763c 33bd bcf2 9cbc 256d 753d 620b 223c
000001b0: 8790 d63a 8370 03be dd6c abbd 8dd9 33bd
000001c0: 47ac 623e 22ac 1bbe 6cf7 33bd 64cd b83d
000001d0: e6fc 16be dcaa 17bd 6ae8 033e ccc7 913d
000001e0: 1e12 5dbd 6d66 483d bf80 0abe 7f58 c2bc
000001f0: 4158 1fbe ceb3 1f3e 0b03 803d aea6 46be
00000200: 977c 763d c609 9bbd 38c0 5c3e 66d3 37bd
00000210: 5f99 843d 2aea 753d db1e c3bd daed 843d
00000220: 48c2 91bd 4572 3cbd 5ea7 32be f164 f0bd
00000230: 3a0e 033c 6d53 45bd 653c 7b3e 49a2 1a3d
00000240: 9ae6 b7bd 2aab a33d 3b9f 0c3e 5377 a83d
00000250: 7858 87bd 6da3 5ebe b33b e43c f304 ff3d
00000260: e4bf b03c 7987 77bc 9597 123d d8a4 823d
00000270: 1efa 803d a9fc e2bc 81b2 cdbd 9132 7abe
00000280: 53d9 fdbd add9 923d aa80 82bc 1be7 b53d
00000290: 5fd3 b43d d038 dd3b 49f9 03bd 7156 74bd
000002a0: f330 95bd 724b b63b a8a1 e5bc 486d 7fbd
000002b0: 94ae 103e 409b 6cbd 1c8f 64bd 2505 4e3d
000002c0: b8f6 c3bd e09e 66bd f5f8 98bd 19b8 38be
000002d0: 6f98 46bd 0fa5 11bd b3c9 c53d b886 2f3e
000002e0: f330 2bbd a27f f73c ae62 a4bb 0bac cd3d
000002f0: 3e45 19bd 04b1 413d 5614 853d 143a 843d
00000300: 5084 babe 3ada 6e3d 99f6 f8bd 83e2 4ebd
00000310: d695 adbc 978e 9e3c 0425 08bd 56e5 b4bd
00000320: 1000 d5bd 234d 913c c96b 9e3d 0581 6abd
00000330: 5927 60be c8ef d83d 8bff 2fbd e0db 1dbd
00000340: 616b bc3d d7bb d13d fac1 00be f741 14bd
00000350: a639 a3bd a57f ad3d 4898 cd3d 70cb 2ebb
00000360: 31a5 a4bb cd8d d13d 72d6 d63d e5dc 04be
00000370: 6959 843d 6844 80be 0c8a 013e 979a 033d
00000380: 91b3 513c 868f 2a3d f3b3 e13d 61b5 ccbc
00000390: b312 9f3d dfb5 d33b 5fb7 e5bc fbbf 7b3e
000003a0: bd92 d0bb 11d6 333d a447 aabd d8ce 903c
000003b0: ea9f 0bbe 099b 943d 437d 013d f090 b8bd
000003c0: 4142 45be 9122 82bd fc94 933d 21a1 273e
000003d0: 4198 bf3b 9ba8 8f3d 5abd 08be 90f4 4dbc
000003e0: 53dc e83c f4f4 2f3d 7715 babd c400 35be
000003f0: ed1a fb3d 9ad7 2d3e 2548 82bd e4c7 333c

enc_xn.h_layer.2.bias f4 [100]
-0.0012784906 0.05228395 -0.08961047 0.07019923 -0.019257495 0.0145074455 0.05355074 0.062204026
0.06697033 -0.06827045 -0.00506739 -0.013814417 0.07198472 -0.08964666 -0.08907135 0.07294473
0.056015357 0.030016454 -0.016475001 0.024077397 0.02950002 0.07184572 -0.009024202 -0.074584104
0.030209392 0.05416664 0.030333878 0.043376535 0.08763259 -0.0057190964 0.08326774 0.08763911
-0.0023459692 0.05064118 -0.05439689 -0.061461516 -0.10442604 -0.047626324 0.014825212 0.07903629
-0.057620186 -0.061564755 0.08660855 -0.03351435 0.0045270203 -0.0612121 0.04773043 -0.09421491
0.005294064 -0.10216196 0.10303697 -0.10820436 0.11327662 -0.075493276 -0.011714011 -0.08406894
-0.04448125 0.044753015 0.077212594 0.054917328 -0.0037481228 0.06590242 0.08711577 0.03271527
0.06737804 -0.012601809 -0.023714807 0.09281682 0.012894479 0.0401473 0.08128552 0.06938611
-0.02286527 -0.025937226 -0.013578367 0.0043444335 -0.07648714 -0.07052152 -0.036364354 -0.0060914815
-0.028868781 0.066171184 0.034838863 0.022150373 0.027697649 0.048264917 0.045378335 0.07342466
0.061516505 -0.008405997 -0.028134562 0.034697354 0.0634449 0.01975486 -0.042767107 0.0026941153
-0.03789192 0.10640612 -0.09053863 -0.07734854
00000000: 0793 a7ba b227 563d b285 b7bd 9dc4 8f3d
00000010: e5c1 9dbc a3b0 6d3c 0558 5b3d a6c9 7e3d
00000020: be27 893d 61d1 8bbd 590c a6bb dd55 62bc
00000030: ba6c 933d ab98 b7bd 0a6b b6bd 0c64 953d
00000040: 5c70 653d 11e5 f53c 95f6 86bc f63d c53c
00000050: 07aa f13c d923 933d 3fda 13bc 8dbf 98bd
00000060: b079 f73c d7dd 5d3d c17e f83c 98ab 313d
00000070: b778 b33d 4267 bbbb 4788 aa3d 227c b33d
00000080: d5be 19bb 206d 4f3d 46cf 5ebd 12bf 7bbd
00000090: 52dd d5bd d213 43bd 72e5 723c c7dd a13d
000000a0: 2503 6cbd 532b 7cbd d35f b13d 5846 09bd
000000b0: 6657 943b 8ab9 7abd fc80 433d bff3 c0bd
000000c0: d479 ad3b 4a3a d1bd 0c05 d33d 3f9a ddbd
000000d0: 93fd e73d 389c 9abd 20ec 3fbc 562c acbd
000000e0: f931 36bd f04e 373d a321 9e3d fef0 603d
000000f0: 11a3 75bb d9f7 863d c169 b23d 7200 063d
00000100: 7ffd 893d d177 4ebc 8e45 c2bc bf16 be3d
00000110: 5d43 533c 7f71 243d 0679 a63d 4e1a 8e3d
00000120: f24f bbbc 4e7a d4bc cd77 5ebc c05b 8e3b
00000130: 4aa5 9cbd 966d 90bd caf2 14bd 0d9b c7bb
00000140: 397e ecbc c284 873d 32b3 0e3d b374 b53c
00000150: 2ee6 e23c 6fb1 453d a2de 393d ab5f 963d
00000160: bbf8 7b3d 4fb9 09bc 747a e6bc d01e 0e3d
00000170: 66ef 813d f2d4 a13c 902c 2fbd c18f 303b
00000180: 8f34 1bbd 74eb d93d 516c b9bd e968 9ebd

enc_xn.h_layer.4.weight f4 [100, 100]
-0.07192553 0.017536558 0.061382584 0.044916436 -0.062274776 0.043185096 -0.029684827 0.067187905
-0.0038011174 -0.03599939 0.16986412 -0.06250574 0.14782847 0.04429942 -0.06862621 0.10523425
0.012334296 0.21479966 -0.18557313 -0.07413359 0.15976423 0.02309388 0.047946785 0.001532518
0.050627362 0.049291413 -0.09444112 -0.009344648 0.0048554535 -0.08830089 0.20605986 -0.040744964
-0.06096314 0.06750579 0.004446648 0.009225913 0.19515616 -0.07104807 -0.09006007 -0.05973306
0.15594469 0.01692648 0.1376675 -0.021186002 0.018878862 -0.029730491 -0.015960895 0.019968944
-0.012492501 -0.0052756104 -0.09989504 -0.04327269 -0.071726024 -0.1332578 0.110615216 0.06251741
-0.08116421 0.089640155 -0.028509868 -0.0053110407 0.17382033 -0.035795555 0.052711364 0.24527033
-0.073698625 0.010321053 -0.12177024 -0.0046276376 -0.07723991 -0.12995842 -0.10961978 -0.01591009
-0.053117067 0.01065827 0.047667507 0.010198088 0.16860922 0.06884592 -0.012806069 -0.033274796
-0.17487507 0.001863937 0.14283 0.03319061 -0.012368669 -0.010664268 -0.055187356 -0.03911861
0.007733235 -0.13858403 -0.105126694 -0.02298729 0.03142939 0.07887131 0.12662047 -0.07421788
0.0731345 0.025106618 0.012230921 0.14288986 -0.0407624 0.16509868 0.06862471 0.025845353
-0.19074474 -0.12222883 0.112643175 0.03466335 0.049365006 -0.14051552 0.014962727 -0.11655323
0.11668981 0.1274474 0.015786942 0.14630379 0.007343613 0.1347539 0.22687702 0.0652578
-0.06805686 -0.26269805 0.029763514 0.074704304 -0.118051395 -0.03885664 0.029484306 -0.02822479
-0.018232722 -0.004783402 0.10780304 0.05598214 0.03707647 -0.026552632 0.022883192 0.0007282562
-0.033084884 0.050758585 0.006642995 0.016446777 -0.124812156 -0.022767285 0.0291684 -0.0747984
0.014732597 -0.20822126 0.087344654 -0.09189126 -0.10072789 0.21558717 0.009244449 -0.14095077
0.1862467 -0.17429829 -0.2080444 0.0790555 0.038072094 0.03179409 0.043658588 0.063690946
0.041035898 0.054773193 0.05147722 -0.10014019 -0.17858183 -0.04949744 0.023850147 0.006982597
0.16135448 0.07347659 0.021630293 -0.08301595 -0.0039704056 0.049789153 0.014080321 -0.073876366
0.10144907 -0.049681585 0.05871162 0.1213447 -0.17158659 -0.05350642 -0.12155733 -0.059455033
-0.03129953 0.02071071 -0.13801217 -0.002590842 0.029747436 0.093572885 -0.040590867 0.1201233
-0.05575767 0.00040304422 -0.02184366 0.017736787 -0.18088171 -0.03566073 -0.11657821 0.14443932
-0.05333309 0.04188659 0.0773421 0.056686208 0.097417615 0.030619733 0.08274235 0.0051984894
0.063674524 -0.03785496 -0.12990724 -0.04591352 0.01813499 0.09641671 0.05590733 0.042135235
0.16192627 0.099997155 0.0074379295 -0.076155 0.04980549 -0.12180794 -0.08881574 -0.11124211
-0.15756707 0.07885332 -0.06748717 0.2554486 -0.07766766 -0.13327722 0.037525345 -0.009068424
0.1302658 0.09620652 0.05428692 0.17448504 -0.032146733 0.004358054 -0.06459817 0.093441226
0.04339711 0.030719861 -0.090638176 -0.08389322 0.047465283 0.08903194 0.061135527 0.007656299
-0.044590805 -0.37210673 0.021463688 -0.05609984 0.07161357 -0.18532364 0.12966721 0.038647275
00000000: b14d 93bd d4a8 8f3c 4e6c 7b3d 4cfa 373d
00000010: d613 7fbd dbe2 303d 982d f3bc d099 893d
00000020: 2b1c 79bb 1974 13bd dcf0 2d3e 0203 80bd
00000030: 5960 173e 4f73 353d e68b 8cbd 0e85 d73d
00000040: c915 4a3c 71f4 5b3e e206 3ebe 5ad3 97bd
00000050: 3c99 233e 602f bd3c d963 443d c5de c83a
00000060: a35e 4f3d cbe5 493d 596a c1bd 4b1a 19bc
00000070: 7f1a 9f3b 19d7 b4bd 5b01 533e 31e4 26bd
00000080: 7cb4 79bd 7a40 8a3d 30b5 913b 4928 173c
00000090: 04d7 473e a781 91bd 6a71 b8bd a7aa 74bd
000000a0: f7af 1f3e 67a9 8a3c b6f8 0c3e 448e adbc
000000b0: d8a7 9a3c 5c8d f3bc 6cc0 82bc e995 a33c
000000c0: 59ad 4cbc 07df acbb c595 ccbd b43e 31bd
000000d0: 18e5 92bd bc74 08be 3b8a e23d 2109 803d
000000e0: 6c39 a6bd 4295 b73d 878d e9bc 3d08 aebb
000000f0: f5fd 313e 5c9e 12bd dfe7 573d 2528 7b3e
00000100: 4eef 96bd a219 293c ad62 f9bd 70a3 97bb
00000110: f52f 9ebd d213 05be 5680 e0bd e155 82bc
00000120: 4891 59bd 06a0 2e3c 013f 433d e215 273c
00000130: e5a7 2c3e 17ff 8c3d 8cd0 51bc 274b 08bd
00000140: 7312 33be 594f f43a 0742 123e e1f2 073d
00000150: f5a5 4abc 2fb9 2ebc 230c 62bd d63a 20bd
00000160: 1467 fd3b f9e8 0dbe aa4c d7bd d74f bcbc
00000170: 1bbc 003d 4887 a13d cca8 013e 8bff 97bd
00000180: 8ac7 953d 65ac cd3c 3364 483c b851 123e
00000190: 79f6 26bd a10f 293e 1d8b 8c3d a2b9 d33c
000001a0: 9752 43be 1c53 fabd 77b1 e63d 28fb 0d3d
000001b0: f632 4a3d 4de3 0fbe 3a26 753c 76b3 eebd
000001c0: 11fb ee3d 9281 023e 9e53 813c a9d0 153e
000001d0: b1a2 f03b edfc 093e 7352 683e e2a5 853d
000001e0: 6561 8bbd 5c80 86be 9dd2 f33c 92fe 983d
000001f0: eec4 f1bd 2428 1fbd 1289 f13c ad37 e7bc
00000200: ca5c 95bc 16be 9cbb d7c7 dc3d 874d 653d
00000210: 7fdd 173d e884 d9bc 8875 bb3c 72e8 3e3a
00000220: 0484 07bd 3ce8 4f3d 7bad d93b 64bb 863c
00000230: 849d ffbd 7582 babc 92f2 ee3c e72f 99bd
00000240: fe60 713c f437 55be c1e1 b23d 7c31 bcbd
00000250: 6d4a cebd e2c2 5c3e 0876 173c 6655 10be
00000260: 74b7 3e3e 407b 32be 9709 55be dae7 a13d
00000270: 7cf1 1b3d 853a 023d 59d3 323d 6670 823d
00000280: 4215 283d db59 603d c7d9 523d 4d16 cdbd
00000290: 28de 36be d4bd 4abd 6261 c33c 45ce e43b
000002a0: 1c3a 253e e57a 963d 0332 b13c 4404 aabd
000002b0: 2d1a 82bb b6ef 4b3d 26b1 663c 7e4c 97bd
000002c0: 88c4 cf3d eb7e 4bbd 987b 703d 9283 f83d
000002d0: 65b4 2fbe 8c29 5bbd 0df3 f8bd 1f87 73bd
000002e0: f033 00bd 82a9 a93c 1053 0dbe 1ecb 29bb
000002f0: e5b0 f33c 24a3 bf3d 9c42 26bd 3403 f63d
00000300: 2862 64bd ae4f d339 7af1 b2bc bd4c 913c
00000310: 0e39 39be fc10 12bd 8ec0 eebd e7e7 133e
00000320: cc73 5abd 4691 2b3d 8965 9e3d cc2f 683d
00000330: e382 c73d 3cd6 fa3c d274 a93d 1758 aa3b
00000340: ca67 823d cd0d 1bbd 6706 05be d10f 3cbd
00000350: d58f 943c 2076 c53d 16ff 643d ff95 2c3d
00000360: 00d0 253e 4fcb cc3d e0b9 f33b 27f7 9bbd
00000370: d700 4c3d 7176 f9bd 07e5 b5bd e7d2 e3bd
00000380: 4359 21be d97d a13d b736 8abd 29ca 823e
00000390: 3910 9fbd d379 08be 2db4 193d ba93 14bc
000003a0: 6664 053e ed07 c53d f65b 5e3d 35ac 323e
000003b0: 4bac 03bd 02ce 8e3b 0c4c 84bd 1d5e bf3d
000003c0: 2bc1 313d 38a8 fb3c 82a0 b9bd 35d0 abbd
000003d0: f56a 423d 6156 b63d 3f69 7a3d b1e1 fa3b
000003e0: d9a4 36bd c684 bebe 9ed4 af3c f2c8 65bd
000003f0: 23aa 923d 7bc5 3dbe 7bc7 043e 9b4c 1e3d

enc_xn.h_layer.4.bias f4 [100]
-0.107670754 0.04540518 0.041305553 -0.052080885 0.0497849 0.03063079 0.084857054 -0.085089505
-0.034923926 -0.013273204 -0.018603818 -0.023818895 0.021889735 0.1061632 0.010764481 0.041527573
0.06341307 0.06564815 0.011181248 -0.009223635 -0.07455324 0.04356665 -0.035879955 -0.079839095
-0.11245155 0.0069037313 0.04766063 0.11270332 -0.07784349 0.06606233 -0.0047264886 0.086617224
-0.018657485 -0.063818224 0.008639342 -0.09744139 -0.007144556 -0.084414616 0.090279356 -0.02652174
0.084177025 0.036269423 -0.05541372 -0.014533713 0.052407652 -0.04098348 0.004446929 0.012503347
-0.0337484 0.01098497 -0.013362531 0.056816943 -0.09766512 0.02028987 -0.066497386 -0.0384582
0.01369711 0.09314302 0.07591525 0.014017117 0.077405185 -0.030643355 0.009842394 0.08325563
-0.009210207 0.008921525 0.03404027 0.042050596 -0.085536666 0.044115543 0.027488975 0.0040197917
-0.021516383 -0.024632988 0.007195452 0.09488053 0.071893066 0.07364766 0.07841167 -0.07939023
0.08023457 -0.08511277 -0.09729335 -0.070403 -0.056233056 -0.064091206 -0.056433022 -0.036349896
0.096402206 0.05414753 0.06980282 0.07068494 0.004566085 -0.06770684 -0.022072207 0.03426741
-0.08707202 0.094851315 0.020448742 -0.077946745
00000000: 7c82 dcbd c8fa 393d 0330 293d c452 55bd
00000010: 40eb 4b3d 6ced fa3c 89c9 ad3d 6843 aebd
00000020: 640c 0fbd da77 59bc 0967 98bc d81f c3bc
00000030: 1a52 b33c 186c d93d 815d 303c d118 2a3d
00000040: b6de 813d 8a72 863d 8e31 373c bb1e 17bc
00000050: 5eaf 98bd f272 323d dcf6 12bd ae82 a3bd
00000060: 004d e6bd b238 e23b cb37 433d 00d1 e63d
00000070: 686c 9fbd b04b 873d a9e0 9abb 5f64 b13d
00000080: 95d7 98bc 21b3 82bd 078c 0d3c 5a8f c7bd
00000090: e11c eabb 92e1 acbd 62e4 b83d 1f44 d9bc
000000a0: 0165 ac3d 3f8f 143d 7ff9 62bd d01e 6ebc
000000b0: 68a9 563d 4bde 27bd 8bb7 913b d7da 4c3c
000000c0: c33b 0abd 4efa 333c 84ee 5abc e2b8 683d
000000d0: a704 c8bd f136 a63c c82f 88bd 5886 1dbd
000000e0: d869 603c c5c1 be3d 7479 9b3d 0da8 653c
000000f0: 9c86 9e3d c607 fbbc fe41 213c ee81 aa3d
00000100: 68e6 16bc 972b 123c cf6d 0b3d 3f3d 2c3d
00000110: d92d afbd 80b2 343d 8f30 e13c 75b8 833b
00000120: 2043 b0bc 1fcb c9bc d4c7 eb3b b950 c23d
00000130: ac3c 933d 96d4 963d 4c96 a03d 5897 a2bd
00000140: 0652 a43d 9b4f aebd bc41 c7bd 732f 90bd
00000150: a254 66bd 4042 83bd 5026 67bd a1e3 14bd
00000160: 856e c53d cdc9 5d3d c8f4 8e3d 44c3 903d
00000170: 199f 953b e2a9 8abd c6d0 b4bc fc5b 0c3d
00000180: d152 b2bd 6841 c23d 1f84 a73c 8ba2 9fbd

enc_xn.mu_gen.weight f4 [3, 100]
-0.005166067 -0.1632763 -0.19951014 -0.015513511 -0.1426055 0.058854822 -0.27494964 -0.08681789
0.025790913 0.030318977 -0.13338703 0.052270655 -0.1468129 0.039068904 -0.37396285 0.30325785
-0.018313 0.060241655 -0.07444574 -0.036719985 0.1204992 -0.098146446 0.02890967 0.21341778
0.060152806 -0.14029303 -0.019610625 -0.33080414 -0.04664182 -0.04037772 0.24000843 0.0503611
-0.015238895 0.24000888 0.014602092 0.07511929 0.14919889 -0.081662536 0.0049433834 0.16561286
-0.091282964 -0.008092288 0.016730921 -0.2118553 0.09172382 -0.013891989 0.06395409 -0.074809015
0.25141025 -0.04851281 -0.09421219 0.040420383 0.09245827 0.22195217 -0.016342796 -0.093136005
-0.20956323 0.029954584 -0.15827635 0.1213008 -0.062461246 -0.07362712 0.09538663 -0.21895967
-0.12422417 0.10294842 0.074231036 -0.392314 0.13710752 0.1845085 -0.007547259 0.12174572
-0.24138421 -0.28139868 -0.119167954 -0.1312093 -0.06276673 -0.38248277 -0.22875345 -0.16592042
-0.26692772 0.25393212 0.041388504 -0.001949034 0.18591063 -0.121182404 0.22076167 0.057894666
0.07627175 0.21245162 0.07193722 0.027574444 0.21925108 0.08089966 -0.06387397 -0.105875686
0.032753464 -0.08218019 -0.075529665 -0.02649881 0.019021587 -0.061937362 -0.18785895 0.047462624
0.0030198817 -0.20017041 -0.08325138 -0.12828489 -0.40333277 0.080746606 -0.07137289 -0.008961376
0.08646271 0.043295097 0.1878228 0.13283795 -0.021161504 -0.03267842 0.1605761 0.045966275
0.120714225 0.07945713 -0.08752467 -0.07496035 0.14447144 0.10443991 -0.032792944 0.04405276
0.086708285 0.13472769 0.0866689 -0.09931424 0.014973014 -0.062699184 0.16740358 -0.08665985
0.10047941 0.15208064 0.10907874 -0.067455344 -0.11686298 0.14270632 -0.1167778 0.24492386
-0.105045296 0.18346335 0.15056293 -0.00365502 -0.058994003 -0.0037501755 0.04549003 -0.15032814
0.004562126 0.01933225 -0.03368516 -0.016855408 -0.14814389 -0.18463998 0.1144709 0.0760881
-0.31910092 0.126854 -0.10213183 -0.13969445 -0.19914879 0.12126267 -0.008320207 -0.004384181
0.13103095 -0.01021638 -0.09038797 -0.111677445 0.006983398 -0.11731612 0.23934664 0.10927428
-0.087425 -0.06512832 0.24685478 0.32811582 0.002282186 -0.09392279 -0.16828503 0.044086933
-0.059590857 0.16050705 0.1481118 0.21136864 0.058410086 0.08305461 -0.24922876 0.17544405
-0.035769712 -0.24865992 -0.08496639 0.070881635 0.022529418 0.17741759 -0.016344013 0.10968578
-0.20795026 0.08039412 0.015028115 0.32400078 0.044446304 0.038593985 -0.05870487 0.062051788
0.048053283 0.10677432 -0.064564675 -0.19546652 0.040483844 -0.31027913 -0.021203646 -0.075364076
-0.34932372 -0.10910613 -0.23418209 0.33180562 -0.019287411 -0.13143216 0.006206098 0.12676744
0.014956199 -0.19119826 0.06700789 0.04812949 -0.022425039 0.1831067 -0.09167752 -0.15555434
0.055867977 -0.30840272 -0.009311057 -0.18548597 0.18915968 0.06202425 -0.24059379 0.016387329
0.07321532 -0.2490383 0.13603747 -0.22578365 0.13070919 0.24747749 0.13596794 -0.10349869
0.23692703 -0.17829649 0.050774384 -0.24966376 -0.22627865 -0.014674581 0.042927112 0.1275106
00000000: 1c48 a9bb e731 27be 634c 4cbe 622c 7ebc
00000010: 2d07 12be c111 713d 33c6 8cbe 94cd b1bd
00000020: 7747 d33c 815f f83c 9c96 08be c119 563d
00000030: 1f56 16be b706 203d 0f78 bfbe 9d44 9b3e
00000040: 2505 96bc f4bf 763d 0277 98bd b267 16bd
00000050: 49c8 f63d 0101 c9bd f9d3 ec3c 318a 5a3e
00000060: ca62 763d faa8 0fbe 76a6 a0bc 295f a9be
00000070: 7e0b 3fbd 1c63 25bd c5c4 753e 7147 4e3d
00000080: 8fac 79bc e3c4 753e 9d3d 6f3c 24d8 993d
00000090: 98c7 183e b03e a7bd 1bfc a13b 6b96 293e
000000a0: 90f2 babd 8495 04bc 490f 893c 99f0 58be
000000b0: b3d9 bb3d 3a9b 63bc 5dfa 823d 7835 99bd
000000c0: d8b8 803e 5eb5 46bd 52f2 c0bd d88f 253d
000000d0: c35a bd3d 6e47 633e 54e1 85bc 17be bebd
000000e0: be97 56be 5163 f53c 3213 22be 8e6c f83d
000000f0: 5dd7 7fbd d1c9 96bd 115a c33d f736 60be
00000100: 3e69 febd 9fd6 d23d 7106 983d 61dd c8be
00000110: ea65 0c3e ccef 3c3e ff4e f7bb d255 f93d
00000120: 6c2d 77be 7d13 90be 540e f4bd bb5b 06be
00000130: d88b 80bd c8d4 c3be 583e 6abe 0be7 29be
00000140: c0aa 88be 6403 823e fe86 293d bb76 ffba
00000150: 5b5f 3e3e 7b2e f8bd 590f 623e f522 6d3d
00000160: 5d34 9c3d eb8c 593e d253 933d cde3 e13c
00000170: 5b83 603e b9ae a53d 5bd0 82bd 5ad5 d8bd
00000180: 7f28 063d 164e a8bd 4caf 9abd 0814 d9bc
00000190: 29d3 9b3c 08b2 7dbd 195e 40be 2b68 423d
000001a0: 35e9 453b 79f9 4cbe b37f aabd 1d5d 03be
000001b0: a281 cebe 7a5e a53d f32b 92bd bcd2 12bc
000001c0: 5c13 b13d 3356 313d 9f54 403e ac06 083e
000001d0: e45a adbc cfd9 05bd 106e 243e 2247 3c3d
000001e0: 0539 f73d 6bba a23d 2240 b3bd d084 99bd
000001f0: 52f0 133e 97e4 d53d e551 06bd ab70 343d
00000200: 1d94 b13d 0ef6 093e 777f b13d 4465 cbbd
00000210: 5f51 753c 6e68 80bd d86b 2b3e b87a b1bd
00000220: 26c8 cd3d 07bb 1b3e ad64 df3d 0726 8abd
00000230: dc55 efbd 9b21 123e 3329 efbd 52cd 7a3e
00000240: fd21 d7bd d1dd 3b3e 2b2d 1a3e 0f89 6fbb
00000250: b2a3 71bd 81c5 75bb c153 3a3d 9fef 19be
00000260: e37d 953b ab5e 9e3c 73f9 09bd 5a14 8abc
00000270: 08b3 17be 4312 3dbe b86f ea3d 14d4 9b3d
00000280: 3261 a3be 04e6 013e 7e2a d1bd 100c 0fbe
00000290: a9ed 4bbe 9058 f83d 7a51 08bc 2da9 8fbb
000002a0: fa2c 063e 9a62 27bc 541d b9bd 25b7 e4bd
000002b0: fdd4 e43b 6f43 f0bd 4917 753e 32cb df3d
000002c0: e10b b3bd ff61 85bd 80c7 7c3e ccfe a73e
000002d0: ba90 153b 975a c0bd e952 2cbe 8094 343d
000002e0: 8b15 74bd f65b 243e 9faa 173e 0571 583e
000002f0: 6a3f 6f3d 8918 aa3d d335 7fbe 9ba7 333e
00000300: 4383 12bd b5a0 7ebe dc02 aebd 642a 913d
00000310: 9d8f b83c f5ac 353e e1e3 85bc f0a2 e03d
00000320: eaf0 54be aca5 a43d 7c38 763c 6ee3 a53e
00000330: 540d 363d ba14 1e3d 8574 70bd 042a 7e3d
00000340: 85d3 443d 7fac da3d 7c3a 84bd 6028 48be
00000350: 63d2 253d e8dc 9ebe 45b3 adbc 7b58 9abd
00000360: 8fda b2be 0973 dfbd 6ecd 6fbe 6de2 a93e
00000370: a200 9ebc 2796 06be 865c cb3b 53cf 013e
00000380: d80a 753c 7ac9 43be 6f3b 893d 6e23 453d
00000390: b7b4 b7bc 5380 3b3e 6cc1 bbbd a349 1fbe
000003a0: d2d5 643d f6e6 9dbe 678d 18bc 09f0 3dbe
000003b0: 13b3 413e 240d 7e3d 385e 76be b83e 863c
000003c0: eaf1 953d e503 7fbe 684d 0b3e d433 67be
000003d0: a1d8 053e bd6a 7d3e 2e3b 0b3e 1ff7 d3bd
000003e0: 009d 723e 5b93 36be cdf8 4f3d dba7 7fbe
000003f0: 97b5 67be a76d 70bc 57d4 2f3d 2492 023e

enc_xn.mu_gen.bias f4 [3]
-0.04907504 0.017695881 -0.06054427
00000000: e902 49bd f4f6 903c 45fd 77bd

enc_xn.logvar_gen.weight f4 [3, 100]
0.04941597 -0.027564809 -0.039729625 -0.0026987991 0.0053622816 0.26017788 -0.04215269 0.07766989
-0.22435506 -0.12878458 -0.38736302 0.009686705 -0.08448644 -0.1046699 -0.021709235 0.23070121
0.00680612 0.011615504 0.08062849 0.32272866 0.2664495 0.09564073 0.015608627 0.029227002
0.11099543 0.20727941 -0.054261826 0.1550844 -0.010596065 -0.04691609 0.098772354 0.14735645
-0.08875254 0.21438517 -0.11097268 -0.015821356 0.34451428 -0.2926734 0.12636735 -0.26272961
-0.03515862 -0.110080525 -0.17520939 0.11212968 -0.08856665 -0.15162353 -0.06930299 -0.17817348
0.15505594 0.27716517 0.045296323 -0.21480474 -0.04556142 0.14720488 0.10650798 0.14471637
0.14760791 0.29596066 -0.030161418 -0.12594108 0.18744707 -0.05044063 -0.040863954 0.003825974
-0.15723354 -0.21433674 0.3360965 0.0058415704 0.06751749 -0.25485852 -0.22675511 -0.3188367
0.10366806 -0.06343946 -0.098005906 -0.114261605 -0.2439222 0.13052861 -0.18858014 0.023541816
0.18012261 -0.14738573 -0.07962605 0.05704452 0.17449167 -0.011550833 0.148429 0.0519858
-0.10583603 0.22379313 -0.09649547 0.1097192 -0.03739336 -0.031338528 0.1279009 -0.054130804
-0.08494186 0.20822872 -0.45741844 -0.11370139 0.21513367 0.09245633 -0.1184068 -0.13328253
-0.08382504 0.00027285467 -0.009468097 0.12781231 -0.06710019 0.25593233 -0.23446803 -0.08448821
-0.20772621 -0.16160059 0.09303273 0.13835989 -0.005617027 0.093541354 0.21896496 0.41265798
0.12720451 -0.00026327683 0.031809542 0.058708087 0.09961053 -0.048506107 -0.0056476323 -0.0645733
-0.1358141 -0.12178965 -0.21130918 0.0101534445 -0.024003867 0.09957291 0.02363809 0.07109849
0.23127554 0.0012441223 -0.082952 0.052123826 -0.14593685 -0.15302189 0.1007049 -0.23929688
-0.39793503 -0.027013695 0.11641648 0.4056321 -0.25777936 0.077113844 0.16443697 0.02697048
-0.08980066 0.053498942 0.27894434 -0.15712088 -0.072383456 -0.08462805 0.035073828 0.03927995
-0.07100841 0.04255451 -0.18097548 0.095532134 0.031187396 -0.17110436 0.037772212 0.12788557
0.1260717 0.01383719 -0.013685385 0.13142632 -0.0014641411 0.04253353 0.16300492 -0.20228776
0.113499716 -0.06726133 -0.17126077 0.17687593 -0.022003716 0.006549029 0.07508764 -0.035107538
0.15235697 0.12420031 0.057984702 0.32194686 -0.12596339 0.20968962 0.117395066 0.054602537
-0.06235262 0.12195952 0.100560315 -0.15186518 -0.15547983 -0.1436311 0.052193746 -0.02681728
-0.072915584 -0.06206533 0.16721661 0.09302909 -0.06068505 -0.043345097 -0.095503636 0.100971356
0.071169436 0.060933355 -0.10838448 -0.076679036 -0.05773809 -0.018714428 0.11314619 0.17641231
0.077664465 0.11993243 0.026763987 0.26157498 0.025757251 0.32990235 -0.039314035 0.14807786
-0.025154864 -0.04813722 0.17236333 -0.102068394 -0.10641165 -0.3478315 -0.016511321 0.0022797443
-0.10656562 -0.15517114 -0.04715931 -0.049444936 0.06368151 0.023948045 -0.068299554 -0.081923604
-0.18807441 -0.051082507 0.12434793 -0.051829804 -0.12779334 -0.08368702 -0.2089165 -0.08384519
-0.1303836 0.0053334036 0.10162711 0.10102001 0.25373802 -0.066243246 0.1337514 -0.030321265
00000000: 6668 4a3d 98cf e1bc 88bb 22bd 56de 30bb
00000010: 14b6 af3b 0936 853e 4da8 2cbd 6411 9f3d
00000020: 55bd 65be 1be0 03be 7254 c6be fcb4 1e3c
00000030: 3a07 adbd 2c5d d6bd 91d7 b1bc f03c 6c3e
00000040: df05 df3b f44e 3e3c 8d20 a53d b13c a53e
00000050: 126c 883e 49df c33d 54bb 7f3c 776d ef3c
00000060: 9251 e33d 0e41 543e a641 5ebd 72ce 1e3e
00000070: 1e9b 2dbc 162b 40bd 2949 ca3d 9ce4 163e
00000080: e4c3 b5bd c987 5b3e a545 e3bd ca9b 81bc
00000090: 2d64 b03e 4ad9 95be 7166 013e 7f84 86be
000000a0: 7c02 10bd e671 e1bd 176a 33be 3fa4 e53d
000000b0: 6f62 b5bd 3343 1bbe baee 8dbd 1c73 36be
000000c0: fcc6 1e3e 98e8 8d3e a388 393d c6f5 5bbe
000000d0: 9d9e 3abd e0bc 163e db20 da3d 8730 143e
000000e0: 8726 173e 2888 973e 1415 f7bc b3f6 00be
000000f0: 20f2 3f3e d69a 4ebd f660 27bd 31bd 7a3b
00000100: d401 21be 177b 5bbe d714 ac3e a56a bf3b
00000110: 9c46 8a3d d17c 82be 7e32 68be 903e a3be
00000120: eb4f d43d 8cec 81bd 52b7 c8bd fd01 eabd
00000130: bec6 79be 4ba9 053e 271b 41be c4da c03c
00000140: 1072 383e 49ec 16be fc12 a3bd 84a7 693d
00000150: f2ad 323e b43f 3dbc c6fd 173e 10ef 543d
00000160: 8fc0 d8bd 072a 653e 6b9f c5bd 76b4 e03d
00000170: c829 19bd d45c 00bd 74f8 023e 43b8 5dbd
00000180: fff5 adbd e939 553e c032 eabe 46dc e8bd
00000190: 004c 5c3e bf59 bd3d 447f f2bd 377b 08be
000001a0: 76ac abbd ef0d 8f39 1420 1bbc 3be1 023e
000001b0: d36b 89bd 9009 833e 6318 70be 2808 adbd
000001c0: 2eb6 54be a07a 25be f287 be3d 37ae 0d3e
000001d0: 0a0f b8bb 9c92 bf3d 5a38 603e e847 d33e
000001e0: e641 023e 6b08 8ab9 b94a 023d e477 703d
000001f0: 9b00 cc3d 57ae 46bd c60f b9bb 023f 84bd
00000200: da12 0bbe da6c f9bd 6f61 58be a25a 263c
00000210: c2a3 c4bc e2ec cb3d aba4 c13c 169c 913d
00000220: 7fd3 6c3e d111 a33a bde2 a9bd cb7f 553d
00000230: 7870 15be c5b1 1cbe 5f3e ce3d 3e0a 75be
00000240: 24be cbbe d34b ddbc c36b ee3d 03af cf3e
00000250: a8fb 83be dded 9d3d 2a62 283e 32f1 dc3c
00000260: 69e9 b7bd b521 5b3d cbd1 8e3e 4ce4 20be
00000270: c73d 94bd 7951 adbd 93a9 0f3d 03e4 203d
00000280: db6c 91bd a34d 2e3d a351 39be 5aa6 c33d
00000290: b67c ff3c fb35 2fbe 09b7 1a3d 6ff4 023e
000002a0: f118 013e 62b5 623c aa38 60bc 9f94 063e
000002b0: 6ce8 bfba a437 2e3d c3ea 263e 8624 4fbe
000002c0: 8a72 e83d 4fc0 89bd fc5e 2fbe f71e 353e
000002d0: 2341 b4bc 3d99 d63b 8cc7 993d eccc 0fbd
000002e0: 7703 1c3e bb5c fe3d 5e81 6d3d 38d6 a43e
000002f0: 8cfc 00be e0b8 563e d36c f03d e9a6 5f3d
00000300: 7665 7fbd eac5 f93d 91f2 cd3d 8c82 1bbe
00000310: 1b36 1fbe 0814 13be 1cc9 553d eaaf dbbc
00000320: c454 95bd 3738 7ebd d53a 2b3e 0986 be3d
00000330: e390 78bd a18a 31bd 6997 c3bd 12ca ce3d
00000340: 48c1 913d 4195 793d aff8 ddbd e609 9dbd
00000350: c77e 6cbd 004f 99bc 31b9 e73d 6ea5 343e
00000360: 8c0e 9f3d 229f f53d 2640 db3c 28ed 853e
00000370: df00 d33c f6e8 a83e c107 21bd b9a1 173e
00000380: 9311 cebc 892b 45bd 0380 303e 3c09 d1bd
00000390: 5aee d9bd f816 b2be c042 87bc c367 153b
000003a0: 133f dabd 2fe5 1ebe 1f2a 41bd c686 4abd
000003b0: 746b 823d b12e c43c a3e0 8bbd 90c7 a7bd
000003c0: 9496 40be e43b 51bd 21aa fe3d 7d4b 54bd
000003d0: 42dc 02be 1a64 abbd 35ee 55be 07b7 abbd
000003e0: 4783 05be d5c3 ae3b e021 d03d 94e3 ce3d
000003f0: f3e9 813e 8aaa 87bd 21f6 083e 4d64 f8bc

enc_xn.logvar_gen.bias f4 [3]
-0.059277862 0.01836566 0.069043726
00000000: 58cd 72bd 9573 963c cc66 8d3d
