result/single_baseline_compare/synthetic/pretrained/0_vae_single(xn1.0_xa1.0_y1.0_kl0.1_tc0.5_css5.0_uxn3_uxa3_seed4).pth (torch, 647860 bytes, 54 tensors)

enc_xn.in_layer.weight f4 [100, 2]
00000000: dec8 423e b342 b7be 1c48 f83c 2b8c ef3d
00000010: 7c91 9bbe 5693 2ebe cbd1 8c3d 4a3c 7e3e
00000020: 1250 08be 9a5f dcbc b5c6 21be 31f2 553b
00000030: 36f2 263d c9f1 5bbd ca50 8b3c 446b ecbc
00000040: f94a c0be d8e7 97bd f867 9d3d 2423 223c
00000050: 8379 5f3e 0e1e 85be 1557 33be 0cfc 54be
00000060: b43f 2fbe 4fa2 c1ba 813a 2c3e 87a1 3b3e
00000070: ad4d 213e fab8 9d3d 2a7d 1dbd e19d fb3c
00000080: 0c5b 0f3e 79c1 6b3d 61b3 38be cdac 1c3e
00000090: f263 acbd 764b ccbb 42a8 153c a16e bc3d
000000a0: 4365 793c 3a7a 6a3e 265d 43be 76ab 583d
000000b0: b2d9 163c b9a6 833e 9329 2abe bb0c 8d3d
000000c0: ebc6 4d3e 512e 68bd 38a2 babd fcc5 093e
000000d0: dbf6 873d e6d9 7f3e d0a1 573e 54a6 233e
000000e0: 310d fabd de5b 5ebe 10eb 533d 9781 84bb
000000f0: fac6 9f3b 5402 2cbd b79f 08be 74e4 57be
00000100: 7fef 143e a27c 3fbd 9b59 b0bd 4605 4dbe
00000110: 172e 813e 52b7 913e f2ea 93be 0cfb a0be
00000120: 3533 853e 0207 293e bbd8 4cbd 8939 1bbe
00000130: 077a 25bc 9467 fdbd 535b a93e a873 0cbe
00000140: b2b2 bdbd 38e4 3a3e 4ded 17be b865 9a3d
00000150: 74e0 74bd 4a5c 433d 0ad0 943e d653 223e
00000160: 6afa 883e 3f63 32be c60c f03d a1ad 0e3e
00000170: adb9 f2bd c654 533d 5367 42bc 69e4 ee3d
00000180: a928 22be 45b8 b0bd d0df 4a3e c487 cebe
00000190: 454a f63d ccdb cc3d dd67 213e be56 a43c
000001a0: 0431 b23d c4fe e7bd e602 833d 42f1 913d
000001b0: c083 3c3e af97 f6bd bb9f 853d d70b 42be
000001c0: 9997 393e 0098 af3e 501e f8bd cd3c f3bd
000001d0: ce16 f2bd 934f a83c 511d 483b 2a7b 093e
000001e0: 9824 c2bc a4a5 4ebe 2a88 b23d ac93 94bd
000001f0: 9455 013d 0cca c5be c9d5 883d 5790 633e
00000200: 7397 533d 808b f8bd 68a5 22be ad19 7a3c
00000210: 415a cdbd 0934 78be 4d1c 57bc 52b6 fdbd
00000220: 24bf b7bc e329 ab3d 1062 85be 66fb 813d
00000230: 9808 293e a2fd b23e 2fdd 6d3e 5d96 0abe
00000240: 0466 13be 26c8 8ebd f04f 6bbe 2f75 0f3e
00000250: 987f 87bd 6465 84be 4d59 103e a421 533e
00000260: db74 883e 7d08 013e e32e 403d 6de6 b33d
00000270: 6069 3ebd 15ef 5c3c acd1 0cbe 620f 173e
00000280: d838 c13c ae7c 653d 9c38 603d 52d5 463e
00000290: 4e01 b7bd f836 5b3e d829 943e 964c 973c
000002a0: a67c ff3c 9371 df3d 2729 42be 1b93 ba3c
000002b0: 3c5d 56bd e9d5 09bd 97a1 c2bd bea8 bb3c
000002c0: 5f34 0bbe 7997 063e 6eb6 2a3d 46f2 363d
000002d0: 3d3f 8a3d fc74 023d 3cc8 0cbe 1060 1bbe
000002e0: 601e 87be 6f0b eabd 513a 3ebd d8a5 273e
000002f0: 7748 003e c7db 943c 827b 24bd 3cf8 91be
00000300: 1408 353e afab 213e b92f b0bd 474c 813e
00000310: e3d4 c53d 8739 603e 4eb1 ab3d 7a60 abbc
0.19021937 -0.35793075 0.030307822 0.11696657 -0.30384433 -0.17048392 0.06875952 0.24827686
-0.13311794 -0.026901055 -0.15798457 0.0032645578 0.040758334 -0.05369738 0.017006297 -0.028859742
-0.375572 -0.074172676 0.07685846 0.0098960735 0.21823697 -0.25999492 -0.17513688 -0.20799273
-0.17114145 -0.0014773103 0.16819192 0.18323337 0.15752287 0.07701297 -0.038449444 0.030714931
0.13999575 0.057557557 -0.18037178 0.15300293 -0.084175006 -0.0062345816 0.009134354 0.09200788
0.015221897 0.22898188 -0.19078502 0.052897893 0.009207176 0.25713137 -0.16617422 0.06887194
0.20095412 -0.056684796 -0.09112972 0.13454431 0.06638881 0.24985465 0.2105782 0.15981418
-0.12209547 -0.21714732 0.051737845 -0.0040437686 0.004876015 -0.041994408 -0.13342176 -0.21083242
0.14544486 -0.04674972 -0.08610841 -0.20021543 0.25230476 0.28460175 -0.28890187 -0.31441534
0.2601563 0.1650658 -0.050011378 -0.15158667 -0.010099894 -0.123732716 0.33077487 -0.13715994
-0.09262599 0.18251121 -0.14836617 0.075389326 -0.059784368 0.047695436 0.2906497 0.15852293
0.2675355 -0.17420672 0.11721186 0.13933422 -0.11851821 0.051594518 -0.011865455 0.116646595
-0.15835823 -0.086288966 0.1981194 -0.40337956 0.120258845 0.100028604 0.15762277 0.020060893
0.08700755 -0.113278896 0.06397037 0.071260944 0.18409634 -0.1204065 0.06524607 -0.18949829
0.18124236 0.34295654 -0.12115157 -0.11876831 -0.11820756 0.020545756 0.0030535052 0.1342589
-0.02369909 -0.20180374 0.087173775 -0.07254729 0.031575754 -0.38630712 0.06681401 0.2222303
0.051658105 -0.121359825 -0.1588341 0.015264911 -0.1002698 -0.242386 -0.013129306 -0.123882905
-0.02243001 0.08357599 -0.26051378 0.063467786 0.16507185 0.3495913 0.23228906 -0.13533922
-0.14394385 -0.06971769 -0.22979712 0.14009546 -0.066161335 -0.25858605 0.14096566 0.20618302
0.26651654 0.12600894 0.046919715 0.087841846 -0.046487212 0.013484736 -0.13751858 0.14751962
0.023586676 0.056027107 0.054741487 0.19417313 -0.08935796 0.21407688 0.28938174 0.018469136
0.031187367 0.109103344 -0.18961011 0.022775223 -0.05233501 -0.033651266 -0.09503477 0.022907611
-0.13594197 0.1314372 0.041677885 0.044664644 0.06750343 0.031849846 -0.13748258 -0.15173364
-0.26390362 -0.11427962 -0.046442334 0.16371858 0.12527643 0.018171204 -0.04015685 -0.285097
0.17678863 0.15788148 -0.086028524 0.25253507 0.096597455 0.21896945 0.083834276 -0.020920027

enc_xn.in_layer.bias f4 [100]
00000000: c038 e03e 93c7 27bf 2a8b 093e 4f63 ea3e
00000010: b772 b4be 1b0f 9c3c d93b 33bf c970 63bd
00000020: 981d d33e 8753 c23e 825a 583e f399 53bd
00000030: d44c 9cbe e914 163f 547b 6b3e 32c4 833e
00000040: 90d1 b33e 20b1 48be 9950 8bbd 8946 303f
00000050: fc4d 263f e3ae 39bf 99fa 18bf ddcc 39be
00000060: b57e 483e f50c c9be d138 c03e a12e 23bf
00000070: c40d d4bd cea9 f53e ea13 53be cfc9 2ebe
00000080: 1bd5 3b3e 614a 103f 8d1e 213e a57b 473d
00000090: 67cd 8939 b454 19bf a583 8abe 731f 383f
000000a0: 6088 ffbe 50aa b13e 1c95 6bbe 610f 723e
000000b0: 664a a93e 455e 073f 79b2 ecbe 005e c7bd
000000c0: 33c6 00bf b364 223e db3f b6be 7b2b b83d
000000d0: eb91 1bbf c596 3cbe 8eb9 16bf 0d79 18bf
000000e0: f486 8b3e ac2e 343d f63d 88be fc17 acbe
000000f0: 22a9 1e3f b71d 8e3d 3598 3e3e 3c22 3b3f
00000100: b51d 2d3f a558 1bbe 0bde bb3e fdf8 02bd
00000110: 4b8c 08bf 3a44 f13e d4af 9ebd 8bca 73bd
00000120: 1071 413e 3c2c 173f 63fe 0ebe 63d1 b2bd
00000130: b1c3 9b3e 29ad 143e bb89 b73e 2145 373f
00000140: dbd4 71be 5949 093f fc42 1dbf 4efe f73d
00000150: c145 6d3e 963c 2bbf f2fe 35bf 77df 58be
00000160: c29f 9dbd 3b61 fa3e 8b02 92be 9265 193f
00000170: 21e8 72be b0e7 523e c291 063f 684c c83e
00000180: c444 93be b4cc b13e f5a3 683e 60b8 14bf
0.43793297 -0.655389 0.13431993 0.4577889 -0.3524377 0.019050172 -0.70013195 -0.055527482
0.41233516 0.3795435 0.21128276 -0.05166049 -0.30527365 0.58625656 0.22996265 0.25735623
0.3512082 -0.19598818 -0.06802482 0.6885763 0.64962745 -0.7253248 -0.5975738 -0.18144555
0.19579585 -0.39267698 0.37543347 -0.63743025 -0.10354188 0.47981113 -0.20613065 -0.17069171
0.18343012 0.56363493 0.1573431 0.0487019 0.00026283713 -0.5989487 -0.27053562 0.7192299
-0.49908733 0.3470025 -0.230061 0.23638679 0.33064574 0.5287822 -0.46229914 -0.09734726
-0.5030243 0.15858726 -0.35595593 0.08992668 -0.6076953 -0.18416889 -0.58876884 -0.5955971
0.272514 0.043989822 -0.26609772 -0.3361205 0.61976826 0.069392614 0.1861275 0.7309911
0.67623454 -0.15170534 0.36692843 -0.031975735 -0.5333907 0.47122365 -0.0774838 -0.059519332
0.18890786 0.5905187 -0.13964228 -0.087313436 0.30422738 0.1451918 0.35847268 0.7158986
-0.23616354 0.53627545 -0.61430335 0.12109052 0.2317114 -0.6688932 -0.7109214 -0.21178995
-0.07696487 0.48902306 -0.28517565 0.5992061 -0.23721363 0.20596194 0.5256616 0.39120793
-0.28763402 0.3472649 0.22718795 -0.58093834

enc_xn.h_layer.0.weight f4 [100, 100]
00000000: 39bc a83c ba55 1dbe 79ba 5f3e 08cb a63d
00000010: 0906 e9bb ed92 673d aee5 463c b207 993d
00000020: 258e c9bd f932 0bbc 12eb a23d 3bbc 4e3d
00000030: 4c21 a5bd 17c7 b03c 40e2 8bbd e4f2 d93d
00000040: aa9d 903d 0639 55be 523d 1fbc c922 ba3d
00000050: 1d2d 3f3d f900 0a3d 5fbb f93d 5ec1 ca3c
00000060: 419d a13d 4f4a 93bb b082 73bd e8f6 fa3c
00000070: 49e0 243d b1bd 043e 6e1f cf3d b0e5 8c3d
00000080: 0caf 0dbd 540e 163d 660d fd3d 5f4a d6bd
00000090: 4972 843d cb1f b33d 86de 203d f44d 9e3d
000000a0: fdcb 7dbe 7ee7 c4bd 307c d83c 6e69 973c
000000b0: ee35 da3c a4ce 8a3d 2326 f1bd 422c 54bd
000000c0: 5787 23be 07dd 5dbd f8c7 25be 4bcb 673d
000000d0: 50ad 85bd b228 c73d 4902 863a 3e58 493e
000000e0: edd5 cf3a d505 fa3d 29a7 7dbe c00c ae3b
000000f0: 2861 463d 3b9b aabc f1ca 4d3b 026d 7fba
00000100: 5415 6d3d 740e 873e 0f1a 47bd f9bf eabd
00000110: e266 c43d 81e0 683e d8e6 8c3d 3623 133e
00000120: 8857 1abd 45df f43d 627b 03bc 17dc 5e3d
00000130: 2084 d63c 62fa 6e3d bcd1 dabd 4bd3 213e
00000140: 9df9 913e a196 97bc fcd3 11be 4961 b83c
00000150: 8721 1a3d 02a5 e0bd db68 3e3e 8509 b3bc
00000160: cb25 a03d 2927 483b 3ce9 dbbd a679 6b3d
00000170: 3f96 6ebc c1cd 51bc d927 2fbd 80b4 7cbd
00000180: afd6 3abd caab 23bc 55fc 38bc 9ff2 523d
00000190: b5a1 7b3d ccb2 143e 892a 213d 10d7 a33d
000001a0: 4d2d dcbc 665f 1ebe fc6a cabd d85e 64be
000001b0: 12e5 723e 3dca a93d c9e7 50be 015a acbd
000001c0: df0e 023e fc7f 39bb ee32 3e3e 950a 353d
000001d0: 99a1 893d 6a3f 44be 6110 c93c f34b 5bbd
000001e0: 15f6 fc3d 5712 18be 0e1e 93bd 9b37 a13b
000001f0: 3cc0 1d3e af73 0cbe 1730 5f3b 7acb 5e3e
00000200: ece5 a03c e869 5d3d b204 b8bd 6274 02be
00000210: 7e62 cc3c 4a7a ab3b 570a b93c 8a9e 173b
00000220: a40a 4d3c b74c abbd 8faf d5bd df7a 20bd
00000230: 2aef 1bbe bb87 963d 4fb2 d4bd f6b9 ecbd
00000240: 55ab 263e d526 773d 9da6 273c 0e10 aa3d
00000250: e0e1 87bc d7e6 cc3c 958e 583c c09e c73c
00000260: a95d b3bc 2c6e 8c3c 544e 743d 58f0 0bbe
00000270: dc2b f73d 4d96 b53d b876 083d 6db7 ad3d
00000280: 6fca 10be 1f5b 25bd 0254 a7bc 0ba6 073e
00000290: 33b3 25be 09b8 8fbe b26b 15bd 825a 30be
000002a0: 821c 44bd 74ce 14bd 2bf5 f5bd d034 163e
000002b0: bc0b b23d 3d44 de3c 2a98 0b3e c1eb a1bd
000002c0: d48a 0a3e 3c52 60bd 850c 553d 23a7 6abd
000002d0: 9015 2d3d fbd1 cabc 85a9 e5bc 5f8d edbc
000002e0: 9161 ddbd ca98 ce3d e728 1fbd 6ff9 5abd
000002f0: 8581 3dbe 0ca2 ad3d 4123 c03c 14d4 543d
00000300: 04c6 07be b64e 833d 9982 82bd fce6 3f3e
00000310: 82a2 18be c4cb 903d 2fcb 9a3d 2b14 4cbe
00000320: 7c96 21bc 23f2 8c3d 91ee a93d a240 593e
00000330: b55d 353d c27f 82bd 75bc cebc 6e1d bf3d
00000340: a9fc 5d3e 11db 8bbd f830 43be 416c 2f3c
00000350: 936f 003e d490 6dbd 4262 33bd f496 5f3d
00000360: 11c3 1e3e 38e4 893c 7463 2fbd 6ebd 343c
00000370: 257f ed3d 492f 54bd f459 f7bd bbdd cc3d
00000380: 535d 91bc b236 13be 373a efbd 2c56 e33d
00000390: 0964 15be 6db9 2f3e d2a7 d63d 8c2d 4e3e
000003a0: 9f48 a1bc 81de 9e3d 2e80 a7bd bf2b 87be
000003b0: 312f a13d 646d 9f3c 9860 8abd 64cc 81be
000003c0: 8a2c 1f3e a555 aa3b 7593 d7bd 7c6f 963d
000003d0: ca94 033e 0783 dfbd dbdf f53d 972f c0bd
000003e0: c948 d8bd 398c 45be 4641 503d 7cac 203e
000003f0: 4dc7 783c 7ed6 10bd 4873 11bb 40db a2bd
0.020597564 -0.15364733 0.21848477 0.08144194 -0.007111315 0.056536604 0.012139721 0.07472171
-0.09841565 -0.00849604 0.07954992 0.05047248 -0.080629915 0.021579308 -0.06830263 0.10642031
0.07061322 -0.20822534 -0.00971921 0.09088666 0.046673883 0.033692334 0.12193941 0.024750408
0.07891322 -0.0044949423 -0.059450805 0.030635312 0.040252957 0.12962987 0.101134166 0.06879747
-0.034590766 0.036634758 0.12356071 -0.10463404 0.06467111 0.087462984 0.039274715 0.07729712
-0.24784847 -0.09614466 0.026426405 0.01848289 0.026637044 0.06777695 -0.11774852 -0.05180002
-0.15969597 -0.054165866 -0.16189563 0.05659036 -0.06527197 0.09724559 0.001022407 0.19662568
0.0015856602 0.122081436 -0.24770798 0.0053115785 0.0484325 -0.020825973 0.003140148 -0.00097437215
0.05788167 0.26378214 -0.048608836 -0.11462397 0.09589936 0.22741891 0.068799675 0.143689
-0.037681133 0.11956648 -0.008025022 0.054409113 0.026186049 0.058344252 -0.10684535 0.15803258
0.28510752 -0.018504443 -0.14241022 0.022507327 0.03762963 -0.10968973 0.18594687 -0.021855125
0.078197084 0.003054092 -0.10737845 0.05748906 -0.014562189 -0.012805403 -0.04276261 -0.061695576
-0.045614894 -0.009989688 -0.011290629 0.051500913 0.061433513 0.1452133 0.039347205 0.08000004
-0.02687707 -0.15466079 -0.09883687 -0.22301805 0.23720196 0.08290527 -0.20400919 -0.084156044
0.12700985 -0.0028305044 0.18574116 0.044199545 0.067202754 -0.19164816 0.024543943 -0.053539228
0.12351624 -0.14850746 -0.07183467 0.0049199588 0.15405363 -0.13716005 0.0034055763 0.21757308
0.019640885 0.05405608 -0.089852706 -0.12739709 0.024949308 0.005233084 0.022587938 0.0023135268
0.012514744 -0.083642416 -0.10433876 -0.03917968 -0.15227953 0.07350107 -0.10385572 -0.11558907
0.16276295 0.060339767 0.010232595 0.083038434 -0.016587198 0.025012417 0.013217588 0.02436769
-0.021895247 0.017142378 0.059645012 -0.13665903 0.120689124 0.08866558 0.033316344 0.08482251
-0.14139722 -0.040370103 -0.0204258 0.13246934 -0.1618164 -0.28070095 -0.03647966 -0.17222026
-0.04787875 -0.0363297 -0.12009653 0.14668584 0.086936444 0.027132148 0.13632265 -0.079062946
0.13529521 -0.054765925 0.052013893 -0.0572883 0.04225689 -0.02475833 -0.028034935 -0.028998075
-0.10809625 0.10087736 -0.038857367 -0.053460535 -0.18506439 0.084781736 0.02345431 0.051960066
-0.1325913 0.06411497 -0.06372566 0.18740457 -0.14905742 0.07070115 0.075582854 -0.19929568
-0.009862538 0.068821214 0.08297456 0.21216062 0.04427882 -0.06372024 -0.025236348 0.09331785
0.21678413 -0.06828893 -0.19061649 0.010706962 0.12542562 -0.057999447 -0.043794878 0.05458732
0.155041 0.016832456 -0.042819455 0.011031492 0.115965165 -0.051802907 -0.12077704 0.10003229
-0.017744696 -0.14376333 -0.116810255 0.1110042 -0.14588942 0.17160578 0.10481228 0.20134562
-0.019687949 0.07757283 -0.08178745 -0.26400563 0.07870329 0.019461341 -0.06756705 -0.2535125
0.15544334 0.005198198 -0.10526172 0.07345483 0.12849727 -0.10913663 0.12005588 -0.09384077
-0.10560758 -0.19291772 0.0508435 0.15690798 0.015184236 -0.035360806 -0.0022193957 -0.07951975

enc_xn.h_layer.0.bias f4 [100]
00000000: e65a acbc 783c a93c 551a 85bd 03dc 4c3d
00000010: b57a d0bb ec7c e6bd 51f4 93bd 0166 97bc
00000020: da45 a6bd a3b8 b63c 55b3 08bd 1b06 9bbb
00000030: d348 5c3c 5730 d7bd 35ee 59bd eab4 f73d
00000040: 1a67 49bd e8e8 3d3b efbd d53d 0c26 6d3d
00000050: 725d ecbc 512b f93c 5262 aa3d 92d1 85bd
00000060: 91ba 50bd ac67 303d b8b7 07bc a7c1 bd3d
00000070: 036a 57bd 2965 0c3d 4d55 833c 4227 d8bc
00000080: 9b87 92bd 8338 4c3d 3f0b c53c 47a8 543d
00000090: 5511 61bc a070 27bd 754e 9ebd 7fb7 ebbd
000000a0: 8258 bfbd c29e 4b3d afb3 173d b05f 1b3d
000000b0: 9a20 65bd 3fb8 92bd efe1 51bd 7d22 a6bd
000000c0: 5d27 94bd 9a28 9dbd 4d87 c23b e2a2 f53c
000000d0: 9b27 af3d 8381 ab3d 2e12 a63d c6a9 08bd
000000e0: 927d 943d 2a46 ae3c 3823 0a3b c651 c03d
000000f0: 038c 0fbd af93 cfbc 405a d13d 7ecd bc3d
00000100: f8d8 b6bd 30d6 a33c 54b3 933d 52b5 7ebd
00000110: dc55 643d 750b fcbc bfd4 cc3c 51ae 3f3d
00000120: edc5 62bd 9986 d63d 9cd2 353d 2701 b13d
00000130: 1b24 e1bd 66b6 843d 6365 4abd ebbf 4d3d
00000140: fbfc ce3d 7ab1 0f3d 2474 603d 3f31 e33d
00000150: e2da 723d f6a3 7a3d 53bb 64bd b7df 853c
00000160: 8729 71bd 0b0f 623d 85d9 9dbd 30a9 c93d
00000170: 1a34 1dbc ebaf a9bd e578 a3bc 193b 603c
00000180: 3696 e6bc 7158 9e3d 10af 9ebd e5d3 043c
-0.021039438 0.020658717 -0.06499163 0.050014507 -0.006362284 -0.11254296 -0.07224334 -0.018481256
-0.08118792 0.022304839 -0.03337415 -0.0047309524 0.013445097 -0.10507267 -0.053205688 0.120950535
-0.04917059 0.0028977934 0.104366176 0.057897612 -0.028853152 0.030416163 0.08319534 -0.06534113
-0.050959174 0.04306762 -0.008283548 0.09265452 -0.052591335 0.03427616 0.016031886 -0.026385907
-0.07154771 0.04985858 0.024053214 0.051918294 -0.013737042 -0.040878892 -0.07729808 -0.115096085
-0.093430534 0.04971195 0.037036594 0.03793305 -0.055939294 -0.071640484 -0.051240858 -0.08112047
-0.072340705 -0.0767376 0.0059365393 0.029984895 0.08552476 0.08374312 0.08108936 -0.033365034
0.07250513 0.021273691 0.002107812 0.09390597 -0.035045635 -0.025338976 0.10222292 0.09218882
-0.08928102 0.019999593 0.072119385 -0.06218464 0.055745944 -0.030767182 0.025003789 0.0467971
-0.055364538 0.10474891 0.044390306 0.08642798 -0.10993215 0.06480102 -0.049413096 0.050231855
0.10106846 0.035081364 0.05479826 0.11093377 0.059290774 0.06119152 -0.05584271 0.016342027
-0.058877494 0.055190127 -0.07707504 0.09846723 -0.0095949415 -0.08285507 -0.019955108 0.013685965
-0.028147798 0.077317126 -0.07748234 0.00810716

enc_xn.h_layer.2.weight f4 [100, 100]
00000000: c22f fcbd e670 babd 4265 bb3d e7be 173b
00000010: 870d 4dbd 5200 c73d f27d 273d 1ef2 e43d
00000020: 9dff ebbd 6bca d6bd 3342 bdbc 20d0 a53d
00000030: 2dd3 21be 19e3 5f3e d80c 323c 73f3 0fbe
00000040: 13d0 c1bc 5656 ac3d bb87 53bd ae4d f03d
00000050: 07f7 573e 051b 653d 679f 8fbd 0757 1a3e
00000060: 46a0 e8bd aa5f 863c 2bfc 37be c6b5 6a3d
00000070: eff0 01be 1d55 e2bd 7d20 7f3d 09b5 813e
00000080: 9604 1d3e defc a43c b811 f43d 1d50 e3bc
00000090: 2d48 3f3d 182e 3ebe bf4b c93d c3f7 d23c
000000a0: a441 973d 39ee 2fbd f519 bbbd 33d0 9bbd
000000b0: cf87 57bd 1e40 cfbb 4396 103e 4c0d efbd
000000c0: d5a2 4e3d 48f2 4dbe fcab 85bc 0fde e13d
000000d0: 0fc3 24bd 6def 9dbb 6561 a93c 1c06 54bc
000000e0: b6df 47be 495c b5bb a371 85bd 0d29 bcbd
000000f0: b266 87bd 0810 ffbd af0f 78bd f515 023d
00000100: cec7 45bd cd41 8a3c 89e2 6abd ea16 2c3c
00000110: a263 d63d 6956 ec3c 0a9c e1bc 3280 e33c
00000120: edc5 e93d e44a b1bc 1b6c 23bd e3a8 db3d
00000130: e3eb 8fbc 7bdb 03bd 7389 f93c 1c16 16bd
00000140: a452 3abe e90c a73d 0d61 703d 9adb 7e3c
00000150: 4900 81be f51e 893d f529 e53d f01d 16bd
00000160: c083 a53b 8bf7 a43d 57ef 6e3d ab52 e7bd
00000170: ed86 86bd 4303 99bd f2bd 813c 8e13 9f3d
00000180: fc5e 783d a811 4bbe 8fba 573b 0abc c3bc
00000190: fa81 453e db97 483c 0796 563d e8ae 2bbc
000001a0: e3a2 253e 5486 d53c 00e4 8dbd 6dd4 a13d
000001b0: 0328 6f3b 4a8e 5f3c 01ac 15be d72f 703d
000001c0: 76c9 f4bd 8b65 953d dc10 6a3b 0846 9b3b
000001d0: 7ce9 663d 8438 43bd cf92 d8bd 6f1b e23d
000001e0: 7dc3 2bbe 33e8 3ebd 58c2 38be 8afa abbd
000001f0: e355 913d 40be ba3c 39df ec3d 4eef 4d3d
00000200: 13fe 1b3e fb84 6dbe 697a f03d 76b7 dabd
00000210: 98f0 ce3c 301e 733e fb2c cf3d e033 5cbc
00000220: 7c00 91bd 3dfb b7bd e09e f3bd 8f65 0d3d
00000230: 08d6 153d 9c72 6e3e 70a5 c0bc c4fa 213e
00000240: 8b4e 1f3e 2e63 063e 3bf2 743d 10e2 de3d
00000250: f779 13be ea46 b73d dc80 c63d 6f9a 643e
00000260: ea10 c4bd deff 153c f381 a2bd 8f0e d13d
00000270: e22e 843d b58e 0a3e df1b 2f3e 8341 3dbd
00000280: 3008 cc3c fe5c b03d 2e16 3c3e 195b f1bc
00000290: eead 16be f704 393e eac4 8ebd d841 44bc
000002a0: e9ad 713d f3a5 c13d adc2 a53d fcf9 f5bd
000002b0: aca5 bc3c 1268 443e 2dd6 913c fcd6 f6bd
000002c0: e1cb cdbc 8bfb b63d 6d4a 02be 40c4 c43c
000002d0: 9542 ea3a d7c5 0fbd b24d 3f3e ff38 cb3c
000002e0: ea9c 37be 6aea 5abe 5b7e 663d 3184 803e
000002f0: cb66 203e 2a21 3b3e 3014 463e 0eb2 a93d
00000300: ff69 cd3d ac0a 41bd 2d48 d83d 0b71 1c3e
00000310: 839e 1f3d 354f 84bd 829f 003e 81b9 9b3d
00000320: 7c07 d23d 2d31 eabc 96e6 8ebd 621c bf3c
00000330: abbd 033d 68b8 46bd b9e4 33bb 8a9a 89bd
00000340: 6676 cb3d e3c4 313d c0c9 1bbe 0363 923d
00000350: 1b19 da3d 5492 97bc 86bf 01be b94f e1bd
00000360: ac3a 6dbd 829f 93bd c789 613c d900 b3bd
00000370: 7e49 d2bd 9cda f7bd 833f 963c 523f 38bd
00000380: fad4 0ebe b75e a9bd c12f 8abc a167 fe3d
00000390: 5e3d 8f3d 3a63 093d 503a 0e3e fe52 ae3c
000003a0: 0be7 f3bd e522 9d3d 7d4f 9ebd ed2e cdbd
000003b0: bd88 323e 5a1b a0bd a415 373e c70b fdbb
000003c0: 274f 983d b7fc ce3c cf36 fabd 1782 14bc
000003d0: 4258 c1bb b9f8 dbbd 19f7 9a3c c370 0f3d
000003e0: 1145 ccbd c656 9ebd 655c fcbd ae55 7c3d
000003f0: df4d 8dbd 7e10 39be ade6 9c3d 4131 dbbd
-0.123137966 -0.09103565 0.09150173 0.0023154558 -0.05006173 0.09716858 0.040891595 0.11178993
-0.11523364 -0.10487827 -0.023102855 0.08096337 -0.15803213 0.21863975 0.01086732 -0.14057712
-0.023658788 0.08414905 -0.051643115 0.11733566 0.21090327 0.05593397 -0.070128255 0.15072261
-0.11358695 0.016403038 -0.17967288 0.05730226 -0.12689565 -0.1105139 0.062286843 0.2533343
0.1533378 0.020140108 0.11917442 -0.027748162 0.04669969 -0.18572271 0.098289005 0.025752908
0.07385567 -0.042951796 -0.0913581 -0.0760807 -0.05261975 -0.006324782 0.1411982 -0.11672458
0.050448257 -0.20111954 -0.01631736 0.110286824 -0.040225085 -0.0048198015 0.020676324 -0.01294091
-0.19518933 -0.005534683 -0.06515815 -0.09187517 -0.066113845 -0.124542296 -0.060561832 0.03175922
-0.04828625 0.01687708 -0.057344947 0.01050351 0.10468222 0.028849797 -0.027540226 0.02777109
0.114147045 -0.021642156 -0.03989802 0.10725572 -0.017568534 -0.032191735 0.030461049 -0.03664218
-0.18195587 0.08156759 0.058686305 0.015555287 -0.2519553 0.06695358 0.11189643 -0.036649644
0.005051106 0.080550276 0.05833372 -0.112950645 -0.06568704 -0.07471325 0.015837643 0.07767402
0.06063746 -0.19830954 0.0032917594 -0.023893375 0.19287863 0.012243236 0.05238917 -0.010478713
0.16175418 0.02606503 -0.06928253 0.07901845 0.0036492355 0.013644764 -0.14616396 0.058639374
-0.11952488 0.072947584 0.0035715615 0.004738573 0.05637501 -0.04766132 -0.105748765 0.11040389
-0.16773792 -0.04660816 -0.18042886 -0.08397396 0.0709646 0.022795796 0.11566014 0.050277047
0.1523364 -0.2319526 0.11742098 -0.10679524 0.025261208 0.23741984 0.10116001 -0.013440102
-0.070801705 -0.08983467 -0.118955374 0.034520682 0.03658107 0.23285908 -0.023516387 0.15818316
0.15557306 0.13123772 0.05980132 0.10882962 -0.14401995 0.08949073 0.09692547 0.22324537
-0.095735386 0.009155242 -0.07934942 0.10207855 0.06454255 0.13531001 0.17100476 -0.046205055
0.024906248 0.08611487 0.18367836 -0.029462384 -0.14714786 0.180683 -0.06971152 -0.011978589
0.059003744 0.094554804 0.08093772 -0.12010571 0.023028217 0.19180325 0.017802322 -0.12052724
-0.025121631 0.08934697 -0.12723704 0.02401936 0.0017872626 -0.035100784 0.18681982 0.024807451
-0.17930952 -0.21378484 0.056272846 0.25100854 0.15664212 0.1827437 0.19343638 0.08285914
0.10029983 -0.047129318 0.105606414 0.15277497 0.038969528 -0.0646042 0.12560847 0.076037414
0.10255334 -0.028587902 -0.069775745 0.023328964 0.032163303 -0.048515707 -0.0027449562 -0.06718929
0.09934692 0.043400656 -0.1521368 0.07147791 0.1064932 -0.018502392 -0.12670717 -0.11001534
-0.057917282 -0.07208158 0.013765759 -0.08740396 -0.10267924 -0.12102243 0.018340832 -0.044982262
-0.13948432 -0.082700185 -0.016868474 0.124221094 0.06994127 0.033541895 0.13889432 0.021279808
-0.11909302 0.07672671 -0.07730005 -0.10018716 0.17434974 -0.07817717 0.17879349 -0.0077223512
0.07436972 0.025266988 -0.12217485 -0.009064219 -0.0059004137 -0.107407995 0.018916653 0.035019647
-0.09974111 -0.077313945 -0.1232231 0.061605148 -0.06899618 -0.18072698 0.076611854 -0.10702754

enc_xn.h_layer.2.bias f4 [100]
00000000: e834 413d c0bd e73d 23ad 76bd 3044 e23d
00000010: acd4 a13d 91b4 483d 2edb 703d 7917 403c
00000020: a287 2ebd ede8 cabd 1303 393c 3035 88bb
00000030: 860d f93b 07f1 7e3d 39f8 d9bd b9f7 d2bc
00000040: ad95 3ebc 9237 b6bd f6e7 893d ebad c63c
00000050: a072 803d 6146 6f3c 1527 53bd 25a9 70bd
00000060: 6400 35bc b55a d43d 846e c73d 76c8 483c
00000070: 2c3a 8b3d f27e 083d d77c 113d e89f 3cbd
00000080: ea44 a7bd f0a3 d2bd 307a 6e3d 5cfe b3bd
00000090: 3287 4d3d b785 7a3d f5bc 9dbd bf15 cfbd
000000a0: 96f7 983d 0726 8dbd 1d7c a43d 6b64 1ab9
000000b0: e3ea 2fbd 9ff4 ecbb 9fef 92bd d572 913c
000000c0: af79 b53d 4bbd e53d 8de2 a13c ccac 943d
000000d0: 7abc cebd 911b 5cbd 8643 e0bc fb1b e8bc
000000e0: 4571 1a3d 5c87 c7bc 249d 32bd 9ac1 253d
000000f0: d843 933d 24f5 0c3d 3a05 76bd b843 463c
00000100: 105d 613d e6d4 1abd 0863 99bc 305f e7b9
00000110: cec6 823d 6628 a23d 9b15 2cbd ae12 753d
00000120: bfe9 9abc 7378 40bc 165d 23bd 65ac 8b3d
00000130: 106f 0c3b 8434 c63d afb0 ff3c fece e63d
00000140: 4c0c 143d 695d 9fbd db00 05bd 049a 523d
00000150: 9140 c13c 1fec 94bd 71c8 403d efd0 d03c
00000160: 511c b6bd 0c12 04bd 5550 563d a950 bfbd
00000170: 64d8 9a3d 20a4 7f3c a5bc 343d 8e7f 263d
00000180: afe7 42bb dd5c 88bd 48ee c93a 1cff 363d
0.047169596 0.11315489 -0.06022371 0.11048162 0.07901892 0.049000327 0.058802776 0.011724346
-0.04260982 -0.09907708 0.011292237 -0.004156731 0.007600489 0.06224158 -0.10643048 -0.025752889
-0.011632365 -0.08897318 0.06733696 0.024252852 0.06271863 0.014604182 -0.051550943 -0.05875506
-0.011047456 0.103688635 0.09737876 0.012254825 0.06798205 0.03332419 0.035519447 -0.046050936
-0.08167441 -0.10285175 0.058221996 -0.087887496 0.05017776 0.061162677 -0.07702056 -0.101115696
0.07469098 -0.06892019 0.08031485 -0.00014723993 -0.042948615 -0.0072313095 -0.0717461 0.017754951
0.088611 0.112177454 0.019761348 0.07259521 -0.10094543 -0.053737227 -0.027375948 -0.028333655
0.03770568 -0.024356537 -0.043606892 0.040467836 0.071906745 0.03441347 -0.06006358 0.012101106
0.055020392 -0.037800692 -0.01872398 -0.00044130674 0.06385575 0.07917862 -0.042012792 0.059832267
-0.018910287 -0.011747467 -0.039883696 0.06819991 0.0021428503 0.09677985 0.031212179 0.112699494
0.03614454 -0.077814884 -0.03247152 0.051416412 0.023590358 -0.07271599 0.047066156 0.025490252
-0.0889212 -0.032243773 0.052322704 -0.093415566 0.075608045 0.015603095 0.044125218 0.04064899
-0.0029740145 -0.06658337 0.0015406096 0.044676885

enc_xn.h_layer.4.weight f4 [100, 100]
00000000: 9ed0 87bd c645 433e 7cec 94bd b23b 863d
00000010: a33a 19be 3199 8d3d d27b ee3d e1c2 8bbd
00000020: af51 3f3d 83e9 b6bd 6b60 453b 11a1 b7bc
00000030: 4acb 973d 3b61 d33c e155 3d3d 8701 09bd
00000040: e34f 173e e0b8 083d c57e d53d 4558 81bd
00000050: ad4b a13d 5674 193c 5475 10be f8fb 51bd
00000060: 82f8 06be f1b1 b23d b2d9 693d 7aed 833e
00000070: 095d ef3d f372 d1bd f174 06be 1c7c 853d
00000080: 3041 9bbb 3dbc d9bd 96e3 16be b9a6 f6bd
00000090: 3ddc 88bd 784b 4fbc ca2d 42bd c8c7 dc3c
000000a0: 97c4 f53d 2646 c63d 9747 303d 2892 2ebd
000000b0: 3dbb 18bd 2492 90bd 702d a3bd 95ad 543d
000000c0: cec8 c7bc a99c a3bd 503b 5bbd 2df3 523d
000000d0: 36b9 81bc 6837 a1bc ba32 983e cef9 24bc
000000e0: 2720 833d ed81 80bd 85d9 553e 1f92 c7bd
000000f0: 348c 843d 0a70 883d c381 873b c700 76bd
00000100: 0cd3 00be e020 953c 49b9 8d3e 07c8 27be
00000110: d56c 3d3e 069d 773d f705 d1bc 842c 35bc
00000120: 5b59 d1bc f27c c93d e3e8 92bd 50f4 0abc
00000130: 7a37 adbd 4b87 413d e386 0bbd 82f2 cf3d
00000140: 139d ab3c bbc8 32bd 491f 2c3e 9c00 23bd
00000150: 8c99 9fbd 6c89 86bd 294b 2abe ba76 06be
00000160: 03b5 00bd 5a8c 0d3d 619c 243c d2f8 ec3b
00000170: 6a96 0a3c c230 babc 3189 183c 32ae 4d3d
00000180: 5d51 c1bd 1417 16be 51eb 003e 9f4f 5fbd
00000190: dca1 34be 8405 233e 2d4e 06bd cbca e03d
000001a0: 3dfa c7bd 31c9 70bd 7a9e 173e af19 a0be
000001b0: 0ecb ae3d 010d 39bd 9e09 a03e 605c 4f3d
000001c0: 9de4 333e 50d8 083e 41d8 073e 4f02 a9bd
000001d0: 5db8 003b 5bc3 0b3e a176 2a3d 301a 38bc
000001e0: 2244 49bd b6da c8bd eeff 24bb 647c 05be
000001f0: bc6c 573d 0fd6 7dbd 9b39 41bd 5070 f3bc
00000200: 2076 813d 3a90 063e 014f bd3c 81cf eabd
00000210: ddb8 ffbd b763 f43b b9f9 e5bb 71ab 073e
00000220: 32b9 1b3d 93b2 1b3e 7cd0 473d b591 363d
00000230: 4e20 b53d cce7 ce3c ecf9 05bd 05a4 e0bd
00000240: 769d 153b f172 39bd 8a5d 9e3d 9ebf 54be
00000250: 5d71 c6bc 0652 c4bd 6683 7bbc 4419 253d
00000260: 9eed 03be 4c89 acbd 7ede d13d eed8 ddbc
00000270: a8e1 0f3e 6b0f 6ebe d67d 0a3a fba1 eb3d
00000280: 5e2f c43d a16c 843d 79b1 adbd 36de e23d
00000290: 8842 e53c 88fe 623d 11de 823d 8c9d bb3d
000002a0: c569 fbbd 4c20 87bd 6fe6 dbbb 430b 2dbd
000002b0: abb1 263b debd 83bd 0d8f c3bd 092a b1bd
000002c0: 8aa3 673c aaa6 a13d c2b5 783c 0868 78bd
000002d0: fab1 5d3d f213 1fbe 2585 5abd 74aa 493e
000002e0: 6969 a9bd a5ab 9c3d 842f 08bd 0f32 4d3e
000002f0: c5f9 253c c47f 873d 1773 00bd 8b9e a1bd
00000300: 3fd6 18be 9b96 b8bd 3900 eb3b 33b6 a9bd
00000310: 25a0 9fbd 49d8 a83c ff61 0d3d b4cd 7a3d
00000320: e0db fcbb 3da3 783e 022c 1ebd 36ab 8ebd
00000330: 3dd2 3e3c 432e 99bd 61b4 06be 3737 5b3d
00000340: c0c3 253e 69a4 1abe 6fff 11bd 9c46 b2bc
00000350: 988a 5d3e c44d 813d ef87 efbd 55e5 e8bc
00000360: 57da c3bb 8985 13bd 783c 713e 077d 0b3e
00000370: 842f 373d 0475 e43d 441f 5a3d 182a fcbd
00000380: 4aa0 043e 792e 8abc dc66 b23c b6ff 57bd
00000390: 5889 3dbe 2e79 7e3d 9e5e a3be d33b d3bc
000003a0: 6bfe 9e3d b1b0 113e cfa9 4f3d 4c22 733c
000003b0: 0022 a5be 1572 353e 8bac 8cbd 1323 e73d
000003c0: 2d0f 92bd 2ea1 d7bc f0bb 16bd fa1d 12be
000003d0: 0388 72bd 6167 b2bc 1b8c 8abd b117 e53d
000003e0: 66b3 9f3d ce66 113d 1534 debc 1e0f 343e
000003f0: 7f0b 8cbd 5288 eebd 7368 153e 83c2 d13d
-0.066315874 0.19069585 -0.07271668 0.06554355 -0.14963774 0.069139846 0.116447106 -0.068242796
0.04670876 -0.089312576 0.0030117284 -0.02241567 0.07411821 0.025803199 0.04622448 -0.033448722
0.14776568 0.033379436 0.1042457 -0.06315664 0.07875762 0.009366116 -0.14107257 -0.051265687
-0.13180736 0.08725346 0.057092376 0.25767118 0.11687667 -0.10227003 -0.13130547 0.065178126
-0.0047379956 -0.10631607 -0.14735255 -0.120435186 -0.06682632 -0.0126522705 -0.04740695 0.026950732
0.12000387 0.096813485 0.043037023 -0.042619854 -0.03728794 -0.07059124 -0.07967651 0.051923353
-0.024387743 -0.07988865 -0.05352336 0.05150144 -0.015835386 -0.01967974 0.297262 -0.010069324
0.06402617 -0.062747814 0.20883758 -0.09744667 0.06472054 0.06661995 0.004135342 -0.060059335
-0.12580508 0.018204153 0.27680424 -0.16384898 0.18498547 0.060452484 -0.02551554 -0.011057977
-0.025555303 0.098382846 -0.07173326 -0.0084811 -0.08457847 0.047248166 -0.034064185 0.101536766
0.020948922 -0.043648463 0.1680881 -0.039795503 -0.077929586 -0.0656918 -0.16630234 -0.13131228
-0.031422626 0.034557678 0.010047049 0.00723181 0.008458713 -0.022728328 0.009310053 0.050214954
-0.09439347 -0.14657241 0.12589766 -0.054519292 -0.1763987 0.15920073 -0.032789398 0.1097618
-0.09764526 -0.05878562 0.14806548 -0.31269595 0.08534823 -0.045178417 0.31257337 0.050625205
0.17567678 0.13363767 0.13266088 -0.082523935 0.001964114 0.13648741 0.04161704 -0.011236712
-0.049137242 -0.09807341 -0.002517696 -0.13035733 0.05259393 -0.06197172 -0.047174077 -0.02971664
0.06321359 0.13140956 0.023108961 -0.114653595 -0.12486432 0.007458176 -0.0070182947 0.13248993
0.038018413 0.1520484 0.04878281 0.04457255 0.08844052 0.025257014 -0.032709047 -0.10968784
0.002282945 -0.045275632 0.07732685 -0.20776221 -0.024223978 -0.09585957 -0.015351152 0.0403073
-0.12883613 -0.08424625 0.10247515 -0.02708098 0.14050925 -0.23248069 0.0005283033 0.11505505
0.09579347 0.06466032 -0.08481116 0.110775396 0.027985826 0.05541852 0.06390012 0.09160909
-0.12276033 -0.06597957 -0.0067108194 -0.042247068 0.0025435488 -0.06432699 -0.09548769 -0.08650596
0.014138112 0.07893117 0.015180053 -0.060646087 0.05412481 -0.15534952 -0.053349633 0.19693929
-0.082720585 0.07649926 -0.03324844 0.20038627 0.0101303505 0.06616166 -0.03135976 -0.07891568
-0.14925478 -0.09013101 0.0071716574 -0.08286705 -0.07794217 0.020610945 0.034517284 0.06123133
-0.007716641 0.2428102 -0.038616188 -0.0696625 0.011646804 -0.07479527 -0.13154747 0.053519454
0.16187954 -0.1510178 -0.03564399 -0.021762185 0.216349 0.06313661 -0.11695849 -0.028429667
-0.005976956 -0.03601602 0.23558223 0.13621913 0.04472305 0.111551315 0.053252473 -0.12312716
0.1295177 -0.016867863 0.021777563 -0.0527341 -0.18509424 0.062127285 -0.31908125 -0.025785362
0.0776337 0.14227559 0.05069905 0.01483972 -0.32252502 0.177193 -0.068688475 0.11285987
-0.07131801 -0.026321974 -0.036800325 -0.14269248 -0.059211742 -0.02177781 -0.06765004 0.111861594
0.077978894 0.035498433 -0.027124444 0.17583892 -0.0683813 -0.11647095 0.14590625 0.10242178

enc_xn.h_layer.4.bias f4 [100]
00000000: 201d e43d ec6e d73d 1b5b d23c 5727 a0bd
00000010: 84ed dabc 0707 4c3d 09b3 3cbd fdb8 43bd
00000020: 3006 acbd ad29 583c 5fe3 4d3d 239d f239
00000030: 794f 05bc 3ef5 48bd 0ef6 093d d289 183d
00000040: 680d 9cbd 0f49 d83c 9111 893d cb51 23bd
00000050: f538 da3d 30ca 433d 3492 07bd a72e af3d
00000060: 1012 b83d ed18 77bd cc6d 673d ee21 343d
00000070: 6baa 9dbc 92ed 29bc f565 97bc a14e b43d
00000080: efd4 b4bd 2034 253d 82ab c33b 65aa 39bd
00000090: 24ca d5bd f55f ac3d 9dfc a93d 2ab7 ffbc
000000a0: 7169 d33d 30d1 9ebd f4fe c63d d008 95bd
000000b0: cfbd 81bc 0561 ab3c 124e 813c 6056 61bd
000000c0: c527 bd3d acf8 ef3d 6ca1 093d 1472 61bd
000000d0: 630f b53d 3b5b 27bd a058 5bbb 32fe deba
000000e0: b353 b9bd 41a8 8bbd dd8b 873c c822 83bd
000000f0: f93c 273c 6a44 42bd 7236 7b3d f7f8 69ba
00000100: 7799 7f3d 31b2 84bd 2bee 963d abd7 983d
00000110: f032 4b3d 80ac a9bd 3fe3 6f3d ab17 febc
00000120: 8bff 673c c666 9a3d b669 a2bd 6408 833d
00000130: f192 a8bd a2d2 c2bd 342c 863c bdd2 3ebc
00000140: 2206 463d 21b3 de3d 10a1 a93d afd6 3c3d
00000150: dd7c 45bd c9a3 d4bb d017 da3c a687 2d3c
00000160: 865d ab3d 20a1 013d f093 fe3b 67e1 64bd
00000170: e4a3 663d fcd0 6ebd c457 643c c4db 9d3c
00000180: 123f 11bd 9c94 a8bc be34 133d a996 e1bc
0.11138368 0.105192035 0.025678208 -0.078200035 -0.026724584 0.04981139 -0.04606918 -0.04778384
-0.08399618 0.01319353 0.050265666 0.00046274913 -0.008136624 -0.049062006 0.03368192 0.03724081
-0.076197445 0.026402025 0.06692804 -0.039872926 0.10655395 0.047800243 -0.033098415 0.0855382
0.0898782 -0.060326505 0.056501195 0.04397767 -0.0192463 -0.010371583 -0.018481234 0.0880406
-0.08829676 0.040332913 0.005971373 -0.045328517 -0.10438946 0.0841674 0.08300135 -0.03121527
0.10322846 -0.07754743 0.09716597 -0.072770715 -0.015837578 0.020920286 0.015784297 -0.055014014
0.09236101 0.11717352 0.03360121 -0.055040434 0.088408254 -0.04085849 -0.0033469573 -0.0017013012
-0.090491675 -0.06819201 0.016546184 -0.06403118 0.010207408 -0.047428526 0.06133122 -0.0008925343
0.062402215 -0.064793 0.07369646 0.074630104 0.049609125 -0.08284855 0.05856633 -0.031017145
0.014160047 0.07539134 -0.07930319 0.06398085 -0.08231152 -0.09512831 0.0163785 -0.011646924
0.048345692 0.1087401 0.08282673 0.046103176 -0.048214782 -0.0064892513 0.026622683 0.010591423
0.083674476 0.0316478 0.0077691004 -0.055879023 0.056308642 -0.05830477 0.013936941 0.019269831
-0.03546054 -0.020578675 0.03593897 -0.02753766

enc_xn.mu_gen.weight f4 [3, 100]
00000000: de4b bc3c ff15 4abe bb8e 103e 9f42 e23c
00000010: a286 89bc 397d 2c3e 1883 233e 83a6 55bd
00000020: 07c8 c5bc cc97 9dbd c3dd 14bd e6bf 0f3e
00000030: 963b 8cbd 0cf5 163e 4d87 edbb 9d1b 743d
00000040: ee4f 243b 1d28 9f3c 386a 5ebd 79b3 6e3d
00000050: b047 213e 10c1 233e 4f0d 653c 4754 5f3c
00000060: 32f1 eebd d641 b63a 225d 99bc f354 34be
00000070: 5d56 0e3e 395d 0dbe bddb 2bbe 27e4 c53c
00000080: 7a45 913e 54d7 5fbd 37f0 08be aef2 1b3e
00000090: 329d 553e eb97 3f3c 3973 24be 43f3 033e
000000a0: af06 c73d 7460 ac3d a9b7 20be 6f83 9f3e
000000b0: de63 ff3d 9f85 44be 9e05 9a3d 43b9 013e
000000c0: 2540 cbbd f5ca 80bc 5153 513d f819 c13e
000000d0: d440 913d de9f 743e 49a6 c4bd f0c0 9dbd
000000e0: 75ed 033e 1b63 85bc eb23 8abd 65b5 c6bb
000000f0: e0ac 60bc 851e c93d 6f6a 023c 33bb c73c
00000100: 519a 223e 4ce0 0e3e 7081 17bd 2133 bfbd
00000110: aa99 a93b 20f4 9fbe 9d81 1abd 4f05 043d
00000120: 4978 4c3d 26f6 fdbd 85e1 283e 4bee ff3d
00000130: f03a a2bc 771a 903e c8ac 403e c7e1 8cbe
00000140: 27dc b73d d5bc a1ba 8cc7 5bbe 9ffc fa3c
00000150: ce9c debd 8dda 4b3d 5070 ad3d cdb7 dc3d
00000160: d8b3 103e 5e9d e2bd 990c 9dba fc21 953c
00000170: e5aa f33c 7abc fc3b b5e4 2b3d 1ff0 233e
00000180: b037 efbd ce2a 983d 0955 a6bc 0913 003e
00000190: e9f0 d93c 96b4 39be cd5d 1d3d 7f00 b9bc
000001a0: e641 213e c5f6 14be 559d 89be 2c5f 0bbe
000001b0: e321 23be 4cdf 28bc 16b3 b8bd a6db 4aba
000001c0: 182e f2bd d98e 963d 643b e83d 3f7c b83d
000001d0: 7647 453b 3143 e53d ca70 8ebd e57d 31bd
000001e0: 6877 973d 3785 a83d 75f5 da3c 61e8 603e
000001f0: 60f8 903c 2948 15be f6aa cebd 8754 853c
00000200: 72d0 703a 435b 473d 69de 583c 5213 ce3d
00000210: a24c 963d 5d4b 89bd a0d0 183e f77b 23be
00000220: 4115 d4bc c78a 53be d5db f13d 42fa 86be
00000230: 46b1 d43c d1ca 8bbd 5166 75bc 1178 033d
00000240: 03dc ba3e 8ba7 92bd a55c 873c 41f9 ea3c
00000250: 46e9 43be 83e0 083e a1c0 96be e302 34be
00000260: 0688 243e 4636 2dbd 7932 263d 0e06 f83c
00000270: f400 72bc 36fd 06be 0953 94be 1852 663e
00000280: 8a25 b5bc 58e2 863e 66ba 953d 6e9d 0b3d
00000290: 7e76 743e a606 05bd e5fb 86be 0ae3 eabd
000002a0: 4633 433d 4863 84bd 055d 8cbe 696b 843e
000002b0: ff3c 37be 6a37 8c3d f718 a93c f781 9a3e
000002c0: e3bf fe3d 9205 263d 2253 96bd 5241 c8be
000002d0: 2f52 17bd 53c7 a43d 7bdd 1dbe ab1b 72be
000002e0: e8ad 8e3d 4400 1b3e 06e4 1cbe 924c 963b
000002f0: 0b3b abbc 897a 17be b000 a43d 81ae 4d3e
00000300: 0a69 45bd 3b4c 8ebe de19 59bd 3f16 2bbd
00000310: 2721 61be 576f 74bd 3102 563e 98e2 f33b
00000320: 0690 9fbd e833 b13e 34fd 9f3d 893c 42be
00000330: eb77 c53d 9725 34bd 1019 3a3d b132 eebd
00000340: d171 8a3d bee5 683d bb4a dcbd 6a3a a9bc
00000350: 932d 8d3d 1576 84bc db22 533e 67bf 58bd
00000360: a903 223e e29c 0c3e b78e 24be 98d2 00be
00000370: 4937 a93c 5412 b0bd a713 503e 029f 63bd
00000380: bad6 7e3d 24be 0bbe 898e 94bd f09b 9c3d
00000390: 9a1b ef3d ab7a b8bc 9e78 c0bd a9e5 353e
000003a0: c296 6bbe ecf4 f1bd 4516 ef3d 4751 01bd
000003b0: 69cc 4f3d 5a86 84be 1304 543d 4ae7 aa3d
000003c0: 0555 57bd 9d99 a93d 25fc 9bbe ba75 9dbd
000003d0: 0e5a a73c 17dd cdbd c1ff 7c3d c5ea 843c
000003e0: 0781 143d 0edd 01bd effc 743e 4d64 f6bd
000003f0: 7153 70be 734c c5bd 6d20 ce3d 58e8 d9bd
0.022985395 -0.19734953 0.14116947 0.027619658 -0.01678783 0.16844644 0.15967977 -0.05216075
-0.024143232 -0.076949686 -0.0363443 0.14038047 -0.068473026 0.14741915 -0.007248795 0.059596647
0.0025072056 0.019428307 -0.054300517 0.058276627 0.15750003 0.15991616 0.013980224 0.013630933
-0.11667098 0.0013905119 -0.018721167 -0.1761053 0.13900132 -0.13805093 -0.16783042 0.024156643
0.2837332 -0.054648712 -0.13372885 0.15229294 0.20860747 0.011693935 -0.16059579 0.12885766
0.09718072 0.084168345 -0.15695061 0.31154963 0.1247022 -0.19191597 0.07520603 0.12668328
-0.09924344 -0.015721777 0.051104847 0.37715125 0.07092443 0.2388911 -0.09602029 -0.077028155
0.12883551 -0.016282609 -0.06745132 -0.0060641044 -0.013713092 0.09820274 0.007959946 0.024381256
0.1587918 0.1395275 -0.036988676 -0.09335924 0.005175789 -0.3124094 -0.037721265 0.032231625
0.0499194 -0.12400465 0.16492279 0.12496623 -0.019803494 0.2814519 0.18815911 -0.27516004
0.089775376 -0.0012339602 -0.2146284 0.030638037 -0.10869752 0.049768973 0.084686875 0.10777245
0.14131105 -0.11065172 -0.0011981904 0.018204682 0.029744575 0.007712898 0.04196616 0.16009568
-0.116805434 0.07430039 -0.02030422 0.12507261 0.026604133 -0.18135294 0.038419534 -0.022583244
0.15747795 -0.1454726 -0.26877847 -0.13610524 -0.15930896 -0.010307144 -0.09018533 -0.00077384186
-0.11825198 0.07351465 0.11339453 0.09008073 0.0030102408 0.11194456 -0.069551066 -0.043332953
0.07395822 0.08228534 0.026728371 0.21963646 0.01769656 -0.14578308 -0.10091202 0.016275657
0.0009186334 0.04867102 0.01323662 0.10062279 0.07338835 -0.067038275 0.14923334 -0.15965258
-0.02588904 -0.20658408 0.11809508 -0.26362807 0.025963437 -0.068257935 -0.014978007 0.032096926
0.3649598 -0.071608625 0.016523669 0.028683307 -0.19131956 0.13366894 -0.2944384 -0.17579226
0.16067514 -0.042288087 0.04057548 0.030276325 -0.014770735 -0.1318253 -0.289696 0.22492254
-0.022112627 0.26344562 0.07310943 0.034085684 0.23873326 -0.032477044 -0.26364055 -0.114690855
0.04765632 -0.06464249 -0.27414718 0.25863197 -0.17894362 0.06846507 0.020641787 0.3017728
0.12438943 0.040532656 -0.07340075 -0.39112335 -0.03694361 0.080458306 -0.1541652 -0.23643367
0.06966764 0.1513682 -0.15321359 0.0045867646 -0.020902177 -0.14792837 0.08007944 0.20086099
-0.048195876 -0.27792534 -0.053003184 -0.041769262 -0.21985303 -0.059676494 0.20899273 0.0074427836
-0.07791142 0.34609914 0.078119665 -0.18968405 0.09642013 -0.04398116 0.045434058 -0.11630762
0.0675999 0.056859724 -0.10756441 -0.020657737 0.06893458 -0.016169587 0.20618765 -0.05291691
0.15821709 0.13731721 -0.16070066 -0.12580335 0.020656245 -0.08597246 0.20319997 -0.055571564
0.062216498 -0.13646752 -0.07253749 0.0764693 0.116751865 -0.02251943 -0.09398006 0.1776339
-0.23006728 -0.11814293 0.116741695 -0.031571653 0.05073205 -0.25883752 0.051761698 0.08344896
-0.052571315 0.082812525 -0.3046581 -0.0768847 0.020428684 -0.10051935 0.061767343 0.016225228
0.036255863 -0.031704955 0.23924612 -0.120308496 -0.2346933 -0.09633722 0.100647785 -0.10640019

enc_xn.mu_gen.bias f4 [3]
00000000: a03a fc3a ada7 013c e753 be3d
0.0019243546 0.007913512 0.09293347

enc_xn.logvar_gen.weight f4 [3, 100]
00000000: 17f4 71be 62d8 72be 7a4b 2dbe d4ae 9e3e
00000010: 666a 0c3e 44a2 a03b d867 75bd a3c5 03bd
00000020: 7626 4fbe 01a2 f2bc a662 273e db0a adbe
00000030: 4c21 28bd a752 82bb 9089 c53d 7500 65bc
00000040: bd28 f9bd 4478 1d3d 6d66 11be 9cb9 91be
00000050: 2323 07be b1b9 1dbe 0e8e 18be 04bc e63d
00000060: db15 85bc 0a1f 40be 487b cbbb 4c04 a2bd
00000070: 5678 4a3d e0a2 b1bd b716 d6bc cd90 27bd
00000080: 694f 89be 2123 b0be 9ea8 80bd d99b b2bc
00000090: 150e e2bc 62a4 e4ba 721c 273e c834 503d
000000a0: f1c1 bebe dbd4 4dbe 9182 5e3e cf59 ed3c
000000b0: c063 013e d0b8 39be 81f0 72bd a9e0 273e
000000c0: 93a6 43be faaa ed3c 4e60 953d 67a1 df3d
000000d0: c4ff dcbd 8182 11be a854 013e d7e2 32be
000000e0: a571 783d d538 76bd 3a98 6ebd eb24 98bd
000000f0: dbe7 a23c 274e c4bc 7d6b 0c3d fb1c c4bd
00000100: 3040 c83c 233c 653e 4363 dcbc f0ea 46bc
00000110: d949 363e 75bd 033d 89ec 9b3e c66f b2be
00000120: 528c 6e3e 1206 64be 4199 8e3d 20fa bebd
00000130: 30a6 6d3c 85cc 953d ce6c 31be 89b9 5cbe
00000140: 9f5a 0d3d ec30 78be 6074 08be b2d9 993d
00000150: 974a 023e fe3c 96bd 57bf 0b3d 0286 823d
00000160: 00b5 273e 287d f7bd 5ed4 b3bd 10f1 793d
00000170: 8453 783e ffb1 bdbd 266d c23d 0cb5 1dbe
00000180: 0715 a7bc d3fc 86bd 9a7a a3bd a877 1d3b
00000190: 8e91 2dbe 4769 a13d 3d2a 00be f15e 673d
000001a0: 494b 52be efab b03e 2289 13be 7ca0 6c3d
000001b0: 8f30 11bd 968d d1bd 424b 15be c25e 143e
000001c0: 01ad 2fbe f529 4a3e 9cc6 8dbe 7b02 94bc
000001d0: 584b bdbd f976 283d 7d56 2dbe fd06 f7bc
000001e0: 68cd ad3c b151 1dbd 19f4 c7bc cd25 233e
000001f0: 42c7 bcbd 0206 fa3d 5306 f13d 06d3 0dbe
00000200: d2cd 7e3d 5b14 37be 6eb5 123e 736e adbc
00000210: b433 69bd 48ea 2abd 706e da3d 3444 37bd
00000220: 82b5 b13e ddb5 cd3c 4c7b 7dbc 6528 e13d
00000230: 66b1 8e3d 6d72 ddbc 9abb 60be c51e 813d
00000240: 10a5 823c 14ef 5bbc 1f23 dc3d 9610 893c
00000250: 7161 8d3a 3063 19be 7a1b 8a3b b28c e13c
00000260: e9a9 45be e4cb 1ebd a841 5abe cb8c 0e3e
00000270: 8906 e4bc 9e8e 69be 5959 973e cf7a c2ba
00000280: 5d8f d0be 51f5 81be d304 dfbc ee05 ed3c
00000290: 7b5f 853d 11b0 b3bd a36e 943d 7acb aabc
000002a0: 37a0 4e3e 0fd6 8cbd e8f8 4abd 7585 53bc
000002b0: 9f03 7bbe 8382 3f3d 1871 7f3e 1e36 e63c
000002c0: f0d4 4c3d a04f cb3c f9ea 24be 7fd7 f93a
000002d0: 4654 c1bc 11f9 fa3c aefd d63d 5154 ad3e
000002e0: b27c 8bbc 469b edbe 7629 8dbe b4c2 e4bd
000002f0: c363 3e3e 8a30 fbbd 6715 0abe f9a2 f73d
00000300: bfed 5b3e 5a24 303d a934 993d 9cc6 e0bd
00000310: 3447 78be e928 493d 9d75 66bd 0cdc 153e
00000320: 2062 93bd f5cd f73d 95e2 253e 4d12 7fbd
00000330: d803 653e 70e2 693e 9617 c3bd bbd3 89be
00000340: d2c8 e93d aa2b 003e f66e cebd 5e88 bb3d
00000350: 09e7 65be 305e ac3c 28c7 1c3d e0cb 073e
00000360: 3812 24be 0b1a a33e 547c 863d f450 01be
00000370: a803 f73c 66c5 ba3d d9dc 56be 845d d4bc
00000380: 7e6a 4e3d 5b6d 823d 52b5 cb3e 120c 323e
00000390: 0a7f ba3c 676d 043e f5ad a3be f788 01be
000003a0: 6379 abbd 57bc cbbd 7848 18be f0c6 c7ba
000003b0: c9af c13e 817c 14bd 3d9a a8be 6296 773d
000003c0: 7a86 003e 982f ac3d bab0 e3bd 7508 093e
000003d0: eae6 2abd d241 8cbe ae51 35be 2512 c63d
000003e0: 5e7b a1bc 0b39 38be 8e92 363e 9000 63bd
000003f0: e131 6abd d604 4fbe 64ae 773a f209 2f3e
-0.23628269 -0.23715356 -0.16923323 0.30992758 0.13712463 0.004902156 -0.059913486 -0.032170903
-0.20229515 -0.029618265 0.16346225 -0.33797345 -0.04104738 -0.003977138 0.096453786 -0.01397716
-0.12165973 0.038444772 -0.14199229 -0.2846192 -0.13196997 -0.15402867 -0.1489794 0.1126633
-0.016245773 -0.1876184 -0.0062097646 -0.07910976 0.049431168 -0.08673644 -0.026133878 -0.040909577
-0.26818398 -0.344018 -0.06282161 -0.02180283 -0.027594605 -0.001744401 0.16319445 0.050831586
-0.3725734 -0.20100729 0.21729495 0.028973488 0.12635708 -0.18136907 -0.059311394 0.16394295
-0.19106512 0.029012192 0.07293759 0.10919457 -0.10790971 -0.1420994 0.1262995 -0.17469345
0.060655255 -0.060112793 -0.058250643 -0.074289165 0.019885948 -0.023963047 0.034282196 -0.0957584
0.02444467 0.22386222 -0.0269028 -0.012140974 0.17801608 0.032163102 0.304539 -0.348509
0.23295715 -0.2226794 0.069628246 -0.09325051 0.014504954 0.073144 -0.17326662 -0.21555151
0.03451025 -0.24237412 -0.13325644 0.07512225 0.12723766 -0.07335852 0.034118023 0.06373216
0.1637764 -0.120844185 -0.0878074 0.06102091 0.24250609 -0.09262466 0.09493475 -0.15401095
-0.020395769 -0.06591191 -0.07982369 0.002402762 -0.16950056 0.07881408 -0.12516113 0.056487028
-0.20536532 0.34506175 -0.14407781 0.057770237 -0.0354467 -0.102320835 -0.1457949 0.14489272
-0.1715584 0.19742568 -0.2769059 -0.018067589 -0.09242886 0.041129086 -0.16927524 -0.0301547
0.02121611 -0.038407985 -0.024408387 0.15932389 -0.09217693 0.12208177 0.117687844 -0.1385003
0.062208004 -0.17878859 0.14327022 -0.02117083 -0.056934074 -0.041727334 0.106655955 -0.044742778
0.34708792 0.025111133 -0.015471291 0.10994033 0.0696743 -0.027032102 -0.21946564 0.06304697
0.015947849 -0.0134237 0.10748886 0.016731542 0.0010786486 -0.14979243 0.0042147012 0.027532909
-0.19303097 -0.038768664 -0.21314108 0.13920896 -0.027835147 -0.2280831 0.29560354 -0.0014837625
-0.40734378 -0.25382474 -0.02722398 0.028933492 0.06512352 -0.087738164 0.07247665 -0.020848978
0.20178305 -0.06876766 -0.04955378 -0.012910237 -0.245131 0.046755325 0.24945486 0.028101977
0.05000776 0.024818242 -0.1610526 0.0019061415 -0.023599755 0.030636342 0.10497604 0.3385339
-0.017027233 -0.46407527 -0.27570695 -0.11169949 0.18592744 -0.122651175 -0.13484727 0.120916314
0.21477412 0.043003418 0.07480747 -0.10975382 -0.24245912 0.04911128 -0.05626451 0.14634722
-0.0719645 0.1209983 0.16199715 -0.062273312 0.22364748 0.22840285 -0.09525983 -0.2691935
0.114152566 0.12516657 -0.10079758 0.09156869 -0.22451414 0.021041006 0.038275868 0.13261366
-0.16022575 0.31855807 0.065666825 -0.12628537 0.03015311 0.09119682 -0.20982684 -0.025923498
0.050394528 0.06368514 0.39786774 0.17387417 0.022765655 0.12932359 -0.31968656 -0.12649904
-0.08372762 -0.09948032 -0.14871395 -0.0015241783 0.37829426 -0.03625155 -0.32930174 0.06044615
0.12551299 0.08407515 -0.11117692 0.13382132 -0.041724123 -0.27393967 -0.1770694 0.096714295
-0.019712146 -0.1799051 0.17829344 -0.05542046 -0.057176474 -0.20216689 0.00094482885 0.17093638

enc_xn.logvar_gen.bias f4 [3]
00000000: 2c65 fabb 9d2b aebc c040 bf3c
-0.007641455 -0.02126103 0.023346305
