result/single_baseline_compare/synthetic/pretrained/0_vae_single(xn1.0_xa1.0_y1.0_kl0.1_tc0.5_css5.0_uxn3_uxa3_seed2).pth (torch, 647860 bytes, 54 tensors)

enc_xn.in_layer.weight f4 [100, 2]
000000 75 e9 37 be e7 bb 5e be 13 c3 ee bd 98 fd 4e 3e
       -0.1796015 -0.21751367 -0.11658301 0.20213926
000010 b1 d8 37 3e 02 e6 16 be 3a 5c 8a be 0b 2f ce bd
       0.17953755 -0.14736179 -0.27023488 -0.100675665
000020 f1 18 58 bd 64 26 38 bd 1a be d6 bd 89 34 94 3d
       -0.05275816 -0.044958487 -0.10485478 0.07236583
000030 2c be 7e 3d 50 c0 92 bd 9d 39 ee 3d 12 f7 b8 3b
       0.06219308 -0.07165587 0.116320826 0.0056446875
000040 fd af 39 bd 7a dc 2f be 61 f0 b5 bc 27 85 98 be
       -0.04533385 -0.17173949 -0.022209348 -0.29789087
000050 b1 eb 25 be 74 cd 81 bd 90 69 9a be 59 a3 08 3d
       -0.1620319 -0.06338015 -0.30158663 0.033358905
000060 2c 4e 92 bd fc eb d7 ba 59 9c 1e be ce c1 cd 3b
       -0.07143816 -0.0016473527 -0.1548933 0.006279207
000070 44 0a 80 bd 99 8d 98 3d c6 60 b2 3d 78 68 1c 3d
       -0.06251958 0.074488826 0.08709864 0.038185567
000080 f0 ac f0 bd 35 49 56 3e 17 d6 8a 3e e4 e2 6b be
       -0.11751735 0.20926364 0.27116463 -0.2303577
000090 6f 47 31 be 75 bb 7b be dc 20 37 3d e8 93 51 bd
       -0.17312406 -0.24583228 0.04470907 -0.051166445
0000a0 56 de a8 3d ae d4 10 3e 07 49 68 be 46 96 ac 3c
       0.08245532 0.14143631 -0.22684108 0.02106775
0000b0 39 86 4d be bd 05 34 bd 65 1e 01 be 55 b2 1b bd
       -0.20070733 -0.043950785 -0.12609251 -0.038011868
0000c0 75 2c 90 bc 12 53 0a 3e 48 e4 2a 3d dd 15 24 be
       -0.017599324 0.13508251 0.041721612 -0.16023965
0000d0 6b eb 5e 3e 66 9e 11 3d f4 c1 10 3e 33 d3 d3 3d
       0.21769492 0.03555145 0.14136487 0.103430174
0000e0 bf 47 fc 3d cb 8e f2 bd 9e 63 3b be 59 a1 ad bd
       0.12318372 -0.11843642 -0.1829972 -0.0847804
0000f0 d7 5f b8 bd 5f 8f 07 bd c4 2f 8f bd 7b 9f e0 3d
       -0.09002655 -0.033095714 -0.069915324 0.109679185
000100 d9 9d 3b bd 7f 5f f9 bd 02 3a 7c 3b 00 2c 68 3e
       -0.045804832 -0.121764176 0.0038486724 0.22673035
000110 9b 77 98 bc 14 ca bd bd ac 54 ab 3c 7e e7 3c be
       -0.01861172 -0.09267059 0.020914398 -0.18447682
000120 2b 49 3c 3c 79 d3 07 be 88 da e5 bc bc 12 b8 bd
       0.011492054 -0.13264264 -0.028058305 -0.08987948
000130 7b e4 0b be 3a 20 df bd c0 fb 4d 3e f7 0b 99 be
       -0.13661377 -0.108948186 0.20115566 -0.2989194
000140 ec d3 f9 bd 27 27 a7 3d 6e 22 a4 3d ce 31 83 bd
       -0.12198624 0.081617646 0.080143794 -0.06405984
000150 4e f3 a7 be f6 37 01 be ac 5c b2 3d 23 2f 9f be
       -0.32802814 -0.12619004 0.08709082 -0.3109065
000160 41 85 20 3e 65 ec 13 3c ca 2f 67 3e b9 3e db bd
       0.15675832 0.009028529 0.22576824 -0.10705323
000170 2b 19 28 3d 47 f5 2c 3d c5 43 7b 3d a9 c6 f2 bb
       0.041039627 0.042226102 0.061343927 -0.007408936
000180 1e 7d 27 3e 00 a3 2b 3e 09 7f ee bd 4d e9 e6 bd
       0.16356322 0.16761398 -0.11645324 -0.11274967
000190 ce 50 ab be fc c8 98 bd 7e 49 1b 3e 36 9f 3c 3d
       -0.33460087 -0.0746021 0.15164754 0.046050273
0001a0 c6 ac db bd 8e d7 5c bb 9d d8 54 bd 26 ea 81 bc
       -0.10726313 -0.0033697817 -0.05196439 -0.015858721
0001b0 db fc 11 3e 05 5d 58 bd 96 52 9f 3d d1 42 2a 3e
       0.14256613 -0.052823085 0.07779424 0.16627051
0001c0 30 cf 5a 3e a7 9d 17 3e 18 69 84 bc cf d9 4a be
       0.21368098 0.14806233 -0.016163394 -0.1980965
0001d0 16 d7 7e bd dc 3c fc 3c 78 f1 50 be 6f ad da bc
       -0.06221684 0.030790739 -0.20404613 -0.026694028
0001e0 73 5b bd 3d 84 b8 d3 3d 14 78 df bd a1 f8 26 3d
       0.09245958 0.10337928 -0.10911575 0.040764455
0001f0 f2 b7 e1 3d a0 27 16 be d6 59 3c 3d 84 28 55 bd
       0.11021413 -0.14663553 0.04598411 -0.05204059
000200 26 6d 50 be fe b5 dc 3d 6a d5 60 3e ef dd 8c 3d
       -0.20354137 0.107769 0.21956411 0.06878268
000210 46 c2 87 bd 3d 92 c1 bd bb fb 4a be cd 2a 57 be
       -0.066288516 -0.09451721 -0.1982259 -0.21012421
000220 2c a5 b3 bd 11 0b d2 bd ba 30 b9 3d 68 95 18 3e
       -0.087717384 -0.10256017 0.09042497 0.14900744
000230 14 9d 87 be 19 16 62 3e 0f b4 67 3d b1 42 21 3d
       -0.2648703 0.22078742 0.0565682 0.039370243
000240 4d 0c 32 be 57 82 47 3e 6f 43 c1 bd a3 9a 75 3b
       -0.17387505 0.19483314 -0.0943669 0.0037476204
000250 b3 8b e2 bd 22 17 18 3e b2 82 80 3d bc 81 8e be
       -0.11061802 0.14852574 0.06274928 -0.27833354
000260 30 72 a3 bc f4 97 a2 bd 52 32 08 3e 3d aa 37 3e
       -0.01995191 -0.07939139 0.13300446 0.17936035
000270 5c 8f 69 be b1 ce cd bd f7 05 5e be 7f 9a 50 be
       -0.22808594 -0.10049189 -0.21681963 -0.20371436
000280 eb 53 e0 3d af 1c 07 be 93 b7 14 3e 5f a9 56 3e
       0.10953506 -0.13194536 0.14523153 0.20963047
000290 66 57 87 be 56 55 a9 bd 10 a2 b3 3e 8b ac bf bd
       -0.26433867 -0.0826823 0.3508458 -0.09359082
0002a0 7e 53 97 3d 7a b8 2a 3d 87 b2 e1 3d f8 81 3e 3e
       0.07388972 0.041679837 0.110203795 0.18604267
0002b0 55 49 06 be 50 62 36 3d 4a f3 c6 bd f9 74 27 be
       -0.13113911 0.04452735 -0.097143725 -0.16353215
0002c0 3b c7 ec 3c a1 ab 4a 3e da 4b 8a bd 33 a9 8c bd
       0.028903594 0.19792034 -0.06752749 -0.0686821
0002d0 59 4f d4 3d 40 68 ac bd 04 9a 46 3c 93 31 0c 3c
       0.10366697 -0.084183216 0.012121681 0.008556741
0002e0 dd c8 b6 bd 02 57 4a bd 26 c3 72 3d a1 7b 82 bd
       -0.089250304 -0.049399383 0.05926814 -0.063712366
0002f0 06 32 40 bd 59 ba 6e be 4c 37 60 3e a0 4c 6f bd
       -0.046922706 -0.23313273 0.21896094 -0.058422685
000300 2f 0c 53 3e c0 64 b7 bd 0c 5f 26 bd 32 8c cc 3c
       0.20610116 -0.089547634 -0.040617988 0.024969194
000310 a1 cc 62 bd 66 bb 84 bd 26 0a 0e bd d0 f2 1b bd
       -0.05537093 -0.06481056 -0.034677647 -0.03807336

enc_xn.in_layer.bias f4 [100]
000000 30 ea fc be 7e 93 ea be 6d 10 a3 be b1 42 21 bf
       -0.4939742 -0.45815653 -0.3184847 -0.6299239
000010 b5 57 93 bd 0b 25 f1 3e 84 ef 94 3e 0b b5 86 be
       -0.07194463 0.47098574 0.29088986 -0.2631
000020 bb f8 e2 bd 62 17 a4 be 45 8a 19 bf cf 53 55 be
       -0.11082598 -0.3204909 -0.5997661 -0.20832752
000030 50 57 0c 3d 79 8b c0 be 74 e5 05 bf 09 a4 6b 3e
       0.034262955 -0.3760641 -0.5230324 0.23011793
000040 d0 e2 02 3e 7d 01 5d be ee 24 4b 3e 06 c1 2b 3f
       0.12781835 -0.21582599 0.19838306 0.67091405
000050 de 2a 91 3c 9d fd 01 bf 46 23 2e 3f a6 ab 05 3f
       0.017720636 -0.5077761 0.68022573 0.5221504
000060 54 89 25 bd 34 97 aa be dd a4 90 be ab e9 21 3f
       -0.04041417 -0.33318484 -0.2825078 0.63247174
000070 85 50 c8 3e 30 ab b4 be 7e 56 f2 3c db 25 2b 3e
       0.39123932 -0.35286856 0.029582258 0.1671366
000080 0e 4c 3a 3e d8 71 42 bc ee 56 c7 be fd d9 24 bd
       0.18193075 -0.011867963 -0.3893351 -0.040246952
000090 45 7c 47 be bb 07 83 be be dc bd be 1d 13 a3 be
       -0.19480999 -0.25591835 -0.37082475 -0.3185052
0000a0 0e dc b3 be d8 db 9d 3e 1a ec 1c bf ce 04 2e bf
       -0.35128826 0.3083179 -0.6129776 -0.6797608
0000b0 d8 49 21 3f ff 82 89 3e d5 56 d3 3e 40 ad ab 3e
       0.630033 0.26857755 0.41277185 0.33530617
0000c0 34 50 83 be 6c 6f ec be 0c 98 f3 be 34 4d b9 bc
       -0.25647128 -0.46178758 -0.4757694 -0.022619821
0000d0 cf 9c 28 3e ae da 25 bf 36 4b 13 bf ab ab d9 3e
       0.16466068 -0.64786804 -0.5753664 0.42513785
0000e0 f8 49 be 3d 4a 51 f9 3e 7d 4c 26 3f ef 7c eb 3e
       0.09291452 0.4869483 0.6496046 0.45993754
0000f0 2c f6 0b be ac fb 97 be c3 3b 65 3e f4 3f 19 3f
       -0.13668126 -0.29684198 0.22386079 0.5986321
000100 60 ed 35 bf 17 f7 5a 3e 8d dd 14 bf de 26 15 bf
       -0.7106533 0.2138332 -0.5815056 -0.5826243
000110 83 fa 82 3e 13 7f cb 3e b7 dd 85 3e 33 91 69 3e
       0.2558175 0.39745387 0.26145718 0.22809295
000120 0f 7d 68 be 3d 5a f7 3c eb 16 24 bf 19 f4 f7 be
       -0.22703956 0.030194396 -0.6409747 -0.4842842
000130 68 97 18 3b 83 99 0a be 14 3f fe bd ed 55 cf 3e
       0.0023283605 -0.13535123 -0.12414375 0.40495244
000140 90 d7 95 3e 41 1b 04 be 94 28 76 be 2b 51 00 bf
       0.29266024 -0.12901022 -0.24038917 -0.5012385
000150 87 8d c7 3e f8 ce 01 bf 61 e1 6d 3e 98 26 1d be
       0.38975164 -0.50706434 0.23230506 -0.15346754
000160 4b 8a 14 3f 92 22 ef be d8 51 f2 be 5b d5 d7 3d
       0.5802352 -0.46706063 -0.47328067 0.10538741
000170 4f 08 f2 3b 07 f7 9c be b8 e4 3b 3f 88 28 18 bf
       0.0073862444 -0.30657217 0.7339587 -0.59436846
000180 6c 8b d1 3e d0 9a ba 3e 0c 6c 22 be 80 61 8b 3e
       0.40926683 0.36446238 -0.15861529 0.27222824

enc_xn.h_layer.0.weight f4 [100, 100]
000000 15 4d 56 be 74 f6 22 bc 02 35 80 3d 08 70 4c be
       -0.20927842 -0.009946454 0.062601104 -0.19964612
000010 96 a5 3a be 1f 5b 59 3e ff 57 b8 3b 77 2a 15 be
       -0.18227229 0.21226166 0.0056257243 -0.1456698
000020 15 a5 ec 3c 3b 6e 1f be bf cd 85 3d aa e8 1a 3d
       0.028887311 -0.15569393 0.065333836 0.037819542
000030 7b 26 c4 3d 97 79 83 be f2 fb d7 bc ae 98 96 3d
       0.09577652 -0.25678703 -0.026365254 0.0735334
000040 61 f8 3f 3d ab bf da bd 79 7b 89 3b 71 c0 fd 3d
       0.046867732 -0.10681089 0.0041956273 0.12390221
000050 1a 29 e4 bd 25 8f 4a 3c 28 1b 0a ba eb 6c 30 3d
       -0.11140652 0.01236323 -0.0005268329 0.043072622
000060 60 fc 17 3d 99 a1 b7 bd fa d6 41 bd a6 58 a5 3d
       0.037105918 -0.08966369 -0.04732416 0.08073549
000070 f5 58 56 be dc 18 8d 3d e6 22 a6 3c ec 4d d7 3d
       -0.20932372 0.06889507 0.020280313 0.10512909
000080 99 6a 07 3c e8 83 14 3e de 68 43 bb 69 bc bb 3b
       0.008265161 0.14503443 -0.0029817144 0.0057292474
000090 0e 1a 3c be 6b e6 11 be 36 79 57 be 11 d7 b1 3d
       -0.18369314 -0.14248054 -0.21042332 0.08683599
0000a0 28 02 95 3d 7d 80 e2 3d 20 d0 6a 3d 1d f3 b1 3b
       0.07275802 0.110596634 0.05732739 0.0054305927
0000b0 f2 62 06 be 65 f8 15 bd 12 3a 9d 3d da a2 44 3e
       -0.13123682 -0.03661384 0.07677092 0.19202748
0000c0 e2 7b e3 3c 24 8f f5 3d d6 95 74 bd ad 91 ce bc
       0.027769033 0.119901925 -0.059713207 -0.025215948
0000d0 ba 05 bb 3d ed a2 a5 3d b4 e9 a9 bd 10 37 2a bd
       0.09131952 0.08087716 -0.082965285 -0.041556418
0000e0 f5 fd a9 3e 53 5f 9c bd ca 13 89 bd 02 fd 0d be
       0.33201566 -0.07635369 -0.066932276 -0.13866046
0000f0 e1 f7 9f bd 95 bc 14 bb a5 01 af 3d 1a 58 77 be
       -0.07810951 -0.0022695411 0.085452355 -0.24154702
000100 b1 02 96 bd 92 a0 22 bd 60 29 fc 3d 00 19 9d bd
       -0.07324732 -0.039703913 0.12312579 -0.07670784
000110 88 37 1e 3e 03 33 a3 3d ed 0a 01 bd 04 74 10 be
       0.15450871 0.07968714 -0.03150456 -0.14106756
000120 25 09 6e bd ba 4f 20 3e 67 ef 22 be 91 16 09 be
       -0.05811419 0.15655413 -0.15911637 -0.13387515
000130 f5 7c ec bd 28 72 86 3c d7 8e de bd 76 3f ea bd
       -0.11547271 0.016411856 -0.10867088 -0.114378855
000140 f7 75 bf 3d f1 68 b5 bd 23 3b 70 bd 21 15 b3 bc
       0.09348672 -0.088579066 -0.058650147 -0.021860661
000150 ab 87 10 3e 1e 6b 10 3d ab 33 b2 3d 12 87 00 3e
       0.14114253 0.035258405 0.08701261 0.12551525
000160 23 65 72 3d 86 59 25 3e cb df 05 bd a0 a1 0c 3d
       0.059178483 0.16147432 -0.03268413 0.034333825
000170 00 1f 58 3e 4a 60 33 3d c0 5a d7 3d 3d 36 cf bd
       0.21105576 0.043793 0.10515356 -0.10117767
000180 78 67 20 3d fa e8 40 bd d2 62 19 bc b3 bf 63 bd
       0.039161175 -0.047097184 -0.0093619395 -0.05560274
000190 a9 3e 8d 3d 97 ec 01 be 8f 0a 17 bc 6a bf ee 3b
       0.06896717 -0.12687908 -0.009218826 0.007286002
0001a0 00 8c 97 3b d0 56 2b 3d b2 29 02 3d a5 42 28 be
       0.0046248436 0.041830838 0.031778045 -0.16431673
0001b0 5f 47 e6 3d 4b 11 b2 bd c4 f6 0c 3e a3 7a 24 3c
       0.11244082 -0.086947046 0.13766009 0.0100390045
0001c0 40 cf 46 be 3c 9f 94 bc 12 be 16 3d e4 f4 70 bd
       -0.19414997 -0.018142335 0.03680236 -0.058827296
0001d0 69 1e bd bd 76 d7 80 be dc 5a 01 be f0 60 7b bd
       -0.09234316 -0.25164384 -0.12632316 -0.061371744
0001e0 db 93 b7 bd 99 66 9d 3c 98 0b 67 be 02 98 23 be
       -0.08963748 0.019213961 -0.22563016 -0.15975955
0001f0 2b 52 c1 3d 36 cf b1 3d ec 81 fe 3d 39 8a fc 3d
       0.094395004 0.086821005 0.124271244 0.123310514
000200 a1 a3 7f 3d ca 22 66 bd 5f 1a b2 3c 76 a9 99 bd
       0.062411908 -0.05618552 0.02174109 -0.07503025
000210 3f ed 2f 3c 6a d3 40 bd 2a 66 d0 bd 05 51 03 bb
       0.010737716 -0.04707662 -0.10175736 -0.0020037305
000220 dc 5d 2f 3e 11 0b 8f 3d 60 c2 a8 3d 00 7d 3b 3d
       0.17125648 0.069845326 0.08240199 0.045773506
000230 ed 1d 33 be 50 5c f5 3c 83 50 28 bd 05 dd d5 ba
       -0.17491885 0.029951245 -0.041092407 -0.0016316479
000240 5b 9c 2d bc 2e 0b a3 3d fa 6e 69 be d9 fc 54 3e
       -0.01059636 0.07961117 -0.2279624 0.20799579
000250 7e 10 89 bd 66 31 97 bc b6 9d f3 3d d0 0c 62 3e
       -0.06692599 -0.018456172 0.11895315 0.220752
000260 fc cb b7 bd 18 b7 81 bd 53 e9 07 3e 68 36 03 3e
       -0.08974454 -0.063337505 0.132726 0.12813723
000270 08 0c 52 bc bc 0e 7b 3d b9 ea 1d 3e 09 53 93 be
       -0.012820251 0.06129335 0.15421571 -0.28774288
000280 71 b0 fb 3c b8 23 f8 3d 12 c7 8c bd 26 c0 29 3e
       0.030723782 0.12116188 -0.06873907 0.16577205
000290 9f 8d b6 3d 7f 9c ae bd 78 87 5b 3d 10 28 27 3c
       0.08913731 -0.08525943 0.05359599 0.010202423
0002a0 0a 96 a4 bd cc cd a0 3c 38 7b 1a 3e 4e eb 4f bd
       -0.0803643 0.019629382 0.15086067 -0.050761513
0002b0 60 00 9b 3d 23 f2 ec bd 02 8f 66 be fa 90 96 3d
       0.07568431 -0.115696214 -0.2251549 0.07351871
0002c0 44 50 8d 3d 05 27 e8 bd 23 6b 91 be f2 c2 09 be
       0.06900075 -0.113355674 -0.2840205 -0.13453272
0002d0 c9 67 a2 3d 3b 8d 0d be c7 03 10 be e6 d0 a4 3d
       0.07929952 -0.13823406 -0.14063941 0.08047657
0002e0 f9 b0 cc 3d fa bd e8 3d 54 31 dc bc 12 c3 fd 3c
       0.09994692 0.1136436 -0.02687899 0.030976806
0002f0 1f 82 80 bc de c0 85 3d c9 3c 56 3e 63 af 37 3e
       -0.015687047 0.06530927 0.20921625 0.17937998
000300 2c d8 06 bd b2 0d 76 3c 3b 54 89 3d 5c a4 30 3d
       -0.032921 0.015017914 0.06705519 0.043125495
000310 14 fb 4e bd 01 a2 e5 bd 8f fd f3 3d e1 fd cd 3d
       -0.050532416 -0.112125404 0.11913597 0.10058189
000320 a7 6f 3d bd a5 2e 36 bd f7 d1 85 bc b1 02 7a 3d
       -0.046249058 -0.044478077 -0.01633547 0.061037723
000330 d1 e1 81 bd db 17 1a bd 8a 87 77 3d e9 0f c1 3c
       -0.06341899 -0.037620407 0.060431994 0.023567157
000340 d4 d0 f1 3c 50 fc 4a be 0f ea 9a bd f5 36 6b 3e
       0.029518522 -0.19822812 -0.075641744 0.22970183
000350 88 50 81 bd a3 c6 cf bb 3b 43 5c 3e e9 36 1e be
       -0.06314188 -0.006340818 0.21510021 -0.15450634
000360 b0 53 e7 3c e2 4d 28 be 7a 1d 91 bd ee 09 e4 bc
       0.028238147 -0.1643596 -0.070857 -0.027836766
000370 29 b2 dc bd 75 e3 9d bc 44 47 00 be 52 16 d3 bb
       -0.10776169 -0.019273499 -0.12527186 -0.00644187
000380 b2 70 fb bb 80 36 c7 3d 87 cc 41 be 1b 7c 48 3e
       -0.0076733464 0.09727192 -0.18925677 0.19578592
000390 ed b9 8a 3d 13 5c 0f 3e a4 63 98 3c 0d 10 13 3d
       0.06773744 0.13999967 0.0186022 0.03590398
0003a0 eb 2b e6 3d 11 77 86 be fd 71 62 be 28 e0 ae 3a
       0.112388454 -0.26262715 -0.22113796 0.001334195
0003b0 00 5b 98 3d 5b 81 97 3d b6 2b 0e 3e 83 d2 a9 3d
       0.07439232 0.073977195 0.13883862 0.08292105
0003c0 b0 e2 14 3e fc 49 ed bd b9 0b 0a 3c 37 7e 9d 3e
       0.145396 -0.11586377 0.008425646 0.30760357
0003d0 f3 ca 20 bb 84 77 cb bd 37 b3 6a be 96 44 ae bd
       -0.002453503 -0.09934905 -0.22919928 -0.085091755
0003e0 8d 85 82 bd c6 b0 3e be 00 d8 17 be 87 ea 8c 3d
       -0.06373129 -0.18622121 -0.14828491 0.0688067
0003f0 9c 4e 98 3d 91 f0 a3 3d bb 0e bc bd 7d 17 83 3d
       0.074368685 0.08004869 -0.09182497 0.064009644

enc_xn.h_layer.0.bias f4 [100]
000000 f7 aa fb 3d 4f 90 54 bd e9 47 27 bd 08 3f 9b bd
       0.12288468 -0.051895436 -0.040840063 -0.07580382
000010 35 ab f9 3d 8d 22 90 3c 86 e7 90 3d 9a b3 2f bd
       0.12190858 0.0175946 0.070754096 -0.04289589
000020 f9 a6 49 bd b1 c6 a7 3d 3a bd 8b bc 0b 55 86 bd
       -0.049231503 0.08192194 -0.017058004 -0.065591894
000030 fb 34 ac bd 9d 23 7c bd 55 d5 14 3c bc 89 22 bd
       -0.08408543 -0.0615574 0.009084065 -0.039682135
000040 6d 74 8a bc f3 d5 6b 3d a6 4a 05 3d e7 2d 12 3c
       -0.01690122 0.057577085 0.032541893 0.008922077
000050 5f d4 66 3d 7f 77 73 3d 4c ae 85 bd 3a fb 8d bb
       0.056354877 0.059440132 -0.06527385 -0.004332927
000060 68 e0 4e bd 5e 9c 95 bd 0d 27 a0 bc 83 e3 d7 3d
       -0.05050698 -0.07305215 -0.01954987 0.10541441
000070 4f 1c d0 bd d2 82 a7 3d 3d 94 a1 3d 48 ee 8d 3c
       -0.101616494 0.08179249 0.07889602 0.017325535
000080 a8 d2 92 3d 56 b8 99 3d c8 1f f9 3b 9a 74 1c 3c
       0.07169086 0.075058624 0.0076026656 0.009549284
000090 69 71 59 3d 9a bb 92 bb 2f c1 ad bd 9f 8e 25 bd
       0.053086672 -0.0044779303 -0.084841125 -0.040419217
0000a0 94 16 7e 3d 38 15 69 3d 36 91 a8 3d 80 3e 54 3d
       0.06203325 0.056905 0.08230822 0.051817417
0000b0 b3 c7 f3 3d 45 79 9f 3d e9 0f 50 3d 89 7f ed bd
       0.11903324 0.07786802 0.050796423 -0.11596591
0000c0 9a 02 4c 3d a3 4d 17 bd 84 e1 87 3d 32 d8 c9 bc
       0.04980717 -0.036939275 0.066348106 -0.024639223
0000d0 0c dc 50 3d 93 24 06 3d 02 0b b7 bc be 31 0d 3b
       0.050991103 0.032749724 -0.022344116 0.0021544541
0000e0 85 ba 2e bd dd 6d 99 3d 39 dc d3 bc 86 9b d4 bd
       -0.042658348 0.07491658 -0.025861846 -0.10381226
0000f0 c1 44 ac bd 29 78 8c bd c8 8b a9 bd ef 07 85 3d
       -0.08411551 -0.06858856 -0.08278614 0.06495654
000100 de 35 83 bb 33 0f 73 bc f0 72 af 3d 5c ba 36 bd
       -0.004004224 -0.014835167 0.085668445 -0.04461132
000110 2a be 2e 3d 4d ad 86 bd 36 91 8d 3d 68 27 40 3d
       0.042661823 -0.06576023 0.069124624 0.04691258
000120 3b d1 a3 3d d3 12 51 bb de 14 ef 3c 5c 39 b5 3d
       0.07998892 -0.003190209 0.029184755 0.08848831
000130 04 0e 46 3d 49 1e dd bd 60 a2 0e bd a4 5d 03 bd
       0.04835321 -0.10796792 -0.03482282 -0.032071725
000140 ed a7 67 bd d6 0f 64 bd 80 c1 de bc b6 e4 b4 3b
       -0.05655663 -0.055679165 -0.027191877 0.0055204285
000150 b0 28 1c 3d 8f bf 2a bd 2e 88 06 bd 4e 1a ae bd
       0.03812474 -0.04168659 -0.032844715 -0.08501111
000160 9f 95 99 3d 9a 40 13 bd fb be be bc ab 1d 0b bd
       0.07499241 -0.03595028 -0.023284426 -0.03396384
000170 5e f6 49 bd df 1e ab bd 8a 0c 89 bc 79 e0 55 3d
       -0.04930722 -0.083554976 -0.016729612 0.052216027
000180 fa ac 05 3d 27 3b 43 3d 40 8c 2d bd e5 fc 19 bd
       0.032635666 0.047663834 -0.04237008 -0.037594695

enc_xn.h_layer.2.weight f4 [100, 100]
000000 97 34 28 3e 0f fc a3 3e 45 ff cb bd ba 83 9d bd
       0.16426311 0.32028243 -0.09960798 -0.076911405
000010 eb 11 74 3e 32 fb c3 3d b9 21 d9 3d 31 74 5d 3e
       0.2383496 0.09569396 0.10602135 0.21626355
000020 29 25 a1 bb 9e d4 90 bd 12 05 b7 bd 36 d3 5c 3e
       -0.00491776 -0.070718035 -0.08936514 0.21564946
000030 df 38 0f be 2e 3f 68 bd 2c 53 83 3d db 6f f7 3d
       -0.13986538 -0.056700878 0.06412348 0.120818816
000040 bc 30 d0 bd 08 2d 56 3e fe e7 73 be 6c 7a 76 3d
       -0.10165545 0.20915616 -0.23818967 0.060175344
000050 29 49 1f 3e 16 8f 2d 3d 78 93 49 3e e8 a8 df bc
       0.15555252 0.042372786 0.19685161 -0.02730222
000060 7b ec 14 bd f0 25 a7 ba e7 39 89 3d 3d f4 ae 3d
       -0.036358338 -0.0012752395 0.06700497 0.085426785
000070 fa d5 b6 bb 02 aa f6 3d e3 15 8f bd ed 55 17 3d
       -0.005579707 0.12044145 -0.069865964 0.03694718
000080 cf 8d 87 3d e4 43 83 bb c8 90 7a 3e e7 78 ae bb
       0.06618845 -0.004005896 0.24469292 -0.0053244713
000090 6d e8 fc 3d 59 15 f4 bd 03 c1 ae 3d 13 3f a4 3d
       0.12349019 -0.11918134 0.08532908 0.08019843
0000a0 27 4f 95 3d 6b 34 0f bc fc ef df 3d 4e 1c 77 3d
       0.07290488 -0.008740525 0.10934445 0.060329728
0000b0 db 86 13 3e fb 85 b1 bc 81 71 b0 3c ac 69 4b 3d
       0.14406912 -0.021670332 0.021538498 0.049661323
0000c0 2a f5 1e 3e e3 fc ba 3d 1f c7 df 3d 4a 04 96 3c
       0.1552321 0.091302656 0.10926651 0.018312592
0000d0 29 dd 44 3e c8 4e 31 3d f9 31 ad bd 6d 32 27 3c
       0.19224991 0.043288022 -0.08456797 0.010204894
0000e0 f0 f6 45 be 4c 6d a8 bc d6 23 e8 bb 81 da 82 3c
       -0.1933248 -0.02055993 -0.00708435 0.015973331
0000f0 08 d3 26 3b 12 3a d0 bd b7 95 c7 3d 97 75 5a 3d
       0.0025455374 -0.10167326 0.09745353 0.0533348
000100 ec fd ab bc 54 37 00 be b7 ad 37 bc 6c 19 11 bd
       -0.020995103 -0.12521106 -0.01121085 -0.035424635
000110 a8 3d 70 3d 35 47 46 bd b1 c3 b8 3d 04 d4 c3 bd
       0.05865255 -0.048407752 0.090217 -0.09561923
000120 7d 69 73 bd 10 f6 69 bc a7 65 53 3d 1d 44 f4 bb
       -0.059426773 -0.014279857 0.051610615 -0.007454409
000130 61 dd da 3d 41 d0 f7 3d 2f 53 3c 3d 44 ee 20 bd
       0.10686756 0.12100268 0.045977768 -0.039289728
000140 2f 51 ef bd 93 7a 8e bd 90 3f ea 3c 8d c5 6b 3e
       -0.116854064 -0.06956973 0.028594762 0.23024578
000150 e5 aa b9 3d 1f 4e bb bc 8f 64 22 bc 65 bc c9 3d
       0.09065799 -0.0228644 -0.00991167 0.098503865
000160 8d c3 d5 3b cb 90 ac bd db f8 6e bd 93 37 21 be
       0.0065235556 -0.084260546 -0.058342796 -0.15743856
000170 9d 52 bf bb 34 3f bd 3d 71 05 f9 3d 8e 7a 11 3d
       -0.0058387057 0.09240571 0.12159241 0.035517268
000180 30 24 31 bd b1 17 0f 3e 67 e4 6b 3b 72 14 1c 3d
       -0.0432474 0.13973881 0.0035994293 0.038105436
000190 5e c0 3f 3c 78 9f 8e 3d ee a0 ec 3c 0f 3f 17 3d
       0.011703579 0.0696401 0.028885331 0.03692537
0001a0 0e bc ae 3d e1 36 76 bd a4 56 90 bb 21 15 00 bd
       0.08531962 -0.06011093 -0.0044048596 -0.03127015
0001b0 1c fd e7 3d 21 4f 1e 3e c2 82 1c be f5 9b 61 3c
       0.11327574 0.15459873 -0.15284255 0.013770093
0001c0 fb f9 59 bd dc fc 1c bd fa f4 1a be 7a d9 15 bd
       -0.053216916 -0.038327083 -0.15132514 -0.036584355
0001d0 d7 ad 6f be be 71 30 bd 78 86 70 3d b4 70 20 3e
       -0.23406158 -0.043077223 0.05872199 0.15667993
0001e0 16 e7 05 3c f4 f9 01 bc 6e d4 7e 3d 2d 56 ef 3b
       0.008172771 -0.007933129 0.062214307 0.007303974
0001f0 93 4f 3b 3e a2 66 3e be 0d a7 b6 3c b2 dd 50 bc
       0.18292074 -0.18593839 0.022296453 -0.012748169
000200 af dc 9a 3d 71 45 2f 3e 18 0f d6 3d 20 24 f2 3b
       0.07561623 0.17116334 0.10452098 0.0073895603
000210 70 c6 03 be ed e0 59 be 7f 5f 68 be 44 dd b5 3d
       -0.12868667 -0.21277209 -0.22692679 0.08880094
000220 48 85 8f 3d 35 19 2c 3d b1 f5 31 bd 30 b9 82 be
       0.07007843 0.042016227 -0.0434472 -0.25531912
000230 49 a7 33 be 63 77 46 be 05 c5 28 bd ae 51 3c be
       -0.17544283 -0.1938148 -0.041203517 -0.18390533
000240 b5 f9 8a 3d e1 6c 33 bd 69 b0 f7 3d b2 8c e7 3c
       0.06785909 -0.043805007 0.120941944 0.028265331
000250 f6 26 23 be 52 8d 8e bd 0b c5 0c be dd 2e cc 3d
       -0.15932831 -0.069605485 -0.13747041 0.09969876
000260 7d eb 10 be fa ee 3f bd 3c 6e 0d 3e ce f5 57 be
       -0.14152332 -0.046858765 0.13811582 -0.21089861
000270 62 b6 ca 3c 54 53 b6 3d ae 57 3f 3d 2c 72 0a be
       0.02474517 0.08902612 0.046714477 -0.13520116
000280 cb 72 8f 3c d6 92 10 bc 61 76 27 be ad 54 fc 3d
       0.017510792 -0.008824071 -0.16353752 0.12320838
000290 6c 79 04 be b1 f2 20 3d 2f 1d ac 3d 41 bb b5 bc
       -0.12936944 0.03929395 0.08404004 -0.022184016
0002a0 e0 4c 01 3c 91 ba 20 3e 7d 32 e2 3d 4a 38 9f bd
       0.007891864 0.1569617 0.11044786 -0.07774408
0002b0 86 c7 bb 3c e2 01 01 3d ca 27 66 3e a2 5f af bd
       0.022922289 0.031495936 0.22476116 -0.085631624
0002c0 85 d5 e7 bd 27 f1 bd 3d 94 f3 c0 3d d2 7d 93 bc
       -0.113200225 0.09274512 0.09421459 -0.018004332
0002d0 5b 4f 0c 3e 77 54 ba bd 51 41 fb bd e0 a6 c0 bd
       0.13702147 -0.09098142 -0.122683175 -0.09406829
0002e0 8d 58 2b 3c 11 1e 65 3e be 6a ad 3d fa 59 06 3e
       0.010458124 0.2237475 0.08467625 0.13120261
0002f0 5f c6 a2 3c 74 62 c0 bb dd d3 5b bd 1b c2 52 bd
       0.019869981 -0.0058711115 -0.053668845 -0.051454645
000300 59 1a ff 3b 85 a2 5c bd 96 49 87 bd 7c 67 e0 3d
       0.0077851233 -0.05386593 -0.06605832 0.10957238
000310 46 96 9d 3a 70 67 3d 3d 89 9f 3b 3d e7 b3 3d 3c
       0.0012022934 0.046241224 0.04580644 0.011578537
000320 fe f4 8e 3d 07 6e 4e 3d 64 60 11 3d 01 59 1e 3e
       0.06980322 0.0503979 0.035492316 0.1546364
000330 a2 cb b4 bc de 10 c9 bd 95 95 dc bb ec 46 bc bd
       -0.022069756 -0.0981767 -0.0067316988 -0.09193215
000340 94 6e 80 bc a5 40 0c be f9 7c 0f bd 66 ec 5b 3d
       -0.015677728 -0.13696535 -0.035031293 0.053692244
000350 5d ab 03 bd b7 85 e9 bd 65 07 0a bc d7 4a c6 bd
       -0.032145847 -0.11402457 -0.008424615 -0.09682243
000360 5d a4 ac bd ff 22 c8 bd e0 e8 6d bd 4f 0c 42 3d
       -0.08429787 -0.097723 -0.058083415 0.04737502
000370 20 5b 20 bd 7b aa 07 be 39 43 b7 3d dd ef 92 bd
       -0.039149404 -0.13248627 0.089483686 -0.071746565
000380 c3 3c e8 3c 30 5e 20 3b 22 65 0e bd e3 6f e3 3d
       0.028349286 0.0024470203 -0.034764417 0.11105325
000390 cc d1 ed 3d 93 e2 08 bd e0 a5 e1 bd 40 be 6c bc
       0.11612281 -0.033419203 -0.11017966 -0.014449656
0003a0 a1 3e 10 bd 97 a0 03 bd 48 10 d4 3b b9 47 e4 3c
       -0.035215978 -0.032135572 0.0064716674 0.027866231
0003b0 0d 3c f8 3d 1c 94 82 be 3a 43 42 3e 2b 89 19 bd
       0.12120829 -0.25503623 0.18970957 -0.03748433
0003c0 c8 cd 8f bd 1b c8 22 3d 15 e9 ff bb d6 81 2d 3e
       -0.070216715 0.039741617 -0.007809768 0.1694406
0003d0 f6 b5 9f bd f9 48 c8 3d fc cf 85 3d cd ce 83 bc
       -0.07798378 0.097795434 0.065338105 -0.016089821
0003e0 26 c2 4c 3d e7 b1 e0 bb 8b 72 14 3e 0f fd 04 bd
       0.049989842 -0.006857145 0.1449682 -0.032467898
0003f0 77 cb 6c bd 2a 04 24 3e 7d 51 91 3d 7d 91 8d bb
       -0.057811227 0.16017213 0.07095621 -0.004320322

enc_xn.h_layer.2.bias f4 [100]
000000 88 d7 13 3d 5c f5 90 3d d1 fd 64 bb a5 dc 48 bd
       0.03609422 0.070780486 -0.0034941325 -0.049038548
000010 a6 b9 bc 3c dc 56 b0 3b b3 2a 86 bc 6e 89 db bc
       0.023037743 0.005381448 -0.016377782 -0.02679893
000020 6a 75 9f 3d 5d 6c 9a bd 6b 99 db 3d 74 69 1e 3d
       0.07786067 -0.075402 0.107226215 0.038674787
000030 96 5a 8c 3d 82 0e ac 3d e1 66 68 bd f1 04 81 bd
       0.068532154 0.08401205 -0.056738738 -0.062997706
000040 f8 99 34 3d b7 b7 cb 3d 3c 0c 8a 3d d0 ed bb 3c
       0.04409215 0.0994715 0.06740615 0.022940546
000050 02 64 88 3d 9b 58 73 3d 9f 8a 64 3d 08 4e 3c 3d
       0.066597 0.059410673 0.055796262 0.045972854
000060 5d 3c 56 bd cd e7 62 3d d8 66 08 bc 96 77 92 3c
       -0.05230366 0.055396844 -0.008325301 0.017879289
000070 fc 9c 2d 3d 77 22 8e bb 7d 5f 7c bc 66 aa 8f 3c
       0.04238604 -0.0043376046 -0.015403626 0.017537307
000080 5b 2b b9 bb 18 2c 03 3c 95 56 97 bd 38 b8 97 bd
       -0.0056509203 0.008006118 -0.07389561 -0.07408184
000090 46 26 11 bd d3 cc 2b 3b 3d 59 17 3a 5d 87 0a 3d
       -0.03543689 0.0026214614 0.00057734904 0.0338205
0000a0 8e 8c 5e bc 24 4a ec 3d 8c ec 9e 3d d1 6c 27 3d
       -0.013583316 0.11537579 0.077599615 0.04087526
0000b0 14 09 3e 3c 55 ec a3 3d 0a 04 4b bd 20 1a 8c 3d
       0.011598844 0.08004061 -0.0495644 0.068409204
0000c0 e6 42 e7 bd e2 48 9d 3d 39 29 73 bc 42 9b 44 bd
       -0.11292057 0.07679917 -0.014841371 -0.047999628
0000d0 c0 cd 8d 3d a6 c0 b1 bc 46 8c 08 3d fd e4 0a bd
       0.06924009 -0.021698307 0.0333369 -0.033909786
0000e0 0d 3d 6d 3c 0e 3c 47 bd 15 3c 41 3d 86 65 54 bd
       0.014479888 -0.048641257 0.04717644 -0.051854633
0000f0 1b 77 d2 3c 55 f0 e2 3d b1 96 68 bd 49 cc 03 bd
       0.02569156 0.11080996 -0.056784336 -0.032177243
000100 2b a0 d3 bc 65 0e 25 3d a9 17 f3 bc 0f 95 df bd
       -0.02583321 0.04029693 -0.029674368 -0.109171025
000110 d8 d9 6c 3d 75 cd 50 3d 44 4b 73 bc 7c a6 ba bc
       0.05782494 0.05097719 -0.014849488 -0.022784464
000120 e1 86 9d 3d 95 63 95 3d 0a c8 4a bd 2a a5 40 bd
       0.07691742 0.072943844 -0.04950718 -0.047032513
000130 d0 8e 52 3d 2d 61 b9 bc a2 8e d7 bd 66 68 63 bd
       0.051405728 -0.022629345 -0.10525252 -0.055519484
000140 a8 be a2 bd 98 d9 ab 3d f0 6e 8d 3d 9c ac 86 bd
       -0.07946521 0.08391112 0.06905925 -0.065758914
000150 8e 56 58 bd 61 ea 4d bd c7 8a 83 3d 5c 41 8e 3d
       -0.05281692 -0.05027235 0.06422954 0.0694606
000160 c7 69 b9 3d 2c 9b f0 3b 48 ca aa 3b f4 0f b0 3d
       0.090533786 0.0073427167 0.005212102 0.08596793
000170 05 63 04 3b 3f 66 7d bd a4 cb 94 bd b9 86 e1 bd
       0.0020200622 -0.061865088 -0.07265404 -0.110120244
000180 20 ae 84 3d 0d c9 b4 bd a4 6a 9b 3d 8f 59 71 bc
       0.06478524 -0.0882741 0.075886995 -0.014730825

enc_xn.h_layer.4.weight f4 [100, 100]
000000 ed 71 a6 3b f9 6a 10 3e 21 d0 a3 3c 99 09 38 3e
       0.005079499 0.14103307 0.019996705 0.17972411
000010 65 7c 6f 3d 72 7a 45 bd 4a 4b 12 3e 19 3a 3e 3d
       0.05846824 -0.048212476 0.14286533 0.046442125
000020 9d 8b 8d bd c5 81 7e 3d 59 a0 04 be 7b 76 bf bd
       -0.06911395 0.062135477 -0.12951793 -0.0934877
000030 ca 15 22 3d 35 d4 c8 bd af 6a 59 bc f3 9f 1c 3e
       0.03957156 -0.098061 -0.013270064 0.15295391
000040 1b 3d 38 bd 42 4a d6 bd 2d 56 df 3d 2e a1 40 bd
       -0.04498015 -0.10463382 0.109051086 -0.047028713
000050 eb 7f d3 bd 1f 90 52 3a 77 91 f1 3d 15 01 3f 3e
       -0.10327133 0.000803234 0.11795323 0.18652757
000060 62 ac a1 bd 97 50 ef bd 9a 73 10 be 63 e1 a4 3d
       -0.078942075 -0.11685293 -0.14106598 0.080508016
000070 fe 75 2d 3c 03 d8 ac 3d f8 43 b8 3d 92 df 83 bd
       0.010587214 0.084396385 0.08997339 -0.06439127
000080 50 79 0b be 2b c2 c4 bd e4 23 7a be 10 08 bc 3d
       -0.13620496 -0.09607347 -0.24427754 0.09181225
000090 0d df b6 3c 96 c3 9e bd 58 85 ff bd ad d3 cc 3b
       0.022323156 -0.07752149 -0.12476605 0.0062508197
0000a0 5f c2 88 bb c0 b7 68 3d 5c 7c a0 3c 4a dc a5 3d
       -0.0041735615 0.056815863 0.01959055 0.080986574
0000b0 e5 1f 13 3d 6a 38 35 3e 43 16 4d 3d 02 59 b0 bd
       0.03591909 0.17697302 0.05007006 -0.08610727
0000c0 fa e6 85 3c 06 58 1e 3e 54 b6 b8 ba 4f 18 16 be
       0.01634549 0.15463266 -0.0014092424 -0.1465771
0000d0 a8 bd c4 bd 75 5f 7a 3d 7b 53 c1 3d e7 e1 a8 bd
       -0.096064866 0.06112619 0.09439751 -0.082462125
0000e0 81 27 0c bd 53 19 23 3e ba 29 bc 3d 2d 66 18 3c
       -0.03421736 0.15927629 0.09187646 0.009301704
0000f0 1a e2 e4 bd df 6c 4c bd f1 3b b0 bd 89 f4 93 3d
       -0.11175938 -0.049908515 -0.08605183 0.07224376
000100 0a e7 b7 bd 78 5a 86 3d 09 fa 92 3d 8f 3f e3 3c
       -0.08979614 0.06560224 0.07176597 0.027740268
000110 02 85 94 3d 3e c5 57 bc d2 22 60 bd db d8 51 bd
       0.07251932 -0.013169585 -0.054720707 -0.0512322
000120 65 0b 17 3e 17 88 76 bd f9 4a ab 3d d8 b4 23 be
       0.1475044 -0.06018838 0.08363909 -0.15986955
000130 8f ae 0d bd 87 19 9f bb 03 db 0c 3e 49 01 b9 3d
       -0.0345903 -0.004855338 0.13755421 0.09033448
000140 f8 3c 06 be 7a 28 ed bd ea df fb 3d 98 65 c8 bd
       -0.13109195 -0.11579986 0.122985676 -0.097850025
000150 1d cd 12 3e 99 5e 9d 3d 2e 9d a8 3c 59 86 df ba
       0.14336057 0.07684059 0.020582762 -0.0017053589
000160 a7 64 32 3d 2f 4e b9 bd 31 d6 53 3d 12 d6 0e bc
       0.04355302 -0.090481155 0.05171794 -0.0087180305
000170 a3 39 32 3d 75 df e9 3d 5d 64 9e bc d3 e6 0b 3d
       0.043511998 0.11419574 -0.019334966 0.034155678
000180 7b dd 1a 3d 5d 70 e4 bb f2 59 a4 bd 1c 7b 55 bd
       0.037808876 -0.0069714026 -0.08024968 -0.05211936
000190 e8 dd e9 bb 97 39 b3 bd 8c 36 49 be cc 63 35 3c
       -0.007137049 -0.08751219 -0.19649714 0.011071157
0001a0 52 98 4a 3c 31 b6 77 3d 8b e6 52 bd ff 2f 03 bd
       0.012365418 0.060476486 -0.051489394 -0.032028195
0001b0 63 52 b8 bd b6 8f c5 bd 5e 73 77 be c9 43 fa 3d
       -0.09000089 -0.09646551 -0.24165103 0.1221996
0001c0 62 56 6b bd 06 ae e5 3d fb a8 60 bc 54 12 fe 3d
       -0.057455428 0.11214833 -0.013712163 0.124058396
0001d0 3b d3 b4 bc 1e 42 1e 3e b4 6b 01 bd d7 c8 33 3d
       -0.022073379 0.15454909 -0.031596854 0.043892708
0001e0 6a 67 d0 bc e7 3e aa bd f7 6c ba 3c eb cc 0e 3e
       -0.025439937 -0.08312779 0.022757037 0.13945358
0001f0 bd 11 91 3c ee e0 a4 bd 27 e4 64 3e dc 6a 51 bd
       0.017708654 -0.080507144 0.22352658 -0.0511273
000200 10 37 a0 bd 11 e7 b1 bd fa e7 86 3d 62 55 ee bd
       -0.07823002 -0.086866505 0.06587215 -0.11637379
000210 0c 25 2b 3d c7 62 88 bd ba ea 1f bd e1 b6 b2 bd
       0.041783378 -0.06659465 -0.039042212 -0.08726288
000220 ca b9 25 3e dc 48 dd bd 47 36 af bd 9b 75 83 3c
       0.16184154 -0.108049124 -0.085552745 0.01604729
000230 3c d5 d5 3c 8b d2 07 be d7 c6 4b 3c d0 e1 cb 3d
       0.026102655 -0.1326391 0.012437544 0.0995518
000240 0e 46 6a 3d 24 aa 23 be 6d 4a 5b 3d 16 3b dd bd
       0.057195716 -0.15982872 0.053537775 -0.108022854
000250 b0 b8 cd 3c 22 ca 8f bc c1 14 28 be d1 29 94 3d
       0.02511248 -0.01755244 -0.16414167 0.07234538
000260 d7 dc 8f 3b 88 61 80 3d 80 18 6d 3d 7a 6a 4e 3d
       0.00439034 0.062686026 0.057884693 0.050394513
000270 63 3c dc 3d ca a9 4e 3d c3 09 e1 bd 26 d8 1f 3d
       0.10753705 0.050454892 -0.1098819 0.039024495
000280 1e 13 32 3d ac ea 4c bc ed 84 42 be bc 14 3d bd
       0.043475263 -0.012507122 -0.1899602 -0.046162352
000290 14 6a 89 3c dd d2 a1 bc f0 e2 54 3d 66 89 a4 3d
       0.016774215 -0.019753868 0.051974237 0.08034019
0002a0 75 1b cb bd 0d 12 d3 3d 93 22 88 3b 5f 55 d9 bc
       -0.099173464 0.10306177 0.004154512 -0.026529966
0002b0 97 b7 01 bc 24 8f 15 3e 7c 1d 08 be c0 4a 0c 3c
       -0.007917306 0.14605385 -0.13292497 0.008562744
0002c0 e3 e4 45 be 7a c8 29 bd df 59 84 3e a2 30 43 3e
       -0.19325595 -0.041450955 0.25849816 0.1906152
0002d0 15 cf 44 3e 3c 5f 3e 3d 2d 42 03 3e d0 4c a2 bd
       0.1921962 0.04647754 0.12818213 -0.07924807
0002e0 40 42 ee 3d ec a2 d7 bd 9e a4 f4 bd b9 ee fe bc
       0.1163373 -0.10529122 -0.11945461 -0.031119691
0002f0 99 00 8a bd 6d ea 05 bb da b2 12 3d fe 2a ff bd
       -0.06738395 -0.0020433918 0.035815097 -0.12459372
000300 cf 22 de bc f2 86 9e 3d 73 7f d2 bb 10 15 8a bd
       -0.027116207 0.077405825 -0.0064238845 -0.067422986
000310 52 ae fb bd 10 9d 49 3d 0e ff 00 be b6 fd ae 3d
       -0.12289108 0.049222052 -0.12597296 0.08544485
000320 46 c9 8a bd 26 48 d4 3d c7 6d e2 bc 1a f4 74 bc
       -0.06776671 0.10365324 -0.027640237 -0.0149507765
000330 c9 a9 9e 3c 9e 25 00 3e 5f 7a 39 3d ba 0f 9c bc
       0.01936807 0.1251435 0.045282718 -0.019050468
000340 7f 38 8f bc 4a c2 bd 3c ee 75 c7 bd 8d 53 4c be
       -0.017482994 0.023163933 -0.0973929 -0.19953747
000350 cb 29 13 be ed 42 99 bd 78 f7 a1 3c 29 a2 9b 3d
       -0.14371412 -0.07483468 0.019771323 0.07599289
000360 60 4a ce 3d 35 73 ab bc 26 a9 a5 bc a5 fb 42 bc
       0.1007278 -0.020928958 -0.020222258 -0.011900817
000370 80 2b 8a 3d 9c b8 48 3d 90 ec 81 bb 8c 99 b6 bd
       0.06746578 0.049004182 -0.003964968 -0.089160055
000380 c1 f2 e8 3d 01 0e 80 ba ae 87 0e 3e 62 af 6a 3c
       0.11374427 -0.0009769798 0.13918945 0.014324041
000390 3e 0d fb bb d9 76 83 3e 0d ce 16 3e 85 06 64 3e
       -0.0076614907 0.2567661 0.1472704 0.22268112
0003a0 86 ec 60 bb 44 c2 53 3c 5a 76 c6 3c c1 03 e9 bd
       -0.0034320666 0.0129247345 0.024226356 -0.11377669
0003b0 0e a8 1c 3e 10 09 87 bd 92 73 0a 3e d2 ab bc bd
       0.15298483 -0.065935254 0.13520649 -0.092124596
0003c0 9e 00 34 be 4f 06 36 3e 1d 00 f8 bd 98 a4 d2 bd
       -0.1757836 0.17775844 -0.121093966 -0.102853
0003d0 0e b8 a4 bd 32 62 f3 3b f2 f4 56 be 02 bc db bd
       -0.08042918 0.0074274773 -0.20991877 -0.10729219
0003e0 1a 43 b9 bd d3 71 4d 3e 49 f8 04 be 03 b9 ee bd
       -0.09046002 0.20062952 -0.12985338 -0.11656382
0003f0 6e 30 f2 bd 97 f4 d9 bd 62 9f 50 bd a2 5e b6 3d
       -0.118256435 -0.10642355 -0.05093325 0.089047685

enc_xn.h_layer.4.bias f4 [100]
000000 05 cd 1e 3d bf 1a 3c 3d 48 6e 57 bd 6b 7d 46 3c
       0.03876974 0.045923945 -0.052595407 0.012114863
000010 7b ec 92 3d dd 8c 52 bc e2 9b 42 3d 5c 6c 81 bc
       0.07174011 -0.012850967 0.047511943 -0.01579874
000020 ef 1c e2 bd 47 a9 d4 bd f3 75 e7 bc ee 61 45 bd
       -0.11040675 -0.103838496 -0.028254485 -0.048189096
000030 3e f6 65 3d 18 eb 19 bd 4d db 58 bd 48 0e 90 bd
       0.056143038 -0.03757772 -0.052943517 -0.07033974
000040 41 20 d7 bd c7 9e 81 3c 35 b8 cf bd 6a 9b b2 bb
       -0.10504199 0.015822781 -0.101425566 -0.0054506557
000050 dd ac b7 3c 39 03 cc 3d 4c 37 28 bd 25 3d 22 bd
       0.022421295 0.09961552 -0.04106836 -0.039609093
000060 bb 80 d2 3d 5f 72 58 bd 63 2c b3 bd b7 82 41 3d
       0.1027846 -0.052843448 -0.087487005 0.0472438
000070 02 2d 5d bd 7b a7 60 bc 46 06 86 3c e9 67 cb bd
       -0.053998 -0.013711805 0.016360413 -0.09931929
000080 44 91 c4 bc 5d 30 3e bd 0b 1c 60 bd b3 ee 57 bd
       -0.02399505 -0.04643284 -0.054714244 -0.052717876
000090 83 30 ae 3d d4 99 b1 3d 2b 79 dc bd 22 22 bc 3d
       0.085053466 0.086719185 -0.107652985 0.09186198
0000a0 42 df 13 bd c9 4b 55 3d 58 be 95 3d 77 0c 2c 3d
       -0.036101587 0.052074227 0.07311696 0.042004075
0000b0 32 39 5a bd 7f 55 b7 bd dc 6e a5 bd 37 35 56 3d
       -0.053277202 -0.08951854 -0.080777854 0.052296843
0000c0 b2 3a 42 bd 73 83 6d bd 23 01 77 bd 2c 13 06 3d
       -0.047419257 -0.057986688 -0.06030382 0.032733127
0000d0 74 2c 45 3d c7 50 5a 3d a5 be 8b 3d 71 00 68 bd
       0.048138097 0.05329969 0.06823472 -0.056641046
0000e0 6f f8 21 bd e8 82 b1 bd 22 63 99 bd fa b1 ef 3c
       -0.039543565 -0.086675465 -0.07489611 0.02925967
0000f0 22 fa 6b bd af 66 b5 3d 6b 43 0c 3d 80 6b 92 bd
       -0.057611592 0.08857476 0.034243982 -0.0714941
000100 70 74 c1 bd dc 2c ea bb 57 4e 83 3d 2e 8f 4f bd
       -0.09446037 -0.007146461 0.064114265 -0.050673656
000110 14 1d 54 bd 97 33 00 bc f7 52 bd bd 01 e4 0f 3c
       -0.051785544 -0.0078248 -0.0924434 0.008782388
000120 2b b6 34 bd 7e af bc 3d 0d 4e ea 3c 58 8b 6a 3d
       -0.04411904 0.0921316 0.02860167 0.057261795
000130 4d 08 d6 3c 84 a6 16 bc 58 de c8 3b da 9a a8 3d
       0.026127005 -0.009194974 0.006130021 0.082326606
000140 45 d2 0d 3b 73 5d 8c 3d 46 2c cd 3c 97 1f a8 3d
       0.0021640223 0.068537615 0.025045525 0.0820915
000150 1e 3a 51 3d 15 eb a7 bc 18 d0 02 3d d9 07 af 3d
       0.051080815 -0.020497838 0.031936735 0.08546419
000160 55 73 a1 3c 2c dd 53 3c c1 a4 a1 3d c7 38 24 3d
       0.019708315 0.012931149 0.078927524 0.04009321
000170 88 d9 90 3d fe 4a 61 bd 0d 72 91 bd dd 67 c0 3d
       0.07072741 -0.05500316 -0.071018316 0.0939481
000180 40 dd 8a bd c7 9d 1b 3d fe 74 df 3d e6 25 cb 3d
       -0.06780481 0.037992265 0.10910986 0.09919338

enc_xn.mu_gen.weight f4 [3, 100]
000000 c2 1d f6 bd 64 08 ed 3c 1a ad 75 bc 83 c5 35 3d
       -0.120173946 0.028934665 -0.014994884 0.044377815
000010 d1 56 a9 bb 81 ab 97 3c 55 41 76 bd 55 fd 4b be
       -0.00516782 0.018514397 -0.0601209 -0.19920857
000020 b8 a5 c4 bd 52 91 04 ba 59 c7 56 3d 25 23 21 3e
       -0.09601921 -0.0005057055 0.052436206 0.15736063
000030 ec 57 ea bd 34 51 8a be 13 6a 75 bd 26 45 3e 3d
       -0.11442551 -0.27015078 -0.059915613 0.046452664
000040 06 62 45 3d 1c 96 93 be 0a c8 38 be 58 96 49 3d
       0.048189186 -0.28825462 -0.18045059 0.049215645
000050 8c 30 8e bc 9f bd 2f 3d 2f 54 15 bc 51 25 35 bd
       -0.017357133 0.042905446 -0.009114309 -0.04422504
000060 21 ad d1 3d 99 e5 14 3d 77 b0 10 bd 24 47 6a 3d
       0.102381 0.036351774 -0.03532454 0.05719675
000070 d5 e7 e5 bd 43 df 36 3e bf 75 2e 3e 38 4e be 3b
       -0.11225859 0.17858605 0.17037104 0.0058076642
000080 54 bf ab 3d 85 17 b0 3d 56 a9 9f be e1 d4 5a bd
       0.08386102 0.08598236 -0.3118388 -0.053425673
000090 09 ac 85 3c 6d 5e 1b 3e 69 4a bb bd 6b 21 0b 3e
       0.016317384 0.1517274 -0.09145052 0.13586967
0000a0 80 0b 49 3e 55 a9 51 bd ea 7a 3b 3d 79 57 4f 3e
       0.19633293 -0.05118688 0.045771517 0.20248212
0000b0 4a c2 85 3d ca 32 89 be a8 fa fb 3b 6b b1 10 3e
       0.06531198 -0.2679656 0.0076897927 0.1413018
0000c0 fb 3a a1 3e 91 85 04 bd c2 1b 88 bd 82 48 a7 be
       0.3149031 -0.03235394 -0.066459194 -0.32672507
0000d0 17 05 63 39 65 18 71 3e d8 7c 1c 3c c6 89 7e 3d
       0.00021650303 0.23544462 0.009551249 0.06214311
0000e0 ba 90 4d 3e 1c 35 c8 bd 00 e5 1c bd af 62 df bb
       0.2007474 -0.09775755 -0.03830433 -0.006817184
0000f0 69 2b 75 3d e0 75 bf bd 96 f4 10 3e 39 7c 56 3d
       0.059855852 -0.09348655 0.14155802 0.05236456
000100 24 a3 85 bd d4 f1 89 3e 6c c6 12 3e cd e9 b1 3a
       -0.06525257 0.26942313 0.14333504 0.0013573706
000110 c4 d2 ae 3d f1 e6 20 3e dc f4 e6 3c 14 96 a3 bc
       0.08536294 0.15713097 0.02819293 -0.019969024
000120 fe 76 4c 3d 89 83 16 3e de d6 00 bc 4f 8d 38 3e
       0.049918167 0.14698614 -0.007863728 0.18022655
000130 d0 a3 fe 3d 3a a6 43 be 3b 65 44 ba 13 5f 61 be
       0.124335885 -0.19106379 -0.0007491891 -0.22008924
000140 70 de 70 bb 41 9a 91 3b b3 cd a9 3c e9 1d 96 3d
       -0.0036753677 0.0044434373 0.020727968 0.07329924
000150 12 66 88 3e e3 1a 86 be 9a 91 37 3e e8 b1 44 bc
       0.26640373 -0.26192388 0.17926636 -0.012005307
000160 28 d2 70 3d ac 7b 63 3d 2b 22 87 3c 14 89 f0 3d
       0.05879417 0.055537865 0.016495785 0.117448956
000170 6d 5b 07 be 92 99 2c be ff 40 9e be c1 0c 65 bc
       -0.1321847 -0.16855457 -0.30908963 -0.013980092
000180 a8 ca 56 be 41 f0 b4 3c 69 01 86 3e 40 c4 4b bd
       -0.20975745 0.022087218 0.2617295 -0.049747705
000190 51 ac 1b 3e d6 f9 15 bd bf 17 3d 3e 95 d7 65 3d
       0.15202452 -0.036615215 0.1846609 0.0561138
0001a0 62 bf 33 3e 37 b2 dc bd 1c 13 01 bd 72 35 dc 3c
       0.17553475 -0.10776179 -0.031512365 0.026880953
0001b0 e3 7d 2c 3e 02 1b 7b 3e 35 a7 5d bd fc ab d3 bc
       0.16844897 0.24522021 -0.05411454 -0.025838844
0001c0 84 b8 53 3e 2f 83 3f bd d9 74 25 bd 51 4a c2 bc
       0.20675856 -0.046755966 -0.040394638 -0.023717077
0001d0 bf e0 d1 3d c5 09 ea 3d 6a 9a 4f 3e 86 6e 67 be
       0.10247945 0.11427645 0.20273748 -0.22600755
0001e0 64 0f 59 be d7 75 a1 3d 19 10 51 3e a2 a9 3e be
       -0.21197277 0.07883804 0.20416297 -0.18619397
0001f0 e2 4a c8 3d 67 68 12 3e d4 cc dd 3c d5 e8 62 3d
       0.09779908 0.14297639 0.027075209 0.055397827
000200 31 bd e1 3d 37 38 a2 bd f6 a3 85 3d 7d 45 1d 3d
       0.110224135 -0.079208784 0.06525414 0.038396347
000210 a9 8d 16 3d 96 99 c8 3d 8d d8 63 bd a6 d5 a7 bd
       0.03675619 0.09794919 -0.05562644 -0.08195047
000220 3d b8 5f 3d 0f ce 17 be e3 ae 13 be 13 b5 15 bd
       0.054619063 -0.14824699 -0.14422183 -0.03654964
000230 28 e8 af 3c 17 7e 95 be 2a 35 e4 3c 65 8b 6c 3e
       0.021473005 -0.2919776 0.027857382 0.2310005
000240 51 18 38 bd 12 a7 57 bd 69 24 2c be e8 72 0d 3e
       -0.044945065 -0.052649565 -0.16810764 0.13813365
000250 a4 f1 d4 bc 56 73 80 3c db 43 7b be ab 2b 8a bd
       -0.02599413 0.015679996 -0.24537604 -0.0674661
000260 92 bb ef bc 16 82 04 be 59 b4 e4 bd 6b 24 ee 3d
       -0.029264245 -0.12940249 -0.11167211 0.1162804
000270 9a 6a 84 bd 83 fb 3b bb 7c d4 b6 3d bc 41 16 3d
       -0.06465645 -0.0028683848 0.08927247 0.036683783
000280 85 86 1d be dd 62 13 3d 83 73 00 3e eb 4f 27 3e
       -0.15383346 0.035982955 0.12544064 0.1633908
000290 a5 0a 54 3e f9 7f ef 3c ab 4c b5 3c 2e 5b bc bd
       0.20707186 0.029235827 0.022131285 -0.09197079
0002a0 e3 f2 98 be c3 89 31 3d 0e 14 69 3c 9e 37 c5 3e
       -0.29872808 0.04334427 0.014225973 0.38518995
0002b0 40 82 7d 3b 88 ff 08 3d e4 ad 17 be 39 b1 8a 3d
       0.0038682371 0.03344682 -0.14812428 0.06772084
0002c0 bc 8b 78 3d b1 b6 27 be 8d 47 23 3e a3 1e d2 3c
       0.060680136 -0.16378285 0.15945263 0.025649374
0002d0 51 7c 86 be 61 e1 a0 3d b6 97 86 be 0e 75 61 3d
       -0.2626672 0.078554876 -0.2628762 0.055043273
0002e0 ef 48 1c bd 66 b9 c7 bc ac 4d 30 3e 87 5c d0 3e
       -0.038155492 -0.024380397 0.1721713 0.40695593
0002f0 b1 f4 cf bd bc ea fc 3c eb 51 27 be e9 ae 08 3e
       -0.10154093 0.030873649 -0.16339843 0.13347973
000300 26 c9 2f be 93 9a 2e be 79 b9 1a 3e 13 87 01 3e
       -0.17166576 -0.17051153 0.15109815 0.12649183
000310 5c 3c 58 3e e0 fa 80 3d 2e a5 5c 3e bb ef 16 3d
       0.21116775 0.062978506 0.21547386 0.03684972
000320 39 a3 79 be ae 28 c1 bd 05 de d5 bc 37 68 53 3e
       -0.24378671 -0.09431587 -0.026106844 0.20645224
000330 74 85 f8 3d 80 bb 93 3d c0 11 96 be 73 e2 ab 3d
       0.12134829 0.07213497 -0.29310417 0.08392801
000340 75 22 02 be f0 e2 93 bd 76 6a 94 3e 54 59 2a 3e
       -0.12708457 -0.07221019 0.28987473 0.16635638
000350 6c 95 88 bd 52 ad 09 3e cc c3 89 3c d3 fe 83 be
       -0.06669125 0.13445023 0.016816996 -0.25780353
000360 18 a5 36 be ac 97 d7 bd 5c ae 8b be 6b da 36 bd
       -0.17836416 -0.10526976 -0.27281463 -0.044641893
000370 f6 1a 5a be 8f 1b d5 3d dd 80 99 3d 4c 21 6b bd
       -0.21299347 0.10405647 0.07495282 -0.0574048
000380 73 17 62 bd ad 55 85 be 66 8d 2d 3e 3e cc 81 3d
       -0.055198144 -0.26041928 0.1694847 0.06337784
000390 1c f2 29 3e 2a 4e 8b be 3c 09 55 be 57 7d 9a bd
       0.16596264 -0.27208072 -0.20804304 -0.07543438
0003a0 07 4e 52 bd e9 31 e9 bd a3 85 9e 3d 56 81 80 bd
       -0.051343944 -0.11386473 0.07740333 -0.06274669
0003b0 e4 15 5b be cc 6f a3 3c a5 c4 c9 bd 19 9d 0d bc
       -0.2139507 0.01995077 -0.0985196 -0.008643412
0003c0 9e 20 6d 3e ad 66 4e 3d 1a a2 a1 3e fa 0e c6 bd
       0.23156974 0.050390888 0.31568986 -0.09670825
0003d0 b9 f1 5f bc 78 dd 2a 3d e0 03 63 bc 44 f6 00 3e
       -0.013668471 0.041715115 -0.013855904 0.12593943
0003e0 d4 aa fd 3d 89 64 31 3e 86 22 a3 3c e6 d7 bc 3c
       0.123860985 0.17323507 0.019913923 0.023052167
0003f0 db 27 da bd 99 b3 c7 bd 14 b5 9a 3e 9f 69 84 be
       -0.10652133 -0.097510524 0.30216277 -0.25861832

enc_xn.mu_gen.bias f4 [3]
000000 79 b4 29 3d c7 14 34 bd b3 27 c7 3d
       0.041431878 -0.043965127 0.09724369
