result/single_baseline_compare/synthetic/pretrained/0_vae_single(xn1.0_xa1.0_y1.0_kl0.1_tc0.5_css5.0_uxn3_uxa3_seed1).pth (torch, 647860 bytes, 54 tensors)

enc_xn.in_layer.weight f4 [100, 2]
-0.17075537 -0.111784756 -0.065890945 -0.013829135 -0.04550228 0.31662333 0.18658398 0.20476332
-0.22551729 0.182496 0.10439676 -0.05935775 -0.12332573 0.06331851 0.26904893 0.04646251
0.064815335 0.0593442 0.27833158 -0.15023874 -0.02385919 -0.038548477 -0.014908754 0.15430672
-0.046611864 -0.27439773 -0.01942923 0.03014269 0.22828244 0.0314595 0.102442354 0.047465134
0.0026268815 -0.15759361 0.206057 0.038791478 -0.0727749 0.09844958 -0.15417726 -0.2086546
-0.04524539 0.047079477 0.031572223 0.18037613 -0.10569264 0.17538464 -0.020073205 -0.10453834
0.26284146 -0.036562644 0.1911121 0.021560932 -0.17040499 -0.09398978 -0.023210216 0.054474127
-0.06784405 -0.023241688 -0.14428867 0.060327407 0.06929335 -0.19937383 -0.22737321 0.19162509
-0.12768103 0.1100537 -0.0749304 -0.38008565 -0.19225585 0.27178025 -0.050948545 -0.2070238
0.14522216 -0.10763608 0.040593408 0.021441735 -0.06481209 0.12509643 -0.018472314 -0.0228412
-0.03161336 -0.096996225 -0.16529243 0.08661707 0.09656834 0.055707052 0.013165485 0.15854535
-0.029676924 -0.21831414 -0.0037317888 0.18252853 0.01247075 0.06858641 -0.13267508 0.05584026
0.16738379 -0.1973497 -0.13176523 0.14558387 0.094083376 -0.065388426 0.032141216 -0.05976375
0.12818693 -0.011579528 -0.05743875 -0.1311465 -0.17605157 -0.07679028 -0.14945334 -0.25809765
-0.052489143 0.30324623 -0.069797516 0.10605716 -0.003901292 0.1512134 -0.021565687 0.050483003
-0.18105938 -0.20814316 -0.048328597 0.30256447 -0.04762659 -0.19441329 0.03613702 -0.09744475
0.05762289 0.2639363 0.1422099 -0.22467127 0.05203326 0.09773724 0.1487857 0.1709581
-0.13085516 -0.009251073 -0.3841948 -0.12226012 0.0964938 0.06307644 -0.023964005 0.08107692
-0.09671658 -0.07219557 -0.076889 0.24673758 0.2401394 0.06631855 -0.06624725 -0.087400936
0.22945538 -0.18211997 -0.061579023 0.25534976 -0.031394545 -0.07978301 -0.100053884 0.11452815
-0.10661018 0.035207342 -0.29515907 -0.03304027 0.10300011 0.06830345 -0.41613954 -0.11837508
-0.062201876 -0.10979408 0.107455574 0.05488767 -0.040180046 -0.08343314 0.08308246 -0.08279791
-0.17547031 -0.11694203 0.14452913 -0.15273167 0.025375066 -0.19142886 0.25203317 0.18846245
-0.13208932 -0.23726405 -0.15796056 0.026342697 -0.07024283 0.011454009 -0.11212384 0.20352648
0.18131334 -0.08154175 -0.032995902 -0.30619696 -0.2587659 0.053405434 -0.14050575 0.17958975
00000000: 7fda 2ebe 68ef e4bd d5f1 86bd 9993 62bc
00000010: 9960 3abd 741c a23e df0f 3f3e 7aad 513e
00000020: 01ee 66be 3be0 3a3e f8cd d53d 1d21 73bd
00000030: 3392 fcbd 23ad 813d c8c0 893e 794f 3e3d
00000040: e7bd 843d e712 733d 7a81 8e3e 2fd8 19be
00000050: 5974 c3bc 02e5 1dbd d943 74bc 9502 1e3e
00000060: 15ec 3ebd dc7d 8cbe 0c2a 9fbc cded f63c
00000070: dfc2 693e addb 003d 4ccd d13d cd6a 423d
00000080: c227 2c3b 3860 21be 9b00 533e d0e3 1e3d
00000090: 020b 95bd ef9f c93d a5e0 1dbe 8da9 55be
000000a0: 3b53 39bd 69d6 403d e051 013d 85b4 383e
000000b0: 6275 d8bd 0898 333e 9070 a4bc 3218 d6bd
000000c0: 2893 863e b6c2 15bd e4b2 433e 8da0 b03c
000000d0: a57e 2ebe b77d c0bd 5a23 bebc 4320 5f3d
000000e0: d2f1 8abd 5a65 bebc 69c0 13be df19 773d
000000f0: ace9 8d3d a728 4cbe 86d4 68be 5e39 443e
00000100: d1be 02be d663 e13d 1c75 99bd 969a c2be
00000110: b8de 44be c826 8b3e 6caf 50bd 0cfe 53be
00000120: 1eb5 143e 4e70 dcbd 4645 263d 94a6 af3c
00000130: 33bc 84bd 4719 003e 4053 97bc 781d bbbc
00000140: 037d 01bd f5a5 c6bd 6b42 29be 4a64 b13d
00000150: 9fc5 c53d 142d 643d 0cb4 573c b659 223e
00000160: 051d f3bc be8d 5fbe 0791 74bb c2e8 3a3e
00000170: 1e52 4c3c 0877 8c3d fadb 07be c2b8 643d
00000180: a866 2b3e 0a16 4abe 77ed 06be f013 153e
00000190: c9ae c03d 5eea 85bd 82a6 033d d5ca 74bd
000001a0: 6f43 033e 10b8 3dbc e544 6bbd 454b 06be
000001b0: dd46 34be 3944 9dbd 4c0a 19be 6025 84be
000001c0: dbfe 56bd 1743 9b3e 00f2 8ebd 7f34 d93d
000001d0: d2ac 7fbb afd7 1a3e 86aa b0bc 44c7 4e3d
000001e0: a167 39be 7b23 55be 35f4 45bd bbe9 9a3e
000001f0: 1914 43bd 4714 47be 6904 143d 1d91 c7bd
00000200: fb05 6c3d a922 873e 799f 113e 3a10 66be
00000210: d420 553d 762a c83d 475b 183e a40f 2f3e
00000220: e5fe 05be d091 17bc 2eb5 c4be 8463 fabd
00000230: 8b9e c53d 382e 813d 2950 c4bc a80b a63d
00000240: 5813 c6bd 45db 93bd fb77 9dbd c7a8 7c3e
00000250: 1ae7 753e 05d2 873d a3ac 87bd 43ff b2bd
00000260: 5af6 6a3e a87d 3abe 493a 7cbd 34bd 823e
00000270: 9197 00bd 4665 a3bd 0de9 ccbd bc8d ea3d
00000280: 7056 dabd 9335 103d 171f 97be 3c55 07bd
00000290: b9f1 d23d aee2 8b3d 3e10 d5be a26e f2bd
000002a0: 65c7 7ebd b8db e0bd ab11 dc3d e5d1 603d
000002b0: d593 24bd fede aabd 2327 aa3d f391 a9bd
000002c0: 7dae 33be 4e7f efbd 72ff 133e b165 1cbe
000002d0: 5fdf cf3c ed05 44be 7e0a 813e 4dfc 403e
000002e0: 6c42 07be 59f5 72be 6ac0 21be a4cc d73c
000002f0: 79db 8fbd 99a9 3b3c 2fa1 e5bd 3f69 503e
00000300: 34aa 393e 5cff a6bd b626 07bd d9c5 9cbe
00000310: f77c 84be a8bf 5a3d bde0 0fbe 60e6 373e

enc_xn.in_layer.bias f4 [100]
0.18865229 -0.53776217 0.6273472 -0.26183757 0.43042484 0.04537878 -0.04154996 -0.023667336
0.14276345 0.32674435 0.117274374 0.23183541 -0.6558725 0.54522985 0.6193933 0.60996103
0.5330828 -0.5303632 -0.2539928 0.64133614 -0.56060505 0.6598997 -0.55751586 -0.5122275
0.3418579 -0.5273754 -0.17089124 0.53600293 0.5814545 0.6800615 -0.15756458 -0.5681275
0.70317984 -0.15966375 -0.2819684 0.17934208 -0.5006908 0.4933716 0.4602525 -0.5817376
-0.6036549 -0.0422687 0.31350082 -0.010886052 -0.36906832 0.038598686 -0.6796886 -0.505876
-0.4947925 0.6074713 0.62782335 -0.25375208 0.037138846 0.32999292 0.097671084 -0.38377768
0.42960984 0.4264544 -0.016056241 -0.104270786 0.64973766 0.6359329 -0.42601523 0.7190124
0.19952595 -0.4885634 0.386226 -0.55262977 0.66813767 -0.4805996 0.20810863 0.22213703
0.1801394 0.6029344 -0.30931392 -0.32257253 -0.62560505 -0.013886597 -0.35021207 0.05065803
-0.14881444 0.22543617 0.63190085 0.2197513 -0.25111544 -0.36395898 -0.6167344 0.6164085
-0.1464689 0.17647764 0.024912262 -0.46378362 0.41426924 0.41945836 0.047337033 -0.39638886
-0.30860332 0.014847864 -0.42390606 -0.41687045
00000000: 112e 413e c8aa 09bf d399 203f 930f 86be
00000010: a560 dc3e 1adf 393d 4a30 2abd 00e2 c1bc
00000020: 9530 123e 094b a73e 8c2d f03d 4366 6d3e
00000030: 43e7 27bf 2f94 0b3f 8f90 1e3f 6826 1c3f
00000040: 1d78 083f e2c5 07bf 580b 82be 9b2e 243f
00000050: d083 0fbf 30ef 283f 5cb9 0ebf 5721 03bf
00000060: 0008 af3e 1302 07bf 1dfe 2ebe 7d37 093f
00000070: 34da 143f 8318 2e3f 9c58 21be ce70 11bf
00000080: 9803 343f e57e 23be 2a5e 90be 73a5 373e
00000090: 462d 00bf 349b fc3e 37a6 eb3e c1ec 14bf
000000a0: 2189 1abf f221 2dbd 2e83 a03e 695b 32bc
000000b0: 86f6 bcbe a819 1e3d 1200 2ebf 1781 01bf
000000c0: 7155 fdbe 3d83 1b3f 08b9 203f cbeb 81be
000000d0: e71e 183d d5f4 a83e c707 c83d 827e c4be
000000e0: d2f5 db3e 3b58 da3e 6188 83bc ec8b d5bd
000000f0: 3555 263f 80cc 223f ab1e dabe 3211 383f
00000100: 8850 4c3e fb24 fabe 6abf c53e 2579 0dbf
00000110: 120b 2b3f 2711 f6be 6e1a 553e e477 633e
00000120: 7676 383e e959 1a3f 655e 9ebe 3a28 a5be
00000130: a727 20bf 9c84 63bc ff4e b3be cb7e 4f3d
00000140: d062 18be bdd8 663e 41c4 213f 7c06 613e
00000150: 3492 80be d558 babe 4ee2 1dbf f3cc 1d3f
00000160: f1fb 15be 8eb6 343e cd14 cc3c 0c75 edbe
00000170: 191b d43e 3fc3 d63e 7ae4 413d 7bf3 cabe
00000180: 4101 9ebe 7544 733c 370a d9be 0b70 d5be

enc_xn.h_layer.0.weight f4 [100, 100]
0.036398116 0.086949736 -0.004285518 0.11600761 0.13258895 0.18390234 0.01228946 -0.035988364
-0.10425329 -0.0303951 0.09493239 -0.09397483 0.023571292 -0.17662036 0.16852981 0.07439286
-0.019989435 0.053398445 -0.09625866 0.0071900766 -0.0037231564 -0.1878089 0.03620945 0.13954605
0.09772117 0.036212325 -0.05126276 -0.086316474 0.006028273 -0.025281684 0.13525052 -0.043056868
-0.13150834 0.117096715 0.14806068 -0.10702427 -0.19689453 -0.040833093 -0.014772645 0.015146717
0.12956415 -0.04022998 0.047408465 -0.16865061 -0.08420807 -0.04068618 -0.12560461 0.06787513
0.09726634 -0.13662174 0.11263152 0.0040403875 -0.042029496 -0.05201678 -0.06446452 -0.036733303
-0.23832297 0.11678779 -0.01984349 0.020420473 -0.12066862 -0.048928432 0.042884953 0.15404692
-0.060647108 0.059631903 0.08172591 0.12033191 -0.077452816 0.0043781353 -0.07561971 0.056123774
-0.0069460147 -0.027757635 -0.16182116 0.068176694 0.04777181 0.26606902 -0.072749674 0.14013112
-0.16751555 0.10961436 0.12825823 -0.081864595 -0.092956536 0.11660353 0.19316164 -0.17278357
0.15537886 -0.11996503 -0.053486727 0.1127529 0.032227952 -0.080346346 0.07765391 0.012976159
0.012407829 -0.05486249 -0.015927954 -0.2079806 -0.11533667 0.11862543 0.00091012835 -0.21406208
-0.11424425 -0.023980709 -0.032497898 -0.18776342 -0.062358893 0.120391615 0.06150646 -0.033963945
0.00089880027 0.04612605 0.00020785254 -0.038467586 -0.030042302 0.07138484 0.16987783 0.09352832
-0.16427071 -0.19440074 -0.08195004 0.15932907 0.024604252 0.061502125 0.16335186 -0.06755413
0.015530966 -0.031740647 0.05720356 0.11818038 0.039193247 0.071139604 0.15725663 -0.15771024
-0.030776644 0.05471219 0.112382874 0.18130513 0.15753424 -0.25065166 0.12900887 -0.03142159
0.05993396 -0.18207443 0.14566502 -0.0828163 -0.015858952 -0.19726045 -0.12237837 0.06602133
0.08798891 0.027990295 -0.055342328 0.109993644 -0.019991338 0.18732673 0.05678029 -0.030722292
0.010559419 -0.0132546965 0.09277769 -0.06308902 -0.06535141 -0.15294956 -0.1302172 0.22660212
0.011242248 0.16521186 -0.008688752 0.055451903 -0.018111892 -0.021191742 0.12750256 0.12990984
0.11648742 0.07550029 -0.066814646 0.018236976 -0.036446627 0.10865125 -0.0716248 -0.12210042
0.100028224 0.11869862 0.03529267 -0.0066811247 0.10012603 -0.049772896 -0.096498534 -0.07847415
0.00035145457 0.15420471 0.056170944 -0.18650389 0.049628112 -0.0064371736 0.089260235 0.054792978
-0.09102931 0.12729083 -0.02986336 0.066134766 -0.059187327 0.044689815 0.058429126 0.13869534
-0.16333866 -0.12468404 -0.09038198 -0.13677129 0.009070841 0.033381037 -0.15048903 0.03698088
-0.09515345 0.19145587 0.26325977 0.098071784 0.0036691665 -0.022271063 0.17753066 0.11799047
0.04802764 0.008750215 0.0058726203 -0.060682442 0.059898715 -0.08519638 -0.11773559 -0.04218244
0.039323926 0.15346114 0.09535095 0.0919394 -0.118553154 -0.23909928 -0.042471733 0.0766396
-0.05152304 0.080969155 0.046017256 0.012094751 -0.15407771 -0.09366884 -0.05389911 -0.02341494
0.03651614 -0.10341357 -0.15272234 0.07497629 -0.12604651 -0.046208885 0.046752833 0.02065277
00000000: 3116 153d b412 b23d 886d 8cbb 6695 ed3d
00000010: 66c5 073e e550 3c3e bb59 493c 8968 13bd
00000020: c082 d5bd 25ff f8bc ea6b c23d e075 c0bd
00000030: 9518 c13c f8db 34be 1493 2c3e 495b 983d
00000040: e2c0 a3bc 54b8 5a3d 4323 c5bd bc9a eb3b
00000050: 3300 74bb fa50 40be 5c50 143d 29e5 0e3e
00000060: 0922 c83d 6053 143d e6f8 51bd b1c6 b0bd
00000070: d288 c53b 891b cfbc 1d7f 0a3e 665c 30bd
00000080: 1faa 06be 67d0 ef3d 389d 173e 8a2f dbbd
00000090: b89e 49be 9a40 27bd f708 72bc f029 783c
000000a0: 77ac 043e 31c8 24bd 612f 423d bfb2 2cbe
000000b0: 4875 acbd 8da6 26bd 7f9e 00be 1e02 8b3d
000000c0: 9333 c73d 92e6 0bbe 5bab e63d 3a65 843b
000000d0: 1f27 2cbd 8c0f 55bd f905 84bd a975 16bd
000000e0: f00a 74be 702e ef3d d18e a2bc d648 a73c
000000f0: 1c21 f7bd 2e69 48bd 22a8 2f3d 7abe 1d3e
00000100: 1a69 78bd 9540 743d ea5f a73d 9470 f63d
00000110: 959f 9ebd 7676 8f3b 82de 9abd 0be2 653d
00000120: 659b e3bb fb63 e3bc 72b4 25be 39a0 8b3d
00000130: 60ac 433d 333a 883e c8fd 94bd 887e 0f3e
00000140: 3289 2bbe 7e7d e03d 2056 033e a0a8 a7bd
00000150: ff5f bebd d5cd ee3d 2acc 453e 2dee 30be
00000160: a31b 1f3e 3ab0 f5bd e614 5bbd feea e63d
00000170: 7501 043d a08c a4bd 0309 9f3d f599 543c
00000180: 354a 4b3c 7eb7 60bd 577b 82bc def8 54be
00000190: a235 ecbd e4f1 f23d ae95 6e3a 1733 5bbe
000001a0: e4f8 e9bd 3173 c4bc 841c 05bd 0e45 40be
000001b0: 0a6c 7fbd e18f f63d 33ee 7b3d c71d 0bbd
000001c0: 779d 6b3a abee 3c3d fef2 5939 3090 1dbd
000001d0: 461b f6bc 3732 923d 74f4 2d3e c78b bf3d
000001e0: 9536 28be fd10 47be 6cd5 a7bd 2927 233e
000001f0: db8e c93c a7e9 7b3d b645 273e d259 8abd
00000200: 9875 7e3c 7b02 02bd 484e 6a3d 8e08 f23d
00000210: 1989 203d a4b1 913d e207 213e cb7e 21be
00000220: 4d1f fcbc e419 603d fe28 e63d 0da8 393e
00000230: a850 213e 6a55 80be e71a 043e edb3 00bd
00000240: 507d 753d b871 3abe 3629 153e 989b a9bd
00000250: a2ea 81bc a5fe 49be 83a1 fabd 3136 873d
00000260: 8833 b43d e74b e53c a3ae 62bd 5944 e13d
00000270: e0c4 a3bc 94d2 3f3e 7392 683d 51ad fbbc
00000280: 6a01 2d3c 3a2a 59bc 3b02 be3d d134 81bd
00000290: f6d6 85bd cf9e 1cbe a857 05be 630a 683e
000002a0: 6831 383c 4c2d 293e 445b 0ebc 8921 633d
000002b0: 645f 94bc 4e9a adbc 0890 023e 1607 053e
000002c0: f590 ee3d e59f 9a3d 1ed6 88bd b665 953c
000002d0: 0f49 15bd 8c84 de3d 06b0 92bd c90f fabd
000002e0: 99db cc3d 4318 f33d 0c8f 103d 56ed dabb
000002f0: e00e cd3d aade 4bbd 06a1 c5bd 0eb7 a0bd
00000300: 6f43 b839 d7e7 1d3e 8113 663d e0fa 3ebe
00000310: d946 4b3d edee d2bb 12ce b63d 9a6e 603d
00000320: 936d babd 8758 023e 01a4 f4bc aa71 873d
00000330: 696e 72bd ab0c 373d 6153 6f3d 2706 0e3e
00000340: 4042 27be 595a ffbd 301a b9bd c60d 0cbe
00000350: dd9d 143c 8eba 083d cc19 1abe 4379 173d
00000360: d0df c2bd 020d 443e fcc9 863e dcd9 c83d
00000370: 6676 703b ce71 b6bc 99ca 353e fda4 f13d
00000380: a1b8 443d 105d 0f3c 1c6f c03b 278e 78bd
00000390: 5b58 753d 717b aebd 5b1f f1bd 7fc7 2cbd
000003a0: 2012 213d eb24 1d3e 5c47 c33d b94a bc3d
000003b0: ffcb f2bd 71d6 74be d7f6 2dbd 39f5 9c3d
000003c0: d309 53bd 28d3 a53d 977c 3c3d 1029 463c
000003d0: 8cc6 1dbe 73d5 bfbd 50c5 5cbd b0d0 bfbc
000003e0: f391 153d 7eca d3bd 3f63 1cbe 2b8d 993d
000003f0: 5612 01be 8745 3dbd e67f 3f3d ff2f a93c

enc_xn.h_layer.0.bias f4 [100]
-0.10336565 -0.11236765 0.028817613 0.057111356 0.063786685 -0.08644141 -0.013018172 -0.0884906
-0.019394107 -0.095998675 -0.08550034 -0.11453039 -0.08258643 -0.08210186 -0.06352667 0.101162106
-0.0027081566 0.092741184 0.015333053 0.020880919 0.0805159 -0.08457186 0.020108366 0.11147137
-0.060821507 -0.068427175 -0.0038602585 0.110820465 0.10948131 0.07948764 -0.03507074 -0.028894618
-0.07927471 0.0019826388 0.042204875 -0.024573024 0.0763575 0.045310177 -0.10660239 0.09540644
0.09255545 0.06981891 0.10805724 -0.034175884 0.100308545 0.07272053 0.026519889 -0.032537848
0.019749146 -0.044041824 0.03352033 -0.07716507 0.045951612 0.09435285 0.072935246 0.093949325
-0.023236359 0.05747073 0.05417024 0.025641939 -0.06737183 -0.10266214 0.062509194 0.08145801
0.002785419 0.0687249 -0.015365581 0.04936605 0.054824043 -0.078220375 0.030668007 0.011282757
-0.0416906 -0.013559706 0.06935239 0.068145365 -0.04387037 0.084685035 -0.028543722 0.051729422
0.054077104 0.007303784 0.0050049126 0.03913931 0.09692638 -0.014795131 0.037825532 -0.048342686
-0.08963348 0.03287071 0.021625979 -0.11625566 -0.08636739 -0.07861809 0.0046174144 -0.061123054
-0.027200876 -0.09374793 0.059221525 0.049009252
00000000: 5fb1 d3bd 0321 e6bd ea12 ec3c 99ed 693d
00000010: 98a2 823d 3208 b1bd 2c4a 55bc 8f3a b5bd
00000020: 64e0 9ebc f49a c4bd cd1a afbd e98e eabd
00000030: 1323 a9bd 0525 a8bd 451a 82bd 142e cf3d
00000040: 547b 31bb 17ef bd3d 7c37 7b3c 760e ab3c
00000050: 85e5 a43d 0334 adbd 4dba a43c 1a4b e43d
00000060: f91f 79bd 8c23 8cbd 64fc 7cbb d7f5 e23d
00000070: bd37 e03d 6aca a23d 56a6 0fbd 68b4 ecbc
00000080: c75a a2bd 29ef 013b 05df 2c3d 5e4d c9bc
00000090: 5261 9c3d 2a97 393d 5b52 dabd 7464 c33d
000000a0: b68d bd3d 37fd 8e3d 1d4d dd3d 03fc 0bbd
000000b0: 916e cd3d 80ee 943d 3d40 d93c 6846 05bd
000000c0: f6c8 a13c 3365 34bd 9d4c 093d b808 9ebd
000000d0: c237 3c3d 113c c13d 135f 953d 8168 c03d
000000e0: 2d5a bebc 6e66 6b3d 9de1 5d3d 0b0f d23c
000000f0: 3efa 89bd 8740 d2bd d204 803d 75d3 a63d
00000100: 948b 363b a4bf 8c3d ebbf 7bbc 0e34 4a3d
00000110: 2d8f 603d 0132 a0bd 793b fb3c 50db 383c
00000120: c3c3 2abd 8729 5ebc a008 8e3d cc8f 8b3d
00000130: 6bb1 33bd 596f ad3d 86d4 e9bc 3be2 533d
00000140: f47f 5d3d 9554 ef3b 4000 a43b 8b50 203d
00000150: 5781 c63d 4767 72bc f2ee 1a3d fb02 46bd
00000160: c291 b7bd 70a3 063d f728 b13c 7317 eebd
00000170: 63e1 b0bd 8502 a1bd ae4d 973b 2b5c 7abd
00000180: 5fd4 debc eafe bfbd 4592 723d edbd 483d

enc_xn.h_layer.2.weight f4 [100, 100]
0.1358872 -0.009414176 -0.15750888 0.12052232 -0.06437931 -0.030392027 0.18055195 -0.101765364
-0.14305682 -0.08457404 0.033693627 0.11217151 0.05249025 -0.124478154 -0.00989215 -0.03959337
-0.16349413 -0.093013175 0.03828105 -0.03389022 -0.044324026 0.13969865 0.08051411 -0.06386027
-0.008109199 0.1471766 -0.12070649 0.15712985 0.1203192 0.0026718408 -0.12386891 0.04856936
-0.071000405 0.026479704 -0.014639182 -0.027737683 -0.05559208 -0.009000131 0.12008254 -0.1317884
-0.083047524 -0.115821704 -0.028102916 0.07504515 -0.022120383 0.03695934 -0.009501776 -0.12643678
0.049638804 -0.16917688 -0.20110233 0.06335002 -0.11226753 0.010379777 -0.052312374 0.09681527
-0.03546069 -0.15603696 -0.049747877 0.11626897 -0.011564769 0.026993265 0.079357676 0.17382452
0.16491242 -0.018045997 -0.018821811 -0.07712411 -0.062489126 -0.09014777 0.082971856 -0.07631092
4.021906e-06 0.03814982 -0.11299056 0.068748675 0.13242315 -0.005625016 -0.013734085 -0.003019359
-0.1309729 0.107202366 -0.030224524 -0.14774993 -0.16824602 -0.14570501 0.13724026 0.08918925
0.03544717 0.06257191 0.21946365 -0.057768848 0.0075706053 -0.021760257 0.061459098 -0.09638808
0.009561253 -0.020577962 0.18136372 -0.065621056 -0.17342892 -0.074061066 0.09522558 0.11151567
-0.07329623 -0.22492984 0.037280954 -0.0062130634 -0.031778432 -0.016319226 0.14092022 -0.062040463
-0.048872367 0.044943355 0.063427836 -0.05150735 0.042400394 -0.011425414 0.0400413 -0.18506587
0.0003920799 -0.06861376 0.09121432 0.04336747 -0.021918574 -0.14813155 -0.047004398 -0.06976737
-0.012910716 -0.06394901 0.046197228 0.11677286 -0.1597825 -0.06707204 -0.11474372 -0.025845943
-0.06663044 -0.060232278 -0.03809215 -0.14733611 0.008426381 0.17708465 -0.052227236 0.059685685
0.013939743 0.1741371 -0.09189271 0.05993308 -0.011911657 -0.04391736 0.0074396473 -0.06067953
0.01832711 0.110695064 0.05626396 0.058903027 0.10831825 0.018975576 0.045040425 0.16665219
0.02047359 0.03151754 0.044401463 -0.003209955 0.15408525 -0.14704973 0.118613705 -0.08158981
0.09458513 -0.026865946 0.14830011 0.06332188 0.115152076 0.09098388 -0.061341096 0.033967175
-0.05075706 0.267082 -0.046285465 0.053785823 0.0632873 0.06469666 -0.15007187 0.035912566
-0.04214742 -0.07010481 -0.0060494468 0.16421251 0.20263743 -0.1790451 -0.0073847496 0.07254271
0.22038142 -0.12394489 0.1246453 -0.04567407 0.07060893 -0.103244334 0.0088900635 0.15029912
-0.10364696 0.09818784 -0.052751917 0.20335199 0.024930732 -0.19287463 -0.03224207 -0.20481654
-0.15045074 -0.07658 0.035431173 -0.17740355 0.007353224 0.0782013 0.20709494 -0.032350738
0.04821261 -0.01040661 0.15690227 0.07788882 -0.024868028 0.01566611 -0.17516306 -0.21633686
0.02587232 -0.108582065 0.054021373 0.13790573 0.08105296 0.0110455975 0.3192985 0.20568804
0.13313644 0.065070115 -0.028398538 0.11951656 0.110868804 0.05539607 -0.18766032 -0.04765467
0.0040709027 0.08699537 0.13296264 0.05266722 0.09987699 0.09649993 0.016177516 0.048366506
-0.020865215 -0.17386353 -0.001892834 -0.07744848 -0.08240138 0.054587528 0.039530545 0.14001894
00000000: 0426 0b3e eb3d 1abc 024a 21be 68d4 f63d
00000010: 4dd9 83bd b3f8 f8bc 9ce2 383e 5c6a d0bd
00000020: 7d7d 12be 2735 adbd 5402 0a3d 2dba e53d
00000030: 0400 573d 67ee febd af12 22bc a82c 22bd
00000040: 016b 27be b17d bebd 97cc 1c3d 79d0 0abd
00000050: 1c8d 35bd 2a0d 0f3e 95e4 a43d 2cc9 82bd
00000060: 72dc 04bc 76b5 163e f734 f7bd a6e6 203e
00000070: ea69 f63d 0d1a 2f3b fcae fdbd aaf0 463d
00000080: a968 91bd f7eb d83c 2ed9 6fbc 233a e3bc
00000090: 85b4 63bd 4975 13bc d6ed f53d 8af3 06be
000000a0: d214 aabd ee33 edbd 1638 e6bc 46b1 993d
000000b0: ce35 b5bc ad62 173d 56ad 1bbc a578 01be
000000c0: 0f52 4b3d b43c 2dbe c5ed 4dbe a8bd 813d
000000d0: 85ec e5bd f10f 2a3c 8045 56bd 1647 c63d
000000e0: 3a3f 11bd 27c8 1fbe 6ec4 4bbd 6d1e ee3d
000000f0: 287a 3dbc fb20 dd3c 4786 a23d 0eff 313e
00000100: cdde 283e 33d5 93bc 3330 9abc 3ff3 9dbd
00000110: 99f4 7fbd 659f b8bd 26ed a93d e648 9cbd
00000120: e9f3 8636 fc42 1c3d 9867 e7bd 1bcc 8c3d
00000130: ef99 073e 0e52 b8bb ed04 61bc 70e0 45bb
00000140: c31d 06be ea8c db3d 6c99 f7bc c24b 17be
00000150: af48 2cbe b233 15be b688 0c3e daa8 b63d
00000160: 0d31 113d b425 803d 14bb 603e 079f 6cbd
00000170: d712 f83b 9142 b2bc 89bc 7b3d 1d67 c5bd
00000180: cda6 1c3c 1d93 a8bc 69b7 393e 5564 86bd
00000190: 5a97 31be 54ad 97bd a105 c33d 5462 e43d
000001a0: 551c 96bd 0254 66be eab3 183d f496 cbbb
000001b0: 1a2a 02bd e6af 85bc 644d 103e 241e 7ebd
000001c0: 642e 48bd 8616 383d 74e6 813d 5ff9 52bd
000001d0: 09ac 2d3d a931 3bbc 5902 243d e881 3dbe
000001e0: 1390 cd39 5f85 8cbd 93ce ba3d 17a2 313d
000001f0: 958e b3bc ccaf 17be af87 40bd 32e2 8ebd
00000200: 7887 53bc b3f7 82bd 4e39 3d3d 9c26 ef3d
00000210: 069e 23be 115d 89bd c1fe eabd dfba d3bc
00000220: 8a75 88bd 1fb6 76bd 8406 1cbd 47df 16be
00000230: ce0e 0a3c ae55 353e 3aec 55bd fa78 743d
00000240: 8563 643c ff50 323e 3f32 bcbd 647c 753d
00000250: 1c29 43bc b1e2 33bd 49c8 f33b 198b 78bd
00000260: bc22 963c 18b4 e23d 0a75 663d 4d44 713d
00000270: f5d5 dd3d ab72 9b3c 4f7c 383d dfa6 2a3e
00000280: 3bb8 a73c 8918 013d 4fde 353d 1c5e 52bb
00000290: 86c8 1d3e 3494 16be beeb f23d 8f18 a7bd
000002a0: d9b5 c13d f915 dcbc fcdb 173e e7ae 813d
000002b0: dad4 eb3d c255 ba3d cd40 7bbd 2a21 0b3d
000002c0: a3e6 4fbd f9be 883e d495 3dbd 864e 5c3d
000002d0: c69c 813d af7f 843d 71ac 19be 0e19 133d
000002e0: c6a2 2cbd 1c93 8fbd 703a c6bb 5327 283e
000002f0: 3080 4f3e 9957 37be c5fb f1bb 4691 943d
00000300: abab 613e d2d6 fdbd 0946 ff3d bc14 3bbd
00000310: 6a9b 903d c471 d3bd a1a7 113c 03e8 193e
00000320: db44 d4bd b516 c93d 6512 58bd 813b 503e
00000330: 893b cc3c ed80 45be 4310 04bd 6dbb 51be
00000340: c20f 1abe fad5 9cbd 4720 113d 47a9 35be
00000350: 50f3 f03b 0128 a03d b210 543e 3582 04bd
00000360: 967a 453d 7c80 2abc fdaa 203e 2c84 9f3d
00000370: 09b8 cbbc 3756 803c f25d 33be 6987 5dbe
00000380: 30f2 d33c 4660 debd 8445 5d3d 2937 0d3e
00000390: 18ff a53d 98f8 343c 187b a33e e39f 523e
000003a0: eb54 083e 7b43 853d 0da4 e8bc 19c5 f43d
000003b0: 2f0f e33d fde6 623d 072a 40be 8b31 43bd
000003c0: 3565 853b a12a b23d 5c27 083e 95b9 573d
000003d0: 4f8c cc3d c1a1 c53d b686 843c f51b 463d
000003e0: 87ed aabc 4809 32be f818 f8ba 4f9d 9ebd
000003f0: 0ec2 a8bd 2c97 5f3d c8ea 213d 2061 0f3e

enc_xn.h_layer.2.bias f4 [100]
-0.0874793 -0.054522812 0.10097292 -0.10984413 0.05621765 0.053779226 0.05899242 0.021862796
0.005856541 0.037800834 0.016838623 -0.005394917 0.060795933 0.024860399 0.062361084 0.07954444
0.023917057 -0.08839426 -0.016714815 0.0012598016 -0.023629673 -0.032426387 -0.06016399 0.039045554
-0.06759512 0.057674043 -0.099478565 0.007224072 0.07487957 0.051569436 -0.004475836 -0.074573606
0.08416865 -0.040141758 -0.018877292 0.009808116 -0.011081842 0.07326083 -0.07156111 0.03549592
-0.09314365 0.021175077 -0.057301138 -0.09332652 -0.045243014 0.033505015 -0.0061189276 -0.017863994
0.039404992 -0.029094443 0.0757598 0.049597386 0.05298418 -0.11435598 -0.08121651 -0.04270782
0.11496741 -0.066922106 -0.06420715 -0.054316193 0.029431483 0.03237325 0.0001248629 -0.090571396
0.0039799316 -0.07588983 -0.026322318 -0.05499125 0.019063506 -0.103014655 0.10403291 -0.015727198
0.023208214 -0.044379365 0.104413286 -0.055659834 -0.081289135 -0.101399645 0.00067180616 -0.024890564
-0.11090707 -0.09027872 0.0034411326 0.0024466666 -0.022040455 -0.041572057 -0.044783093 0.07590644
0.066966794 0.06525214 -0.036590956 0.07353814 -0.030899486 0.10417582 -0.013559242 -0.077803485
0.042900424 0.008554663 -0.08577076 -0.072329514
00000000: 5928 b3bd 5053 5fbd e4ca ce3d f6f5 e0bd
00000010: 7b44 663d 9b47 5c3d 09a2 713d 9b19 b33c
00000020: 3ae8 bf3b 0cd5 1a3d 27f1 893c d8c7 b0bb
00000030: 2805 793d 09a8 cb3c 566e 7f3d 32e8 a23d
00000040: b4ed c33c 0d08 b5bd 82ed 88bc ed1f a53a
00000050: 0493 c1bc 88d1 04bd 846e 76bd 3bee 1f3d
00000060: 4f6f 8abd 9e3b 6c3d 6bbb cbbd e8b7 ec3b
00000070: 765a 993d 793a 533d 09aa 92bb 0cba 98bd
00000080: 9d60 ac3d af6b 24bd 8da4 9abc 38b2 203c
00000090: 9d90 35bc c609 963d a28e 92bd 2b64 113d
000000a0: 19c2 bebd 5b77 ad3c 99b4 6abd f921 bfbd
000000b0: bd50 39bd 8e3c 093d 4981 c8bb 8357 92bc
000000c0: 2167 213d 7857 eebc f427 9b3d a126 4b3d
000000d0: f105 593d 7833 eabd d754 a6bd 65ee 2ebd
000000e0: 0974 eb3d 750e 89bd 0a7f 83bd a87a 5ebd
000000f0: 4b1a f13c d099 043d a1ed 0239 7f7d b9bd
00000100: 166a 823b 216c 9bbd e7a1 d7bc 813e 61bd
00000110: 122b 9c3c 59f9 d2bd 350f d53d 53d6 80bc
00000120: 271f be3c 23c7 35bd a2d6 d53d 91fb 63bd
00000130: eb7a a6bd 9eaa cfbd 261c 303a 4ce7 cbbc
00000140: 3f23 e3bd 0de4 b8bd a084 613b 4158 203b
00000150: 2f8e b4bc 7647 2abd 7a6e 37bd d674 9b3d
00000160: e325 893d eaa2 853d 66e0 15bd 2a9b 963d
00000170: eb20 fdbc 225a d53d 9527 5ebc 6f57 9fbd
00000180: 5bb8 2f3d db28 0c3c 95a8 afbd 7f21 94bd

enc_xn.h_layer.4.weight f4 [100, 100]
0.15999234 0.039751954 0.014592032 0.057779405 -0.1592492 0.06695614 0.10803526 0.04894875
0.0024197437 -0.051144473 0.010330574 -0.0011288441 -0.109539144 0.042535316 -0.018660767 -0.22481123
-0.08114436 0.031201215 -0.05817204 0.124113984 -0.04960905 0.0205484 -0.06295967 0.0044053486
-0.09315941 0.045543958 0.019659085 -0.13438801 0.12325482 0.06008557 -0.11033498 0.03799195
0.07346645 -0.16542202 -0.06345406 -0.073021665 -0.047432754 -0.045947865 0.037969798 0.14812447
-0.17143047 0.22543621 0.06612561 0.03403416 0.29427728 -0.057301313 0.013921236 0.047156423
0.017288765 -0.076840706 0.0011108954 0.1295888 -0.03798798 -0.07317152 -0.0932365 0.10216131
0.012047325 0.13786033 0.030263027 -0.13125639 -0.04302125 -0.18408136 -0.00073401205 -0.032523423
0.0864496 -0.048756707 -0.07367786 -0.023036253 -0.010890986 -0.07118903 0.034338675 0.16647626
0.019461721 -0.0554069 -0.01583807 -0.012181519 -0.0414286 -0.03385263 -0.17200124 0.23337902
0.034680855 -0.030248806 -0.013325926 -0.13229217 0.03112917 0.0117913615 0.16731592 -0.06433637
-0.047018565 -0.06444902 -0.20055524 0.045369316 0.12041393 -0.114999205 0.22307791 -0.006165141
-0.1964793 0.28048205 -0.077202536 0.09793565 -0.02844809 -0.18423979 0.049553715 0.15460251
0.09398103 0.079346426 0.09760457 -0.03556823 0.06576773 -0.083847225 0.11406535 0.2732177
0.109622605 0.051859803 0.0742794 0.046176236 -0.17769323 -0.024113031 -0.054902602 0.09718488
0.10792482 -0.15841587 -0.018226705 0.012058712 -0.093605064 0.16086568 -0.26847494 0.013425526
0.007991226 -0.038260702 -0.048942566 -0.015851447 0.1379381 0.14772123 0.17742029 -0.24439345
0.056960795 0.016892591 -0.08090946 -0.011289021 0.056888815 -0.013943864 -0.04765412 -0.14918624
0.06235079 0.046822067 -0.053236146 0.121608 0.20907849 0.009788032 0.044656232 -0.09197981
-0.0077298814 0.1202176 -0.09160214 0.090004824 -0.112226665 -0.0029318628 0.0020905128 -0.13261259
-0.142051 0.02421282 -0.02354272 -0.1620095 -0.032612447 0.010928742 -0.17213154 -0.29186723
0.07143476 0.038316164 0.1714401 -0.024203947 0.055435557 -0.10074502 -0.24919264 -0.09290966
0.15699637 -0.11417268 0.08204087 -0.087051496 -0.09288052 0.06579289 -0.047129635 -0.011457128
-0.12749872 -0.06266012 -0.033864055 -0.099435456 0.037025925 -0.15923099 -0.04985926 -0.04088089
0.030673701 0.19816707 -0.018505244 -0.0014607718 -0.09247399 0.096387155 -0.04288972 -0.008335586
-0.16975722 0.1323867 -0.04908698 -0.0370858 -0.09778933 -0.16560143 -0.03421322 0.014915828
0.12213891 0.02725066 0.12115717 0.10293949 -0.015931956 0.012497336 -0.020664182 -0.27715442
0.19608898 0.07158224 0.09292956 0.019518817 0.025783487 0.04506871 -0.04617005 -0.010964162
-0.21247481 0.13423695 0.0957559 -0.035735678 0.27950653 0.021245241 0.05234423 -0.110776074
0.06441879 0.059109136 0.0754784 -0.042511493 0.21418467 -0.107858084 -0.11288848 -0.04286604
-0.18837664 -0.13055971 0.06898387 -0.067831784 0.13886563 0.20731927 -0.081664525 -0.047827985
0.082114816 -0.10200581 -0.19865042 0.12967366 -0.15073484 -0.10805369 -0.19573236 0.19865143
00000000: 08d5 233e f2d2 223d 6b13 6f3c 19aa 6c3d
00000010: 3912 23be 4d20 893d 9741 dd3d 7c7e 483d
00000020: 9094 1e3b de7c 51bd 9141 293c b9f5 93ba
00000030: 0f56 e0bd 8339 2e3d 77de 98bc ea34 66be
00000040: 042f a6bd b199 ff3c ce45 6ebd 792f fe3d
00000050: dc32 4bbd 1e55 a83c 00f1 80bd be5a 903b
00000060: 5cca bebd 4d8c 3a3d 170c a13c 039d 09be
00000070: 066d fc3d 491c 763d 4ef7 e1bd 729d 1b3d
00000080: 9475 963d 6464 29be 34f4 81bd 628c 95bd
00000090: d948 42bd d433 3cbd 3886 1b3d f1ad 173e
000000a0: 788b 2fbe c0d8 663e dd6c 873d 6767 0b3d
000000b0: 83ab 963e c8b4 6abd e515 643c 1827 413d
000000c0: 2ba1 8d3c a95e 9dbd 779b 913a edb2 043e
000000d0: 4999 1bbd f3da 95bd c7f2 bebd f339 d13d
000000e0: 2562 453c 422b 0d3e 2bea f73c 1368 06be
000000f0: 0d37 30bd d37f 3cbe b76a 40ba 4837 05bd
00000100: 7d0c b13d 1db5 47bd 6be4 96bd 86b6 bcbc
00000110: 1b70 32bc 8ecb 91bd b6a6 0c3d c178 2a3e
00000120: 306e 9f3c 58f2 62bd d7be 81bc fe94 47bc
00000130: 09b1 29bd 0ea9 0abd 1821 30be e9fa 6e3e
00000140: 830d 0e3d 58cc f7bc fc54 5abc 9977 07be
00000150: 9a02 ff3c 8e30 413c dd54 2b3e c9c2 83bd
00000160: 8a96 40bd d9fd 83bd 5a5e 4dbe 2dd5 393d
00000170: 949b f63d b484 ebbd 896e 643e f304 cabb
00000180: df31 49be 589b 8f3e 5d1c 9ebd 7c92 c83d
00000190: f80b e9bc 5ba9 3cbe d6f8 4a3d 1f50 1e3e
000001a0: 2079 c03d 6180 a23d e8e4 c73d feaf 11bd
000001b0: 3bb1 863d 18b8 abbd 189b e93d 31e3 8b3e
000001c0: d181 e03d f26a 543d cc1f 983d 4b23 3d3d
000001d0: 37f5 35be b188 c5bc 8de1 60bd de08 c73d
000001e0: b007 dd3d c537 22be 2c50 95bc e791 453c
000001f0: 03b4 bfbd f9b9 243e 8c75 89be bdf6 5b3c
00000200: a2ed 023c 41b7 1cbd 0078 48bd e5da 81bc
00000210: a53f 0d3e 3c44 173e aaad 353e 4742 7abe
00000220: b94f 693d 5562 8a3c dcb3 a5bd 96f5 38bc
00000230: 3f04 693d ce74 64bc f730 43bd 47c4 18be
00000240: 8b63 7f3d 7fc8 3f3d 250e 5abd 9d0d f93d
00000250: ac18 563e fb5d 203c 74e9 363d e95f bcbd
00000260: f24a fdbb a534 f63d e799 bbbd 7354 b83d
00000270: 18d7 e5bd 7f24 40bb fc00 093b 98cb 07be
00000280: d175 11be f759 c63c aadc c0bc d2e5 25be
00000290: a194 05bd 770e 333c 4043 30be 9f6f 95be
000002a0: 634c 923d 69f1 1c3d fe8d 2f3e 5b47 c6bc
000002b0: 6510 633d 6853 cebd 5b2c 7fbe 6b47 bebd
000002c0: a8c3 203e 5ed3 e9bd 0b05 a83d 0e48 b2bd
000002d0: 2438 bebd 6cbe 863d 010b 41bd aeb6 3bbc
000002e0: 068f 02be f353 80bd 09b5 0abd d1a4 cbbd
000002f0: 7fa8 173d 730d 23be 3939 4cbd b872 27bd
00000300: 6a47 fb3c 4fec 4a3e 4f98 97bc 5e77 bfba
00000310: 0163 bdbd a166 c53d 22ad 2fbd fb91 08bc
00000320: d6d4 2dbe 6190 073e 6e0f 49bd 48e7 17bd
00000330: c645 c8bd 6c93 29be 2923 0cbd 8461 743c
00000340: f723 fa3d c73c df3c 4021 f83d f0d1 d23d
00000350: bc83 82bc a0c1 4c3c ee47 a9bc 2fe7 8dbe
00000360: 8dcb 483e b699 923d da51 be3d ede5 9f3c
00000370: e437 d33c f899 383d ce1c 3dbd 07a3 33bc
00000380: ff92 59be 6975 093e ab1b c43d 935f 12bd
00000390: 7b1b 8f3e 800a ae3c e766 563d 91de e2bd
000003a0: 00ee 833d 6c1c 723d 6b94 9a3d 8820 2ebd
000003b0: 3a53 5b3e b3e4 dcbd 1332 e7bd 4d94 2fbd
000003c0: cee5 40be 72b1 05be 6a47 8d3d 64eb 8abd
000003d0: cb32 0e3e 814b 543e bb3f a7bd 47e7 43bd
000003e0: d02b a83d 6ce8 d0bd 046b 4bbe 2cc9 043e
000003f0: 3c5a 1abe 414b ddbd 106e 48be 486b 4b3e

enc_xn.h_layer.4.bias f4 [100]
0.06579476 0.09057347 0.062393837 -0.06479578 -0.10434706 0.03544731 0.015315442 0.07029243
0.07371205 -0.056258693 0.058669236 0.10253132 0.02743315 0.07619434 -0.057788737 -0.04885816
-0.01876656 0.011415864 0.046658702 0.038234998 0.020311298 -0.07153255 0.02269715 -0.052951552
-0.061437316 -0.034663558 0.015639933 0.08179986 -0.009896899 -0.087203495 -0.07010554 0.0748318
-0.013659969 -0.03911385 0.06837411 0.017839253 -0.04412806 0.054815616 0.020433737 -0.08329424
0.008542585 -0.0631653 0.050149173 0.043763928 -0.10693627 -0.021264596 0.028726015 -0.015364247
-0.05140847 0.01985771 0.07961438 0.059028458 0.10275322 0.05423739 0.06040022 0.0017318936
0.06549885 0.045215134 -0.006209617 -0.023565998 0.08366182 -0.110919625 0.01852863 -0.087953955
-0.0443344 0.07308161 0.019009693 0.03374747 0.017405534 0.023912052 0.019598335 0.082682975
0.07535489 0.005355265 -0.054338202 -0.07302743 0.05412992 0.106988534 -0.06703476 -0.078920074
0.008343577 0.08175612 0.08082396 0.05008695 0.04922558 0.07855136 -0.08244325 0.07443828
-0.10055463 0.055766195 -0.058827616 -0.026172344 -0.08054018 -0.0012792386 -0.019737408 0.0042495835
-0.0068197493 -0.029571414 -0.040153556 0.0025385031
00000000: 67bf 863d 957e b93d ae90 7f3d a6b3 84bd
00000010: e9b3 d5bd 3331 113d 9fed 7a3c 7af5 8f3d
00000020: 58f6 963d 846f 66bd 274f 703d f1fb d13d
00000030: 7cbb e03c c70b 9c3d e2b3 6cbd 7e1f 48bd
00000040: 54bc 99bc 9b09 3b3c 321d 3f3d 4d9c 1c3d
00000050: e163 a63c a87f 92bd 60ef b93c bae3 58bd
00000060: b2a5 7bbd 60fb 0dbd 511f 803c af86 a73d
00000070: 9a26 22bc bf97 b2bd 7e93 8fbd 6a41 993d
00000080: 10ce 5fbc d835 20bd ba07 8c3d a023 923c
00000090: a0bf 34bd 5786 603d a764 a73c 2c96 aabd
000000a0: 33f6 0b3c cf5c 81bd 3869 4d3d ce41 333d
000000b0: 6701 dbbd 1733 aebc d252 eb3c 53ba 7bbc
000000c0: b091 52bd a3ac a23c dd0c a33d d3c7 713d
000000d0: 4870 d23d 0728 5e3d 3966 773d b500 e33a
000000e0: 4324 863d 8133 393d 0b7a cbbb 7b0d c1bc
000000f0: e356 ab3d d429 e3bd 5ac9 973c 3421 b4bd
00000100: fd97 35bd d0ab 953d 37ba 9b3c c93a 0a3d
00000110: 0d96 8e3c 35e3 c33c b08c a03c b155 a93d
00000120: aa53 9a3d 387b af3b bc91 5ebd 688f 95bd
00000130: 56b7 5d3d ce1c db3d 8549 89bd d9a0 a1bd
00000140: 80b3 083c c16f a73d 0887 a53d f927 4d3d
00000150: c3a0 493d 89df a03d 02d8 a8bd 1973 983d
00000160: 96ef cdbd 186b 643d 3af5 70bd 6267 d6bc
00000170: 40f2 a4bd 20ac a7ba 58b0 a1bc 1740 8b3b
00000180: 3478 dfbb c03f f2bc 0e78 24bd 045d 263b

enc_xn.mu_gen.weight f4 [3, 100]
0.011894433 -0.3370955 -0.023450917 -0.1313968 0.14540054 0.3543469 0.18938404 -0.010793911
-0.009804058 0.1206364 0.10866634 0.17353791 -0.10704999 0.010956962 0.2750091 -0.005276933
0.21080339 -0.19085641 -0.14182414 0.072311625 -0.13289785 0.048092946 -0.010343405 -0.005740976
-0.06400163 0.16848446 0.031969357 -0.09988475 0.102389224 -0.065429784 -0.22805768 -0.08763712
-0.07820007 0.37856528 -0.00027518 0.08194592 0.0073267035 0.101086 -0.08937761 0.25636488
-0.07062837 -0.11829213 -0.43512347 -0.10959141 -0.00229068 0.15915635 -0.22386922 0.01631892
-0.05732169 -0.091974355 -0.3775044 -0.055661105 0.16060764 0.114130214 -0.14428884 -0.042769697
-0.018703321 -0.104744114 -0.014610492 -0.103424884 -0.07881674 0.2297447 0.15648726 0.122179374
-0.014900782 0.2540782 -0.034951203 0.022411643 -0.054249033 0.18678653 0.219623 -0.18387319
-0.020446572 0.19577661 -0.09121712 -0.114625566 0.00097126653 0.18475904 0.057575785 0.10258646
-0.16600417 -0.11658353 -0.108101994 -0.03972333 -0.13036232 0.22072923 0.1151357 -0.18953621
0.10431889 0.06404563 0.057591036 -0.0587033 -0.24787067 0.020182256 -0.07345687 -0.09593355
0.044626825 -0.12646517 0.053595662 -0.09777714 0.1320776 -0.19944088 -0.10000366 -0.10917272
-0.13816243 0.2745869 -0.34709647 0.04599396 0.008581341 -0.13585256 0.26825428 0.24696888
-0.03938834 0.047239292 -0.023348412 0.075160764 -0.216602 0.24919629 -0.015084244 0.032236062
0.10741917 -0.19055782 -0.13607047 -0.048919052 -0.10043356 0.16466007 0.025213972 0.17887978
0.3705123 -0.016240755 -0.120653614 0.09691298 0.07962263 0.15081006 -0.11150448 -0.0515499
0.1563808 -0.1266907 0.011236147 0.07373459 0.13180321 0.10077308 -0.10281439 -0.009957019
0.21659084 0.19543536 0.099970855 -0.093683034 -0.103100695 -0.028976511 0.040369473 -0.22074535
0.1179033 -0.061557777 0.06492015 -0.00660819 0.1192169 0.064269476 0.26377466 0.14502908
0.104533516 -0.07714538 -0.06907956 -0.08119934 0.047266476 -0.022060025 -0.18383664 0.04635218
0.14363647 0.050830446 0.16491129 -0.07176054 0.094549835 -0.09217803 0.06154284 -0.22629638
0.105321124 -0.046145845 -0.024420092 0.08917744 -0.015333373 0.14025034 0.036214337 -0.12035145
-0.23822813 0.062705964 0.09174747 0.3234764 0.11959131 0.19862932 0.11255179 -0.23658504
0.14072186 -0.21884319 0.03290401 -0.16349949 -0.040188655 0.16834016 0.03601198 0.11018991
-0.14520545 0.012750799 -0.088647075 -0.2532064 -0.1014587 -0.17156927 0.025611805 -0.06737274
0.033397917 0.13109103 -0.18313171 -0.066180795 0.10000219 -0.043924067 -0.047119167 0.13124292
-0.2439368 -0.1641294 -0.09742829 -0.18208061 0.09287828 0.2633379 0.061588034 -0.05195656
0.17217575 0.008066833 -0.06588426 -0.1150492 0.1164246 -0.38171825 -0.14217 -0.09113931
0.13891968 0.0029784273 -0.031727362 -0.11780985 -0.14052932 -0.019022146 0.16591501 -0.14847519
0.09946115 -0.0009327229 0.19729751 0.20872341 -0.07100303 -0.042642985 -0.010155026 0.17454751
-0.12265184 0.13607815 0.27807304 0.38189897 0.08904284 -0.087579854 -0.052521314 0.124906406
00000000: dee0 423c c897 acbe 231c c0bc e28c 06be
00000010: e1e3 143e f56c b53e e4ed 413e f2d8 30bc
00000020: 33a1 20bc 3810 f73d 758c de3d ecb3 313e
00000030: 063d dbbd d484 333c fecd 8c3e 1fea acbb
00000040: d8dc 573e dd6f 43be 593a 11be 1e18 943d
00000050: 6016 08be 1cfd 443d 6377 29bc cc1e bcbb
00000060: 4913 83bd 3187 2c3e 4df2 023d 6090 ccbd
00000070: 71b1 d13d 0d00 86bd f487 69be 177b b3bd
00000080: 5c27 a0bd 4fd3 c13e 0946 90b9 43d3 a73d
00000090: d814 f03b 2d06 cf3d 9c0b b7bd 4242 833e
000000a0: 9ba5 90bd 2543 f2bd 81c8 debe 7671 e0bd
000000b0: 3c1f 16bb e2f9 223e f93d 65be 41af 853c
000000c0: 26ca 6abd 0d5d bcbd 4248 c1be e6fc 63bd
000000d0: 5476 243e 1abd e93d 74c0 13be 472f 2fbd
000000e0: b537 99bc 1584 d6bd d860 6fbc 6dd0 d3bd
000000f0: ac6a a1bd 3242 6b3e 323e 203e 2e39 fa3d
00000100: 6922 74bc 8a16 823e fe28 0fbd 9f98 b73c
00000110: 3c34 5ebd f844 3f3e dae4 603e 4149 3cbe
00000120: 927f a7bc aa79 483e 0bd0 babd cfc0 eabd
00000130: 989c 7e3a 7931 3d3e 96d4 6b3d da18 d23d
00000140: fffc 29be 59c3 eebd 9464 ddbd eeb4 22bd
00000150: b37d 05be d806 623e 44cc eb3d c815 42be
00000160: 24a5 d53d 5b2a 833d 94e4 6b3d df72 70bd
00000170: cfd1 7dbe 4255 a53c 8e70 96bd cf78 c4bd
00000180: 9eca 363d 1680 01be 2087 5b3d 623f c8bd
00000190: 5a3f 073e 3b3a 4cbe b8ce ccbd f295 dfbd
000001a0: 747a 0dbe a796 8c3e a1b6 b1be 2a64 3c3d
000001b0: c198 0c3c ef1c 0bbe a058 893e 69e5 7c3e
000001c0: ab55 21bd fd7d 413d 2b45 bfbc e3ed 993d
000001d0: eacc 5dbe 502d 7f3e e823 77bc f609 043d
000001e0: 95fe db3d 9721 43be 0f56 0bbe 585f 48bd
000001f0: 1cb0 cdbd a69c 283e 888d ce3c 432c 373e
00000200: cab3 bd3e 550b 85bc 3e19 f7bd 507a c63d
00000210: 3011 a33d f46d 1a3e 765c e4bd fd25 53bd
00000220: 4a22 203e 35bb 01be d117 383c 2902 973d
00000230: 6cf7 063e 1e62 ce3d 5a90 d2bd c422 23bc
00000240: fdc9 5d3e 3520 483e 85bd cc3d e4dc bfbd
00000250: 7526 d3bd 2660 edbc 765a 253d 120b 62be
00000260: 4977 f13d 0224 7cbd dbf4 843d 8489 d8bb
00000270: fd27 f43d b79f 833d 790d 873e 8182 143e
00000280: ab15 d63d 66fe 9dbd 9679 8dbd d74b a6bd
00000290: 7e9a 413d 3ab7 b4bc ac3f 3cbe c9db 3d3d
000002a0: 7015 133e 9633 503d 81de 283e 31f7 92bd
000002b0: 58a3 c13d d6c7 bcbd 5814 7c3d 3dba 67be
000002c0: 9ab2 d73d 6d03 3dbd a50c c8bc a9a2 b63d
000002d0: d438 7bbc c99d 0f3e 7c55 143d d27a f6bd
000002e0: 13f2 73be fc6b 803d 19e6 bb3d b39e a53e
000002f0: 4aec f43d 7c65 4b3e 8e81 e63d 5943 72be
00000300: 6419 103e 6e18 60be 5bc6 063d 696c 27be
00000310: dc9c 24bd 5d61 2c3e 4c81 133d 3fab e13d
00000320: bdb0 14be bae8 503c 998c b5bd 45a4 81be
00000330: 94c9 cfbd dbaf 2fbe d9cf d13c b8fa 89bd
00000340: 41cc 083d ba3c 063e e186 3bbe cc89 87bd
00000350: f3cd cc3d b9e9 33bd 0700 41bd 8b64 063e
00000360: 92ca 79be 8a11 28be 7c88 c7bd 5773 3abe
00000370: f836 be3d 3ad4 863e bc43 7c3d 67d0 54bd
00000380: d74e 303e c02a 043c 54ee 86bd ea9e ebbd
00000390: 0570 ee3d 9370 c3be 0395 11be 3fa7 babd
000003a0: f640 0e3e b831 433b 8df4 01bd 4a46 f1bd
000003b0: ebe6 0fbe 55d4 9bbc a0e5 293e e109 18be
000003c0: 4ab2 cb3d f981 74ba 5c08 4a3e 97bb 553e
000003d0: 096a 91bd 69aa 2ebd 4461 26bc 95bc 323e
000003e0: e330 fbbd 1258 0b3e 975f 8e3e 4388 c33e
000003f0: 185c b63d 115d b3bd 9720 57bd eece ff3d

enc_xn.mu_gen.bias f4 [3]
0.076920725 -0.033452738 -0.083730415
00000000: 9d88 9d3d bd05 09bd da7a abbd

enc_xn.logvar_gen.weight f4 [3, 100]
-0.10844393 0.097251266 0.20562889 -0.48547727 0.003035403 -0.32685706 0.08009895 -0.13321038
0.06557566 0.013877057 -0.18186373 -0.2945996 -0.14943433 0.0014907195 -0.04124368 0.12767665
-0.02568144 0.18709466 0.16748585 0.24252234 0.0380396 0.11739246 0.22171223 -0.072727114
-0.14879976 0.17148086 0.0898364 0.20146188 -0.09662141 0.095543146 0.18202464 -0.080828816
-0.1071012 -0.008274014 0.086495094 0.21763857 -0.0050666267 0.024443267 -0.06629436 0.07826159
0.22648484 -0.07779041 0.2380964 -0.14756207 0.11060926 -0.04517335 0.16242132 0.23125045
0.13552876 -0.12263563 -0.2751614 -0.076382585 -0.14544179 0.35024157 0.055129755 0.023033446
0.1763598 -0.15553446 0.25825083 -0.0014261433 0.03977624 0.358224 -0.03884841 -0.034448866
-0.049646035 -0.13814874 -0.17866334 -0.2228873 0.13787015 0.1378969 -0.20596454 0.06922859
-0.15069793 -0.11152861 -0.034637365 -0.15945108 -0.15062389 -0.14249626 0.01584022 0.0060230177
0.1580474 -0.1853064 -0.15647031 -0.0077251466 -0.110547535 0.1254172 0.12188902 -0.12339768
0.18943848 -0.060525678 0.18359526 -0.09298211 -0.0881952 0.19536434 0.052498378 -0.17305624
0.13000041 -0.06440163 0.004087709 -0.0817561 -0.14042172 -0.049299236 0.024430377 -0.2130155
0.2692878 -0.29632866 -0.124040194 -0.28422925 -0.21250165 0.06327284 -0.16572382 0.22470787
-0.04524128 0.2021985 0.20959404 0.122051515 0.29083654 -0.20453346 0.1026062 -0.10426449
0.09015433 -0.06900802 0.10569329 -0.1374406 0.03793107 0.0870073 0.021800762 0.031731717
0.028589144 -0.1526325 0.045646653 0.0770242 0.25099525 -0.046180014 -0.038260244 0.042660765
-0.14203036 -0.34798443 0.059077024 -0.108372055 0.117023684 0.043805122 0.011214473 0.17936179
-0.05441504 -0.11925 0.200137 0.08587071 -0.03114105 -0.08899855 0.2324687 -0.14533615
-0.08477699 0.14477454 -0.18682338 -0.14199084 -0.0690903 -0.033581924 0.20848112 -0.12815383
-0.1164426 0.22952141 0.016175421 0.14437431 -0.059263594 -0.114406765 -0.22143328 -0.20871988
0.121691465 0.051539168 -0.026681384 -0.2186933 0.029371746 -0.17162773 -0.066455424 -0.15603279
-0.337343 0.07327458 0.16560887 -0.109945774 0.24075644 -0.124329 0.083675064 -0.14549258
-0.39774132 0.056126323 -0.16744392 0.19419038 -0.009992596 -0.24890488 0.26099637 0.12756094
0.19694972 0.021436833 -0.14952779 -0.050046172 0.07426843 -0.15726551 -0.09232943 -0.32306442
-0.12845132 0.012588506 -0.07782018 0.0152411 -0.077095136 0.13536765 -0.022579215 0.2329912
-0.17226674 0.09293557 0.04768247 -0.09362631 -0.033502214 -0.016513186 -0.042372093 0.13234988
-0.24646366 0.1817662 0.28644598 -0.094377086 -0.07943374 -0.18672527 0.03473397 0.032936912
0.32764506 0.1853964 0.33723077 0.3900573 0.028746136 -0.24428315 0.036000416 0.03874805
0.02034126 0.07347244 0.10994685 0.23815012 0.055610817 0.05910908 -0.08837288 -0.13151611
0.016103394 -0.12112759 -0.1383528 0.088776566 0.023193171 -0.011873602 -0.026408378 0.18312056
-0.095172256 -0.31860822 -0.13483688 -0.075371444 -0.06803606 0.032653376 -0.04448295 -0.11895622
00000000: da17 debd ac2b c73d 6190 523e 7a90 f8be
00000010: 9ded 463b cf59 a7be eb0a a43d 4d68 08be
00000020: 884c 863d 985c 633c 7c3a 3abe c2d5 96be
00000030: 5005 19be 3f64 c33a 22ef 28bd abbd 023e
00000040: e261 d2bc be95 3f3e 6981 2b3e c757 783e
00000050: 69cf 1b3d 756b f03d 8808 633e f4f1 94bd
00000060: f75e 18be ae98 2f3e 25fc b73d 064c 4e3e
00000070: 72e1 c5bd 20ac c33d ab64 3a3e 9489 a5bd
00000080: e057 dbbd bb8f 07bc 5724 b13d a5dc 5e3e
00000090: f205 a6bb 3f3d c83c 56c5 87bd 9d47 a03d
000000a0: a4eb 673e 9450 9fbd 8bcf 733e 831a 17be
000000b0: 1c87 e23d b107 39bd c651 263e ebcc 6c3e
000000c0: 0dc8 0a3e 6428 fbbd f4e1 8cbe 796e 9cbd
000000d0: b1ee 14be dd52 b33e bdcf 613d a3b0 bc3c
000000e0: aa97 343e 6d44 1fbe 7439 843e 6eed baba
000000f0: 69ec 223d 2369 b73e 831f 1fbd 411a 0dbd
00000100: a459 4bbd dd76 0dbe 86f3 36be 923c 64be
00000110: d52d 0d3e d834 0d3e 5ee8 52be b8c7 8d3d
00000120: 8f50 1abe 1d69 e4bd e9df 0dbd 2547 23be
00000130: 263d 1abe 8aea 11be 59c3 813c bc5c c53b
00000140: 2dd7 213e f6c0 3dbe c139 20be 3a23 fdbb
00000150: bf66 e2bd 5e6d 003e f3a0 f93d ecb7 fcbd
00000160: 29fc 413e c6e9 77bd 6500 3c3e 686d bebd
00000170: af9f b4bd 970d 483e 8a08 573d a835 31be
00000180: d41e 053e 00e5 83bd 30f2 853b be6f a7bd
00000190: b6ca 0fbe ffed 49bd 3722 c83c bc20 5abe
000001a0: 17e0 893e 64b8 97be c908 febd 7f86 91be
000001b0: 089a 59be 3195 813d 81b3 29be d219 663e
000001c0: ec4e 39bd 200d 4f3e d29f 563e 25f6 f93d
000001d0: 87e8 943e 3871 51be 3323 d23d 9f88 d5bd
000001e0: d5a2 b83d 1454 8dbd b975 d83d 3bbd 0cbe
000001f0: 9c5d 1b3d e230 b23d 8397 b23c 1ef9 013d
00000200: c833 ea3c b24b 1cbe fcf7 3a3d ddbe 9d3d
00000210: 7382 803e 4127 3dbd c6b6 1cbd 0ebd 2e3d
00000220: 6870 11be 042b b2be c0fa 713d 2bf2 ddbd
00000230: 1daa ef3d 006d 333d e9bc 373c 9eaa 373e
00000240: 4ee2 5ebd 5839 f4bd b7f0 4c3e fcdc af3d
00000250: 841b ffbc df44 b6bd 460c 6e3e 00d3 14be
00000260: 8f9f adbd c73f 143e a14e 3fbe 0c66 11be
00000270: 377f 8dbd 338d 09bd 137c 553e c23a 03be
00000280: 7579 eebd a907 6b3e 5182 843c dcd6 133e
00000290: 62be 72bd 184e eabd 68bf 62be aaba 55be
000002a0: 6039 f93d bc1a 533d eb92 dabc 23f1 5fbe
000002b0: 049d f03c 2ebf 2fbe c819 88bd 0fc7 1fbe
000002c0: 39b8 acbe fc10 963d 5f95 293e 402b e1bd
000002d0: db88 763e 34a0 febd d55d ab3d 02fc 14be
000002e0: c0a4 cbbe b7e4 653d 6b76 2bbe d8d9 463e
000002f0: fcb7 23bc ece0 7ebe 51a1 853e 569f 023e
00000300: 30ad 493e 4c9c af3c d01d 19be 37fd 4cbd
00000310: 0c1a 983d 360a 21be 3617 bdbd b368 a5be
00000320: be88 03be 0540 4e3c 3060 9fbd cfb5 793c
00000330: 0ee4 9dbd d19d 0a3e 0cf8 b8bc 3f95 6e3e
00000340: b166 30be 0155 be3d b24e 433d 27bf bfbd
00000350: 9e39 09bd a946 87bc 5c8e 2dbd ba86 073e
00000360: f860 7cbe eb20 3a3e 0ca9 923e c648 c1bd
00000370: 28ae a2bd e934 3fbe 3545 0e3d dbe8 063d
00000380: 18c1 a73e 8ed8 3d3e 83a9 ac3e 97b5 c73e
00000390: 047d eb3c 5d25 7abe 2c75 133d 46b6 1e3d
000003a0: b7a2 a63c b878 963d d02b e13d a0dd 733e
000003b0: 2bc8 633d 5d1c 723d d7fc b4bd 29ac 06be
000003c0: 44eb 833c be11 f8bd 5bac 0dbe 7dd0 b53d
000003d0: 9bff bd3c 7f89 42bc 6256 d8bc f583 3b3e
000003e0: ace9 c2bd 9e20 a3be ae12 0abe 585c 9abd
000003f0: 7d56 8bbd 8cbf 053d c133 36bd 529f f3bd

enc_xn.logvar_gen.bias f4 [3]
0.034204997 0.045439962 -0.029814899
00000000: 8a1a 0c3d 411f 3a3d 603e f4bc
