result/single_baseline_compare/synthetic/pretrained/0_vae_single(xn1.0_xa1.0_y1.0_kl0.1_tc0.5_css5.0_uxn3_uxa3_seed42).pth (torch, 647986 bytes, 54 tensors)

enc_xn.in_layer.weight f4 [100, 2]
000000 2b 02 04 be 0e fc ca 3d 94 79 63 3c 5d 1c 32 bb
       -0.12891452 0.09911357 0.013883967 -0.002717755
000010 60 0c a1 bd 61 5e ab 3e fd 8b db bb 28 76 ca bd
       -0.078636885 0.33470443 -0.0067000375 -0.09885818
000020 05 a8 a4 bd 89 ee 59 bd 99 be 97 bd 68 6f e9 3c
       -0.0803986 -0.053206 -0.074094005 0.028495505
000030 19 93 2c be 28 f1 86 3e 7f c6 aa bd 5a 4c cc bc
       -0.16852988 0.26355863 -0.083386414 -0.024938751
000040 82 b5 eb 3c 6e be 81 3d 27 63 78 3c 0c b9 d1 3d
       0.028773073 0.0633515 0.0151603585 0.10240373
000050 17 09 85 be 86 89 ca 3d 69 f3 eb 3d 48 a8 0f be
       -0.25983498 0.09889512 0.11521036 -0.14029038
000060 ae 8f 93 be 35 eb 9e be 17 f1 2e 3e cf f1 2b 3d
       -0.28820556 -0.31038824 0.17084156 0.041978654
000070 cc 58 af 3d 93 67 9d 3e 83 55 66 bd 3d 3b b3 3c
       0.085618585 0.30743083 -0.056233894 0.021878833
000080 10 7e ac be b9 6b 67 be 77 be 0c be 37 f5 f2 bd
       -0.33689928 -0.22599687 -0.13744532 -0.11863177
000090 9e 98 a2 bd 49 b3 01 3e fd 5d e7 bd 7e a2 b9 bd
       -0.07939266 0.12666048 -0.11297224 -0.09064196
0000a0 44 fe ea ba df eb c5 bc aa 94 76 be d4 a1 73 be
       -0.001792856 -0.024160324 -0.24080148 -0.23792201
0000b0 a4 af 75 bb 50 ec bf 3d af 28 bf bd 0e 59 dc bd
       -0.0037488723 0.09371245 -0.09333932 -0.10759173
0000c0 8e 47 8a 3d 20 92 1b be 1e 5d 27 be 8d e1 2b be
       0.06751929 -0.15192461 -0.16344115 -0.1678526
0000d0 9b 0e 8c 3d 90 34 02 3e 37 0b b8 bc 98 79 bc bd
       0.06838723 0.12715364 -0.022466285 -0.0920288
0000e0 09 6d 34 3e ef 92 51 3d 45 7c 77 3d e3 bd 2b bd
       0.17619719 0.051165517 0.060421247 -0.041929137
0000f0 b8 e9 dc bd 0d 11 98 3c 8f 39 37 3d 37 61 16 be
       -0.10786766 0.018562818 0.044732627 -0.14685522
000100 7d e2 fb bd 83 e9 f1 bd 97 2e 53 3b 1d 4a 12 3d
       -0.122990586 -0.11812117 0.0032223815 0.03571521
000110 87 f5 00 3c 57 68 09 3e 48 f7 55 3e d5 b8 f1 3d
       0.007871038 0.13418709 0.20895112 0.11802832
000120 52 4f 19 bd c1 b9 00 3e 0e a3 00 be 3e 92 11 3e
       -0.03742916 0.1257086 -0.125622 0.14215943
000130 77 1c f1 3d e0 11 f0 bd 9e 17 01 bd 14 de ef bd
       0.11773007 -0.117221594 -0.031516664 -0.1171228
000140 ba d2 80 3e a5 03 3c be 8b 9a 05 be 6a d3 81 3d
       0.25160772 -0.18360765 -0.13047235 0.06339152
000150 8b 55 b8 bc b5 7a 1c bc 4f b0 ac 3e 6e df c1 3c
       -0.022501728 -0.00955074 0.33728263 0.02366611
000160 00 5e 0a be b2 e9 0d bd 3b 25 71 be 9e 0e bd be
       -0.1351242 -0.034646697 -0.23549359 -0.36925215
000170 11 16 83 3d 3f 5f cb bd 1a d0 29 be 02 87 00 3e
       0.06400693 -0.09930276 -0.1658329 0.12551501
000180 4c 00 19 3e af 8d 99 bd d2 2a c9 bb 18 f7 e7 3d
       0.1494152 -0.07497727 -0.006139138 0.11326426
000190 cf 22 29 3d 77 b6 de b9 29 c5 0c be 4a 24 63 3d
       0.04129296 -0.00042479087 -0.13747086 0.05545453
0001a0 e2 2d cd 3d 50 b6 7e 3e 93 4a 99 3e a8 99 9a 3e
       0.10018517 0.24874234 0.29939708 0.30195355
0001b0 5a d9 8c bd 0d 60 b8 b9 78 80 f3 3c 7a 16 5a 3d
       -0.06877394 -0.00035166778 0.029724345 0.05324409
0001c0 1e 38 8b 3e 98 04 f3 3d f2 22 9a be 9b 07 8a 3c
       0.27191252 0.118661106 -0.30104786 0.01684933
0001d0 74 bc 49 be d8 5a 16 3d c1 21 c6 3d 35 4a 00 be
       -0.19700795 0.03670773 0.09674407 -0.12528308
0001e0 5d 10 e2 bd 0a 0d c2 3d 09 ea 25 3e b5 26 ae bd
       -0.11038277 0.09475143 0.16202559 -0.085034765
0001f0 a3 66 c1 3d ff 3f 1f 3e 35 4b 7f be fb d6 c9 3e
       0.094434045 0.15551756 -0.24931033 0.3942183
000200 e7 34 17 be 39 7e 93 3c 92 e2 b9 bd 81 ee ac bd
       -0.14766274 0.018004524 -0.09076418 -0.084439285
000210 3a cc 16 3d 41 a1 e2 bd 7f 16 65 3e 9c cd eb 3d
       0.03681586 -0.11065913 0.22371863 0.11513826
000220 04 14 00 3e 8e f2 da bd 89 c9 6f be 8c 65 61 bc
       0.12507635 -0.10690795 -0.23416723 -0.013757121
000230 5a 15 74 be a9 8e d8 3a 9f 1a df bd 26 5f 8e 3d
       -0.2383627 0.0016522008 -0.108937494 0.06951742
000240 50 5c ed bd 6d c7 49 be 0e f5 21 3e c6 de 83 3d
       -0.11589873 -0.19704981 0.15816137 0.06438975
000250 87 ed d6 3d b1 3c 7b bd 80 da 0c 3e 82 7e bb bd
       0.104945235 -0.061337177 0.13755226 -0.09154989
000260 be 01 07 3d a2 f8 c5 3d 23 25 22 bd 41 af f8 3a
       0.032960646 0.096665636 -0.039586198 0.0018973128
000270 39 e7 a0 3d 04 a0 17 bd a4 82 ea bd f0 ed 13 3d
       0.07856602 -0.037017837 -0.11450699 0.036115587
000280 da cb 0e be 09 4f 96 3d ee 61 a8 3c cd 48 89 3d
       -0.1394495 0.073392935 0.020554509 0.06703339
000290 2c a4 90 bd 55 82 6f bd 47 5c 74 bd c9 cf 12 bd
       -0.07062563 -0.058473904 -0.059658315 -0.03584269
0002a0 cd fc 80 be dc fc 74 3b 72 37 9e 3d e0 c7 c0 bd
       -0.25192872 0.0037382161 0.07725419 -0.09413123
0002b0 38 11 45 be db fa 48 be 03 5f a1 3d ef cd 6e 3d
       -0.1924485 -0.19626944 0.0787945 0.058301862
0002c0 2c 1e 37 3e ec 8d 22 be 03 74 dd 3c f9 c1 de 3d
       0.17882603 -0.15874451 0.027032858 0.10876841
0002d0 e5 e8 00 3d 8a 6c 56 bd a5 e3 41 be 3f 46 80 3d
       0.031472106 -0.052349605 -0.18934496 0.062633984
0002e0 6d 05 60 bd 9b 6f 5b 3d 92 22 00 be aa 36 07 3e
       -0.054692674 0.053573232 -0.12513188 0.13204446
0002f0 cb 15 97 3e 4d c4 7c bd ab 54 1b be 66 f9 57 3c
       0.29508814 -0.061710645 -0.15169017 0.01318202
000300 4b ba cd 3d 96 32 26 3e 8c 14 7a be 07 bc f9 3d
       0.10045298 0.16230235 -0.244219 0.121940665
000310 49 66 29 3e 9b e0 93 3e c3 b4 21 be 5a 52 91 3d
       0.16542925 0.28882298 -0.15791611 0.070957854

enc_xn.in_layer.bias f4 [100]
000000 0e 71 29 bf c9 85 80 be 8a 5f 1f 3f 8e a8 89 3e
       -0.6618813 -0.2510207 0.62255156 0.2688641
000010 ec e5 59 bc 6e bf df be bb 51 d6 be 23 08 23 bf
       -0.013299447 -0.43700737 -0.4185923 -0.6368429
000020 a6 b8 84 be c3 59 83 3e 82 41 f4 3e 3b a0 b1 3e
       -0.25922126 0.2565442 0.47706228 0.3469256
000030 3a b4 23 bf 70 5b e2 be 8f ab ce bd f5 7b 37 3f
       -0.6394688 -0.44210386 -0.10091316 0.7167352
000040 44 d9 fe 3d f4 c2 51 be 0a cc a4 3e 7f 10 8a be
       0.12443784 -0.20484525 0.3218692 -0.2696571
000050 5d 55 e8 be ab 43 01 3f 6c 98 9a be c6 dd 28 be
       -0.45377627 0.5049388 -0.30194414 -0.1649085
000060 ab 4c 38 bf 86 1d ff 3e aa d7 0f 3f d6 6a 77 3e
       -0.71991986 0.49827212 0.5618845 0.24161848
000070 6f 93 03 bf 42 7f 36 bf 1e 02 1a bf 3d 78 0b 3f
       -0.5139684 -0.7128793 -0.6015948 0.54480344
000080 b3 cc b7 3e 18 1f 1e 3f 2d c8 c8 3e 32 e0 4a 3e
       0.3589836 0.61766195 0.39215222 0.19812086
000090 fd 9b 86 bb 78 f4 09 bf c4 3f 21 bf 21 04 2d bf
       -0.0041079507 -0.53888655 -0.62987924 -0.67584425
0000a0 9b 00 9d 3e 00 f4 aa be b6 8b 2a be fb a9 d8 be
       0.30664524 -0.33389282 -0.16654858 -0.42317185
0000b0 c3 86 0a be 8a 65 03 bf 37 e6 e5 be 92 d0 66 3e
       -0.1352797 -0.5132681 -0.44902202 0.22540501
0000c0 92 87 5e be b1 a8 d6 3e 1b 76 82 be 89 be 08 bf
       -0.21731403 0.41925576 -0.25480732 -0.53415734
0000d0 4d ce e4 bd 0a b1 a4 be 71 99 61 be cc 32 32 bf
       -0.11172161 -0.3216632 -0.2203119 -0.6960876
0000e0 53 53 d5 3e ca 89 04 bf 03 b3 c4 3e f3 29 ae 3e
       0.41665134 -0.5177275 0.38417825 0.3401638
0000f0 e3 cf 09 3f 05 d1 05 bf f2 01 08 3f b8 87 a1 be
       0.53832835 -0.52272063 0.5312797 -0.31548858
000100 f2 d4 92 3e 47 ac 28 3f 90 a4 b0 bd b2 e8 0d 3b
       0.2867809 0.65887874 -0.08625138 0.002165359
000110 0b ce 3f be ef e7 1a bf 2c f0 b6 3e 24 98 36 bf
       -0.18730943 -0.6051015 0.35730112 -0.713259
000120 37 58 f0 3e 38 f7 0c 3f 37 0f 30 3f ff c5 40 be
       0.46942303 0.55064726 0.68773216 -0.1882553
000130 08 73 19 bf 37 39 3f 3e fb f9 d4 3e d1 33 37 bf
       -0.5994115 0.1867417 0.4159697 -0.7156344
000140 1a a8 34 be 9f ae d1 be 70 cb c2 bd b7 90 ba be
       -0.1764225 -0.40953538 -0.09511459 -0.36438534
000150 6e 8c 8d be 17 a9 72 be 76 18 32 bf d2 71 1b 3f
       -0.27646202 -0.23697315 -0.69568574 0.6072055
000160 7a 4d 1c 3f 49 a1 09 be a7 f8 d9 bd 18 cb 8f be
       0.6105572 -0.13440432 -0.1064313 -0.28084636
000170 d9 52 26 bf 7c f8 34 bf cf 58 83 3e ac 4e d3 be
       -0.64970165 -0.7069166 0.25653693 -0.4127096
000180 e2 2a e6 be a8 cd 01 bd 3d 6d 5d be b1 d0 6d be
       -0.44954592 -0.03169027 -0.21623702 -0.2322414

enc_xn.h_layer.0.weight f4 [100, 100]
000000 00 37 83 3d 7f 80 32 be 1f 7d 11 be 9d f8 fd 3c
       0.06406975 -0.1743183 -0.14207886 0.031002337
000010 11 95 32 be 87 b8 0f 3e b7 70 44 bd 22 96 a4 3d
       -0.17439677 0.14035235 -0.047959056 0.08036448
000020 36 d7 08 3d 23 13 cc 3d f3 e0 36 be 40 41 dd bd
       0.033408366 0.099645875 -0.17859249 -0.10803461
000030 72 ed ab bb f3 23 e0 bd f8 93 c1 3d 92 1b a9 bd
       -0.0052468115 -0.10944357 0.09452051 -0.08257212
000040 21 cc 80 3d b1 03 15 be 14 c3 2f be 87 40 e6 bd
       0.062889345 -0.1455219 -0.1716426 -0.11242776
000050 51 6b 4e bb 65 ba 76 be 1a e4 83 3d e6 a2 c5 bd
       -0.003149707 -0.24094541 0.06439991 -0.09650211
000060 e8 d7 11 3d e9 c3 88 3c da 91 d8 bd d7 e7 89 bc
       0.035606295 0.01669498 -0.10574694 -0.016834183
000070 c6 ef ba 3d 20 a3 14 3e 9f 27 53 3e ca b9 73 3d
       0.091277644 0.14515352 0.20620583 0.059503354
000080 49 d1 ca 3c f7 82 19 bd 18 6c 37 bd 96 cb a2 3d
       0.024757998 -0.037478413 -0.04478082 0.07948987
000090 e9 1d 1f bc d3 f3 a6 3d b0 4d a9 3d 9a d8 b2 3d
       -0.009711721 0.081519745 0.08266771 0.0873272
0000a0 f7 ad 02 be 48 71 01 3e 68 7a 0c 3d 74 35 a9 bd
       -0.12761675 0.1264087 0.034296423 -0.082621485
0000b0 30 49 6b 3d 51 1b 1a bd 22 54 b7 3d be 49 f5 bc
       0.057442844 -0.037623707 0.08951594 -0.02994239
0000c0 d6 b8 d9 bc 62 ad a4 bd 61 d7 bf 3d e0 57 9a bd
       -0.026577394 -0.08040883 0.09367252 -0.07536292
0000d0 b8 9a 9e 3d 8d 28 36 be cb 4c 4d be c6 84 67 bb
       0.07744354 -0.17788906 -0.20048825 -0.0035326942
0000e0 40 95 e4 bd df 04 e9 3d 00 6e dc 3d de 31 30 be
       -0.1116128 0.11377882 0.10763168 -0.17206523
0000f0 a7 ce 9b bd 7d 77 42 3d 19 56 f9 bd 13 ab 99 bc
       -0.07607775 0.047477234 -0.12174625 -0.018758332
000100 cc 6f 1b bd 9d 66 67 3d 48 c6 91 bd 7e 7c 85 bc
       -0.037948415 0.056494344 -0.07117897 -0.016294714
000110 ea c2 88 bd 35 02 f0 3d 17 49 01 3c bf db 96 bc
       -0.06677802 0.11719171 0.007890961 -0.01841533
000120 56 4f 3e bd 57 72 32 be 35 cb 26 be 27 b1 c4 3d
       -0.04646238 -0.1742643 -0.16288455 0.09604102
000130 ad f5 b7 3d a7 88 37 3d 74 89 d2 3c 92 77 9e bd
       0.08982406 0.044808056 0.025700308 -0.0773765
000140 a0 61 81 bc a3 cf 1c 3d 06 0a fc bd fd e5 10 be
       -0.015793622 0.038283955 -0.12306599 -0.14150234
000150 7b be 00 3e 3a 5e a0 bc e2 e6 1d 3d 25 da e4 3d
       0.12572663 -0.01957618 0.038550265 0.1117442
000160 e9 85 e3 3d af 04 a6 bd da cd ff 3c 34 e9 3b bd
       0.11109526 -0.08106362 0.031226087 -0.045876697
000170 b6 6d 00 bd ea a1 cb 3d f2 51 a0 bd 96 e8 08 3b
       -0.03135463 0.09942992 -0.0782813 0.0020890585
000180 69 af 23 bd 05 76 0c bd 84 f4 fa bd f4 14 05 3e
       -0.039962206 -0.03429224 -0.12253669 0.12996274
000190 7e c1 2c bd 65 0f f8 3d e6 3c 80 3d 71 b7 3c 3e
       -0.042176716 0.12112311 0.062616155 0.18429352
0001a0 82 82 83 bc 4b d5 aa bc ae 7f cf 3c a3 b0 5a bd
       -0.016053442 -0.02085366 0.025329437 -0.05339111
0001b0 5d 4a 25 3b d4 a9 81 bd c4 0f 3d 3d 59 e4 fb bd
       0.0025221326 -0.0633122 0.046157613 -0.12299413
0001c0 26 a9 18 bd 54 3e 47 bd f4 be 70 bd b3 1e 1e be
       -0.037270688 -0.048643425 -0.058775857 -0.15441398
0001d0 a3 5c 39 3d 15 eb d1 3d 25 1c f5 bd a1 47 20 bc
       0.04525436 0.102499165 -0.11968259 -0.009782703
0001e0 00 fe fb bd cc f5 58 3a 73 20 da 3d 51 b7 37 3d
       -0.12304306 0.00082763727 0.106507204 0.04485256
0001f0 7b df 1a 3e 25 d8 19 be 4b 07 cf bd 29 c2 67 3d
       0.15124314 -0.15023859 -0.10108813 0.05658165
000200 3d c8 6d be 1f 91 69 3d a2 11 0e be a5 8b 40 3e
       -0.23220916 0.057023164 -0.13873914 0.1880327
000210 34 db 26 be b2 88 e0 bc 77 10 89 3c 72 a2 5a 3c
       -0.16294557 -0.027408931 0.016731484 0.013344394
000220 09 a9 2a 3e 5d e4 82 bd 5c 64 2c bd 30 7a b8 bd
       0.16666044 -0.06391213 -0.042087898 -0.090076804
000230 e6 b2 28 3c fb bf 0d be d4 a4 16 be b8 cf 87 bc
       0.010296559 -0.13842766 -0.14711314 -0.01657854
000240 7c 1f 2d 3c e1 7d 04 bd fd 62 77 bc 6c 60 a8 3b
       0.0105665885 -0.03234661 -0.015099284 0.0051384475
000250 5b ba 53 3e 53 fb ee bd 1a 4a 28 3d 1b 8a bb bd
       0.20676558 -0.1166903 0.041086294 -0.09157201
000260 45 e5 3c bd d4 68 88 be db 32 2f bd e7 0e d0 3d
       -0.046117086 -0.26642478 -0.04277311 0.101590924
000270 0d a3 7f 3d 72 61 4d 3c c6 e3 90 3d 15 e0 18 3b
       0.062411357 0.01253544 0.07074694 0.0023326923
000280 af 56 7c bd bc 73 b8 3d b2 37 4a bd fb 85 a7 3d
       -0.061606105 0.090064496 -0.04936952 0.081798516
000290 d2 1c 34 bd 2c d4 2c be 40 d7 6b 3d 98 02 10 be
       -0.043972798 -0.16877812 0.057578325 -0.1406349
0002a0 36 fe f3 3d b3 26 67 bd 59 0e d2 bc 76 ae 1b 3e
       0.11913721 -0.05643339 -0.025641607 0.1520327
0002b0 d9 8f db bd 85 7b df bd 3f 4f 17 be e0 43 b3 bb
       -0.10720796 -0.10912231 -0.14776324 -0.005470738
0002c0 d4 ab 56 3e e4 5b 9a 3c 16 cf 16 be 84 03 de 3a
       0.20963985 0.018842645 -0.14727435 0.0016938304
0002d0 14 89 23 bd 3a 5b 00 3d c1 36 05 be d4 e2 38 3e
       -0.03992565 0.031337 -0.13009168 0.18055278
0002e0 78 1d 9a 3d 05 25 c5 3c 39 99 76 3d fa 56 5c 3d
       0.07525152 0.024065504 0.06020472 0.053793885
0002f0 c9 a5 2b be e8 6a 1d bc 2d 6e 8c 3d 9c c2 ef 3d
       -0.16762461 -0.009608008 0.06856952 0.11707041
000300 44 57 c7 bd 6d 46 f9 3d d0 b6 22 3e e8 fe 31 bd
       -0.097334415 0.12171636 0.1589005 -0.04345599
000310 da 10 c1 3c 94 45 d9 bd 24 12 32 be c2 20 f8 3c
       0.023567606 -0.10608974 -0.17389733 0.030289058
000320 df bb 83 3d 63 37 e4 3d 99 59 9d bd 81 24 98 3d
       0.06432318 0.11143377 -0.07683105 0.074288376
000330 1f 0e 83 3d e3 7a c4 3d fd 23 9c 3d 54 65 29 3d
       0.06399178 0.09593751 0.07624052 0.0413564
000340 91 53 b3 3d 69 4c a0 3c e6 fe 1a be 5c 36 56 3d
       0.087561734 0.019567685 -0.15136299 0.052297935
000350 47 1d 08 3e bc 32 d4 bd 3f cd 40 bd 5d d6 55 3d
       0.13292418 -0.10361239 -0.047070738 0.052206386
000360 32 6e 38 bd 20 40 4e 3d 06 23 16 3e 73 bd ab 3d
       -0.045026965 0.050354123 0.14661798 0.08385744
000370 17 d4 b6 3b 48 a9 8d bc ff 39 65 3e b0 30 65 bd
       0.0055794823 -0.017292634 0.22385405 -0.055954635
000380 7c 84 d9 bc 93 59 3f be 37 a0 a4 bd 5e 61 9b bd
       -0.026552431 -0.18686514 -0.08038371 -0.07586931
000390 5a 28 2c be 8d 09 23 bd 6d 80 3c 3d 29 36 ed 3d
       -0.16812268 -0.03980403 0.046020914 0.11582596
0003a0 78 61 42 be e3 30 c2 3d 9b 1d 85 bd 0c 69 ce 3b
       -0.18982494 0.09481981 -0.064997874 0.0062991437
0003b0 15 47 8a 3d e6 ed 0d 3d 77 d9 bf bc 12 16 11 bd
       0.06751839 0.034650706 -0.023419125 -0.03542144
0003c0 29 fc f4 bc 25 05 29 3e 27 1b 1f 3c ba 11 93 bd
       -0.029905396 0.16505869 0.0097110635 -0.071811154
0003d0 d7 2a 8d be 0a 8e d5 3c b1 68 1e 3d a2 0b 91 bd
       -0.27571747 0.026068706 0.03867406 -0.07082297
0003e0 cf 12 d2 3c d1 e2 ea bd 4b 62 14 bd da c9 f5 3d
       0.025643734 -0.11469043 -0.036226552 0.12001391
0003f0 fb bb e6 3d 33 f3 1e 3e 22 cd cf bd 00 97 da 3d
       0.11266323 0.1552246 -0.10146548 0.10673332

enc_xn.h_layer.0.bias f4 [100]
000000 b3 98 6c bd d8 e0 5a bd d0 b2 8b 3c cc 18 8f 3d
       -0.057762813 -0.053437084 0.017053038 0.069871515
000010 2a 84 6f 3d f5 94 06 bd 9a 86 3b 3d ed d2 fd bd
       0.05847565 -0.0328569 0.045782663 -0.123937465
000020 dc a1 bb bd b2 28 82 bd 87 fd bd bd 03 3e a6 bd
       -0.091617316 -0.06355418 -0.09276872 -0.081172965
000030 e5 6b 9c bd 56 cf 21 3d 73 b2 ea 3b c8 ba 06 3c
       -0.07637767 0.03950437 0.007162386 0.008223243
000040 d7 68 05 bd bf ab 1c 3c e6 60 9c 3d fc 44 81 bd
       -0.032570686 0.009562432 0.076356694 -0.06311986
000050 6f 72 88 3d ba 9a 92 3d 92 7c 59 bc 54 e2 b2 3d
       0.066624515 0.07158418 -0.013274329 0.08734575
000060 87 bd 85 3c f1 26 6a bd 25 0b de 3d 19 36 59 3c
       0.016325725 -0.057166044 0.108419694 0.013257527
000070 14 74 a0 3d c2 3d ea ba 60 8f 87 bd c2 5a b6 3d
       0.0783464 -0.0017871188 -0.066191435 0.089040294
000080 d2 97 01 3d 82 3c 2e 3d cd 5c 44 bd 99 b1 50 3d
       0.031638928 0.042538173 -0.047940064 0.05095062
000090 2e 75 d6 bd 29 d9 6a bb 9e b0 8c 3d 6e 96 7f bc
       -0.10471569 -0.0035835004 0.068696246 -0.01559983
0000a0 20 b2 dd 3d 5e c6 4f 3d 8e 3d 88 3d 47 2a ad 3d
       0.1082499 0.050726287 0.066523656 0.084553294
0000b0 e7 9b 30 bd ce b6 2c bc 55 15 6f 3d 9f 41 37 bd
       -0.04311743 -0.010541631 0.058369953 -0.044740316
0000c0 1c d5 92 bd 66 c2 51 3d 7c 6d a6 bd bc f6 f8 bc
       -0.07169554 0.051210783 -0.08126351 -0.03039109
0000d0 6e 75 45 3d 81 48 85 bb 80 2a 1e bd f9 17 ec bb
       0.048207693 -0.004067481 -0.03861475 -0.007205006
0000e0 02 c4 a8 3d 0d 99 1c bd fa 6f 92 3d 44 8b 07 bc
       0.082405105 -0.038231898 0.07150264 -0.00827295
0000f0 61 d4 37 bd 4e 5f 9d bd b8 a9 cd bb b2 bc ab 3d
       -0.044880275 -0.076841936 -0.0062763356 0.083856
000100 1a c5 2b bd 15 1f 81 bd 2a f6 43 bc 49 1f 66 3d
       -0.041936018 -0.063047566 -0.011960546 0.05618218
000110 f1 a4 9a bb 4e 0f f4 3d 28 ce 96 3d 18 1d d4 3d
       -0.0047193696 0.11916982 0.0736354 0.10357112
000120 21 ec 4a bd 0b a4 b6 bd f2 6e ca bd d7 38 d4 bc
       -0.049541596 -0.089180075 -0.098844424 -0.02590601
000130 59 38 3e bd c3 ec f5 3c 48 90 55 3c 89 05 c3 3d
       -0.046440456 0.030020123 0.013034888 0.0952254
000140 73 44 a1 bd e7 38 ba bd 09 54 2d 39 3e 0b 13 3d
       -0.07874384 -0.090928845 0.00016529871 0.035899393
000150 8c 60 cd 3d 88 87 3a 3c ec 31 e8 3d 13 10 0e bd
       0.100281805 0.011384852 0.11337647 -0.0346833
000160 e8 fc fc bc fa 15 80 bd 63 b2 76 bd 46 50 e8 bc
       -0.030882314 -0.06254192 -0.060228717 -0.02835859
000170 b4 24 93 bd 7c 71 68 bc 2f e5 f8 bc 39 4b 24 bd
       -0.07184735 -0.014187213 -0.03038272 -0.0401108
000180 1f 6c 8c bd 29 21 ae bd 1d 7e 11 bd f7 3c 74 bd
       -0.0685656 -0.085024185 -0.03552066 -0.059628453

enc_xn.h_layer.2.weight f4 [100, 100]
000000 d7 c0 37 bb b1 8b e9 bd 25 84 85 3c d2 fb 12 3e
       -0.0028038525 -0.11403597 0.016298363 0.14353874
000010 7e 0e c9 bd ea e8 4d bb 53 2d 09 be 89 19 15 3e
       -0.09817217 -0.0031419345 -0.13396196 0.14560522
000020 10 00 d4 3b 46 23 d4 bd 53 54 b3 bd b1 45 a9 3d
       0.006469734 -0.103582904 -0.08756318 0.08265246
000030 66 00 11 3d 81 cb 24 be 6d 9f 47 bd 47 a5 04 3e
       0.03540077 -0.16093256 -0.048736025 0.12953673
000040 da 68 c1 bd 5e a4 11 3e 40 3a 2f bd 30 0c c3 bd
       -0.09443827 0.14222857 -0.04278016 -0.09523809
000050 e6 c3 b0 3d 88 35 3f bd ef 76 4d 3d 7f 81 de 3d
       0.08631115 -0.04668191 0.050162252 0.10864543
000060 f2 3f 24 bd f3 e5 15 3c 6d a1 cf bd e4 a1 ae bd
       -0.040100046 0.009149062 -0.101382114 -0.08526972
000070 29 4b d6 3d da 59 0f bd 69 4d 6e be 7e eb 45 be
       0.104635544 -0.0349978 -0.23271717 -0.19328114
000080 93 b4 e7 3c cd f6 b8 3d 73 a6 82 bd fe 02 96 3c
       0.028284347 0.090314485 -0.06379404 0.018311974
000090 3a d0 98 3d 9c b8 09 3d 96 5d ef 3d ea 49 a8 3d
       0.07461591 0.033623323 0.11687772 0.08217223
0000a0 ad bf 74 bd 9c d8 b8 bd b4 9d 48 3d 21 3c 84 bd
       -0.05975311 -0.0902569 0.048978522 -0.06456781
0000b0 bb 8e a8 3d 76 f6 1b 3d f5 90 1a bc a5 38 01 3e
       0.08230349 0.03807684 -0.0094339745 0.12619264
0000c0 61 cc 62 bd ca 55 e7 3c 6c af b1 3c cf 7b 37 3e
       -0.055370692 0.02823915 0.021690093 0.17918323
0000d0 c0 48 28 3e 39 21 97 bc f4 12 98 bd 36 d0 37 be
       0.16434002 -0.018448459 -0.0742549 -0.1795052
0000e0 77 76 d0 3c 75 3b c7 3c 60 cc cc bb 44 5a 58 3c
       0.025447113 0.024320344 -0.0062499493 0.013205115
0000f0 3b 07 3d bd 72 48 81 3c ed 86 29 3d 21 14 5e 3e
       -0.046149474 0.015781615 0.04138844 0.21687366
000100 08 48 73 bd 4b 0f 05 3e a3 2c 55 3e 04 cb 6a 3c
       -0.059394866 0.12994115 0.20817809 0.014330629
000110 83 9c a4 3d 7e 30 c6 bd c5 f2 e2 bc fe 00 91 be
       0.08037665 -0.09677218 -0.027703652 -0.2832107
000120 46 34 10 3d 36 e1 9f bd 5a 40 9c bb d0 18 02 be
       0.0352061 -0.078066275 -0.0047684135 -0.12704778
000130 b4 3c 26 bd 0c 1b e2 3d c7 c0 8c 3c 1c e1 15 bd
       -0.040585235 0.11040315 0.017181767 -0.036591634
000140 28 b6 9b bd c6 7e b2 3c 26 0f b9 bb f5 37 74 bd
       -0.07603103 0.021788966 -0.005647558 -0.059623677
000150 ec 07 0a bc 5d 0b 81 3d 0a de 3f bd 44 cc 99 3d
       -0.00842474 0.063009955 -0.046842612 0.07509664
000160 d7 b6 25 bc 72 49 41 3d 7d 84 a4 bd b5 ef 1c 3d
       -0.010114393 0.047189184 -0.08033083 0.03831454
000170 09 f5 8a bd 86 bd 2a bd e9 ea 0e 3d 8c 99 44 be
       -0.06785018 -0.04168465 0.034891997 -0.19199198
000180 07 dc 06 3c 1f 79 97 be 91 b6 dc 3c 68 52 9e 3d
       0.00823117 -0.29584596 0.026942523 0.077305615
000190 1a 50 14 be a4 c1 d3 bd 63 21 53 be 50 69 75 bd
       -0.14483681 -0.103396684 -0.20618205 -0.059914887
0001a0 fc 5f 57 3d 74 29 40 3d 56 30 4d 3b be 63 eb bb
       0.052581772 0.046914533 0.0031309328 -0.007183521
0001b0 ae 57 be bd 20 9f 4a bd 2c 85 32 bd 5a 02 07 bd
       -0.09294067 -0.04946816 -0.043584034 -0.032961227
0001c0 6f b0 1e 3e 02 e5 02 be fa b6 7e bd e9 54 0f be
       0.15496992 -0.12782672 -0.06218622 -0.13997234
0001d0 4e 85 68 bd 6d 3b 0c 3e 2d df 19 3e 82 8b 03 be
       -0.056767754 0.13694544 0.15026541 -0.12846187
0001e0 72 7a 26 3e bc 11 7a be 5b 80 85 3d ab ac a0 3d
       0.16257647 -0.24420828 0.065186225 0.07845434
0001f0 70 76 38 3c 06 33 c5 bd c9 d4 f0 bc 25 a5 a9 3d
       0.011258706 -0.096288726 -0.029398339 0.08283452
000200 d4 82 34 bd ea 6a 48 3d 69 05 10 3d b2 68 9d be
       -0.04407008 0.048930086 0.03516141 -0.3074394
000210 2a 2a d3 3d 1f c3 0a be 13 bc bf bd 90 49 01 3d
       0.103107765 -0.13550995 -0.09362044 0.031564295
000220 d7 db 37 be c8 6c 32 bd 89 90 0e 3d ee 33 a5 3d
       -0.17954956 -0.043560773 0.03480581 0.080665454
000230 50 3c c8 3d cc eb c3 bd c2 3c 14 3e 61 0d 4f bd
       0.09777129 -0.09566459 0.14476302 -0.05054987
000240 46 4a c0 bd d4 ff 1c be 8d 30 10 3d 96 54 e5 bd
       -0.093891665 -0.15331966 0.03520255 -0.11197774
000250 aa ca 04 3d b1 0f 2b 3e 47 eb fc bc 17 19 8d 3d
       0.032419838 0.16705205 -0.030873908 0.06889551
000260 a5 5f e1 3d bf 01 fe bd 6b 2e bb bd b5 28 58 3d
       0.11004571 -0.12402677 -0.09139713 0.052773196
000270 de 9c 3e bc 1e 5d ad bc df 1d 13 bd c3 f8 80 bd
       -0.01163408 -0.021162566 -0.03591716 -0.062974475
000280 8e ce cd 3d be 61 3c 3d 09 9b 3a bc e4 8e 19 bd
       0.10049163 0.04599165 -0.011389502 -0.037489787
000290 71 91 96 ba 22 49 9f 3d 40 f7 c0 ba 2b 4c 9c 3d
       -0.0011487437 0.07777621 -0.0014722124 0.076317154
0002a0 a0 e3 10 3e 3d c2 7d 3d 53 a5 24 be 8b 22 2a 3d
       0.14149332 0.06195282 -0.16078691 0.04153685
0002b0 88 d5 9d bd 83 d0 0d be 4b 06 08 3e d4 0d 30 3d
       -0.077067435 -0.13849072 0.1328365 0.042981938
0002c0 f3 b8 81 3c 44 2a 14 3d 25 de 24 3d c7 35 34 bd
       0.015835261 0.03617312 0.040250916 -0.0439966
0002d0 5e c1 7e 3d e4 4c 25 be 79 98 81 3e d6 37 b0 3d
       0.062196128 -0.16142613 0.2531164 0.086044
0002e0 1f c7 01 3d 43 c4 cd 3d 9a b0 fa 3c 3f cf 6d 3e
       0.031684037 0.100471996 0.030601788 0.2322359
0002f0 5d 79 90 bd 24 14 ea bd 5b 86 31 3e 16 4d a2 bd
       -0.07054398 -0.11429623 0.17336409 -0.07924859
000300 a6 d6 08 be 33 c0 56 be be 77 a8 3d 56 b7 03 3d
       -0.13363132 -0.20971756 0.08225964 0.032157265
000310 a8 0c 9f 3b c5 42 3d 3c 19 40 24 bd 1d 72 43 3e
       0.0048538037 0.011551564 -0.04010019 0.190865
000320 13 ef 52 3c 85 e4 23 bc e5 fa 9d 3d 52 a8 24 3e
       0.012874383 -0.010003214 0.0771387 0.16079834
000330 1c d2 33 3d 45 b3 e0 3b e2 9d c5 bd d3 bd f8 bd
       0.043901548 0.006857308 -0.096492544 -0.12145581
000340 90 41 36 3d 16 df da bc c6 ec 2d 3e ac 6e 8e bd
       0.04449612 -0.026717704 0.16984853 -0.06954703
000350 ce 80 2e 3e 65 b4 1f be dd 38 45 3d ee df d5 3d
       0.17041323 -0.15596159 0.048149932 0.10443102
000360 09 30 4c be 5f 51 aa 3d 8a fe 13 3d cf 23 4d be
       -0.19940199 0.083163016 0.03613142 -0.20033191
000370 46 1b 1b bc a1 45 6a bc 5b 92 45 bd 31 33 ab 3d
       -0.009466952 -0.014298827 -0.04823528 0.08359373
000380 71 7a de bc ff f2 6a bc 7f 50 f3 3c 50 e2 c5 3d
       -0.027157994 -0.014340161 0.02970147 0.09662306
000390 d1 1d 08 be 36 03 05 be b3 a5 1f 3d 7d db a5 3d
       -0.13292624 -0.12989506 0.038976382 0.08098505
0003a0 ed a0 ca bb 4c 6d 9c bc f4 89 45 3d f9 02 1c 3e
       -0.0061837346 -0.019095086 0.048227265 0.15235509
0003b0 ec c1 90 bd f5 19 77 bd 02 b0 00 3e d9 3b d8 3d
       -0.07068238 -0.06032749 0.12567142 0.1055829
0003c0 f2 e2 f5 3d 08 e9 40 3c 33 98 e2 3d 8f bf 36 3d
       0.12006177 0.011774309 0.11064186 0.04461628
0003d0 aa 3e 0b 3e 65 39 31 bc 5d da 47 3d 7a 97 c5 3c
       0.13598123 -0.010816907 0.04879223 0.024120081
0003e0 87 99 c5 bd c6 73 34 bc 27 f9 ca bd 97 da 6f 3d
       -0.09648424 -0.011013931 -0.09910803 0.058558073
0003f0 14 ea ac bd 88 52 38 3d cc cb 53 39 ba 62 fc 3c
       -0.08443084 0.045000583 0.00020198448 0.030808795

enc_xn.h_layer.2.bias f4 [100]
000000 7e 87 7d bc 88 d7 94 bd 8d 8a b5 bd 25 69 1a bd
       -0.015474198 -0.07267672 -0.08864317 -0.03769793
000010 f3 9a 90 bd f8 8e ae 3d d3 38 00 bd f7 72 a3 bc
       -0.07060804 0.08523363 -0.03130419 -0.01995228
000020 87 22 79 3d 78 9d d5 bc b7 f1 71 3c 16 9c c5 bd
       0.060823943 -0.026076064 0.014767102 -0.09648912
000030 4d f8 a9 3d 41 ac d3 bd d0 70 a1 3d e0 7c b1 bc
       0.08299313 -0.10335589 0.078828454 -0.02166599
000040 43 e2 7d bd e9 7f 02 bd 50 60 b9 bd 3c 6d 38 bd
       -0.061983358 -0.031860266 -0.09051573 -0.04502605
000050 0c db 79 3d 34 f0 88 3d b6 4e 4e 3d 46 1e f7 bc
       0.060999915 0.0668644 0.050368033 -0.030165803
000060 65 77 2a bd 38 1b 47 3d 57 17 e5 bd aa b0 d7 bd
       -0.04161777 0.048609942 -0.11186092 -0.10531743
000070 e1 70 e3 bd 80 4a b9 3d 9a d3 51 3d 73 80 6b bd
       -0.11105514 0.09047413 0.05122719 -0.057495546
000080 e8 ca 37 bd 2b 0d 1d 3d e9 fd 43 3d 88 c8 d6 3b
       -0.04487124 0.038342636 0.04784957 0.006554667
000090 f9 b5 0a 3d de 0d 6d 3c ad 44 90 bc aa 64 3f 3d
       0.03386495 0.014468638 -0.017610872 0.04672686
0000a0 a3 dd 87 3d a7 bd 28 3c 3a 81 ee 3c 03 d0 ca bd
       0.06634071 0.010299123 0.029114354 -0.09902956
0000b0 42 af a4 bd 1c 87 a0 bd 0d 91 3f 3d de 1a 64 bd
       -0.0804124 -0.0783827 0.04676919 -0.055689685
0000c0 36 14 e0 3c 7d 1c 15 bb 94 69 53 3d 37 07 96 bd
       0.027353387 -0.0022752576 0.05161436 -0.07325595
0000d0 b3 e1 8a 3d 59 ba c9 bd 2c 30 f8 bc e6 5f 0e bc
       0.0678133 -0.09849996 -0.030296408 -0.008689856
0000e0 d1 f7 1b 3d 17 58 90 bc 6c 6d b0 bd ef b9 9a bd
       0.038078133 -0.01762013 -0.086146206 -0.07554995
0000f0 81 90 36 bd 79 37 e0 3d 33 90 26 3d ab 19 b7 3d
       -0.044571403 0.109480806 0.040664863 0.08940443
000100 3f 93 f8 bc a7 74 21 3d 1f 67 71 bd b6 10 03 3c
       -0.03034365 0.03941789 -0.058936235 0.00799959
000110 61 37 7e 3c 8b 68 e7 3d e4 38 1d 3d d8 86 01 bd
       0.015516133 0.11299237 0.038384333 -0.031622738
000120 d2 53 d2 3d 9e c2 ae 3d b8 21 b5 bd 35 9b 49 bd
       0.10269894 0.08533214 -0.08844322 -0.049220283
000130 0a 58 b1 3d 63 43 21 bc 55 e9 2e bd 83 08 07 3c
       0.0865937 -0.009842726 -0.04270299 0.008241775
000140 bb ff 49 3d 65 06 87 bd e8 e5 71 3d 44 8e 26 bc
       0.04931615 -0.065930165 0.059057146 -0.010165755
000150 e8 a7 1e 3d a0 3f 7a bd 5b 44 03 bd a8 b9 b1 3d
       0.038734347 -0.061095834 -0.03204761 0.08677989
000160 09 c0 d3 bc de 30 88 bb 49 2d ee 3c 76 3e 3b bd
       -0.025848405 -0.004156216 0.029074328 -0.045713864
000170 a8 a7 e5 3d 0d 5b cf bd 92 a0 f6 3c 63 4e 9b bc
       0.112136185 -0.101247884 0.030105863 -0.018958276
000180 8b 93 e2 3d be e8 14 3d 0f 5c 89 bd fb d6 b9 bc
       0.11063298 0.036354773 -0.06707012 -0.022685518

enc_xn.h_layer.4.weight f4 [100, 100]
000000 a4 19 c6 3d b3 af 90 bd 81 5e 09 bd ac 0c 91 bd
       0.09672859 -0.07064762 -0.03353739 -0.07082495
000010 1c a6 6c 3c a0 d1 d4 3d 49 d2 64 be 88 ab 6c 3d
       0.0144439 0.10391545 -0.22345842 0.057780772
000020 83 3a b7 3c 65 39 3e be bd a4 83 3d 13 63 69 bd
       0.022366768 -0.18576582 0.06427906 -0.05697925
000030 c8 4c dd bc 0f f3 16 be 30 f9 f6 bd 28 3e 9b bc
       -0.027014151 -0.14741157 -0.120592475 -0.018950537
000040 5b f9 1f bd 88 b0 ad 3d 08 7e 51 3d 02 d0 49 3d
       -0.039056163 0.08480936 0.051145583 0.049270637
000050 e8 b7 90 be b2 99 cc ba 90 4a 74 bd a3 58 b4 b9
       -0.2826531 -0.001560977 -0.05964142 -0.00034398315
000060 11 90 51 3c c9 64 39 be da 1a 55 3d ff 33 8d 3e
       0.012790696 -0.18104853 0.05202756 0.27578732
000070 35 19 a5 3d e6 5e b0 3d d4 6f d4 bd 38 81 44 3b
       0.080614485 0.086118504 -0.10372892 0.0029984247
000080 36 5f 97 bd b4 44 8d be 27 94 57 bd d6 15 09 3e
       -0.07391207 -0.2759148 -0.052631523 0.13387236
000090 35 c4 df bd c4 35 3e 3c d6 4c 6b bd a2 be 82 b6
       -0.109260954 0.011609498 -0.057446323 -3.8964945e-06
0000a0 cf 58 2a bd 69 58 71 be a2 d3 8c bd f2 ff 97 3d
       -0.0415886 -0.23568882 -0.06876303 0.074218646
0000b0 a9 a6 21 3c 53 3b d5 3d f3 46 6f 3d 38 22 b1 3c
       0.009866395 0.10411706 0.05841727 0.021622762
0000c0 e0 d8 da 3c b9 9f 00 be 47 92 75 bc 09 67 b3 bd
       0.026714742 -0.1256093 -0.0149884885 -0.08759887
0000d0 4b 05 4b 3d f7 1c de 3d d2 8c 16 be da f4 01 3d
       0.049565595 0.10845368 -0.14702156 0.03172765
0000e0 73 ed 42 bd c0 96 c4 bd a7 69 9c bd 46 a4 10 3d
       -0.04758973 -0.09599066 -0.07637339 0.035312913
0000f0 64 a9 12 be 31 20 0b be af 50 85 3d 53 df 63 bd
       -0.1432243 -0.13586499 0.0650953 -0.0556329
000100 38 80 26 3d 91 f7 f8 bd cc 43 13 3d c0 7e 6e 3e
       0.040649623 -0.121565945 0.035953328 0.23290539
000110 9a cf 2b 3d d8 8b 9a 3b 87 f7 11 bd 57 c3 0c 3e
       0.04194603 0.0047163777 -0.03563645 0.13746391
000120 cd 98 2f be 0d db 6c bd 7e 24 ae bd 30 ff 86 bd
       -0.17148133 -0.05782609 -0.08503054 -0.06591642
000130 57 c7 94 bc 7d b4 b9 3c bb 27 5a bc 39 fb 98 bd
       -0.018161459 0.022669071 -0.013315137 -0.07469792
000140 54 7c b9 bd 24 87 0a 3e 23 97 b3 3d 83 ff a2 bd
       -0.09056917 0.13528115 0.087690614 -0.07958891
000150 5f 67 32 3d 5a 36 16 be 4e cd 01 3e dc 39 5d 3d
       0.043555614 -0.14669171 0.12675974 0.054010257
000160 e4 b9 91 3c 23 0c e0 3c ba 01 95 bd 44 6b 94 bd
       0.017788835 0.027349537 -0.0727572 -0.07247022
000170 d6 04 68 bd 61 d6 89 3c e7 f3 b3 bd a6 2f 39 bd
       -0.056645237 0.016825857 -0.08786755 -0.045211457
000180 37 25 c0 3d 76 99 f0 3c 1f 84 8b bd a4 a7 9f 3d
       0.09382098 0.02937005 -0.068123095 0.07795647
000190 aa 7e e4 bd f9 cb f6 bc ef 88 83 3d ab 63 20 3c
       -0.11156972 -0.030126559 0.064226024 0.009789388
0001a0 dc 01 2c be 7f ab 12 bd bd 57 d3 3c f0 53 1b bd
       -0.16797584 -0.035808083 0.025798673 -0.037921846
0001b0 31 15 16 3d b1 cb b1 3a b9 33 2a bd 62 1c 00 3d
       0.036641303 0.0013564733 -0.041553233 0.031277068
0001c0 67 c2 84 3d aa 78 66 bd 8e ac d4 bb 23 5b b1 bc
       0.06482392 -0.056267418 -0.0064902967 -0.021649903
0001d0 a3 a4 c0 bd e9 61 3e bd 27 8d db bd 17 d2 95 3d
       -0.09406402 -0.046480093 -0.10720282 0.07315462
0001e0 54 99 23 3e 04 7d 27 bd 10 4e 7f 3e 0d f3 1a 3d
       0.15976459 -0.04089071 0.24932122 0.037829448
0001f0 0e c9 05 3c ff 5e cf 3b f6 0e 26 3c 58 12 14 3e
       0.008165611 0.006328463 0.010135403 0.14460123
000200 79 67 78 3e 6a fe 0c 3e c3 af eb 3d 1a 61 e9 bc
       0.24258222 0.13768926 0.11508133 -0.028488684
000210 92 25 24 3b 23 c1 a3 bd fc 9d a7 bd 6e 87 e2 bd
       0.0025046808 -0.07995822 -0.0818443 -0.110609874
000220 2a ac 90 bd e5 72 2d bd fa 1f f5 bd f5 ec 5e be
       -0.07064088 -0.0423459 -0.1196899 -0.2177008
000230 c3 81 6a 3d a4 82 86 3d e0 d9 54 3d 62 3e e9 3d
       0.057252657 0.065678865 0.051965594 0.11388852
000240 e1 51 9f 3c 81 a8 b4 3d 4f eb d0 be 74 0d f0 3d
       0.019448223 0.08821202 -0.40804526 0.11721316
000250 52 e7 d3 3c a3 84 57 bc ca cd 2e 3c 77 af c2 bd
       0.025867138 -0.013154182 0.010669181 -0.095061235
000260 f5 b3 f8 3d 64 28 4c 3d 1c 27 66 38 32 01 8e 3d
       0.12143699 0.049843207 5.4872697e-05 0.06933822
000270 9f 7a cf 3d 30 74 13 bd d3 ad d2 bc bd 1a 67 bc
       0.1013081 -0.035999477 -0.025717651 -0.014105496
000280 40 75 0a be d2 0b a1 bd 7f be a0 3d 26 78 01 bd
       -0.1352129 -0.07863583 0.07848834 -0.031608723
000290 69 e4 99 3c 40 84 91 3c 51 e8 32 3d e9 03 17 bd
       0.018785672 0.017763257 0.043678585 -0.036868963
0002a0 e1 c2 94 bd 54 03 38 3a 8c 44 ca 3d f8 0e 86 bc
       -0.07263733 0.0007019539 0.098763555 -0.01636456
0002b0 d3 46 41 be 64 20 1c bd 10 69 ac 3d 39 2c 40 bc
       -0.18874674 -0.038116828 0.084184766 -0.0117292935
0002c0 22 45 2f be 70 d9 43 3e 8f fb e6 3d f2 4e 53 bd
       -0.17116216 0.19125915 0.1127845 -0.05158896
0002d0 dc b7 58 3e 49 98 b5 39 bb de 2f 3d fb af 33 bd
       0.21163887 0.00034636472 0.04293702 -0.043869
0002e0 d9 32 89 3d 7b 74 58 bd ef a8 65 3e 50 7e 49 3e
       0.066991515 -0.05284546 0.22427724 0.1967709
0002f0 7b 0f 1d 3d 6c 21 ac 3d 0a 0b cf 3d d7 ef 53 bd
       0.03834484 0.08404812 0.101095274 -0.0517424
000300 fe 78 57 3c dc 8e 32 3e bf 32 65 3e 26 96 de bd
       0.013151405 0.17437309 0.2238264 -0.10868482
000310 f0 c4 60 3d 7b b0 3c be 68 66 06 3d 33 07 d6 3b
       0.054875314 -0.18426697 0.032812506 0.00653162
000320 ec 86 87 3e 24 c0 d2 3d 0b 6f 5d bc 21 7d 4a 3c
       0.26470125 0.10290554 -0.013515244 0.012358935
000330 1d db 98 bd 74 b8 9a 3d e3 1c 15 bc 40 88 11 3e
       -0.074636675 0.07554713 -0.009101125 0.14212132
000340 75 97 02 3c 58 57 96 3e 95 c0 4c 3e e5 fb 82 3d
       0.0079706805 0.29363513 0.19995339 0.06395701
000350 cf ac ba 3d 6c 33 fe 3c d1 d2 a1 bc d0 19 01 be
       0.09114992 0.03103038 -0.019753845 -0.12607503
000360 0d f4 5f bd 6e f6 f5 bd c3 10 a9 3b eb 9e 18 be
       -0.054676104 -0.12009893 0.005159469 -0.14904372
000370 a2 67 14 3e 21 a2 19 bd b8 82 23 bd 2f 61 97 bd
       0.14492658 -0.037508134 -0.039919585 -0.07391583
000380 4d 0e 35 be c9 6e 9d bc 9d 79 79 bd d8 9c e6 3c
       -0.17681237 -0.019217866 -0.060906995 0.02815096
000390 6e 53 78 bb 51 ac ab 3d 9a 4c 98 3d 55 29 70 be
       -0.0037891525 0.08382476 0.074364856 -0.23453267
0003a0 45 aa 7a bd 47 f1 bc 3b 23 6e 66 bd dd 7f 07 3e
       -0.061197538 0.005766067 -0.05625738 0.1323237
0003b0 9a 29 6f bd da bb 05 3d ad 51 8d 3b 09 d8 03 3c
       -0.058389284 0.032649852 0.004312715 0.008047112
0003c0 ab d2 58 3d 98 7c 5f 3d fe d5 27 3e 28 03 c4 bd
       0.052935284 0.05456218 0.16390225 -0.095709145
0003d0 b1 da 07 3d f7 f5 ce 3d 2c dd 74 3b 15 cc 54 3d
       0.033167545 0.10105508 0.0037363274 0.05195244
0003e0 dc aa 30 be 66 c6 fc 3b f7 5e a8 bd dc 91 1c 3e
       -0.17252678 0.0077140806 -0.08221238 0.15290016
0003f0 bf d9 8b bc d2 6b 30 3e b0 34 82 bd 59 fb 14 3e
       -0.017071603 0.1722863 -0.063577056 0.14549007

enc_xn.h_layer.4.bias f4 [100]
000000 bf 95 7b bc e9 d4 0f 3c 0a 29 8c bc 12 ce aa bd
       -0.0153555265 0.008778789 -0.017109413 -0.08340086
000010 a5 0f 22 bd d4 00 bb bd 0c ab e5 bd fd c5 e6 bc
       -0.0395657 -0.09131017 -0.11214265 -0.02817058
000020 0d 5f a1 bd 29 a6 97 3c 94 a8 34 3b a8 4f d3 3c
       -0.078794576 0.018511849 0.00275663 0.025794819
000030 c0 a7 de bc 21 80 6e 3d 9c d5 50 bd ef a0 c2 3c
       -0.027179599 0.058227662 -0.050984964 0.02375838
000040 26 6c 7c 3d 85 05 9d 3d 51 62 b6 bc 2c ec b7 3d
       0.061626576 0.076670684 -0.022263678 0.08980593
000050 04 63 57 bd 50 29 79 3d 05 6f b7 bd e0 2c 4b bd
       -0.052584663 0.060830414 -0.08956722 -0.049603343
000060 a1 74 a5 3d 85 22 4a 3c 00 10 d2 bc 62 62 84 3d
       0.08078886 0.012337332 -0.025642395 0.064640775
000070 dd b8 b5 3d d1 39 05 bd 45 52 73 bd 4e 2f 6e 3d
       0.088731505 -0.03252584 -0.05940463 0.058150582
000080 cd 7e f9 3c 3f 40 bb 3d 2f 39 76 3d 1b bf d5 bd
       0.030455971 0.09143113 0.06011313 -0.10436841
000090 c0 c0 61 3d 9e f7 d6 3c dc 84 dd 3b f0 c4 4b 3d
       0.05511546 0.02624112 0.006760223 0.04974836
0000a0 a9 70 5e bd 73 97 4c bc c6 89 73 3d bf 18 57 bd
       -0.05430666 -0.01248728 0.059457563 -0.052513834
0000b0 54 93 61 3d d2 ee 4c 3d 36 2f f7 3c 44 37 02 3d
       0.055072144 0.050032444 0.03017388 0.031790987
0000c0 48 26 c3 bd a2 af be 3d 18 18 05 bd 12 09 ab 3b
       -0.09528786 0.09310843 -0.03249368 0.005219587
0000d0 d0 c5 2c bd 11 13 66 bb 69 79 25 3a 7e 43 40 bd
       -0.042180836 -0.003510658 0.0006312342 -0.046939366
0000e0 80 d8 a0 bd dd a6 09 bb 81 c5 68 3d e1 c0 c1 3c
       -0.07853794 -0.0021004 0.05682898 0.023651542
0000f0 b1 b1 21 3d aa 01 94 3c 0d 12 bc bd df 4a c0 bd
       0.0394761 0.0180672 -0.091831304 -0.093892805
000100 ca 47 26 3d a2 12 a6 3d f6 01 b4 3d 4e 92 a2 bd
       0.040595807 0.08109023 0.087894365 -0.07938062
000110 54 1a 9a bc 12 ee cb bc 15 12 e5 3d 2a 71 a3 bd
       -0.018811382 -0.024893794 0.111850895 -0.07980569
000120 de 63 3d bd 47 4c a2 3d 5d 17 e0 bd 15 54 ac 3d
       -0.04623782 0.07924705 -0.10941956 0.08414475
000130 6b fd 18 bd a6 ef a8 bc 87 44 58 39 19 56 9f bd
       -0.037351053 -0.020622086 0.00020624894 -0.07780094
000140 fc 01 39 bd 21 ef a3 3d 85 18 80 bd 96 76 9c bc
       -0.045167908 0.080045946 -0.06254677 -0.019099515
000150 19 37 32 3c b0 cc a6 3d a9 ae ec 3d 2a 49 27 3d
       0.010877394 0.0814451 0.11556751 0.04084126
000160 12 2c 05 bd 55 6b b4 3d 99 14 b6 bd f5 ce c1 bd
       -0.03251273 0.088095345 -0.088906474 -0.09463302
000170 fa 12 00 bb be 6d fc 3c 00 54 a1 3d 78 bf bf ba
       -0.001954256 0.030814048 0.0787735 -0.0014629206
000180 e0 c5 85 bd 80 ce a8 bc b8 8b f7 bb 39 69 dd 3d
       -0.06531882 -0.02060628 -0.0075544976 0.10811085

enc_xn.mu_gen.weight f4 [3, 100]
000000 62 e9 f7 bb 68 72 20 3e 56 f6 36 be 4d fe 44 be
       -0.007565663 0.15668643 -0.17867407 -0.19237633
000010 39 08 a3 bd 90 d7 33 be f5 ef a5 bd c8 0b e6 bd
       -0.07960553 -0.175627 -0.08102409 -0.11232716
000020 57 63 01 bd 2b f2 4d 3e a4 84 9e bd bf dc 55 be
       -0.03158888 0.20111911 -0.07740143 -0.20884989
000030 c0 fd bc 3d 96 51 84 3e 26 74 a8 bd a1 d9 45 3e
       0.092280865 0.25843495 -0.082252786 0.193213
000040 a0 14 8e 3a 88 fd 09 be c5 d4 c7 3c d8 60 d8 3d
       0.0010839887 -0.13475621 0.024393449 0.105653465
000050 90 74 8a be 69 2c 34 3d db e2 e9 bd e4 d8 b1 3b
       -0.27042055 0.043987665 -0.11420222 0.0054274667
000060 33 05 37 3e 2e 88 c5 3d a6 7c 2f 3e b3 4b 0a 3e
       0.17873077 0.09645115 0.17137393 0.1350544
000070 de 95 72 3e f8 24 92 bc 21 5b 28 be 9f 7b f6 3c
       0.23689982 -0.017839894 -0.16441013 0.030088244
000080 61 a9 e3 3d 8a 03 79 3d 8c dd 94 bd 8d a5 36 3e
       0.11116291 0.06079439 -0.07268819 0.1783659
000090 47 d6 31 bd d0 14 48 bd b9 54 f6 bd 55 b3 9e 3d
       -0.04341724 -0.048847973 -0.12027878 0.077490486
0000a0 94 64 3f 3e 23 e1 4b 3d 10 42 d1 bd ac c1 2c 3e
       0.18690711 0.049775254 -0.102176785 0.16870755
0000b0 15 79 b6 bc 9b 67 94 3d 67 25 bf bd b8 31 8e 3d
       -0.022274533 0.07246324 -0.09333306 0.06943077
0000c0 bd c0 83 3e 0c 7a 32 3d 85 95 c2 bd 01 26 19 3c
       0.25732985 0.043573424 -0.09501175 0.00934744
0000d0 84 9d 2d be 7e 8b 77 be 0f 20 1d 3e 48 96 9e bd
       -0.16954619 -0.24174306 0.1534426 -0.077435076
0000e0 4c 85 61 3e 7f fa 0b be 00 e4 3e bd 66 1a e4 3d
       0.22023505 -0.13669775 -0.046604156 0.111378476
0000f0 11 a1 67 be ab 09 6b 3c 96 3e df 3b cb 0a 45 3e
       -0.22620036 0.014345567 0.0068128807 0.19242398
000100 9f ee 7a bc 87 ef b1 3d 54 66 af be a2 50 d0 bc
       -0.015315681 0.08688264 -0.34257758 -0.025429074
000110 08 e0 21 be 9b 7d b1 3d 5d 12 a2 3e 6f 24 ff bd
       -0.15808117 0.086665355 0.31654635 -0.12458121
000120 4b 7c 40 be a2 9d c3 bd ca 27 bf 3d e6 46 f4 bd
       -0.18797414 -0.095515504 0.09333761 -0.11927585
000130 33 24 96 be 89 38 97 3e 06 7b c0 bd b2 5d ef bc
       -0.29324493 0.2953532 -0.09398465 -0.029219482
000140 67 fa ad bd 42 09 f1 3d b5 5a 67 be e7 69 80 bd
       -0.08495026 0.11769344 -0.22593196 -0.06270199
000150 e5 b3 73 bb 9b 97 53 be b4 36 dc bd dd c9 6f 3c
       -0.0037186083 -0.20663302 -0.10752621 0.01463553
000160 e0 ac 65 3d 61 1c 2b 3e 74 a7 ef 3d 94 be e6 bd
       0.05607307 0.16710044 0.11701861 -0.11266819
000170 13 e4 7a 3b 49 f3 67 3d 34 5c 0a 3e 5b d5 1c be
       0.0038282915 0.0566285 0.13511735 -0.15315764
000180 2f 83 53 be 9a 07 67 be ae 06 e5 3d de 8f ce 3d
       -0.20655511 -0.22561494 0.11182915 0.10086034
000190 e7 0a 23 3c 2c 4d a8 3d d4 17 0b bd 97 78 ca 3d
       0.00995133 0.08217844 -0.03395827 0.09886282
0001a0 27 60 94 3d 1e e8 63 be d3 6a 9a bd 58 6f e4 3d
       0.07244902 -0.22256514 -0.07539906 0.1115405
0001b0 c1 e0 18 be 85 03 76 bd fb 48 d6 bd 12 e1 ea bd
       -0.14929487 -0.06006195 -0.10463139 -0.1146871
0001c0 89 f7 93 3d bf 46 37 3e 17 5c a4 3e 26 db 5d be
       0.07224948 0.17898081 0.3210151 -0.2166563
0001d0 67 35 66 be 6c e0 aa bd 70 83 02 be bb 77 29 3e
       -0.22481309 -0.08343586 -0.12745452 0.1654958
0001e0 6b 79 da bd 00 c7 66 be bf 3d 0d be 22 5c 92 3d
       -0.1066769 -0.2253685 -0.13793086 0.07146479
0001f0 7d 55 2c be 68 40 4c bc 8e d3 d0 bb 20 97 01 be
       -0.16829486 -0.0124665275 -0.0063728755 -0.12655306
000200 84 74 58 3e 2f 46 1d 3d aa 73 9b 3d 89 16 48 3b
       0.21138197 0.03839701 0.075904205 0.003053101
000210 da bd 6e 3d 28 20 4a 3e bc fd 91 3d 1b f5 63 bd
       0.058286525 0.19738829 0.07128474 -0.055653673
000220 d0 1f ea 3d de 35 d8 be 7d 49 26 be af 2a 53 be
       0.11431849 -0.42228597 -0.16238971 -0.20621751
000230 4a b5 9d 3b 35 86 01 be 06 e6 12 3d f4 37 8e be
       0.004812871 -0.12648852 0.0358639 -0.27777064
000240 4f db 32 3d cb 49 1f bd d2 24 89 bd e8 22 78 3d
       0.04366618 -0.038888734 -0.06696476 0.060580164
000250 40 82 4c 3e 87 31 5e 3c ca 94 d7 3c 50 fb d4 bd
       0.19971561 0.013561613 0.026316065 -0.103994966
000260 88 8c 47 be d9 2e 8f 3d 34 a0 8c 3e 90 1e ab 3e
       -0.19487202 0.06991357 0.27465975 0.33421755
000270 b1 1f 65 3e 6a 9d 90 3e c0 66 23 3e ef 9e d2 bd
       0.2237537 0.28245097 0.15957165 -0.102842204
000280 92 8e 5e 3e 8b da 4a 3e e8 d7 ea be 9e b8 e1 bd
       0.21734074 0.1980993 -0.45867848 -0.11021541
000290 b5 a8 2b be 88 30 ab 3d 81 48 82 be 6f d1 15 3d
       -0.16763575 0.08358866 -0.2544594 0.036576685
0002a0 c8 e8 19 be 0a 29 a3 3b f6 8b 29 3d dd 3c a7 3c
       -0.15030205 0.0049792575 0.041393243 0.020414764
0002b0 df 58 c6 3d de 5f 29 3c 82 a2 69 be 29 ce 16 3e
       0.096849196 0.010337798 -0.22815898 0.14727081
0002c0 6b 21 01 be f3 28 26 3d 3f 50 84 3c 49 52 e7 3c
       -0.12610404 0.040566396 0.016151546 0.028237479
0002d0 22 c0 7e be b3 d6 98 be c2 8f 2a 3e 21 32 5e be
       -0.2487798 -0.29851303 0.16656402 -0.2169881
0002e0 74 c7 0a be dc 84 5d 3e 89 5b b9 bd be ff 13 be
       -0.13552648 0.21632713 -0.09050662 -0.14453027
0002f0 07 9d 9d 3e 12 b8 24 3e bb 60 8f be 6f a6 17 be
       0.30783865 0.16085842 -0.28003487 -0.14809583
000300 54 f6 b2 bd 0c 9c 1b 3d 8a 8a 2c 3b 33 f7 dc bd
       -0.087383896 0.037990615 0.0026327693 -0.10789337
000310 3f a9 19 be e6 af a0 bc a5 33 7e be f8 42 e7 3d
       -0.15005969 -0.019615125 -0.24824388 0.1129207
000320 7f 7f 1c bd 72 e1 73 3e a3 2d 1c be 19 53 22 bd
       -0.038207527 0.2381647 -0.15251784 -0.03963003
000330 93 2b 58 3e 91 25 d9 3d 50 b6 1d 3e 3e ad 94 3e
       0.21110372 0.10602868 0.15401578 0.29038423
000340 e4 88 14 be ff 44 0b be b2 18 c0 bb 97 52 1d 3c
       -0.14505345 -0.13600539 -0.005862319 0.0096022105
000350 c3 6b 17 3e 82 1e ba bd b3 df 9c 3c 45 07 a7 3d
       0.14787202 -0.0908785 0.019149637 0.081556834
000360 10 39 38 3d 39 ee a5 3d e9 4a d0 bd 2f f2 a4 bd
       0.044976294 0.08102078 -0.10170538 -0.08054005
000370 0f 0d 86 be 5c 6c c3 3d 1a df 81 3e e7 b3 13 3e
       -0.26181838 0.09542152 0.25365525 0.14424096
000380 e9 15 70 bc f9 21 bd bb a4 85 99 3d b2 a8 73 be
       -0.014653661 -0.005771872 0.07496193 -0.23794821
000390 da 32 ab 3d 81 b4 15 3d b5 9c 29 bd 6e 1e 51 be
       0.083593085 0.036549095 -0.041409213 -0.20421764
0003a0 9d 47 a3 3e 21 49 47 bd 59 75 36 3d d3 3d bb 3d
       0.31890574 -0.048653726 0.044545505 0.091426514
0003b0 92 df 1d 3e cd 12 32 3d e6 d0 2d bd de a9 a3 bd
       0.15417317 0.04347496 -0.04243555 -0.07991384
0003c0 80 18 f0 3d 21 57 23 bc 26 5f 67 bd e7 8a 9a bd
       0.11723423 -0.009969504 -0.056487225 -0.07546025
0003d0 a4 0e 8a bd e7 eb e5 ba b2 f0 e0 3c 6a cd 19 3e
       -0.06741074 -0.0017541618 0.027458522 0.15019765
0003e0 6c 86 19 bd 14 23 b5 3a 16 db c2 bb cc dd 37 bd
       -0.03748171 0.0013819658 -0.0059465272 -0.044889256
0003f0 ed 13 00 be 95 1e 38 be db 76 3b 3d b8 af 93 bd
       -0.12507601 -0.17980416 0.045767646 -0.0721125

enc_xn.mu_gen.bias f4 [3]
000000 18 8d c1 3d 81 1c 6e bc 2d c7 ab 3d
       0.094507396 -0.014533163 0.08387599
