baselines/generative/mCEVAE/result/a_x_1_a_y_1_a_f_0_mmd_0.1_mmd_a_0.5_run_1/model.pth (torch, 37482 bytes, 71 tensors)

weight f4 [5, 5]
0.09525423 -0.054211173 -0.59337294 -0.31532007 0.46003193 -0.018625962 0.16646704 -1.2266632
-0.17717013 0.43652835 0.14329995 0.13604712 0.17565888 0.037234515 -0.57553184 -0.5511932
0.32491428 0.60003227 -0.5960343 -0.38259315 -0.5991052 0.13771147 -1.1713828 1.0502388
0.17923401
00000000: a614 c33d 890c 5ebd 4ae7 17bf a271 a1be
00000010: 4e89 eb3e 7995 98bc 5676 2a3e 4d03 9dbf
00000020: 166c 35be a580 df3e 39bd 123e f04f 0b3e
00000030: ecdf 333e 3883 183d 0e56 13bf ff1a 0dbf
00000040: 2a5b a63e b79b 193f b495 18bf 40e3 c3be
00000050: f55e 19bf 3c04 0d3e dfef 95bf 3a6e 863f
00000060: 1f89 373e

bias f4 [5]
0.14905688 0.2135236 0.20223352 -0.4306301 0.29728043
00000000: 5ea2 183e eea5 5a3e 4e16 4f3e 8c7b dcbe
00000010: 2435 983e

weight f4 [5]
1.28334 0.5431218 0.70723957 0.60531515 0.94009477
00000000: 7c44 a43f 080a 0b3f a70d 353f eff5 1a3f
00000010: 0daa 703f

bias f4 [5]
-0.34628344 -0.44464615 0.35178366 0.28450108 -0.12880164
00000000: 104c b1be a9a8 e3be fd1c b43e 20aa 913e
00000010: 94e4 03be

running_mean f4 [5]
0.5094433 0.37961712 0.26373664 -0.29334095 -1.0425723
00000000: e06a 023f 2d5d c23e 7d08 873e c930 96be
00000010: 0273 85bf

running_var f4 [5]
0.42721534 1.0867893 0.097456306 0.9527057 1.2959137
00000000: f8bb da3e e91b 8b3f 2c97 c73d 85e4 733f
00000010: 80e0 a53f

weight f4 [5, 5]
-0.4945179 0.0968751 0.34611958 -0.055454865 0.4259471 -0.92692757 0.19397119 0.2846796
-0.01467378 -0.19500192 -0.08149353 -0.5196055 0.017843429 0.03724576 -0.03294332 0.0001817954
-1.1307391 -0.09832081 0.10067804 -0.09886287 0.44369924 0.043317482 0.75459254 0.3224431
-0.6045113
00000000: 7331 fdbe 7466 c63d 9636 b13e a424 63bd
00000010: bd15 da3e 204b 6dbf 62a0 463e 86c1 913e
00000020: 4b6a 70bc 95ae 47be 14e6 a6bd de04 05bf
00000030: 622c 923c 038f 183d 93ef 06bd 55a0 3e39
00000040: 0fbc 90bf 6c5c c9bd 4a30 ce3d 9e78 cabd
00000050: 8c2c e33e ac6d 313d fa2c 413f 4317 a53e
00000060: 41c1 1abf

bias f4 [5]
0.28203297 -0.07247337 -0.33231342 0.24482147 0.12633778
00000000: a066 903e eb6c 94bd fc24 aabe 7bb2 7a3e
00000010: b15e 013e

weight f4 [5]
0.83999085 0.9587295 1.1333065 1.268423 0.9364253
00000000: a409 573f 4c6f 753f 3010 913f af5b a23f
00000010: 92b9 6f3f

bias f4 [5]
0.4253344 0.22746734 0.30444652 0.49025792 0.13741194
00000000: 6ec5 d93e 33ed 683e 6ae0 9b3e 1603 fb3e
00000010: b7b5 0c3e

running_mean f4 [5]
0.39360967 -0.31933707 -0.3772185 0.14206219 0.6010671
00000000: 3587 c93e 2680 a3be c922 c1be c078 113e
00000010: 89df 193f

running_var f4 [5]
0.08861215 0.49883723 0.024423793 0.046655934 0.35226762
00000000: 497a b53d 9867 ff3e 6814 c83c 4b1a 3f3d
00000010: 6c5c b43e

weight f4 [7, 5]
0.42611864 -0.46218297 0.004652647 0.26007277 0.02345632 -0.12184666 0.3486625 -0.18390211
-0.0053598643 0.01749653 0.12616263 0.018593693 0.15637095 0.104175664 -0.26676455 0.43584234
-0.5166962 0.1242254 0.4424439 -0.16302165 -0.1817917 -0.12929943 0.7734175 -0.22465017
-0.026028993 0.1436055 -0.8267987 0.7787505 0.07913691 0.12251715 0.39976588 0.44759324
-0.17143054 -0.22532475 -0.22940478
00000000: 392c da3e 3fa3 ecbe 3b75 983b 4228 853e
00000010: 7827 c03c be8a f9bd e483 b23e d650 3cbe
00000020: cda1 afbb e254 8f3c c730 013e cd51 983c
00000030: b51f 203e 0d5a d53d 5d95 88be ba26 df3e
00000040: 3446 04bf e369 fe3d 0288 e23e 26ef 26be
00000050: 9a27 3abe 1267 04be b0fe 453f b20a 66be
00000060: c13a d5bc 520d 133e 14a9 53bf 315c 473f
00000070: 8812 a23d 46ea fa3d 1dae cc3e f12a e53e
00000080: 7d8b 2fbe 88bb 66be 16e9 6abe

bias f4 [7]
0.23230207 0.48667184 0.3236863 0.10283212 0.3323344 0.19380727 0.37073874
00000000: 98e0 6d3e 0d2d f93e 36ba a53e a699 d23d
00000010: bc27 aa3e 6a75 463e 78d1 bd3e

weight f4 [7, 5]
-0.66289926 0.046441395 -0.9978987 -1.002435 -0.6772585 -0.24723294 -1.4856721 -1.1076251
-0.46135804 -0.8043375 -0.43029547 -1.2423034 -0.39687702 -0.33823314 -0.2979727 -0.4691502
-0.1492688 -0.81323785 -0.50345135 -0.16857322 -1.1131396 -0.27284166 -0.090956315 -0.919766
-0.1259948 -0.84712297 -0.20318496 -0.1563526 -0.9519385 -0.30144304 -0.64863545 -0.28003743
-0.43490326 -1.3429221 -0.95311
00000000: c4b3 29bf 5539 3e3d 4a76 7fbf ca4f 80bf
00000010: d060 2dbf a22a 7dbe 812a bebf a9c6 8dbf
00000020: 1f37 ecbe 10e9 4dbf b04f dcbe cc03 9fbf
00000030: 7733 cbbe e52c adbe e18f 98be 7434 f0be
00000040: ecd9 18be 5b30 50bf 30e2 00bf 759e 2cbe
00000050: 5c7b 8ebf e7b1 8bbe 4e47 babd c975 6bbf
00000060: c804 01be 0ddd 58bf b80f 50be e51a 20be
00000070: 3eb2 73bf be56 9abe f90c 26bf 1161 8fbe
00000080: a4ab debe dfe4 abbf 04ff 73bf

bias f4 [7]
-0.82401586 -0.9376888 -1.2282151 -1.3128464 -1.0565912 -1.2901968 -1.0966914
00000000: b4f2 52bf 600c 70bf 2736 9dbf 5a0b a8bf
00000010: 613e 87bf 2b25 a5bf 6260 8cbf

weight f4 [5, 5]
-0.053789224 -0.09729427 -0.3169398 0.09588284 -0.04300277 0.26860732 -0.6832519 -1.0370477
-0.9652553 -0.6541289 -0.13712668 -0.48058367 -0.6903233 -0.5428844 0.6153718 0.68759733
-0.89958465 -0.36475542 0.29789132 0.54438025 -0.3546278 -1.1685032 -0.096425764 -0.3712224
-0.54321355
00000000: 1752 5cbd 3842 c7bd ef45 a2be 395e c43d
00000010: ac23 30bd e686 893e 99e9 2ebf fbbd 84bf
00000020: f91a 77bf fe74 27bf f06a 0cbe 100f f6be
00000030: 07b9 30bf 79fa 0abf 0289 1d3f 6106 303f
00000040: 2e4b 66bf 39c1 babe 3685 983e 815c 0b3f
00000050: c691 b5be 8391 95bf df7a c5bd dd10 bebe
00000060: 0b10 0bbf

bias f4 [5]
-0.22074652 -0.14574137 0.22052056 0.0670773 0.1001847
00000000: 600b 62be 3a3d 15be 24d0 613e d35f 893d
00000010: a32d cd3d

weight f4 [5]
0.9580381 1.0199771 0.67483264 1.1141568 1.0004764
00000000: fc41 753f 9c8e 823f d5c1 2c3f b19c 8e3f
00000010: 9c0f 803f

bias f4 [5]
-0.19236797 -0.29108745 0.11752147 0.15390678 -0.08431848
00000000: 1cfc 44be 6a09 95be 19af f03d bd99 1d3e
00000010: 2baf acbd

running_mean f4 [5]
-0.17222312 -0.8422658 -0.37276945 0.81745183 -0.4854109
00000000: 425b 30be bb9e 57bf a3db bebe 8644 513f
00000010: c787 f8be

running_var f4 [5]
0.17137285 3.159646 1.4259282 1.7062572 1.6366035
00000000: 5d7c 2f3e a437 4a40 d184 b63f a366 da3f
00000010: 397c d13f

weight f4 [5, 5]
0.331644 0.22623818 0.087372184 -0.37027708 -0.8421027 -0.5608232 -0.09986709 0.18449928
-0.08899394 -0.60343415 -0.28677732 -0.6287071 1.0485058 0.20698233 0.22731428 1.3546101
0.55795777 -0.20910348 0.72344285 0.5757658 0.2194888 -0.06564783 -0.15141653 -0.35728407
-0.5389919
00000000: 3ecd a93e fbaa 673e 30f0 b23d f594 bdbe
00000010: 0b94 57bf 1c92 0fbf 1e87 ccbd 61ed 3c3e
00000020: 7442 b6bd a97a 1abf 7ad4 92be f3f2 20bf
00000030: 7035 863f 2df3 533e 13c5 683e dd63 ad3f
00000040: 52d6 0e3f 391f 56be 8d33 393f 6365 133f
00000050: acc1 603e 5f72 86bd ef0c 1bbe f0ed b6be
00000060: 60fb 09bf

bias f4 [5]
-0.5470237 0.019404372 -0.40527537 0.41922292 -0.3767613
00000000: bf09 0cbf ebf5 9e3c 4180 cfbe 63a4 d63e
00000010: dbe6 c0be

weight f4 [5]
1.396003 1.3069643 0.81328034 1.0943439 1.4609461
00000000: 3ab0 b23f 9b4a a73f 2433 503f 7613 8c3f
00000010: 4800 bb3f

bias f4 [5]
0.42414021 0.41404003 0.09155798 0.41769528 0.5582913
00000000: e828 d93e 0efd d33e c082 bb3d 28dc d53e
00000010: 2eec 0e3f

running_mean f4 [5]
-0.856801 -0.37575045 -0.11985231 1.491898 -0.76405317
00000000: 4f57 5bbf 5d62 c0be 2175 f5bd 83f6 be3f
00000010: fd98 43bf

running_var f4 [5]
0.15718311 0.37495956 0.086879395 2.4990354 0.26216957
00000000: 9cf4 203e b3fa bf3e d3ed b13d 32f0 1f40
00000010: 173b 863e

weight f4 [7, 5]
-0.29008102 0.605543 -0.039894458 0.18938367 0.12463774 0.28101054 -0.15577202 0.15019347
0.36546037 0.21602796 -0.6006544 0.48424742 -0.13925561 0.1618026 0.3126279 -0.13230188
-0.25455007 0.36192724 -0.15888734 0.38055858 0.28693515 0.40762156 0.4572577 -0.11923457
-0.3836564 -0.0675307 0.086437054 0.34336895 -0.04590396 0.26329985 0.33074498 -0.22360216
0.26698026 -0.11386893 -0.04009764
00000000: 8085 94be de04 1b3f 5f68 23bd cbed 413e
00000010: 1242 ff3d 9de0 8f3e b382 1fbe 51cc 193e
00000020: 9f1d bb3e 6f36 5d3e 7dc4 19bf 47ef f73e
00000030: 0699 0ebe 95af 253e c410 a03e 257a 07be
00000040: 6354 82be 874e b93e 5db3 22be 93d8 c23e
00000050: 2ae9 923e c6b3 d03e ae1d ea3e 4131 f4bd
00000060: 9d6e c4be 894d 8abd e905 b13d 0ece af3e
00000070: ca05 3cbd 3dcf 863e 6857 a93e f7f7 64be
00000080: a3b1 883e 1d34 e9bd 6c3d 24bd

bias f4 [7]
0.0037655365 -0.09985028 0.27233586 0.39985755 0.17161196 0.10113677 0.38197905
00000000: 38c7 763b 4e7e ccbd 9b6f 8b3e 21ba cc3e
00000010: 0cbb 2f3e cb20 cf3d c292 c33e

weight f4 [7, 5]
-0.5977508 -0.8993677 -0.41888213 -0.42511654 -0.8834267 -1.2780622 -1.2836275 -0.6504716
-1.0999497 -1.3925965 -0.5587761 -0.733212 -0.5891453 -0.21878977 -0.49953228 -0.69262475
0.052205108 -0.46864846 -0.44272563 -0.74023336 -0.58122736 0.08457954 -1.1452007 -0.045148436
-0.78279555 -0.6474036 0.04504538 -1.3145741 -0.797952 -0.45119357 -0.8624574 -0.6543823
-0.8226934 -0.7656211 -0.06080511
00000000: 3206 19bf f63c 66bf b877 d6be e0a8 d9be
00000010: 4128 62bf 8b97 a3bf e84d a4bf 4f85 26bf
00000020: 27cb 8cbf 9a40 b2bf f30b 0fbf c8b3 3bbf
00000030: 3ad2 16bf 6d0a 60be b2c2 ffbe db4f 31bf
00000040: 06d5 553d b1f2 efbe efac e2be ef7f 3dbf
00000050: 51cb 14bf 0a38 ad3d f095 92bf 91ed 38bd
00000060: 4a65 48bf 3ebc 25bf 8181 383d f743 a8bf
00000070: 9546 4cbf d802 e7be 02ca 5cbf 9985 27bf
00000080: 099c 52bf bfff 43bf c70e 79bd

bias f4 [7]
-0.45860282 -0.70675623 -0.70440555 -0.77770054 -0.84991264 -0.8630192 -0.46145815
00000000: fdcd eabe faed 34bf ec53 34bf 6217 47bf
00000010: e093 59bf d4ee 5cbf 3e44 ecbe

weight f4 [8, 8]
0.079076804 -0.10376511 -1.0366544 -0.5034589 0.01439348 -0.20959146 0.004557931 0.12568958
0.044232525 -0.19946502 0.6284828 -0.16771388 0.0051594744 -0.035728764 -0.0076919394 0.0032647778
0.12517402 0.9782376 0.5435328 0.06704066 0.14341801 -0.5677841 -0.2043395 0.006332648
1.00768 0.004175622 -0.042775277 0.03092366 0.02590642 -0.14344662 0.047540803 0.05278382
0.9968979 -0.37076664 -0.65204394 -0.011294957 0.177019 -0.39925808 -0.2695955 0.009907716
-0.05253858 -0.26046106 0.60806954 -0.2869164 -0.074114285 -0.07039755 0.021046981 0.023342425
-0.41202548 0.23249757 0.42748892 -0.46457228 0.11666164 -0.2021875 0.18530488 0.2217052
0.70458114 0.13159108 0.44299462 -0.3293915 0.11701794 -0.58253604 -0.34830442 -0.019288559
00000000: 05f3 a13d cd82 d4bd 17b1 84bf afe2 00bf
00000010: a1d2 6b3c 259f 56be b25a 953b c5b4 003e
00000020: 2a2d 353d 8f40 4cbe 40e4 203f 30bd 2bbe
00000030: cf10 a93b 5358 12bd aa0c fcbb e2f5 553b
00000040: 9e2d 003e c86d 7a3f f724 0b3f 9d4c 893d
00000050: 2cdc 123e 4c5a 11bf 603e 51be 1a82 cf3b
00000060: a9fb 803f a8d3 883b 2135 2fbd 9e53 fd3c
00000070: b339 d43c ace3 12be 25ba 423d d933 583d
00000080: b334 7f3f 20d5 bdbe 5aec 26bf 7c0e 39bc
00000090: 7844 353e 8e6b ccbe 6c08 8abe f953 223c
000000a0: b232 57bd 275b 85be 72aa 1b3f b5e6 92be
000000b0: 3bc9 97bd 972c 90bd b86a ac3c 9d38 bf3c
000000c0: 01f5 d2be d813 6e3e d4df da3e 6bdc edbe
000000d0: 4cec ee3d 3d0a 4fbe 90c0 3d3e b006 633e
000000e0: 6e5f 343f d0bf 063e 31d0 e23e 01a6 a8be
000000f0: 1aa7 ef3d 1521 15bf f554 b2be 0a03 9ebc

bias f4 [8]
-0.12363428 -0.13907681 0.20777649 0.30278125 0.32299027 0.10370287 0.1608195 -0.03266392
00000000: f833 fdbd 276a 0ebe 5cc3 543e 2506 9b3e
00000010: fb5e a53e 2c62 d43d dead 243e 9aca 05bd

weight f4 [8]
1.0769464 1.0825518 1.0935043 1.3308504 0.8069165 0.5410092 0.61758506 0.86095154
00000000: 61d9 893f 0f91 8a3f f3f7 8b3f 4e59 aa3f
00000010: 1492 4e3f 947f 0a3f 0e1a 1e3f 5267 5c3f

bias f4 [8]
-0.08285759 0.017844543 0.06646817 0.30732235 -0.3631197 -0.4974453 0.94657654 0.26780367
00000000: 3db1 a9bd b82e 923c 7720 883d 5b59 9d3e
00000010: d3ea b9be 26b1 febe d752 723f 901d 893e

running_mean f4 [8]
-0.9125265 0.0029743782 0.7336888 0.7941035 0.09465616 0.07104751 0.20765696 0.04825932
00000000: 569b 69bf c9ed 423b 07d3 3b3f 5e4a 4b3f
00000010: 17db c13d 5b81 913d 07a4 543e 91ab 453d

running_var f4 [8]
0.16188492 0.053904913 0.19563542 0.2569112 0.35041806 0.0627547 0.1084585 0.2091352
00000000: 29c5 253e 66cb 5c3d a754 483e dd89 833e
00000010: ff69 b33e 8985 803d 7d1f de3d 8a27 563e

weight f4 [5, 8]
0.3676871 0.6973499 0.413227 -0.5251361 -0.6541122 -0.20533869 -0.2627887 0.12381715
-0.4234712 -0.52118486 -0.29301697 0.24351774 -0.52386343 0.36654103 0.294175 0.49460304
-0.2763272 0.028376024 -0.038676128 -0.08530467 0.09581956 -0.45540336 0.43563893 -0.21790977
0.13764018 0.56333214 0.11421098 0.12251422 -0.5190956 -0.56599474 -0.23846938 0.12369299
-0.035227634 0.14170828 -0.07831965 -0.8020611 -0.0071002673 -0.12773776 -0.15629964 0.15913655
00000000: 7c41 bc3e 8685 323f 7d92 d33e 526f 06bf
00000010: e673 27bf 4e44 52be 3e8c 86be d993 fd3d
00000020: 38d1 d8be 5f6c 05bf 5206 96be b75c 793e
00000030: ea1b 06bf 44ab bb3e 1b9e 963e 9c3c fd3e
00000040: c27a 8dbe d674 e83c dc6a 1ebd 37b4 aebd
00000050: 0c3d c43d a12a e9be 110c df3e bd23 5fbe
00000060: 8cf1 0c3e 8936 103f 72e7 e93d bce8 fa3d
00000070: 73e3 04bf 08e5 10bf 5131 74be c052 fd3d
00000080: da4a 10bd fa1b 113e 0d66 a0bd e053 4dbf
00000090: 5ca9 e8bb b0cd 02be 030d 20be b1f4 223e

bias f4 [5]
-0.19768444 0.24070203 -0.023424244 -0.26527902 -0.10479659
00000000: ca6d 4abe 987a 763e 33e4 bfbc a7d2 87be
00000010: 989f d6bd

weight f4 [5]
0.9331117 1.2248555 1.1749156 0.9489248 1.4468116
00000000: 69e0 6e3f 11c8 9c3f a263 963f bcec 723f
00000010: 1f31 b93f

bias f4 [5]
0.3948788 0.13337572 -0.004881843 -0.122429505 0.3619043
00000000: 8e2d ca3e a593 083e def7 9fbb 52bc fabd
00000010: 854b b93e

running_mean f4 [5]
-0.39572307 0.45266637 0.11532195 -0.16070098 -0.8223356
00000000: 379c cabe e3c3 e73e ea2d ec3d cc8e 24be
00000010: 9684 52bf

running_var f4 [5]
0.4441497 0.18748099 0.16258878 0.14984375 0.31007418
00000000: 9767 e33e 04fb 3f3e ac7d 263e a470 193e
00000010: 0bc2 9e3e

weight f4 [5, 5]
0.25963503 -0.095609635 -0.92746454 0.10415392 -0.7259619 0.4594558 -0.019529086 -0.23691177
-0.6190969 0.64401627 -0.9731179 0.2634641 -0.2481327 -0.011677221 -0.83466506 -0.0820686
-0.2832833 0.4710436 0.44647226 -0.67492455 -1.0786949 0.623426 0.65293485 -0.1370501
0.45473638
00000000: e2ee 843e fcce c3bd 516e 6dbf a74e d53d
00000010: a4d8 39bf ca3d eb3e 76fb 9fbc 0099 72be
00000020: 227d 1ebf 40de 243f 411e 79bf c4e4 863e
00000030: 8016 7ebe d151 3fbc 9cac 55bf 9513 a8bd
00000040: 820a 91be a02c f13e 0398 e43e dbc7 2cbf
00000050: ad12 8abf d998 1f3f bd26 273f dd56 0cbe
00000060: 35d3 e83e

bias f4 [5]
0.5308259 0.11819108 0.31799322 0.37831312 0.048959944
00000000: 35e4 073f 2a0e f23d 02d0 a23e 42b2 c13e
00000010: 398a 483d

weight f4 [3, 5]
-0.15397403 -0.60103714 0.16267736 -1.1266971 0.7973834 -0.57571733 -0.5171146 0.5329836
-0.5416901 0.8323674 0.52941597 -0.7209799 0.8783468 -0.113241374 -0.32877794
00000000: 5eab 1dbe 92dd 19bf e594 263e 9c37 90bf
00000010: 5221 4c3f 3662 13bf 9f61 04bf 9d71 083f
00000020: 34ac 0abf 0816 553f ce87 073f 2492 38bf
00000030: 56db 603f 18eb e7bd 9555 a8be

bias f4 [3]
0.03635331 -0.112599686 0.4178722
00000000: 35e7 143d aa9a e6bd 58f3 d53e

weight f4 [5, 5]
-0.51572376 -0.25758332 -0.29320398 0.79432976 0.07872708 0.22740947 -0.015965959 0.20269114
-0.111831985 -0.88415223 0.5364203 0.51379573 -0.5533697 0.81531215 0.003332399 -0.73178416
-0.48217076 -0.024090167 -0.29458252 0.09118447 -0.17933859 -0.22754207 0.5854017 0.47891057
0.092368394
00000000: 7906 04bf f6e1 83be d51e 96be 3259 4b3f
00000010: aa3b a13d 07de 683e 0bcb 82bc 448e 4f3e
00000020: 2b08 e5bd cd57 62bf d752 093f 1e88 033f
00000030: a3a9 0dbf 4cb8 503f 6164 5a3b 3556 3bbf
00000040: 16df f6be be58 c5bc 85d3 96be ecbe ba3d
00000050: 89a4 37be ca00 69be e3dc 153f c433 f53e
00000060: a42b bd3d

bias f4 [5]
0.16483787 -0.32802162 0.1812739 -0.24266557 0.07111444
00000000: 42cb 283e 73f2 a7be de9f 393e 537d 78be
00000010: 73a4 913d

weight f4 [1, 5]
-0.23065937 -0.51891977 1.1437465 -0.19725159 0.9154896
00000000: f831 6cbe edd7 04bf 4966 923f 52fc 49be
00000010: 875d 6a3f

weight f4 [4, 5]
-0.42687467 0.17486942 0.36247638 -0.7829195 0.40735376 -0.52155244 0.031992838 0.8267321
0.2738832 -0.65996647 0.11124693 0.20924756 0.16850774 -0.2985983 0.17164002 -0.37559086
0.14916973 0.72143054 0.68674076 0.4334608
00000000: 518f dabe f810 333e 8196 b93e 6a6d 48bf
00000010: ac90 d03e 7684 05bf ec0a 033d b7a4 533f
00000020: 6b3a 8c3e 90f3 28bf 6ed5 e33d fe44 563e
00000030: 4b8d 2c3e e0e1 98be 67c2 2f3e 724d c0be
00000040: f3bf 183e acaf 383f 3ece 2f3f 93ee dd3e

bias f4 [4]
-0.10238055 -0.28216738 0.11643429 -0.33438516
00000000: e5ac d1bd 3e78 90be 1a75 ee3d 8834 abbe

weight f4 [5, 5]
0.29889786 -0.18041065 0.29792783 0.5081412 -0.76559734 -0.28871432 0.04091264 0.1917417
0.044700775 0.22971922 0.24462724 -0.13117974 -0.9854918 -0.26637018 -0.7323558 0.43618917
0.12354211 -0.42603123 -0.10642682 0.19235772 0.870336 -1.018116 -0.13065188 0.4593764
0.48683962
00000000: 2409 993e 92bd 38be ff89 983e 8b15 023f
00000010: 30fe 43bf 5dd2 93be 0394 273d f057 443e
00000020: 2918 373d 843b 6b3e 907f 7a3e fb53 06be
00000030: 3149 7cbf ac61 88be ab7b 3bbf 3054 df3e
00000040: a503 fd3d c420 dabe 4ef6 d9bd 6cf9 443e
00000050: 57ce 5e3f a051 82bf 9bc9 05be 6233 eb3e
00000060: 0b43 f93e

bias f4 [5]
-0.30229148 0.5645245 0.5217341 -0.19043659 -0.24966744
00000000: f3c5 9abe ad84 103f 5e90 053f cf01 43be
00000010: d2a8 7fbe

weight f4 [1, 5]
0.044975277 0.7658401 1.0127378 0.19900389 0.12739429
00000000: ff37 383d 190e 443f 64a1 813f adc7 4b3e
00000010: a673 023e

weight f4 [1, 5]
-0.13731292 -0.06017289 0.34905595 -0.62742114 -0.28120726
00000000: c29b 0cbe d977 76bd 76b7 b23e ac9e 20bf
00000010: 66fa 8fbe

weight f4 [8, 8]
-0.034380607 -0.09988412 -0.23805942 -0.21626176 0.284405 0.29195744 0.3504152 -0.029235909
-0.07007508 -0.03384346 -0.89268625 -0.16990496 0.124095194 -0.091720894 0.039351176 -0.016095586
0.061125003 0.18886948 -0.12217165 0.66555774 -0.60754573 0.5813484 -0.009965076 -0.26853475
0.15088446 -0.744069 0.69692147 -0.12975436 0.07107281 0.016147103 0.042938173 -0.095699005
0.013651748 0.56017125 0.60236484 -0.30803996 0.058876723 -0.1510255 -0.08923099 -0.10612394
-0.096117035 0.32492262 0.01525281 -0.22917439 0.11641682 0.3400662 0.40682766 0.20464092
0.6375556 0.14719681 -0.32873672 -0.07326499 -0.088461824 -0.1640971 0.067280024 -0.20305645
-0.68666244 -0.19559972 0.32089475 -0.22492611 0.08891228 0.25022757 0.019197775 0.19889252
00000000: aed2 0cbd 0c90 ccbd d9c5 73be b973 5dbe
00000010: 889d 913e 727b 953e 9f69 b33e 2580 efbc
00000020: 8683 8fbd 719f 0abd 1687 64bf 91fb 2dbe
00000030: 9f25 fe3d 2ad8 bbbd b32e 213d e4da 83bc
00000040: 365e 7a3d 0067 413e 2135 fabd fe61 2a3f
00000050: 1e88 1bbf 40d3 143f 8f44 23bc 637d 89be
00000060: 7581 1a3e 4e7b 3ebf 7269 323f 54de 04be
00000070: 9f8e 913d ee46 843c f0df 2f3d d7fd c3bd
00000080: 95ab 5f3c 6267 0f3f 9534 1a3f 6ab7 9dbe
00000090: b828 713d 6ea6 1abe bdbe b6bd 8257 d9bd
000000a0: 02d9 c4bd 425c a63e ece6 793c b1ac 6abe
000000b0: f16b ee3d 281d ae3e b74b d03e 648d 513e
000000c0: d836 233f c3ba 163e 2e50 a8be f40b 96bd
000000d0: 792b b5bd 1209 28be 1cca 893d 08ee 4fbe
000000e0: 1cc9 2fbf 4b4b 48be 514c a43e 0853 66be
000000f0: a417 b63d d41d 803e a744 9d3c 7baa 4b3e

bias f4 [8]
0.0669217 -0.025526818 -0.12689969 0.28321594 0.03274682 0.20380236 0.36112306 -0.0807366
00000000: 3f0e 893d 9e1d d1bc fef1 01be ae01 913e
00000010: 8821 063d 91b1 503e 1fe5 b83e 3b59 a5bd

weight f4 [8]
0.3258125 1.797578 1.5731862 1.7192514 1.6964 0.3023778 1.4698119 1.4687327
00000000: e5d0 a63e 0917 e63f 2a5e c93f 6e10 dc3f
00000010: a323 d93f 43d1 9a3e cc22 bc3f 6fff bb3f

bias f4 [8]
0.906915 -0.017929217 0.022946315 0.027970463 -0.24692465 0.7925417 0.2576926 0.35611993
00000000: 952b 683f 4be0 92bc e9f9 bb3c 5022 e53c
00000010: d1d9 7cbe 03e4 4a3f 49f0 833e 5a55 b63e

running_mean f4 [8]
0.20621258 -0.5710618 0.09937334 0.307431 0.31321853 0.71304166 0.36364228 -0.19729467
00000000: 6429 533e 1b31 12bf 4084 cb3d 9967 9d3e
00000010: 2e5e a03e e689 363f 522f ba3e 9d07 4abe

running_var f4 [8]
0.0412815 0.09806194 0.14085603 0.13617149 0.091616504 0.063726984 0.12632641 0.15265538
00000000: ca16 293d b3d4 c83d 903c 103e 8a70 0b3e
00000010: 6fa1 bb3d 4b83 823d b65b 013e b151 1c3e

weight f4 [1, 8]
1.2030262 -1.616775 -0.5014137 -1.6931537 -1.6643405 0.7074185 0.84881544 0.412815
00000000: c3fc 993f 7cf2 cebf a65c 00bf 43b9 d8bf
00000010: 1c09 d5bf 6119 353f f84b 593f 7d5c d33e

weight f4 [7, 7]
-0.1674296 -0.30655047 0.5794763 -0.5236233 -0.34840906 -0.21147467 -0.19408873 -0.39385387
0.13679782 0.056942653 0.1693539 0.037843682 0.5829063 0.3698233 0.608035 0.3229879
-0.18432373 0.2584687 0.25040603 0.35452566 -0.7861502 0.54050505 0.5310976 -0.32346213
-0.078082584 0.3853756 -0.35207534 -0.07454686 0.39840105 -0.47289047 -0.10391086 0.061793774
0.15631852 0.26807198 0.23750325 0.6435847 0.41507673 0.28264213 0.15264367 0.1846234
0.060685765 0.28264597 -0.44137293 0.25301746 0.42409623 -0.5196717 -0.51866347 0.03203157
-0.24326976
00000000: aa72 2bbe 2ff4 9cbe 8f58 143f 2d0c 06bf
00000010: ac62 b2be d18c 58be 32bf 46be 37a7 c9be
00000020: ba14 0c3e b33c 693d 1c6b 2d3e fa01 1b3d
00000030: 5939 153f 7b59 bd3e 2fa8 1b3f ac5e a53e
00000040: 5cbf 3cbe 0256 843e 3835 803e 6384 b53e
00000050: 2441 49bf 8a5e 0a3f 03f6 073f d49c a5be
00000060: c3e9 9fbd f34f c53e 3843 b4be 06ac 98bd
00000070: 39fb cb3e b31e f2be 38cf d4bd 781b 7d3d
00000080: f611 203e bb40 893e 0d34 733e f8c1 243f
00000090: f084 d43e 78b6 903e 9f4e 1c3e eb0d 3d3e
000000a0: a391 783d f9b6 903e a2fb e1be 818b 813e
000000b0: 2423 d93e 3409 05bf 21c7 04bf 8933 033d
000000c0: b51b 79be

bias f4 [7]
-0.35636988 0.11607579 -0.15748343 -0.16758102 -0.29219177 0.17681877 -0.24085675
00000000: 1d76 b6be 25b9 ed3d 5643 21be 5c9a 2bbe
00000010: 299a 95be fb0f 353e 27a3 76be

weight f4 [7]
1.0 1.0 1.0 1.0 1.0 1.0 1.0
00000000: 0000 803f 0000 803f 0000 803f 0000 803f
00000010: 0000 803f 0000 803f 0000 803f

bias f4 [7]
0.0 0.0 0.0 0.0 0.0 0.0 0.0
00000000: 0000 0000 0000 0000 0000 0000 0000 0000
00000010: 0000 0000 0000 0000 0000 0000

running_mean f4 [7]
-0.91511905 0.5773091 0.22419652 0.13465008 -0.044561964 1.1428149 -0.71531063
00000000: 3e45 6abf 87ca 133f c693 653e b6e1 093e
00000010: 9b86 36bd c247 923f 991e 37bf

running_var f4 [7]
0.10646505 0.06788089 0.15368213 0.102718376 0.06699069 0.10997344 0.11863447
00000000: 590a da3d 2305 8b3d d95e 1d3e 035e d23d
00000010: 6a32 893d c139 e13d a1f6 f23d

weight f4 [1, 7]
0.49820858 0.3043948 0.40361884 -0.33808377 -0.2736316 0.26936507 0.2750792
00000000: 3215 ff3e a3d9 9b3e 21a7 ce3e 5119 adbe
00000010: 7119 8cbe 38ea 893e 2ed7 8c3e
